{"class_name": "Model", "backend": "tensorflow", "config": {"name": "model_5", "layers": [{"class_name": "InputLayer", "name": "image_input", "config": {"sparse": false, "name": "image_input", "batch_input_shape": [null, 256, 256, 3], "dtype": "float32"}, "inbound_nodes": []}, {"class_name": "Model", "name": "densenet121", "config": {"name": "densenet121", "layers": [{"class_name": "InputLayer", "name": "input_3", "config": {"sparse": false, "name": "input_3", "batch_input_shape": [null, 256, 256, 3], "dtype": "float32"}, "inbound_nodes": []}, {"class_name": "ZeroPadding2D", "name": "zero_padding2d_5", "config": {"trainable": true, "name": "zero_padding2d_5", "padding": [[3, 3], [3, 3]], "data_format": "channels_last"}, "inbound_nodes": [[["input_3", 0, 0, {}]]]}, {"class_name": "Conv2D", "name": "conv1/conv", "config": {"trainable": true, "padding": "valid", "filters": 64, "use_bias": false, "kernel_regularizer": null, "bias_constraint": null, "strides": [2, 2], "activity_regularizer": null, "bias_regularizer": null, "bias_initializer": {"class_name": "Zeros", "config": {}}, "dilation_rate": [1, 1], "name": "conv1/conv", "activation": "linear", "data_format": "channels_last", "kernel_constraint": null, "kernel_initializer": {"class_name": "VarianceScaling", "config": {"seed": null, "scale": 1.0, "distribution": "uniform", "mode": "fan_avg"}}, "kernel_size": [7, 7]}, "inbound_nodes": [[["zero_padding2d_5", 0, 0, {}]]]}, {"class_name": "BatchNormalization", "name": "conv1/bn", "config": {"trainable": true, "gamma_regularizer": null, "scale": true, "gamma_initializer": {"class_name": "Ones", "config": {}}, "beta_regularizer": null, "momentum": 0.99, "center": true, "gamma_constraint": null, "moving_mean_initializer": {"class_name": "Zeros", "config": {}}, "moving_variance_initializer": {"class_name": "Ones", "config": {}}, "axis": 3, "beta_initializer": {"class_name": "Zeros", "config": {}}, "epsilon": 1.001e-05, "name": "conv1/bn", "beta_constraint": null}, "inbound_nodes": [[["conv1/conv", 0, 0, {}]]]}, {"class_name": "Activation", "name": "conv1/relu", "config": {"trainable": true, "name": "conv1/relu", "activation": "relu"}, "inbound_nodes": [[["conv1/bn", 0, 0, {}]]]}, {"class_name": "ZeroPadding2D", "name": "zero_padding2d_6", "config": {"trainable": true, "name": "zero_padding2d_6", "padding": [[1, 1], [1, 1]], "data_format": "channels_last"}, "inbound_nodes": [[["conv1/relu", 0, 0, {}]]]}, {"class_name": "MaxPooling2D", "name": "pool1", "config": {"trainable": true, "padding": "valid", "pool_size": [3, 3], "name": "pool1", "data_format": "channels_last", "strides": [2, 2]}, "inbound_nodes": [[["zero_padding2d_6", 0, 0, {}]]]}, {"class_name": "BatchNormalization", "name": "conv2_block1_0_bn", "config": {"trainable": true, "gamma_regularizer": null, "scale": true, "gamma_initializer": {"class_name": "Ones", "config": {}}, "beta_regularizer": null, "momentum": 0.99, "center": true, "gamma_constraint": null, "moving_mean_initializer": {"class_name": "Zeros", "config": {}}, "moving_variance_initializer": {"class_name": "Ones", "config": {}}, "axis": 3, "beta_initializer": {"class_name": "Zeros", "config": {}}, "epsilon": 1.001e-05, "name": "conv2_block1_0_bn", "beta_constraint": null}, "inbound_nodes": [[["pool1", 0, 0, {}]]]}, {"class_name": "Activation", "name": "conv2_block1_0_relu", "config": {"trainable": true, "name": "conv2_block1_0_relu", "activation": "relu"}, "inbound_nodes": [[["conv2_block1_0_bn", 0, 0, {}]]]}, {"class_name": "Conv2D", "name": "conv2_block1_1_conv", "config": {"trainable": true, "padding": "valid", "filters": 128, "use_bias": false, "kernel_regularizer": null, "bias_constraint": null, "strides": [1, 1], "activity_regularizer": null, "bias_regularizer": null, "bias_initializer": {"class_name": "Zeros", "config": {}}, "dilation_rate": [1, 1], "name": "conv2_block1_1_conv", "activation": "linear", "data_format": "channels_last", "kernel_constraint": null, "kernel_initializer": {"class_name": "VarianceScaling", "config": {"seed": null, "scale": 1.0, "distribution": "uniform", "mode": "fan_avg"}}, "kernel_size": [1, 1]}, "inbound_nodes": [[["conv2_block1_0_relu", 0, 0, {}]]]}, {"class_name": "BatchNormalization", "name": "conv2_block1_1_bn", "config": {"trainable": true, "gamma_regularizer": null, "scale": true, "gamma_initializer": {"class_name": "Ones", "config": {}}, "beta_regularizer": null, "momentum": 0.99, "center": true, "gamma_constraint": null, "moving_mean_initializer": {"class_name": "Zeros", "config": {}}, "moving_variance_initializer": {"class_name": "Ones", "config": {}}, "axis": 3, "beta_initializer": {"class_name": "Zeros", "config": {}}, "epsilon": 1.001e-05, "name": "conv2_block1_1_bn", "beta_constraint": null}, "inbound_nodes": [[["conv2_block1_1_conv", 0, 0, {}]]]}, {"class_name": "Activation", "name": "conv2_block1_1_relu", "config": {"trainable": true, "name": "conv2_block1_1_relu", "activation": "relu"}, "inbound_nodes": [[["conv2_block1_1_bn", 0, 0, {}]]]}, {"class_name": "Conv2D", "name": "conv2_block1_2_conv", "config": {"trainable": true, "padding": "same", "filters": 32, "use_bias": false, "kernel_regularizer": null, "bias_constraint": null, "strides": [1, 1], "activity_regularizer": null, "bias_regularizer": null, "bias_initializer": {"class_name": "Zeros", "config": {}}, "dilation_rate": [1, 1], "name": "conv2_block1_2_conv", "activation": "linear", "data_format": "channels_last", "kernel_constraint": null, "kernel_initializer": {"class_name": "VarianceScaling", "config": {"seed": null, "scale": 1.0, "distribution": "uniform", "mode": "fan_avg"}}, "kernel_size": [3, 3]}, "inbound_nodes": [[["conv2_block1_1_relu", 0, 0, {}]]]}, {"class_name": "Concatenate", "name": "conv2_block1_concat", "config": {"trainable": true, "name": "conv2_block1_concat", "axis": 3}, "inbound_nodes": [[["pool1", 0, 0, {}], ["conv2_block1_2_conv", 0, 0, {}]]]}, {"class_name": "BatchNormalization", "name": "conv2_block2_0_bn", "config": {"trainable": true, "gamma_regularizer": null, "scale": true, "gamma_initializer": {"class_name": "Ones", "config": {}}, "beta_regularizer": null, "momentum": 0.99, "center": true, "gamma_constraint": null, "moving_mean_initializer": {"class_name": "Zeros", "config": {}}, "moving_variance_initializer": {"class_name": "Ones", "config": {}}, "axis": 3, "beta_initializer": {"class_name": "Zeros", "config": {}}, "epsilon": 1.001e-05, "name": "conv2_block2_0_bn", "beta_constraint": null}, "inbound_nodes": [[["conv2_block1_concat", 0, 0, {}]]]}, {"class_name": "Activation", "name": "conv2_block2_0_relu", "config": {"trainable": true, "name": "conv2_block2_0_relu", "activation": "relu"}, "inbound_nodes": [[["conv2_block2_0_bn", 0, 0, {}]]]}, {"class_name": "Conv2D", "name": "conv2_block2_1_conv", "config": {"trainable": true, "padding": "valid", "filters": 128, "use_bias": false, "kernel_regularizer": null, "bias_constraint": null, "strides": [1, 1], "activity_regularizer": null, "bias_regularizer": null, "bias_initializer": {"class_name": "Zeros", "config": {}}, "dilation_rate": [1, 1], "name": "conv2_block2_1_conv", "activation": "linear", "data_format": "channels_last", "kernel_constraint": null, "kernel_initializer": {"class_name": "VarianceScaling", "config": {"seed": null, "scale": 1.0, "distribution": "uniform", "mode": "fan_avg"}}, "kernel_size": [1, 1]}, "inbound_nodes": [[["conv2_block2_0_relu", 0, 0, {}]]]}, {"class_name": "BatchNormalization", "name": "conv2_block2_1_bn", "config": {"trainable": true, "gamma_regularizer": null, "scale": true, "gamma_initializer": {"class_name": "Ones", "config": {}}, "beta_regularizer": null, "momentum": 0.99, "center": true, "gamma_constraint": null, "moving_mean_initializer": {"class_name": "Zeros", "config": {}}, "moving_variance_initializer": {"class_name": "Ones", "config": {}}, "axis": 3, "beta_initializer": {"class_name": "Zeros", "config": {}}, "epsilon": 1.001e-05, "name": "conv2_block2_1_bn", "beta_constraint": null}, "inbound_nodes": [[["conv2_block2_1_conv", 0, 0, {}]]]}, {"class_name": "Activation", "name": "conv2_block2_1_relu", "config": {"trainable": true, "name": "conv2_block2_1_relu", "activation": "relu"}, "inbound_nodes": [[["conv2_block2_1_bn", 0, 0, {}]]]}, {"class_name": "Conv2D", "name": "conv2_block2_2_conv", "config": {"trainable": true, "padding": "same", "filters": 32, "use_bias": false, "kernel_regularizer": null, "bias_constraint": null, "strides": [1, 1], "activity_regularizer": null, "bias_regularizer": null, "bias_initializer": {"class_name": "Zeros", "config": {}}, "dilation_rate": [1, 1], "name": "conv2_block2_2_conv", "activation": "linear", "data_format": "channels_last", "kernel_constraint": null, "kernel_initializer": {"class_name": "VarianceScaling", "config": {"seed": null, "scale": 1.0, "distribution": "uniform", "mode": "fan_avg"}}, "kernel_size": [3, 3]}, "inbound_nodes": [[["conv2_block2_1_relu", 0, 0, {}]]]}, {"class_name": "Concatenate", "name": "conv2_block2_concat", "config": {"trainable": true, "name": "conv2_block2_concat", "axis": 3}, "inbound_nodes": [[["conv2_block1_concat", 0, 0, {}], ["conv2_block2_2_conv", 0, 0, {}]]]}, {"class_name": "BatchNormalization", "name": "conv2_block3_0_bn", "config": {"trainable": true, "gamma_regularizer": null, "scale": true, "gamma_initializer": {"class_name": "Ones", "config": {}}, "beta_regularizer": null, "momentum": 0.99, "center": true, "gamma_constraint": null, "moving_mean_initializer": {"class_name": "Zeros", "config": {}}, "moving_variance_initializer": {"class_name": "Ones", "config": {}}, "axis": 3, "beta_initializer": {"class_name": "Zeros", "config": {}}, "epsilon": 1.001e-05, "name": "conv2_block3_0_bn", "beta_constraint": null}, "inbound_nodes": [[["conv2_block2_concat", 0, 0, {}]]]}, {"class_name": "Activation", "name": "conv2_block3_0_relu", "config": {"trainable": true, "name": "conv2_block3_0_relu", "activation": "relu"}, "inbound_nodes": [[["conv2_block3_0_bn", 0, 0, {}]]]}, {"class_name": "Conv2D", "name": "conv2_block3_1_conv", "config": {"trainable": true, "padding": "valid", "filters": 128, "use_bias": false, "kernel_regularizer": null, "bias_constraint": null, "strides": [1, 1], "activity_regularizer": null, "bias_regularizer": null, "bias_initializer": {"class_name": "Zeros", "config": {}}, "dilation_rate": [1, 1], "name": "conv2_block3_1_conv", "activation": "linear", "data_format": "channels_last", "kernel_constraint": null, "kernel_initializer": {"class_name": "VarianceScaling", "config": {"seed": null, "scale": 1.0, "distribution": "uniform", "mode": "fan_avg"}}, "kernel_size": [1, 1]}, "inbound_nodes": [[["conv2_block3_0_relu", 0, 0, {}]]]}, {"class_name": "BatchNormalization", "name": "conv2_block3_1_bn", "config": {"trainable": true, "gamma_regularizer": null, "scale": true, "gamma_initializer": {"class_name": "Ones", "config": {}}, "beta_regularizer": null, "momentum": 0.99, "center": true, "gamma_constraint": null, "moving_mean_initializer": {"class_name": "Zeros", "config": {}}, "moving_variance_initializer": {"class_name": "Ones", "config": {}}, "axis": 3, "beta_initializer": {"class_name": "Zeros", "config": {}}, "epsilon": 1.001e-05, "name": "conv2_block3_1_bn", "beta_constraint": null}, "inbound_nodes": [[["conv2_block3_1_conv", 0, 0, {}]]]}, {"class_name": "Activation", "name": "conv2_block3_1_relu", "config": {"trainable": true, "name": "conv2_block3_1_relu", "activation": "relu"}, "inbound_nodes": [[["conv2_block3_1_bn", 0, 0, {}]]]}, {"class_name": "Conv2D", "name": "conv2_block3_2_conv", "config": {"trainable": true, "padding": "same", "filters": 32, "use_bias": false, "kernel_regularizer": null, "bias_constraint": null, "strides": [1, 1], "activity_regularizer": null, "bias_regularizer": null, "bias_initializer": {"class_name": "Zeros", "config": {}}, "dilation_rate": [1, 1], "name": "conv2_block3_2_conv", "activation": "linear", "data_format": "channels_last", "kernel_constraint": null, "kernel_initializer": {"class_name": "VarianceScaling", "config": {"seed": null, "scale": 1.0, "distribution": "uniform", "mode": "fan_avg"}}, "kernel_size": [3, 3]}, "inbound_nodes": [[["conv2_block3_1_relu", 0, 0, {}]]]}, {"class_name": "Concatenate", "name": "conv2_block3_concat", "config": {"trainable": true, "name": "conv2_block3_concat", "axis": 3}, "inbound_nodes": [[["conv2_block2_concat", 0, 0, {}], ["conv2_block3_2_conv", 0, 0, {}]]]}, {"class_name": "BatchNormalization", "name": "conv2_block4_0_bn", "config": {"trainable": true, "gamma_regularizer": null, "scale": true, "gamma_initializer": {"class_name": "Ones", "config": {}}, "beta_regularizer": null, "momentum": 0.99, "center": true, "gamma_constraint": null, "moving_mean_initializer": {"class_name": "Zeros", "config": {}}, "moving_variance_initializer": {"class_name": "Ones", "config": {}}, "axis": 3, "beta_initializer": {"class_name": "Zeros", "config": {}}, "epsilon": 1.001e-05, "name": "conv2_block4_0_bn", "beta_constraint": null}, "inbound_nodes": [[["conv2_block3_concat", 0, 0, {}]]]}, {"class_name": "Activation", "name": "conv2_block4_0_relu", "config": {"trainable": true, "name": "conv2_block4_0_relu", "activation": "relu"}, "inbound_nodes": [[["conv2_block4_0_bn", 0, 0, {}]]]}, {"class_name": "Conv2D", "name": "conv2_block4_1_conv", "config": {"trainable": true, "padding": "valid", "filters": 128, "use_bias": false, "kernel_regularizer": null, "bias_constraint": null, "strides": [1, 1], "activity_regularizer": null, "bias_regularizer": null, "bias_initializer": {"class_name": "Zeros", "config": {}}, "dilation_rate": [1, 1], "name": "conv2_block4_1_conv", "activation": "linear", "data_format": "channels_last", "kernel_constraint": null, "kernel_initializer": {"class_name": "VarianceScaling", "config": {"seed": null, "scale": 1.0, "distribution": "uniform", "mode": "fan_avg"}}, "kernel_size": [1, 1]}, "inbound_nodes": [[["conv2_block4_0_relu", 0, 0, {}]]]}, {"class_name": "BatchNormalization", "name": "conv2_block4_1_bn", "config": {"trainable": true, "gamma_regularizer": null, "scale": true, "gamma_initializer": {"class_name": "Ones", "config": {}}, "beta_regularizer": null, "momentum": 0.99, "center": true, "gamma_constraint": null, "moving_mean_initializer": {"class_name": "Zeros", "config": {}}, "moving_variance_initializer": {"class_name": "Ones", "config": {}}, "axis": 3, "beta_initializer": {"class_name": "Zeros", "config": {}}, "epsilon": 1.001e-05, "name": "conv2_block4_1_bn", "beta_constraint": null}, "inbound_nodes": [[["conv2_block4_1_conv", 0, 0, {}]]]}, {"class_name": "Activation", "name": "conv2_block4_1_relu", "config": {"trainable": true, "name": "conv2_block4_1_relu", "activation": "relu"}, "inbound_nodes": [[["conv2_block4_1_bn", 0, 0, {}]]]}, {"class_name": "Conv2D", "name": "conv2_block4_2_conv", "config": {"trainable": true, "padding": "same", "filters": 32, "use_bias": false, "kernel_regularizer": null, "bias_constraint": null, "strides": [1, 1], "activity_regularizer": null, "bias_regularizer": null, "bias_initializer": {"class_name": "Zeros", "config": {}}, "dilation_rate": [1, 1], "name": "conv2_block4_2_conv", "activation": "linear", "data_format": "channels_last", "kernel_constraint": null, "kernel_initializer": {"class_name": "VarianceScaling", "config": {"seed": null, "scale": 1.0, "distribution": "uniform", "mode": "fan_avg"}}, "kernel_size": [3, 3]}, "inbound_nodes": [[["conv2_block4_1_relu", 0, 0, {}]]]}, {"class_name": "Concatenate", "name": "conv2_block4_concat", "config": {"trainable": true, "name": "conv2_block4_concat", "axis": 3}, "inbound_nodes": [[["conv2_block3_concat", 0, 0, {}], ["conv2_block4_2_conv", 0, 0, {}]]]}, {"class_name": "BatchNormalization", "name": "conv2_block5_0_bn", "config": {"trainable": true, "gamma_regularizer": null, "scale": true, "gamma_initializer": {"class_name": "Ones", "config": {}}, "beta_regularizer": null, "momentum": 0.99, "center": true, "gamma_constraint": null, "moving_mean_initializer": {"class_name": "Zeros", "config": {}}, "moving_variance_initializer": {"class_name": "Ones", "config": {}}, "axis": 3, "beta_initializer": {"class_name": "Zeros", "config": {}}, "epsilon": 1.001e-05, "name": "conv2_block5_0_bn", "beta_constraint": null}, "inbound_nodes": [[["conv2_block4_concat", 0, 0, {}]]]}, {"class_name": "Activation", "name": "conv2_block5_0_relu", "config": {"trainable": true, "name": "conv2_block5_0_relu", "activation": "relu"}, "inbound_nodes": [[["conv2_block5_0_bn", 0, 0, {}]]]}, {"class_name": "Conv2D", "name": "conv2_block5_1_conv", "config": {"trainable": true, "padding": "valid", "filters": 128, "use_bias": false, "kernel_regularizer": null, "bias_constraint": null, "strides": [1, 1], "activity_regularizer": null, "bias_regularizer": null, "bias_initializer": {"class_name": "Zeros", "config": {}}, "dilation_rate": [1, 1], "name": "conv2_block5_1_conv", "activation": "linear", "data_format": "channels_last", "kernel_constraint": null, "kernel_initializer": {"class_name": "VarianceScaling", "config": {"seed": null, "scale": 1.0, "distribution": "uniform", "mode": "fan_avg"}}, "kernel_size": [1, 1]}, "inbound_nodes": [[["conv2_block5_0_relu", 0, 0, {}]]]}, {"class_name": "BatchNormalization", "name": "conv2_block5_1_bn", "config": {"trainable": true, "gamma_regularizer": null, "scale": true, "gamma_initializer": {"class_name": "Ones", "config": {}}, "beta_regularizer": null, "momentum": 0.99, "center": true, "gamma_constraint": null, "moving_mean_initializer": {"class_name": "Zeros", "config": {}}, "moving_variance_initializer": {"class_name": "Ones", "config": {}}, "axis": 3, "beta_initializer": {"class_name": "Zeros", "config": {}}, "epsilon": 1.001e-05, "name": "conv2_block5_1_bn", "beta_constraint": null}, "inbound_nodes": [[["conv2_block5_1_conv", 0, 0, {}]]]}, {"class_name": "Activation", "name": "conv2_block5_1_relu", "config": {"trainable": true, "name": "conv2_block5_1_relu", "activation": "relu"}, "inbound_nodes": [[["conv2_block5_1_bn", 0, 0, {}]]]}, {"class_name": "Conv2D", "name": "conv2_block5_2_conv", "config": {"trainable": true, "padding": "same", "filters": 32, "use_bias": false, "kernel_regularizer": null, "bias_constraint": null, "strides": [1, 1], "activity_regularizer": null, "bias_regularizer": null, "bias_initializer": {"class_name": "Zeros", "config": {}}, "dilation_rate": [1, 1], "name": "conv2_block5_2_conv", "activation": "linear", "data_format": "channels_last", "kernel_constraint": null, "kernel_initializer": {"class_name": "VarianceScaling", "config": {"seed": null, "scale": 1.0, "distribution": "uniform", "mode": "fan_avg"}}, "kernel_size": [3, 3]}, "inbound_nodes": [[["conv2_block5_1_relu", 0, 0, {}]]]}, {"class_name": "Concatenate", "name": "conv2_block5_concat", "config": {"trainable": true, "name": "conv2_block5_concat", "axis": 3}, "inbound_nodes": [[["conv2_block4_concat", 0, 0, {}], ["conv2_block5_2_conv", 0, 0, {}]]]}, {"class_name": "BatchNormalization", "name": "conv2_block6_0_bn", "config": {"trainable": true, "gamma_regularizer": null, "scale": true, "gamma_initializer": {"class_name": "Ones", "config": {}}, "beta_regularizer": null, "momentum": 0.99, "center": true, "gamma_constraint": null, "moving_mean_initializer": {"class_name": "Zeros", "config": {}}, "moving_variance_initializer": {"class_name": "Ones", "config": {}}, "axis": 3, "beta_initializer": {"class_name": "Zeros", "config": {}}, "epsilon": 1.001e-05, "name": "conv2_block6_0_bn", "beta_constraint": null}, "inbound_nodes": [[["conv2_block5_concat", 0, 0, {}]]]}, {"class_name": "Activation", "name": "conv2_block6_0_relu", "config": {"trainable": true, "name": "conv2_block6_0_relu", "activation": "relu"}, "inbound_nodes": [[["conv2_block6_0_bn", 0, 0, {}]]]}, {"class_name": "Conv2D", "name": "conv2_block6_1_conv", "config": {"trainable": true, "padding": "valid", "filters": 128, "use_bias": false, "kernel_regularizer": null, "bias_constraint": null, "strides": [1, 1], "activity_regularizer": null, "bias_regularizer": null, "bias_initializer": {"class_name": "Zeros", "config": {}}, "dilation_rate": [1, 1], "name": "conv2_block6_1_conv", "activation": "linear", "data_format": "channels_last", "kernel_constraint": null, "kernel_initializer": {"class_name": "VarianceScaling", "config": {"seed": null, "scale": 1.0, "distribution": "uniform", "mode": "fan_avg"}}, "kernel_size": [1, 1]}, "inbound_nodes": [[["conv2_block6_0_relu", 0, 0, {}]]]}, {"class_name": "BatchNormalization", "name": "conv2_block6_1_bn", "config": {"trainable": true, "gamma_regularizer": null, "scale": true, "gamma_initializer": {"class_name": "Ones", "config": {}}, "beta_regularizer": null, "momentum": 0.99, "center": true, "gamma_constraint": null, "moving_mean_initializer": {"class_name": "Zeros", "config": {}}, "moving_variance_initializer": {"class_name": "Ones", "config": {}}, "axis": 3, "beta_initializer": {"class_name": "Zeros", "config": {}}, "epsilon": 1.001e-05, "name": "conv2_block6_1_bn", "beta_constraint": null}, "inbound_nodes": [[["conv2_block6_1_conv", 0, 0, {}]]]}, {"class_name": "Activation", "name": "conv2_block6_1_relu", "config": {"trainable": true, "name": "conv2_block6_1_relu", "activation": "relu"}, "inbound_nodes": [[["conv2_block6_1_bn", 0, 0, {}]]]}, {"class_name": "Conv2D", "name": "conv2_block6_2_conv", "config": {"trainable": true, "padding": "same", "filters": 32, "use_bias": false, "kernel_regularizer": null, "bias_constraint": null, "strides": [1, 1], "activity_regularizer": null, "bias_regularizer": null, "bias_initializer": {"class_name": "Zeros", "config": {}}, "dilation_rate": [1, 1], "name": "conv2_block6_2_conv", "activation": "linear", "data_format": "channels_last", "kernel_constraint": null, "kernel_initializer": {"class_name": "VarianceScaling", "config": {"seed": null, "scale": 1.0, "distribution": "uniform", "mode": "fan_avg"}}, "kernel_size": [3, 3]}, "inbound_nodes": [[["conv2_block6_1_relu", 0, 0, {}]]]}, {"class_name": "Concatenate", "name": "conv2_block6_concat", "config": {"trainable": true, "name": "conv2_block6_concat", "axis": 3}, "inbound_nodes": [[["conv2_block5_concat", 0, 0, {}], ["conv2_block6_2_conv", 0, 0, {}]]]}, {"class_name": "BatchNormalization", "name": "pool2_bn", "config": {"trainable": true, "gamma_regularizer": null, "scale": true, "gamma_initializer": {"class_name": "Ones", "config": {}}, "beta_regularizer": null, "momentum": 0.99, "center": true, "gamma_constraint": null, "moving_mean_initializer": {"class_name": "Zeros", "config": {}}, "moving_variance_initializer": {"class_name": "Ones", "config": {}}, "axis": 3, "beta_initializer": {"class_name": "Zeros", "config": {}}, "epsilon": 1.001e-05, "name": "pool2_bn", "beta_constraint": null}, "inbound_nodes": [[["conv2_block6_concat", 0, 0, {}]]]}, {"class_name": "Activation", "name": "pool2_relu", "config": {"trainable": true, "name": "pool2_relu", "activation": "relu"}, "inbound_nodes": [[["pool2_bn", 0, 0, {}]]]}, {"class_name": "Conv2D", "name": "pool2_conv", "config": {"trainable": true, "padding": "valid", "filters": 128, "use_bias": false, "kernel_regularizer": null, "bias_constraint": null, "strides": [1, 1], "activity_regularizer": null, "bias_regularizer": null, "bias_initializer": {"class_name": "Zeros", "config": {}}, "dilation_rate": [1, 1], "name": "pool2_conv", "activation": "linear", "data_format": "channels_last", "kernel_constraint": null, "kernel_initializer": {"class_name": "VarianceScaling", "config": {"seed": null, "scale": 1.0, "distribution": "uniform", "mode": "fan_avg"}}, "kernel_size": [1, 1]}, "inbound_nodes": [[["pool2_relu", 0, 0, {}]]]}, {"class_name": "AveragePooling2D", "name": "pool2_pool", "config": {"trainable": true, "padding": "valid", "pool_size": [2, 2], "name": "pool2_pool", "data_format": "channels_last", "strides": [2, 2]}, "inbound_nodes": [[["pool2_conv", 0, 0, {}]]]}, {"class_name": "BatchNormalization", "name": "conv3_block1_0_bn", "config": {"trainable": true, "gamma_regularizer": null, "scale": true, "gamma_initializer": {"class_name": "Ones", "config": {}}, "beta_regularizer": null, "momentum": 0.99, "center": true, "gamma_constraint": null, "moving_mean_initializer": {"class_name": "Zeros", "config": {}}, "moving_variance_initializer": {"class_name": "Ones", "config": {}}, "axis": 3, "beta_initializer": {"class_name": "Zeros", "config": {}}, "epsilon": 1.001e-05, "name": "conv3_block1_0_bn", "beta_constraint": null}, "inbound_nodes": [[["pool2_pool", 0, 0, {}]]]}, {"class_name": "Activation", "name": "conv3_block1_0_relu", "config": {"trainable": true, "name": "conv3_block1_0_relu", "activation": "relu"}, "inbound_nodes": [[["conv3_block1_0_bn", 0, 0, {}]]]}, {"class_name": "Conv2D", "name": "conv3_block1_1_conv", "config": {"trainable": true, "padding": "valid", "filters": 128, "use_bias": false, "kernel_regularizer": null, "bias_constraint": null, "strides": [1, 1], "activity_regularizer": null, "bias_regularizer": null, "bias_initializer": {"class_name": "Zeros", "config": {}}, "dilation_rate": [1, 1], "name": "conv3_block1_1_conv", "activation": "linear", "data_format": "channels_last", "kernel_constraint": null, "kernel_initializer": {"class_name": "VarianceScaling", "config": {"seed": null, "scale": 1.0, "distribution": "uniform", "mode": "fan_avg"}}, "kernel_size": [1, 1]}, "inbound_nodes": [[["conv3_block1_0_relu", 0, 0, {}]]]}, {"class_name": "BatchNormalization", "name": "conv3_block1_1_bn", "config": {"trainable": true, "gamma_regularizer": null, "scale": true, "gamma_initializer": {"class_name": "Ones", "config": {}}, "beta_regularizer": null, "momentum": 0.99, "center": true, "gamma_constraint": null, "moving_mean_initializer": {"class_name": "Zeros", "config": {}}, "moving_variance_initializer": {"class_name": "Ones", "config": {}}, "axis": 3, "beta_initializer": {"class_name": "Zeros", "config": {}}, "epsilon": 1.001e-05, "name": "conv3_block1_1_bn", "beta_constraint": null}, "inbound_nodes": [[["conv3_block1_1_conv", 0, 0, {}]]]}, {"class_name": "Activation", "name": "conv3_block1_1_relu", "config": {"trainable": true, "name": "conv3_block1_1_relu", "activation": "relu"}, "inbound_nodes": [[["conv3_block1_1_bn", 0, 0, {}]]]}, {"class_name": "Conv2D", "name": "conv3_block1_2_conv", "config": {"trainable": true, "padding": "same", "filters": 32, "use_bias": false, "kernel_regularizer": null, "bias_constraint": null, "strides": [1, 1], "activity_regularizer": null, "bias_regularizer": null, "bias_initializer": {"class_name": "Zeros", "config": {}}, "dilation_rate": [1, 1], "name": "conv3_block1_2_conv", "activation": "linear", "data_format": "channels_last", "kernel_constraint": null, "kernel_initializer": {"class_name": "VarianceScaling", "config": {"seed": null, "scale": 1.0, "distribution": "uniform", "mode": "fan_avg"}}, "kernel_size": [3, 3]}, "inbound_nodes": [[["conv3_block1_1_relu", 0, 0, {}]]]}, {"class_name": "Concatenate", "name": "conv3_block1_concat", "config": {"trainable": true, "name": "conv3_block1_concat", "axis": 3}, "inbound_nodes": [[["pool2_pool", 0, 0, {}], ["conv3_block1_2_conv", 0, 0, {}]]]}, {"class_name": "BatchNormalization", "name": "conv3_block2_0_bn", "config": {"trainable": true, "gamma_regularizer": null, "scale": true, "gamma_initializer": {"class_name": "Ones", "config": {}}, "beta_regularizer": null, "momentum": 0.99, "center": true, "gamma_constraint": null, "moving_mean_initializer": {"class_name": "Zeros", "config": {}}, "moving_variance_initializer": {"class_name": "Ones", "config": {}}, "axis": 3, "beta_initializer": {"class_name": "Zeros", "config": {}}, "epsilon": 1.001e-05, "name": "conv3_block2_0_bn", "beta_constraint": null}, "inbound_nodes": [[["conv3_block1_concat", 0, 0, {}]]]}, {"class_name": "Activation", "name": "conv3_block2_0_relu", "config": {"trainable": true, "name": "conv3_block2_0_relu", "activation": "relu"}, "inbound_nodes": [[["conv3_block2_0_bn", 0, 0, {}]]]}, {"class_name": "Conv2D", "name": "conv3_block2_1_conv", "config": {"trainable": true, "padding": "valid", "filters": 128, "use_bias": false, "kernel_regularizer": null, "bias_constraint": null, "strides": [1, 1], "activity_regularizer": null, "bias_regularizer": null, "bias_initializer": {"class_name": "Zeros", "config": {}}, "dilation_rate": [1, 1], "name": "conv3_block2_1_conv", "activation": "linear", "data_format": "channels_last", "kernel_constraint": null, "kernel_initializer": {"class_name": "VarianceScaling", "config": {"seed": null, "scale": 1.0, "distribution": "uniform", "mode": "fan_avg"}}, "kernel_size": [1, 1]}, "inbound_nodes": [[["conv3_block2_0_relu", 0, 0, {}]]]}, {"class_name": "BatchNormalization", "name": "conv3_block2_1_bn", "config": {"trainable": true, "gamma_regularizer": null, "scale": true, "gamma_initializer": {"class_name": "Ones", "config": {}}, "beta_regularizer": null, "momentum": 0.99, "center": true, "gamma_constraint": null, "moving_mean_initializer": {"class_name": "Zeros", "config": {}}, "moving_variance_initializer": {"class_name": "Ones", "config": {}}, "axis": 3, "beta_initializer": {"class_name": "Zeros", "config": {}}, "epsilon": 1.001e-05, "name": "conv3_block2_1_bn", "beta_constraint": null}, "inbound_nodes": [[["conv3_block2_1_conv", 0, 0, {}]]]}, {"class_name": "Activation", "name": "conv3_block2_1_relu", "config": {"trainable": true, "name": "conv3_block2_1_relu", "activation": "relu"}, "inbound_nodes": [[["conv3_block2_1_bn", 0, 0, {}]]]}, {"class_name": "Conv2D", "name": "conv3_block2_2_conv", "config": {"trainable": true, "padding": "same", "filters": 32, "use_bias": false, "kernel_regularizer": null, "bias_constraint": null, "strides": [1, 1], "activity_regularizer": null, "bias_regularizer": null, "bias_initializer": {"class_name": "Zeros", "config": {}}, "dilation_rate": [1, 1], "name": "conv3_block2_2_conv", "activation": "linear", "data_format": "channels_last", "kernel_constraint": null, "kernel_initializer": {"class_name": "VarianceScaling", "config": {"seed": null, "scale": 1.0, "distribution": "uniform", "mode": "fan_avg"}}, "kernel_size": [3, 3]}, "inbound_nodes": [[["conv3_block2_1_relu", 0, 0, {}]]]}, {"class_name": "Concatenate", "name": "conv3_block2_concat", "config": {"trainable": true, "name": "conv3_block2_concat", "axis": 3}, "inbound_nodes": [[["conv3_block1_concat", 0, 0, {}], ["conv3_block2_2_conv", 0, 0, {}]]]}, {"class_name": "BatchNormalization", "name": "conv3_block3_0_bn", "config": {"trainable": true, "gamma_regularizer": null, "scale": true, "gamma_initializer": {"class_name": "Ones", "config": {}}, "beta_regularizer": null, "momentum": 0.99, "center": true, "gamma_constraint": null, "moving_mean_initializer": {"class_name": "Zeros", "config": {}}, "moving_variance_initializer": {"class_name": "Ones", "config": {}}, "axis": 3, "beta_initializer": {"class_name": "Zeros", "config": {}}, "epsilon": 1.001e-05, "name": "conv3_block3_0_bn", "beta_constraint": null}, "inbound_nodes": [[["conv3_block2_concat", 0, 0, {}]]]}, {"class_name": "Activation", "name": "conv3_block3_0_relu", "config": {"trainable": true, "name": "conv3_block3_0_relu", "activation": "relu"}, "inbound_nodes": [[["conv3_block3_0_bn", 0, 0, {}]]]}, {"class_name": "Conv2D", "name": "conv3_block3_1_conv", "config": {"trainable": true, "padding": "valid", "filters": 128, "use_bias": false, "kernel_regularizer": null, "bias_constraint": null, "strides": [1, 1], "activity_regularizer": null, "bias_regularizer": null, "bias_initializer": {"class_name": "Zeros", "config": {}}, "dilation_rate": [1, 1], "name": "conv3_block3_1_conv", "activation": "linear", "data_format": "channels_last", "kernel_constraint": null, "kernel_initializer": {"class_name": "VarianceScaling", "config": {"seed": null, "scale": 1.0, "distribution": "uniform", "mode": "fan_avg"}}, "kernel_size": [1, 1]}, "inbound_nodes": [[["conv3_block3_0_relu", 0, 0, {}]]]}, {"class_name": "BatchNormalization", "name": "conv3_block3_1_bn", "config": {"trainable": true, "gamma_regularizer": null, "scale": true, "gamma_initializer": {"class_name": "Ones", "config": {}}, "beta_regularizer": null, "momentum": 0.99, "center": true, "gamma_constraint": null, "moving_mean_initializer": {"class_name": "Zeros", "config": {}}, "moving_variance_initializer": {"class_name": "Ones", "config": {}}, "axis": 3, "beta_initializer": {"class_name": "Zeros", "config": {}}, "epsilon": 1.001e-05, "name": "conv3_block3_1_bn", "beta_constraint": null}, "inbound_nodes": [[["conv3_block3_1_conv", 0, 0, {}]]]}, {"class_name": "Activation", "name": "conv3_block3_1_relu", "config": {"trainable": true, "name": "conv3_block3_1_relu", "activation": "relu"}, "inbound_nodes": [[["conv3_block3_1_bn", 0, 0, {}]]]}, {"class_name": "Conv2D", "name": "conv3_block3_2_conv", "config": {"trainable": true, "padding": "same", "filters": 32, "use_bias": false, "kernel_regularizer": null, "bias_constraint": null, "strides": [1, 1], "activity_regularizer": null, "bias_regularizer": null, "bias_initializer": {"class_name": "Zeros", "config": {}}, "dilation_rate": [1, 1], "name": "conv3_block3_2_conv", "activation": "linear", "data_format": "channels_last", "kernel_constraint": null, "kernel_initializer": {"class_name": "VarianceScaling", "config": {"seed": null, "scale": 1.0, "distribution": "uniform", "mode": "fan_avg"}}, "kernel_size": [3, 3]}, "inbound_nodes": [[["conv3_block3_1_relu", 0, 0, {}]]]}, {"class_name": "Concatenate", "name": "conv3_block3_concat", "config": {"trainable": true, "name": "conv3_block3_concat", "axis": 3}, "inbound_nodes": [[["conv3_block2_concat", 0, 0, {}], ["conv3_block3_2_conv", 0, 0, {}]]]}, {"class_name": "BatchNormalization", "name": "conv3_block4_0_bn", "config": {"trainable": true, "gamma_regularizer": null, "scale": true, "gamma_initializer": {"class_name": "Ones", "config": {}}, "beta_regularizer": null, "momentum": 0.99, "center": true, "gamma_constraint": null, "moving_mean_initializer": {"class_name": "Zeros", "config": {}}, "moving_variance_initializer": {"class_name": "Ones", "config": {}}, "axis": 3, "beta_initializer": {"class_name": "Zeros", "config": {}}, "epsilon": 1.001e-05, "name": "conv3_block4_0_bn", "beta_constraint": null}, "inbound_nodes": [[["conv3_block3_concat", 0, 0, {}]]]}, {"class_name": "Activation", "name": "conv3_block4_0_relu", "config": {"trainable": true, "name": "conv3_block4_0_relu", "activation": "relu"}, "inbound_nodes": [[["conv3_block4_0_bn", 0, 0, {}]]]}, {"class_name": "Conv2D", "name": "conv3_block4_1_conv", "config": {"trainable": true, "padding": "valid", "filters": 128, "use_bias": false, "kernel_regularizer": null, "bias_constraint": null, "strides": [1, 1], "activity_regularizer": null, "bias_regularizer": null, "bias_initializer": {"class_name": "Zeros", "config": {}}, "dilation_rate": [1, 1], "name": "conv3_block4_1_conv", "activation": "linear", "data_format": "channels_last", "kernel_constraint": null, "kernel_initializer": {"class_name": "VarianceScaling", "config": {"seed": null, "scale": 1.0, "distribution": "uniform", "mode": "fan_avg"}}, "kernel_size": [1, 1]}, "inbound_nodes": [[["conv3_block4_0_relu", 0, 0, {}]]]}, {"class_name": "BatchNormalization", "name": "conv3_block4_1_bn", "config": {"trainable": true, "gamma_regularizer": null, "scale": true, "gamma_initializer": {"class_name": "Ones", "config": {}}, "beta_regularizer": null, "momentum": 0.99, "center": true, "gamma_constraint": null, "moving_mean_initializer": {"class_name": "Zeros", "config": {}}, "moving_variance_initializer": {"class_name": "Ones", "config": {}}, "axis": 3, "beta_initializer": {"class_name": "Zeros", "config": {}}, "epsilon": 1.001e-05, "name": "conv3_block4_1_bn", "beta_constraint": null}, "inbound_nodes": [[["conv3_block4_1_conv", 0, 0, {}]]]}, {"class_name": "Activation", "name": "conv3_block4_1_relu", "config": {"trainable": true, "name": "conv3_block4_1_relu", "activation": "relu"}, "inbound_nodes": [[["conv3_block4_1_bn", 0, 0, {}]]]}, {"class_name": "Conv2D", "name": "conv3_block4_2_conv", "config": {"trainable": true, "padding": "same", "filters": 32, "use_bias": false, "kernel_regularizer": null, "bias_constraint": null, "strides": [1, 1], "activity_regularizer": null, "bias_regularizer": null, "bias_initializer": {"class_name": "Zeros", "config": {}}, "dilation_rate": [1, 1], "name": "conv3_block4_2_conv", "activation": "linear", "data_format": "channels_last", "kernel_constraint": null, "kernel_initializer": {"class_name": "VarianceScaling", "config": {"seed": null, "scale": 1.0, "distribution": "uniform", "mode": "fan_avg"}}, "kernel_size": [3, 3]}, "inbound_nodes": [[["conv3_block4_1_relu", 0, 0, {}]]]}, {"class_name": "Concatenate", "name": "conv3_block4_concat", "config": {"trainable": true, "name": "conv3_block4_concat", "axis": 3}, "inbound_nodes": [[["conv3_block3_concat", 0, 0, {}], ["conv3_block4_2_conv", 0, 0, {}]]]}, {"class_name": "BatchNormalization", "name": "conv3_block5_0_bn", "config": {"trainable": true, "gamma_regularizer": null, "scale": true, "gamma_initializer": {"class_name": "Ones", "config": {}}, "beta_regularizer": null, "momentum": 0.99, "center": true, "gamma_constraint": null, "moving_mean_initializer": {"class_name": "Zeros", "config": {}}, "moving_variance_initializer": {"class_name": "Ones", "config": {}}, "axis": 3, "beta_initializer": {"class_name": "Zeros", "config": {}}, "epsilon": 1.001e-05, "name": "conv3_block5_0_bn", "beta_constraint": null}, "inbound_nodes": [[["conv3_block4_concat", 0, 0, {}]]]}, {"class_name": "Activation", "name": "conv3_block5_0_relu", "config": {"trainable": true, "name": "conv3_block5_0_relu", "activation": "relu"}, "inbound_nodes": [[["conv3_block5_0_bn", 0, 0, {}]]]}, {"class_name": "Conv2D", "name": "conv3_block5_1_conv", "config": {"trainable": true, "padding": "valid", "filters": 128, "use_bias": false, "kernel_regularizer": null, "bias_constraint": null, "strides": [1, 1], "activity_regularizer": null, "bias_regularizer": null, "bias_initializer": {"class_name": "Zeros", "config": {}}, "dilation_rate": [1, 1], "name": "conv3_block5_1_conv", "activation": "linear", "data_format": "channels_last", "kernel_constraint": null, "kernel_initializer": {"class_name": "VarianceScaling", "config": {"seed": null, "scale": 1.0, "distribution": "uniform", "mode": "fan_avg"}}, "kernel_size": [1, 1]}, "inbound_nodes": [[["conv3_block5_0_relu", 0, 0, {}]]]}, {"class_name": "BatchNormalization", "name": "conv3_block5_1_bn", "config": {"trainable": true, "gamma_regularizer": null, "scale": true, "gamma_initializer": {"class_name": "Ones", "config": {}}, "beta_regularizer": null, "momentum": 0.99, "center": true, "gamma_constraint": null, "moving_mean_initializer": {"class_name": "Zeros", "config": {}}, "moving_variance_initializer": {"class_name": "Ones", "config": {}}, "axis": 3, "beta_initializer": {"class_name": "Zeros", "config": {}}, "epsilon": 1.001e-05, "name": "conv3_block5_1_bn", "beta_constraint": null}, "inbound_nodes": [[["conv3_block5_1_conv", 0, 0, {}]]]}, {"class_name": "Activation", "name": "conv3_block5_1_relu", "config": {"trainable": true, "name": "conv3_block5_1_relu", "activation": "relu"}, "inbound_nodes": [[["conv3_block5_1_bn", 0, 0, {}]]]}, {"class_name": "Conv2D", "name": "conv3_block5_2_conv", "config": {"trainable": true, "padding": "same", "filters": 32, "use_bias": false, "kernel_regularizer": null, "bias_constraint": null, "strides": [1, 1], "activity_regularizer": null, "bias_regularizer": null, "bias_initializer": {"class_name": "Zeros", "config": {}}, "dilation_rate": [1, 1], "name": "conv3_block5_2_conv", "activation": "linear", "data_format": "channels_last", "kernel_constraint": null, "kernel_initializer": {"class_name": "VarianceScaling", "config": {"seed": null, "scale": 1.0, "distribution": "uniform", "mode": "fan_avg"}}, "kernel_size": [3, 3]}, "inbound_nodes": [[["conv3_block5_1_relu", 0, 0, {}]]]}, {"class_name": "Concatenate", "name": "conv3_block5_concat", "config": {"trainable": true, "name": "conv3_block5_concat", "axis": 3}, "inbound_nodes": [[["conv3_block4_concat", 0, 0, {}], ["conv3_block5_2_conv", 0, 0, {}]]]}, {"class_name": "BatchNormalization", "name": "conv3_block6_0_bn", "config": {"trainable": true, "gamma_regularizer": null, "scale": true, "gamma_initializer": {"class_name": "Ones", "config": {}}, "beta_regularizer": null, "momentum": 0.99, "center": true, "gamma_constraint": null, "moving_mean_initializer": {"class_name": "Zeros", "config": {}}, "moving_variance_initializer": {"class_name": "Ones", "config": {}}, "axis": 3, "beta_initializer": {"class_name": "Zeros", "config": {}}, "epsilon": 1.001e-05, "name": "conv3_block6_0_bn", "beta_constraint": null}, "inbound_nodes": [[["conv3_block5_concat", 0, 0, {}]]]}, {"class_name": "Activation", "name": "conv3_block6_0_relu", "config": {"trainable": true, "name": "conv3_block6_0_relu", "activation": "relu"}, "inbound_nodes": [[["conv3_block6_0_bn", 0, 0, {}]]]}, {"class_name": "Conv2D", "name": "conv3_block6_1_conv", "config": {"trainable": true, "padding": "valid", "filters": 128, "use_bias": false, "kernel_regularizer": null, "bias_constraint": null, "strides": [1, 1], "activity_regularizer": null, "bias_regularizer": null, "bias_initializer": {"class_name": "Zeros", "config": {}}, "dilation_rate": [1, 1], "name": "conv3_block6_1_conv", "activation": "linear", "data_format": "channels_last", "kernel_constraint": null, "kernel_initializer": {"class_name": "VarianceScaling", "config": {"seed": null, "scale": 1.0, "distribution": "uniform", "mode": "fan_avg"}}, "kernel_size": [1, 1]}, "inbound_nodes": [[["conv3_block6_0_relu", 0, 0, {}]]]}, {"class_name": "BatchNormalization", "name": "conv3_block6_1_bn", "config": {"trainable": true, "gamma_regularizer": null, "scale": true, "gamma_initializer": {"class_name": "Ones", "config": {}}, "beta_regularizer": null, "momentum": 0.99, "center": true, "gamma_constraint": null, "moving_mean_initializer": {"class_name": "Zeros", "config": {}}, "moving_variance_initializer": {"class_name": "Ones", "config": {}}, "axis": 3, "beta_initializer": {"class_name": "Zeros", "config": {}}, "epsilon": 1.001e-05, "name": "conv3_block6_1_bn", "beta_constraint": null}, "inbound_nodes": [[["conv3_block6_1_conv", 0, 0, {}]]]}, {"class_name": "Activation", "name": "conv3_block6_1_relu", "config": {"trainable": true, "name": "conv3_block6_1_relu", "activation": "relu"}, "inbound_nodes": [[["conv3_block6_1_bn", 0, 0, {}]]]}, {"class_name": "Conv2D", "name": "conv3_block6_2_conv", "config": {"trainable": true, "padding": "same", "filters": 32, "use_bias": false, "kernel_regularizer": null, "bias_constraint": null, "strides": [1, 1], "activity_regularizer": null, "bias_regularizer": null, "bias_initializer": {"class_name": "Zeros", "config": {}}, "dilation_rate": [1, 1], "name": "conv3_block6_2_conv", "activation": "linear", "data_format": "channels_last", "kernel_constraint": null, "kernel_initializer": {"class_name": "VarianceScaling", "config": {"seed": null, "scale": 1.0, "distribution": "uniform", "mode": "fan_avg"}}, "kernel_size": [3, 3]}, "inbound_nodes": [[["conv3_block6_1_relu", 0, 0, {}]]]}, {"class_name": "Concatenate", "name": "conv3_block6_concat", "config": {"trainable": true, "name": "conv3_block6_concat", "axis": 3}, "inbound_nodes": [[["conv3_block5_concat", 0, 0, {}], ["conv3_block6_2_conv", 0, 0, {}]]]}, {"class_name": "BatchNormalization", "name": "conv3_block7_0_bn", "config": {"trainable": true, "gamma_regularizer": null, "scale": true, "gamma_initializer": {"class_name": "Ones", "config": {}}, "beta_regularizer": null, "momentum": 0.99, "center": true, "gamma_constraint": null, "moving_mean_initializer": {"class_name": "Zeros", "config": {}}, "moving_variance_initializer": {"class_name": "Ones", "config": {}}, "axis": 3, "beta_initializer": {"class_name": "Zeros", "config": {}}, "epsilon": 1.001e-05, "name": "conv3_block7_0_bn", "beta_constraint": null}, "inbound_nodes": [[["conv3_block6_concat", 0, 0, {}]]]}, {"class_name": "Activation", "name": "conv3_block7_0_relu", "config": {"trainable": true, "name": "conv3_block7_0_relu", "activation": "relu"}, "inbound_nodes": [[["conv3_block7_0_bn", 0, 0, {}]]]}, {"class_name": "Conv2D", "name": "conv3_block7_1_conv", "config": {"trainable": true, "padding": "valid", "filters": 128, "use_bias": false, "kernel_regularizer": null, "bias_constraint": null, "strides": [1, 1], "activity_regularizer": null, "bias_regularizer": null, "bias_initializer": {"class_name": "Zeros", "config": {}}, "dilation_rate": [1, 1], "name": "conv3_block7_1_conv", "activation": "linear", "data_format": "channels_last", "kernel_constraint": null, "kernel_initializer": {"class_name": "VarianceScaling", "config": {"seed": null, "scale": 1.0, "distribution": "uniform", "mode": "fan_avg"}}, "kernel_size": [1, 1]}, "inbound_nodes": [[["conv3_block7_0_relu", 0, 0, {}]]]}, {"class_name": "BatchNormalization", "name": "conv3_block7_1_bn", "config": {"trainable": true, "gamma_regularizer": null, "scale": true, "gamma_initializer": {"class_name": "Ones", "config": {}}, "beta_regularizer": null, "momentum": 0.99, "center": true, "gamma_constraint": null, "moving_mean_initializer": {"class_name": "Zeros", "config": {}}, "moving_variance_initializer": {"class_name": "Ones", "config": {}}, "axis": 3, "beta_initializer": {"class_name": "Zeros", "config": {}}, "epsilon": 1.001e-05, "name": "conv3_block7_1_bn", "beta_constraint": null}, "inbound_nodes": [[["conv3_block7_1_conv", 0, 0, {}]]]}, {"class_name": "Activation", "name": "conv3_block7_1_relu", "config": {"trainable": true, "name": "conv3_block7_1_relu", "activation": "relu"}, "inbound_nodes": [[["conv3_block7_1_bn", 0, 0, {}]]]}, {"class_name": "Conv2D", "name": "conv3_block7_2_conv", "config": {"trainable": true, "padding": "same", "filters": 32, "use_bias": false, "kernel_regularizer": null, "bias_constraint": null, "strides": [1, 1], "activity_regularizer": null, "bias_regularizer": null, "bias_initializer": {"class_name": "Zeros", "config": {}}, "dilation_rate": [1, 1], "name": "conv3_block7_2_conv", "activation": "linear", "data_format": "channels_last", "kernel_constraint": null, "kernel_initializer": {"class_name": "VarianceScaling", "config": {"seed": null, "scale": 1.0, "distribution": "uniform", "mode": "fan_avg"}}, "kernel_size": [3, 3]}, "inbound_nodes": [[["conv3_block7_1_relu", 0, 0, {}]]]}, {"class_name": "Concatenate", "name": "conv3_block7_concat", "config": {"trainable": true, "name": "conv3_block7_concat", "axis": 3}, "inbound_nodes": [[["conv3_block6_concat", 0, 0, {}], ["conv3_block7_2_conv", 0, 0, {}]]]}, {"class_name": "BatchNormalization", "name": "conv3_block8_0_bn", "config": {"trainable": true, "gamma_regularizer": null, "scale": true, "gamma_initializer": {"class_name": "Ones", "config": {}}, "beta_regularizer": null, "momentum": 0.99, "center": true, "gamma_constraint": null, "moving_mean_initializer": {"class_name": "Zeros", "config": {}}, "moving_variance_initializer": {"class_name": "Ones", "config": {}}, "axis": 3, "beta_initializer": {"class_name": "Zeros", "config": {}}, "epsilon": 1.001e-05, "name": "conv3_block8_0_bn", "beta_constraint": null}, "inbound_nodes": [[["conv3_block7_concat", 0, 0, {}]]]}, {"class_name": "Activation", "name": "conv3_block8_0_relu", "config": {"trainable": true, "name": "conv3_block8_0_relu", "activation": "relu"}, "inbound_nodes": [[["conv3_block8_0_bn", 0, 0, {}]]]}, {"class_name": "Conv2D", "name": "conv3_block8_1_conv", "config": {"trainable": true, "padding": "valid", "filters": 128, "use_bias": false, "kernel_regularizer": null, "bias_constraint": null, "strides": [1, 1], "activity_regularizer": null, "bias_regularizer": null, "bias_initializer": {"class_name": "Zeros", "config": {}}, "dilation_rate": [1, 1], "name": "conv3_block8_1_conv", "activation": "linear", "data_format": "channels_last", "kernel_constraint": null, "kernel_initializer": {"class_name": "VarianceScaling", "config": {"seed": null, "scale": 1.0, "distribution": "uniform", "mode": "fan_avg"}}, "kernel_size": [1, 1]}, "inbound_nodes": [[["conv3_block8_0_relu", 0, 0, {}]]]}, {"class_name": "BatchNormalization", "name": "conv3_block8_1_bn", "config": {"trainable": true, "gamma_regularizer": null, "scale": true, "gamma_initializer": {"class_name": "Ones", "config": {}}, "beta_regularizer": null, "momentum": 0.99, "center": true, "gamma_constraint": null, "moving_mean_initializer": {"class_name": "Zeros", "config": {}}, "moving_variance_initializer": {"class_name": "Ones", "config": {}}, "axis": 3, "beta_initializer": {"class_name": "Zeros", "config": {}}, "epsilon": 1.001e-05, "name": "conv3_block8_1_bn", "beta_constraint": null}, "inbound_nodes": [[["conv3_block8_1_conv", 0, 0, {}]]]}, {"class_name": "Activation", "name": "conv3_block8_1_relu", "config": {"trainable": true, "name": "conv3_block8_1_relu", "activation": "relu"}, "inbound_nodes": [[["conv3_block8_1_bn", 0, 0, {}]]]}, {"class_name": "Conv2D", "name": "conv3_block8_2_conv", "config": {"trainable": true, "padding": "same", "filters": 32, "use_bias": false, "kernel_regularizer": null, "bias_constraint": null, "strides": [1, 1], "activity_regularizer": null, "bias_regularizer": null, "bias_initializer": {"class_name": "Zeros", "config": {}}, "dilation_rate": [1, 1], "name": "conv3_block8_2_conv", "activation": "linear", "data_format": "channels_last", "kernel_constraint": null, "kernel_initializer": {"class_name": "VarianceScaling", "config": {"seed": null, "scale": 1.0, "distribution": "uniform", "mode": "fan_avg"}}, "kernel_size": [3, 3]}, "inbound_nodes": [[["conv3_block8_1_relu", 0, 0, {}]]]}, {"class_name": "Concatenate", "name": "conv3_block8_concat", "config": {"trainable": true, "name": "conv3_block8_concat", "axis": 3}, "inbound_nodes": [[["conv3_block7_concat", 0, 0, {}], ["conv3_block8_2_conv", 0, 0, {}]]]}, {"class_name": "BatchNormalization", "name": "conv3_block9_0_bn", "config": {"trainable": true, "gamma_regularizer": null, "scale": true, "gamma_initializer": {"class_name": "Ones", "config": {}}, "beta_regularizer": null, "momentum": 0.99, "center": true, "gamma_constraint": null, "moving_mean_initializer": {"class_name": "Zeros", "config": {}}, "moving_variance_initializer": {"class_name": "Ones", "config": {}}, "axis": 3, "beta_initializer": {"class_name": "Zeros", "config": {}}, "epsilon": 1.001e-05, "name": "conv3_block9_0_bn", "beta_constraint": null}, "inbound_nodes": [[["conv3_block8_concat", 0, 0, {}]]]}, {"class_name": "Activation", "name": "conv3_block9_0_relu", "config": {"trainable": true, "name": "conv3_block9_0_relu", "activation": "relu"}, "inbound_nodes": [[["conv3_block9_0_bn", 0, 0, {}]]]}, {"class_name": "Conv2D", "name": "conv3_block9_1_conv", "config": {"trainable": true, "padding": "valid", "filters": 128, "use_bias": false, "kernel_regularizer": null, "bias_constraint": null, "strides": [1, 1], "activity_regularizer": null, "bias_regularizer": null, "bias_initializer": {"class_name": "Zeros", "config": {}}, "dilation_rate": [1, 1], "name": "conv3_block9_1_conv", "activation": "linear", "data_format": "channels_last", "kernel_constraint": null, "kernel_initializer": {"class_name": "VarianceScaling", "config": {"seed": null, "scale": 1.0, "distribution": "uniform", "mode": "fan_avg"}}, "kernel_size": [1, 1]}, "inbound_nodes": [[["conv3_block9_0_relu", 0, 0, {}]]]}, {"class_name": "BatchNormalization", "name": "conv3_block9_1_bn", "config": {"trainable": true, "gamma_regularizer": null, "scale": true, "gamma_initializer": {"class_name": "Ones", "config": {}}, "beta_regularizer": null, "momentum": 0.99, "center": true, "gamma_constraint": null, "moving_mean_initializer": {"class_name": "Zeros", "config": {}}, "moving_variance_initializer": {"class_name": "Ones", "config": {}}, "axis": 3, "beta_initializer": {"class_name": "Zeros", "config": {}}, "epsilon": 1.001e-05, "name": "conv3_block9_1_bn", "beta_constraint": null}, "inbound_nodes": [[["conv3_block9_1_conv", 0, 0, {}]]]}, {"class_name": "Activation", "name": "conv3_block9_1_relu", "config": {"trainable": true, "name": "conv3_block9_1_relu", "activation": "relu"}, "inbound_nodes": [[["conv3_block9_1_bn", 0, 0, {}]]]}, {"class_name": "Conv2D", "name": "conv3_block9_2_conv", "config": {"trainable": true, "padding": "same", "filters": 32, "use_bias": false, "kernel_regularizer": null, "bias_constraint": null, "strides": [1, 1], "activity_regularizer": null, "bias_regularizer": null, "bias_initializer": {"class_name": "Zeros", "config": {}}, "dilation_rate": [1, 1], "name": "conv3_block9_2_conv", "activation": "linear", "data_format": "channels_last", "kernel_constraint": null, "kernel_initializer": {"class_name": "VarianceScaling", "config": {"seed": null, "scale": 1.0, "distribution": "uniform", "mode": "fan_avg"}}, "kernel_size": [3, 3]}, "inbound_nodes": [[["conv3_block9_1_relu", 0, 0, {}]]]}, {"class_name": "Concatenate", "name": "conv3_block9_concat", "config": {"trainable": true, "name": "conv3_block9_concat", "axis": 3}, "inbound_nodes": [[["conv3_block8_concat", 0, 0, {}], ["conv3_block9_2_conv", 0, 0, {}]]]}, {"class_name": "BatchNormalization", "name": "conv3_block10_0_bn", "config": {"trainable": true, "gamma_regularizer": null, "scale": true, "gamma_initializer": {"class_name": "Ones", "config": {}}, "beta_regularizer": null, "momentum": 0.99, "center": true, "gamma_constraint": null, "moving_mean_initializer": {"class_name": "Zeros", "config": {}}, "moving_variance_initializer": {"class_name": "Ones", "config": {}}, "axis": 3, "beta_initializer": {"class_name": "Zeros", "config": {}}, "epsilon": 1.001e-05, "name": "conv3_block10_0_bn", "beta_constraint": null}, "inbound_nodes": [[["conv3_block9_concat", 0, 0, {}]]]}, {"class_name": "Activation", "name": "conv3_block10_0_relu", "config": {"trainable": true, "name": "conv3_block10_0_relu", "activation": "relu"}, "inbound_nodes": [[["conv3_block10_0_bn", 0, 0, {}]]]}, {"class_name": "Conv2D", "name": "conv3_block10_1_conv", "config": {"trainable": true, "padding": "valid", "filters": 128, "use_bias": false, "kernel_regularizer": null, "bias_constraint": null, "strides": [1, 1], "activity_regularizer": null, "bias_regularizer": null, "bias_initializer": {"class_name": "Zeros", "config": {}}, "dilation_rate": [1, 1], "name": "conv3_block10_1_conv", "activation": "linear", "data_format": "channels_last", "kernel_constraint": null, "kernel_initializer": {"class_name": "VarianceScaling", "config": {"seed": null, "scale": 1.0, "distribution": "uniform", "mode": "fan_avg"}}, "kernel_size": [1, 1]}, "inbound_nodes": [[["conv3_block10_0_relu", 0, 0, {}]]]}, {"class_name": "BatchNormalization", "name": "conv3_block10_1_bn", "config": {"trainable": true, "gamma_regularizer": null, "scale": true, "gamma_initializer": {"class_name": "Ones", "config": {}}, "beta_regularizer": null, "momentum": 0.99, "center": true, "gamma_constraint": null, "moving_mean_initializer": {"class_name": "Zeros", "config": {}}, "moving_variance_initializer": {"class_name": "Ones", "config": {}}, "axis": 3, "beta_initializer": {"class_name": "Zeros", "config": {}}, "epsilon": 1.001e-05, "name": "conv3_block10_1_bn", "beta_constraint": null}, "inbound_nodes": [[["conv3_block10_1_conv", 0, 0, {}]]]}, {"class_name": "Activation", "name": "conv3_block10_1_relu", "config": {"trainable": true, "name": "conv3_block10_1_relu", "activation": "relu"}, "inbound_nodes": [[["conv3_block10_1_bn", 0, 0, {}]]]}, {"class_name": "Conv2D", "name": "conv3_block10_2_conv", "config": {"trainable": true, "padding": "same", "filters": 32, "use_bias": false, "kernel_regularizer": null, "bias_constraint": null, "strides": [1, 1], "activity_regularizer": null, "bias_regularizer": null, "bias_initializer": {"class_name": "Zeros", "config": {}}, "dilation_rate": [1, 1], "name": "conv3_block10_2_conv", "activation": "linear", "data_format": "channels_last", "kernel_constraint": null, "kernel_initializer": {"class_name": "VarianceScaling", "config": {"seed": null, "scale": 1.0, "distribution": "uniform", "mode": "fan_avg"}}, "kernel_size": [3, 3]}, "inbound_nodes": [[["conv3_block10_1_relu", 0, 0, {}]]]}, {"class_name": "Concatenate", "name": "conv3_block10_concat", "config": {"trainable": true, "name": "conv3_block10_concat", "axis": 3}, "inbound_nodes": [[["conv3_block9_concat", 0, 0, {}], ["conv3_block10_2_conv", 0, 0, {}]]]}, {"class_name": "BatchNormalization", "name": "conv3_block11_0_bn", "config": {"trainable": true, "gamma_regularizer": null, "scale": true, "gamma_initializer": {"class_name": "Ones", "config": {}}, "beta_regularizer": null, "momentum": 0.99, "center": true, "gamma_constraint": null, "moving_mean_initializer": {"class_name": "Zeros", "config": {}}, "moving_variance_initializer": {"class_name": "Ones", "config": {}}, "axis": 3, "beta_initializer": {"class_name": "Zeros", "config": {}}, "epsilon": 1.001e-05, "name": "conv3_block11_0_bn", "beta_constraint": null}, "inbound_nodes": [[["conv3_block10_concat", 0, 0, {}]]]}, {"class_name": "Activation", "name": "conv3_block11_0_relu", "config": {"trainable": true, "name": "conv3_block11_0_relu", "activation": "relu"}, "inbound_nodes": [[["conv3_block11_0_bn", 0, 0, {}]]]}, {"class_name": "Conv2D", "name": "conv3_block11_1_conv", "config": {"trainable": true, "padding": "valid", "filters": 128, "use_bias": false, "kernel_regularizer": null, "bias_constraint": null, "strides": [1, 1], "activity_regularizer": null, "bias_regularizer": null, "bias_initializer": {"class_name": "Zeros", "config": {}}, "dilation_rate": [1, 1], "name": "conv3_block11_1_conv", "activation": "linear", "data_format": "channels_last", "kernel_constraint": null, "kernel_initializer": {"class_name": "VarianceScaling", "config": {"seed": null, "scale": 1.0, "distribution": "uniform", "mode": "fan_avg"}}, "kernel_size": [1, 1]}, "inbound_nodes": [[["conv3_block11_0_relu", 0, 0, {}]]]}, {"class_name": "BatchNormalization", "name": "conv3_block11_1_bn", "config": {"trainable": true, "gamma_regularizer": null, "scale": true, "gamma_initializer": {"class_name": "Ones", "config": {}}, "beta_regularizer": null, "momentum": 0.99, "center": true, "gamma_constraint": null, "moving_mean_initializer": {"class_name": "Zeros", "config": {}}, "moving_variance_initializer": {"class_name": "Ones", "config": {}}, "axis": 3, "beta_initializer": {"class_name": "Zeros", "config": {}}, "epsilon": 1.001e-05, "name": "conv3_block11_1_bn", "beta_constraint": null}, "inbound_nodes": [[["conv3_block11_1_conv", 0, 0, {}]]]}, {"class_name": "Activation", "name": "conv3_block11_1_relu", "config": {"trainable": true, "name": "conv3_block11_1_relu", "activation": "relu"}, "inbound_nodes": [[["conv3_block11_1_bn", 0, 0, {}]]]}, {"class_name": "Conv2D", "name": "conv3_block11_2_conv", "config": {"trainable": true, "padding": "same", "filters": 32, "use_bias": false, "kernel_regularizer": null, "bias_constraint": null, "strides": [1, 1], "activity_regularizer": null, "bias_regularizer": null, "bias_initializer": {"class_name": "Zeros", "config": {}}, "dilation_rate": [1, 1], "name": "conv3_block11_2_conv", "activation": "linear", "data_format": "channels_last", "kernel_constraint": null, "kernel_initializer": {"class_name": "VarianceScaling", "config": {"seed": null, "scale": 1.0, "distribution": "uniform", "mode": "fan_avg"}}, "kernel_size": [3, 3]}, "inbound_nodes": [[["conv3_block11_1_relu", 0, 0, {}]]]}, {"class_name": "Concatenate", "name": "conv3_block11_concat", "config": {"trainable": true, "name": "conv3_block11_concat", "axis": 3}, "inbound_nodes": [[["conv3_block10_concat", 0, 0, {}], ["conv3_block11_2_conv", 0, 0, {}]]]}, {"class_name": "BatchNormalization", "name": "conv3_block12_0_bn", "config": {"trainable": true, "gamma_regularizer": null, "scale": true, "gamma_initializer": {"class_name": "Ones", "config": {}}, "beta_regularizer": null, "momentum": 0.99, "center": true, "gamma_constraint": null, "moving_mean_initializer": {"class_name": "Zeros", "config": {}}, "moving_variance_initializer": {"class_name": "Ones", "config": {}}, "axis": 3, "beta_initializer": {"class_name": "Zeros", "config": {}}, "epsilon": 1.001e-05, "name": "conv3_block12_0_bn", "beta_constraint": null}, "inbound_nodes": [[["conv3_block11_concat", 0, 0, {}]]]}, {"class_name": "Activation", "name": "conv3_block12_0_relu", "config": {"trainable": true, "name": "conv3_block12_0_relu", "activation": "relu"}, "inbound_nodes": [[["conv3_block12_0_bn", 0, 0, {}]]]}, {"class_name": "Conv2D", "name": "conv3_block12_1_conv", "config": {"trainable": true, "padding": "valid", "filters": 128, "use_bias": false, "kernel_regularizer": null, "bias_constraint": null, "strides": [1, 1], "activity_regularizer": null, "bias_regularizer": null, "bias_initializer": {"class_name": "Zeros", "config": {}}, "dilation_rate": [1, 1], "name": "conv3_block12_1_conv", "activation": "linear", "data_format": "channels_last", "kernel_constraint": null, "kernel_initializer": {"class_name": "VarianceScaling", "config": {"seed": null, "scale": 1.0, "distribution": "uniform", "mode": "fan_avg"}}, "kernel_size": [1, 1]}, "inbound_nodes": [[["conv3_block12_0_relu", 0, 0, {}]]]}, {"class_name": "BatchNormalization", "name": "conv3_block12_1_bn", "config": {"trainable": true, "gamma_regularizer": null, "scale": true, "gamma_initializer": {"class_name": "Ones", "config": {}}, "beta_regularizer": null, "momentum": 0.99, "center": true, "gamma_constraint": null, "moving_mean_initializer": {"class_name": "Zeros", "config": {}}, "moving_variance_initializer": {"class_name": "Ones", "config": {}}, "axis": 3, "beta_initializer": {"class_name": "Zeros", "config": {}}, "epsilon": 1.001e-05, "name": "conv3_block12_1_bn", "beta_constraint": null}, "inbound_nodes": [[["conv3_block12_1_conv", 0, 0, {}]]]}, {"class_name": "Activation", "name": "conv3_block12_1_relu", "config": {"trainable": true, "name": "conv3_block12_1_relu", "activation": "relu"}, "inbound_nodes": [[["conv3_block12_1_bn", 0, 0, {}]]]}, {"class_name": "Conv2D", "name": "conv3_block12_2_conv", "config": {"trainable": true, "padding": "same", "filters": 32, "use_bias": false, "kernel_regularizer": null, "bias_constraint": null, "strides": [1, 1], "activity_regularizer": null, "bias_regularizer": null, "bias_initializer": {"class_name": "Zeros", "config": {}}, "dilation_rate": [1, 1], "name": "conv3_block12_2_conv", "activation": "linear", "data_format": "channels_last", "kernel_constraint": null, "kernel_initializer": {"class_name": "VarianceScaling", "config": {"seed": null, "scale": 1.0, "distribution": "uniform", "mode": "fan_avg"}}, "kernel_size": [3, 3]}, "inbound_nodes": [[["conv3_block12_1_relu", 0, 0, {}]]]}, {"class_name": "Concatenate", "name": "conv3_block12_concat", "config": {"trainable": true, "name": "conv3_block12_concat", "axis": 3}, "inbound_nodes": [[["conv3_block11_concat", 0, 0, {}], ["conv3_block12_2_conv", 0, 0, {}]]]}, {"class_name": "BatchNormalization", "name": "pool3_bn", "config": {"trainable": true, "gamma_regularizer": null, "scale": true, "gamma_initializer": {"class_name": "Ones", "config": {}}, "beta_regularizer": null, "momentum": 0.99, "center": true, "gamma_constraint": null, "moving_mean_initializer": {"class_name": "Zeros", "config": {}}, "moving_variance_initializer": {"class_name": "Ones", "config": {}}, "axis": 3, "beta_initializer": {"class_name": "Zeros", "config": {}}, "epsilon": 1.001e-05, "name": "pool3_bn", "beta_constraint": null}, "inbound_nodes": [[["conv3_block12_concat", 0, 0, {}]]]}, {"class_name": "Activation", "name": "pool3_relu", "config": {"trainable": true, "name": "pool3_relu", "activation": "relu"}, "inbound_nodes": [[["pool3_bn", 0, 0, {}]]]}, {"class_name": "Conv2D", "name": "pool3_conv", "config": {"trainable": true, "padding": "valid", "filters": 256, "use_bias": false, "kernel_regularizer": null, "bias_constraint": null, "strides": [1, 1], "activity_regularizer": null, "bias_regularizer": null, "bias_initializer": {"class_name": "Zeros", "config": {}}, "dilation_rate": [1, 1], "name": "pool3_conv", "activation": "linear", "data_format": "channels_last", "kernel_constraint": null, "kernel_initializer": {"class_name": "VarianceScaling", "config": {"seed": null, "scale": 1.0, "distribution": "uniform", "mode": "fan_avg"}}, "kernel_size": [1, 1]}, "inbound_nodes": [[["pool3_relu", 0, 0, {}]]]}, {"class_name": "AveragePooling2D", "name": "pool3_pool", "config": {"trainable": true, "padding": "valid", "pool_size": [2, 2], "name": "pool3_pool", "data_format": "channels_last", "strides": [2, 2]}, "inbound_nodes": [[["pool3_conv", 0, 0, {}]]]}, {"class_name": "BatchNormalization", "name": "conv4_block1_0_bn", "config": {"trainable": true, "gamma_regularizer": null, "scale": true, "gamma_initializer": {"class_name": "Ones", "config": {}}, "beta_regularizer": null, "momentum": 0.99, "center": true, "gamma_constraint": null, "moving_mean_initializer": {"class_name": "Zeros", "config": {}}, "moving_variance_initializer": {"class_name": "Ones", "config": {}}, "axis": 3, "beta_initializer": {"class_name": "Zeros", "config": {}}, "epsilon": 1.001e-05, "name": "conv4_block1_0_bn", "beta_constraint": null}, "inbound_nodes": [[["pool3_pool", 0, 0, {}]]]}, {"class_name": "Activation", "name": "conv4_block1_0_relu", "config": {"trainable": true, "name": "conv4_block1_0_relu", "activation": "relu"}, "inbound_nodes": [[["conv4_block1_0_bn", 0, 0, {}]]]}, {"class_name": "Conv2D", "name": "conv4_block1_1_conv", "config": {"trainable": true, "padding": "valid", "filters": 128, "use_bias": false, "kernel_regularizer": null, "bias_constraint": null, "strides": [1, 1], "activity_regularizer": null, "bias_regularizer": null, "bias_initializer": {"class_name": "Zeros", "config": {}}, "dilation_rate": [1, 1], "name": "conv4_block1_1_conv", "activation": "linear", "data_format": "channels_last", "kernel_constraint": null, "kernel_initializer": {"class_name": "VarianceScaling", "config": {"seed": null, "scale": 1.0, "distribution": "uniform", "mode": "fan_avg"}}, "kernel_size": [1, 1]}, "inbound_nodes": [[["conv4_block1_0_relu", 0, 0, {}]]]}, {"class_name": "BatchNormalization", "name": "conv4_block1_1_bn", "config": {"trainable": true, "gamma_regularizer": null, "scale": true, "gamma_initializer": {"class_name": "Ones", "config": {}}, "beta_regularizer": null, "momentum": 0.99, "center": true, "gamma_constraint": null, "moving_mean_initializer": {"class_name": "Zeros", "config": {}}, "moving_variance_initializer": {"class_name": "Ones", "config": {}}, "axis": 3, "beta_initializer": {"class_name": "Zeros", "config": {}}, "epsilon": 1.001e-05, "name": "conv4_block1_1_bn", "beta_constraint": null}, "inbound_nodes": [[["conv4_block1_1_conv", 0, 0, {}]]]}, {"class_name": "Activation", "name": "conv4_block1_1_relu", "config": {"trainable": true, "name": "conv4_block1_1_relu", "activation": "relu"}, "inbound_nodes": [[["conv4_block1_1_bn", 0, 0, {}]]]}, {"class_name": "Conv2D", "name": "conv4_block1_2_conv", "config": {"trainable": true, "padding": "same", "filters": 32, "use_bias": false, "kernel_regularizer": null, "bias_constraint": null, "strides": [1, 1], "activity_regularizer": null, "bias_regularizer": null, "bias_initializer": {"class_name": "Zeros", "config": {}}, "dilation_rate": [1, 1], "name": "conv4_block1_2_conv", "activation": "linear", "data_format": "channels_last", "kernel_constraint": null, "kernel_initializer": {"class_name": "VarianceScaling", "config": {"seed": null, "scale": 1.0, "distribution": "uniform", "mode": "fan_avg"}}, "kernel_size": [3, 3]}, "inbound_nodes": [[["conv4_block1_1_relu", 0, 0, {}]]]}, {"class_name": "Concatenate", "name": "conv4_block1_concat", "config": {"trainable": true, "name": "conv4_block1_concat", "axis": 3}, "inbound_nodes": [[["pool3_pool", 0, 0, {}], ["conv4_block1_2_conv", 0, 0, {}]]]}, {"class_name": "BatchNormalization", "name": "conv4_block2_0_bn", "config": {"trainable": true, "gamma_regularizer": null, "scale": true, "gamma_initializer": {"class_name": "Ones", "config": {}}, "beta_regularizer": null, "momentum": 0.99, "center": true, "gamma_constraint": null, "moving_mean_initializer": {"class_name": "Zeros", "config": {}}, "moving_variance_initializer": {"class_name": "Ones", "config": {}}, "axis": 3, "beta_initializer": {"class_name": "Zeros", "config": {}}, "epsilon": 1.001e-05, "name": "conv4_block2_0_bn", "beta_constraint": null}, "inbound_nodes": [[["conv4_block1_concat", 0, 0, {}]]]}, {"class_name": "Activation", "name": "conv4_block2_0_relu", "config": {"trainable": true, "name": "conv4_block2_0_relu", "activation": "relu"}, "inbound_nodes": [[["conv4_block2_0_bn", 0, 0, {}]]]}, {"class_name": "Conv2D", "name": "conv4_block2_1_conv", "config": {"trainable": true, "padding": "valid", "filters": 128, "use_bias": false, "kernel_regularizer": null, "bias_constraint": null, "strides": [1, 1], "activity_regularizer": null, "bias_regularizer": null, "bias_initializer": {"class_name": "Zeros", "config": {}}, "dilation_rate": [1, 1], "name": "conv4_block2_1_conv", "activation": "linear", "data_format": "channels_last", "kernel_constraint": null, "kernel_initializer": {"class_name": "VarianceScaling", "config": {"seed": null, "scale": 1.0, "distribution": "uniform", "mode": "fan_avg"}}, "kernel_size": [1, 1]}, "inbound_nodes": [[["conv4_block2_0_relu", 0, 0, {}]]]}, {"class_name": "BatchNormalization", "name": "conv4_block2_1_bn", "config": {"trainable": true, "gamma_regularizer": null, "scale": true, "gamma_initializer": {"class_name": "Ones", "config": {}}, "beta_regularizer": null, "momentum": 0.99, "center": true, "gamma_constraint": null, "moving_mean_initializer": {"class_name": "Zeros", "config": {}}, "moving_variance_initializer": {"class_name": "Ones", "config": {}}, "axis": 3, "beta_initializer": {"class_name": "Zeros", "config": {}}, "epsilon": 1.001e-05, "name": "conv4_block2_1_bn", "beta_constraint": null}, "inbound_nodes": [[["conv4_block2_1_conv", 0, 0, {}]]]}, {"class_name": "Activation", "name": "conv4_block2_1_relu", "config": {"trainable": true, "name": "conv4_block2_1_relu", "activation": "relu"}, "inbound_nodes": [[["conv4_block2_1_bn", 0, 0, {}]]]}, {"class_name": "Conv2D", "name": "conv4_block2_2_conv", "config": {"trainable": true, "padding": "same", "filters": 32, "use_bias": false, "kernel_regularizer": null, "bias_constraint": null, "strides": [1, 1], "activity_regularizer": null, "bias_regularizer": null, "bias_initializer": {"class_name": "Zeros", "config": {}}, "dilation_rate": [1, 1], "name": "conv4_block2_2_conv", "activation": "linear", "data_format": "channels_last", "kernel_constraint": null, "kernel_initializer": {"class_name": "VarianceScaling", "config": {"seed": null, "scale": 1.0, "distribution": "uniform", "mode": "fan_avg"}}, "kernel_size": [3, 3]}, "inbound_nodes": [[["conv4_block2_1_relu", 0, 0, {}]]]}, {"class_name": "Concatenate", "name": "conv4_block2_concat", "config": {"trainable": true, "name": "conv4_block2_concat", "axis": 3}, "inbound_nodes": [[["conv4_block1_concat", 0, 0, {}], ["conv4_block2_2_conv", 0, 0, {}]]]}, {"class_name": "BatchNormalization", "name": "conv4_block3_0_bn", "config": {"trainable": true, "gamma_regularizer": null, "scale": true, "gamma_initializer": {"class_name": "Ones", "config": {}}, "beta_regularizer": null, "momentum": 0.99, "center": true, "gamma_constraint": null, "moving_mean_initializer": {"class_name": "Zeros", "config": {}}, "moving_variance_initializer": {"class_name": "Ones", "config": {}}, "axis": 3, "beta_initializer": {"class_name": "Zeros", "config": {}}, "epsilon": 1.001e-05, "name": "conv4_block3_0_bn", "beta_constraint": null}, "inbound_nodes": [[["conv4_block2_concat", 0, 0, {}]]]}, {"class_name": "Activation", "name": "conv4_block3_0_relu", "config": {"trainable": true, "name": "conv4_block3_0_relu", "activation": "relu"}, "inbound_nodes": [[["conv4_block3_0_bn", 0, 0, {}]]]}, {"class_name": "Conv2D", "name": "conv4_block3_1_conv", "config": {"trainable": true, "padding": "valid", "filters": 128, "use_bias": false, "kernel_regularizer": null, "bias_constraint": null, "strides": [1, 1], "activity_regularizer": null, "bias_regularizer": null, "bias_initializer": {"class_name": "Zeros", "config": {}}, "dilation_rate": [1, 1], "name": "conv4_block3_1_conv", "activation": "linear", "data_format": "channels_last", "kernel_constraint": null, "kernel_initializer": {"class_name": "VarianceScaling", "config": {"seed": null, "scale": 1.0, "distribution": "uniform", "mode": "fan_avg"}}, "kernel_size": [1, 1]}, "inbound_nodes": [[["conv4_block3_0_relu", 0, 0, {}]]]}, {"class_name": "BatchNormalization", "name": "conv4_block3_1_bn", "config": {"trainable": true, "gamma_regularizer": null, "scale": true, "gamma_initializer": {"class_name": "Ones", "config": {}}, "beta_regularizer": null, "momentum": 0.99, "center": true, "gamma_constraint": null, "moving_mean_initializer": {"class_name": "Zeros", "config": {}}, "moving_variance_initializer": {"class_name": "Ones", "config": {}}, "axis": 3, "beta_initializer": {"class_name": "Zeros", "config": {}}, "epsilon": 1.001e-05, "name": "conv4_block3_1_bn", "beta_constraint": null}, "inbound_nodes": [[["conv4_block3_1_conv", 0, 0, {}]]]}, {"class_name": "Activation", "name": "conv4_block3_1_relu", "config": {"trainable": true, "name": "conv4_block3_1_relu", "activation": "relu"}, "inbound_nodes": [[["conv4_block3_1_bn", 0, 0, {}]]]}, {"class_name": "Conv2D", "name": "conv4_block3_2_conv", "config": {"trainable": true, "padding": "same", "filters": 32, "use_bias": false, "kernel_regularizer": null, "bias_constraint": null, "strides": [1, 1], "activity_regularizer": null, "bias_regularizer": null, "bias_initializer": {"class_name": "Zeros", "config": {}}, "dilation_rate": [1, 1], "name": "conv4_block3_2_conv", "activation": "linear", "data_format": "channels_last", "kernel_constraint": null, "kernel_initializer": {"class_name": "VarianceScaling", "config": {"seed": null, "scale": 1.0, "distribution": "uniform", "mode": "fan_avg"}}, "kernel_size": [3, 3]}, "inbound_nodes": [[["conv4_block3_1_relu", 0, 0, {}]]]}, {"class_name": "Concatenate", "name": "conv4_block3_concat", "config": {"trainable": true, "name": "conv4_block3_concat", "axis": 3}, "inbound_nodes": [[["conv4_block2_concat", 0, 0, {}], ["conv4_block3_2_conv", 0, 0, {}]]]}, {"class_name": "BatchNormalization", "name": "conv4_block4_0_bn", "config": {"trainable": true, "gamma_regularizer": null, "scale": true, "gamma_initializer": {"class_name": "Ones", "config": {}}, "beta_regularizer": null, "momentum": 0.99, "center": true, "gamma_constraint": null, "moving_mean_initializer": {"class_name": "Zeros", "config": {}}, "moving_variance_initializer": {"class_name": "Ones", "config": {}}, "axis": 3, "beta_initializer": {"class_name": "Zeros", "config": {}}, "epsilon": 1.001e-05, "name": "conv4_block4_0_bn", "beta_constraint": null}, "inbound_nodes": [[["conv4_block3_concat", 0, 0, {}]]]}, {"class_name": "Activation", "name": "conv4_block4_0_relu", "config": {"trainable": true, "name": "conv4_block4_0_relu", "activation": "relu"}, "inbound_nodes": [[["conv4_block4_0_bn", 0, 0, {}]]]}, {"class_name": "Conv2D", "name": "conv4_block4_1_conv", "config": {"trainable": true, "padding": "valid", "filters": 128, "use_bias": false, "kernel_regularizer": null, "bias_constraint": null, "strides": [1, 1], "activity_regularizer": null, "bias_regularizer": null, "bias_initializer": {"class_name": "Zeros", "config": {}}, "dilation_rate": [1, 1], "name": "conv4_block4_1_conv", "activation": "linear", "data_format": "channels_last", "kernel_constraint": null, "kernel_initializer": {"class_name": "VarianceScaling", "config": {"seed": null, "scale": 1.0, "distribution": "uniform", "mode": "fan_avg"}}, "kernel_size": [1, 1]}, "inbound_nodes": [[["conv4_block4_0_relu", 0, 0, {}]]]}, {"class_name": "BatchNormalization", "name": "conv4_block4_1_bn", "config": {"trainable": true, "gamma_regularizer": null, "scale": true, "gamma_initializer": {"class_name": "Ones", "config": {}}, "beta_regularizer": null, "momentum": 0.99, "center": true, "gamma_constraint": null, "moving_mean_initializer": {"class_name": "Zeros", "config": {}}, "moving_variance_initializer": {"class_name": "Ones", "config": {}}, "axis": 3, "beta_initializer": {"class_name": "Zeros", "config": {}}, "epsilon": 1.001e-05, "name": "conv4_block4_1_bn", "beta_constraint": null}, "inbound_nodes": [[["conv4_block4_1_conv", 0, 0, {}]]]}, {"class_name": "Activation", "name": "conv4_block4_1_relu", "config": {"trainable": true, "name": "conv4_block4_1_relu", "activation": "relu"}, "inbound_nodes": [[["conv4_block4_1_bn", 0, 0, {}]]]}, {"class_name": "Conv2D", "name": "conv4_block4_2_conv", "config": {"trainable": true, "padding": "same", "filters": 32, "use_bias": false, "kernel_regularizer": null, "bias_constraint": null, "strides": [1, 1], "activity_regularizer": null, "bias_regularizer": null, "bias_initializer": {"class_name": "Zeros", "config": {}}, "dilation_rate": [1, 1], "name": "conv4_block4_2_conv", "activation": "linear", "data_format": "channels_last", "kernel_constraint": null, "kernel_initializer": {"class_name": "VarianceScaling", "config": {"seed": null, "scale": 1.0, "distribution": "uniform", "mode": "fan_avg"}}, "kernel_size": [3, 3]}, "inbound_nodes": [[["conv4_block4_1_relu", 0, 0, {}]]]}, {"class_name": "Concatenate", "name": "conv4_block4_concat", "config": {"trainable": true, "name": "conv4_block4_concat", "axis": 3}, "inbound_nodes": [[["conv4_block3_concat", 0, 0, {}], ["conv4_block4_2_conv", 0, 0, {}]]]}, {"class_name": "BatchNormalization", "name": "conv4_block5_0_bn", "config": {"trainable": true, "gamma_regularizer": null, "scale": true, "gamma_initializer": {"class_name": "Ones", "config": {}}, "beta_regularizer": null, "momentum": 0.99, "center": true, "gamma_constraint": null, "moving_mean_initializer": {"class_name": "Zeros", "config": {}}, "moving_variance_initializer": {"class_name": "Ones", "config": {}}, "axis": 3, "beta_initializer": {"class_name": "Zeros", "config": {}}, "epsilon": 1.001e-05, "name": "conv4_block5_0_bn", "beta_constraint": null}, "inbound_nodes": [[["conv4_block4_concat", 0, 0, {}]]]}, {"class_name": "Activation", "name": "conv4_block5_0_relu", "config": {"trainable": true, "name": "conv4_block5_0_relu", "activation": "relu"}, "inbound_nodes": [[["conv4_block5_0_bn", 0, 0, {}]]]}, {"class_name": "Conv2D", "name": "conv4_block5_1_conv", "config": {"trainable": true, "padding": "valid", "filters": 128, "use_bias": false, "kernel_regularizer": null, "bias_constraint": null, "strides": [1, 1], "activity_regularizer": null, "bias_regularizer": null, "bias_initializer": {"class_name": "Zeros", "config": {}}, "dilation_rate": [1, 1], "name": "conv4_block5_1_conv", "activation": "linear", "data_format": "channels_last", "kernel_constraint": null, "kernel_initializer": {"class_name": "VarianceScaling", "config": {"seed": null, "scale": 1.0, "distribution": "uniform", "mode": "fan_avg"}}, "kernel_size": [1, 1]}, "inbound_nodes": [[["conv4_block5_0_relu", 0, 0, {}]]]}, {"class_name": "BatchNormalization", "name": "conv4_block5_1_bn", "config": {"trainable": true, "gamma_regularizer": null, "scale": true, "gamma_initializer": {"class_name": "Ones", "config": {}}, "beta_regularizer": null, "momentum": 0.99, "center": true, "gamma_constraint": null, "moving_mean_initializer": {"class_name": "Zeros", "config": {}}, "moving_variance_initializer": {"class_name": "Ones", "config": {}}, "axis": 3, "beta_initializer": {"class_name": "Zeros", "config": {}}, "epsilon": 1.001e-05, "name": "conv4_block5_1_bn", "beta_constraint": null}, "inbound_nodes": [[["conv4_block5_1_conv", 0, 0, {}]]]}, {"class_name": "Activation", "name": "conv4_block5_1_relu", "config": {"trainable": true, "name": "conv4_block5_1_relu", "activation": "relu"}, "inbound_nodes": [[["conv4_block5_1_bn", 0, 0, {}]]]}, {"class_name": "Conv2D", "name": "conv4_block5_2_conv", "config": {"trainable": true, "padding": "same", "filters": 32, "use_bias": false, "kernel_regularizer": null, "bias_constraint": null, "strides": [1, 1], "activity_regularizer": null, "bias_regularizer": null, "bias_initializer": {"class_name": "Zeros", "config": {}}, "dilation_rate": [1, 1], "name": "conv4_block5_2_conv", "activation": "linear", "data_format": "channels_last", "kernel_constraint": null, "kernel_initializer": {"class_name": "VarianceScaling", "config": {"seed": null, "scale": 1.0, "distribution": "uniform", "mode": "fan_avg"}}, "kernel_size": [3, 3]}, "inbound_nodes": [[["conv4_block5_1_relu", 0, 0, {}]]]}, {"class_name": "Concatenate", "name": "conv4_block5_concat", "config": {"trainable": true, "name": "conv4_block5_concat", "axis": 3}, "inbound_nodes": [[["conv4_block4_concat", 0, 0, {}], ["conv4_block5_2_conv", 0, 0, {}]]]}, {"class_name": "BatchNormalization", "name": "conv4_block6_0_bn", "config": {"trainable": true, "gamma_regularizer": null, "scale": true, "gamma_initializer": {"class_name": "Ones", "config": {}}, "beta_regularizer": null, "momentum": 0.99, "center": true, "gamma_constraint": null, "moving_mean_initializer": {"class_name": "Zeros", "config": {}}, "moving_variance_initializer": {"class_name": "Ones", "config": {}}, "axis": 3, "beta_initializer": {"class_name": "Zeros", "config": {}}, "epsilon": 1.001e-05, "name": "conv4_block6_0_bn", "beta_constraint": null}, "inbound_nodes": [[["conv4_block5_concat", 0, 0, {}]]]}, {"class_name": "Activation", "name": "conv4_block6_0_relu", "config": {"trainable": true, "name": "conv4_block6_0_relu", "activation": "relu"}, "inbound_nodes": [[["conv4_block6_0_bn", 0, 0, {}]]]}, {"class_name": "Conv2D", "name": "conv4_block6_1_conv", "config": {"trainable": true, "padding": "valid", "filters": 128, "use_bias": false, "kernel_regularizer": null, "bias_constraint": null, "strides": [1, 1], "activity_regularizer": null, "bias_regularizer": null, "bias_initializer": {"class_name": "Zeros", "config": {}}, "dilation_rate": [1, 1], "name": "conv4_block6_1_conv", "activation": "linear", "data_format": "channels_last", "kernel_constraint": null, "kernel_initializer": {"class_name": "VarianceScaling", "config": {"seed": null, "scale": 1.0, "distribution": "uniform", "mode": "fan_avg"}}, "kernel_size": [1, 1]}, "inbound_nodes": [[["conv4_block6_0_relu", 0, 0, {}]]]}, {"class_name": "BatchNormalization", "name": "conv4_block6_1_bn", "config": {"trainable": true, "gamma_regularizer": null, "scale": true, "gamma_initializer": {"class_name": "Ones", "config": {}}, "beta_regularizer": null, "momentum": 0.99, "center": true, "gamma_constraint": null, "moving_mean_initializer": {"class_name": "Zeros", "config": {}}, "moving_variance_initializer": {"class_name": "Ones", "config": {}}, "axis": 3, "beta_initializer": {"class_name": "Zeros", "config": {}}, "epsilon": 1.001e-05, "name": "conv4_block6_1_bn", "beta_constraint": null}, "inbound_nodes": [[["conv4_block6_1_conv", 0, 0, {}]]]}, {"class_name": "Activation", "name": "conv4_block6_1_relu", "config": {"trainable": true, "name": "conv4_block6_1_relu", "activation": "relu"}, "inbound_nodes": [[["conv4_block6_1_bn", 0, 0, {}]]]}, {"class_name": "Conv2D", "name": "conv4_block6_2_conv", "config": {"trainable": true, "padding": "same", "filters": 32, "use_bias": false, "kernel_regularizer": null, "bias_constraint": null, "strides": [1, 1], "activity_regularizer": null, "bias_regularizer": null, "bias_initializer": {"class_name": "Zeros", "config": {}}, "dilation_rate": [1, 1], "name": "conv4_block6_2_conv", "activation": "linear", "data_format": "channels_last", "kernel_constraint": null, "kernel_initializer": {"class_name": "VarianceScaling", "config": {"seed": null, "scale": 1.0, "distribution": "uniform", "mode": "fan_avg"}}, "kernel_size": [3, 3]}, "inbound_nodes": [[["conv4_block6_1_relu", 0, 0, {}]]]}, {"class_name": "Concatenate", "name": "conv4_block6_concat", "config": {"trainable": true, "name": "conv4_block6_concat", "axis": 3}, "inbound_nodes": [[["conv4_block5_concat", 0, 0, {}], ["conv4_block6_2_conv", 0, 0, {}]]]}, {"class_name": "BatchNormalization", "name": "conv4_block7_0_bn", "config": {"trainable": true, "gamma_regularizer": null, "scale": true, "gamma_initializer": {"class_name": "Ones", "config": {}}, "beta_regularizer": null, "momentum": 0.99, "center": true, "gamma_constraint": null, "moving_mean_initializer": {"class_name": "Zeros", "config": {}}, "moving_variance_initializer": {"class_name": "Ones", "config": {}}, "axis": 3, "beta_initializer": {"class_name": "Zeros", "config": {}}, "epsilon": 1.001e-05, "name": "conv4_block7_0_bn", "beta_constraint": null}, "inbound_nodes": [[["conv4_block6_concat", 0, 0, {}]]]}, {"class_name": "Activation", "name": "conv4_block7_0_relu", "config": {"trainable": true, "name": "conv4_block7_0_relu", "activation": "relu"}, "inbound_nodes": [[["conv4_block7_0_bn", 0, 0, {}]]]}, {"class_name": "Conv2D", "name": "conv4_block7_1_conv", "config": {"trainable": true, "padding": "valid", "filters": 128, "use_bias": false, "kernel_regularizer": null, "bias_constraint": null, "strides": [1, 1], "activity_regularizer": null, "bias_regularizer": null, "bias_initializer": {"class_name": "Zeros", "config": {}}, "dilation_rate": [1, 1], "name": "conv4_block7_1_conv", "activation": "linear", "data_format": "channels_last", "kernel_constraint": null, "kernel_initializer": {"class_name": "VarianceScaling", "config": {"seed": null, "scale": 1.0, "distribution": "uniform", "mode": "fan_avg"}}, "kernel_size": [1, 1]}, "inbound_nodes": [[["conv4_block7_0_relu", 0, 0, {}]]]}, {"class_name": "BatchNormalization", "name": "conv4_block7_1_bn", "config": {"trainable": true, "gamma_regularizer": null, "scale": true, "gamma_initializer": {"class_name": "Ones", "config": {}}, "beta_regularizer": null, "momentum": 0.99, "center": true, "gamma_constraint": null, "moving_mean_initializer": {"class_name": "Zeros", "config": {}}, "moving_variance_initializer": {"class_name": "Ones", "config": {}}, "axis": 3, "beta_initializer": {"class_name": "Zeros", "config": {}}, "epsilon": 1.001e-05, "name": "conv4_block7_1_bn", "beta_constraint": null}, "inbound_nodes": [[["conv4_block7_1_conv", 0, 0, {}]]]}, {"class_name": "Activation", "name": "conv4_block7_1_relu", "config": {"trainable": true, "name": "conv4_block7_1_relu", "activation": "relu"}, "inbound_nodes": [[["conv4_block7_1_bn", 0, 0, {}]]]}, {"class_name": "Conv2D", "name": "conv4_block7_2_conv", "config": {"trainable": true, "padding": "same", "filters": 32, "use_bias": false, "kernel_regularizer": null, "bias_constraint": null, "strides": [1, 1], "activity_regularizer": null, "bias_regularizer": null, "bias_initializer": {"class_name": "Zeros", "config": {}}, "dilation_rate": [1, 1], "name": "conv4_block7_2_conv", "activation": "linear", "data_format": "channels_last", "kernel_constraint": null, "kernel_initializer": {"class_name": "VarianceScaling", "config": {"seed": null, "scale": 1.0, "distribution": "uniform", "mode": "fan_avg"}}, "kernel_size": [3, 3]}, "inbound_nodes": [[["conv4_block7_1_relu", 0, 0, {}]]]}, {"class_name": "Concatenate", "name": "conv4_block7_concat", "config": {"trainable": true, "name": "conv4_block7_concat", "axis": 3}, "inbound_nodes": [[["conv4_block6_concat", 0, 0, {}], ["conv4_block7_2_conv", 0, 0, {}]]]}, {"class_name": "BatchNormalization", "name": "conv4_block8_0_bn", "config": {"trainable": true, "gamma_regularizer": null, "scale": true, "gamma_initializer": {"class_name": "Ones", "config": {}}, "beta_regularizer": null, "momentum": 0.99, "center": true, "gamma_constraint": null, "moving_mean_initializer": {"class_name": "Zeros", "config": {}}, "moving_variance_initializer": {"class_name": "Ones", "config": {}}, "axis": 3, "beta_initializer": {"class_name": "Zeros", "config": {}}, "epsilon": 1.001e-05, "name": "conv4_block8_0_bn", "beta_constraint": null}, "inbound_nodes": [[["conv4_block7_concat", 0, 0, {}]]]}, {"class_name": "Activation", "name": "conv4_block8_0_relu", "config": {"trainable": true, "name": "conv4_block8_0_relu", "activation": "relu"}, "inbound_nodes": [[["conv4_block8_0_bn", 0, 0, {}]]]}, {"class_name": "Conv2D", "name": "conv4_block8_1_conv", "config": {"trainable": true, "padding": "valid", "filters": 128, "use_bias": false, "kernel_regularizer": null, "bias_constraint": null, "strides": [1, 1], "activity_regularizer": null, "bias_regularizer": null, "bias_initializer": {"class_name": "Zeros", "config": {}}, "dilation_rate": [1, 1], "name": "conv4_block8_1_conv", "activation": "linear", "data_format": "channels_last", "kernel_constraint": null, "kernel_initializer": {"class_name": "VarianceScaling", "config": {"seed": null, "scale": 1.0, "distribution": "uniform", "mode": "fan_avg"}}, "kernel_size": [1, 1]}, "inbound_nodes": [[["conv4_block8_0_relu", 0, 0, {}]]]}, {"class_name": "BatchNormalization", "name": "conv4_block8_1_bn", "config": {"trainable": true, "gamma_regularizer": null, "scale": true, "gamma_initializer": {"class_name": "Ones", "config": {}}, "beta_regularizer": null, "momentum": 0.99, "center": true, "gamma_constraint": null, "moving_mean_initializer": {"class_name": "Zeros", "config": {}}, "moving_variance_initializer": {"class_name": "Ones", "config": {}}, "axis": 3, "beta_initializer": {"class_name": "Zeros", "config": {}}, "epsilon": 1.001e-05, "name": "conv4_block8_1_bn", "beta_constraint": null}, "inbound_nodes": [[["conv4_block8_1_conv", 0, 0, {}]]]}, {"class_name": "Activation", "name": "conv4_block8_1_relu", "config": {"trainable": true, "name": "conv4_block8_1_relu", "activation": "relu"}, "inbound_nodes": [[["conv4_block8_1_bn", 0, 0, {}]]]}, {"class_name": "Conv2D", "name": "conv4_block8_2_conv", "config": {"trainable": true, "padding": "same", "filters": 32, "use_bias": false, "kernel_regularizer": null, "bias_constraint": null, "strides": [1, 1], "activity_regularizer": null, "bias_regularizer": null, "bias_initializer": {"class_name": "Zeros", "config": {}}, "dilation_rate": [1, 1], "name": "conv4_block8_2_conv", "activation": "linear", "data_format": "channels_last", "kernel_constraint": null, "kernel_initializer": {"class_name": "VarianceScaling", "config": {"seed": null, "scale": 1.0, "distribution": "uniform", "mode": "fan_avg"}}, "kernel_size": [3, 3]}, "inbound_nodes": [[["conv4_block8_1_relu", 0, 0, {}]]]}, {"class_name": "Concatenate", "name": "conv4_block8_concat", "config": {"trainable": true, "name": "conv4_block8_concat", "axis": 3}, "inbound_nodes": [[["conv4_block7_concat", 0, 0, {}], ["conv4_block8_2_conv", 0, 0, {}]]]}, {"class_name": "BatchNormalization", "name": "conv4_block9_0_bn", "config": {"trainable": true, "gamma_regularizer": null, "scale": true, "gamma_initializer": {"class_name": "Ones", "config": {}}, "beta_regularizer": null, "momentum": 0.99, "center": true, "gamma_constraint": null, "moving_mean_initializer": {"class_name": "Zeros", "config": {}}, "moving_variance_initializer": {"class_name": "Ones", "config": {}}, "axis": 3, "beta_initializer": {"class_name": "Zeros", "config": {}}, "epsilon": 1.001e-05, "name": "conv4_block9_0_bn", "beta_constraint": null}, "inbound_nodes": [[["conv4_block8_concat", 0, 0, {}]]]}, {"class_name": "Activation", "name": "conv4_block9_0_relu", "config": {"trainable": true, "name": "conv4_block9_0_relu", "activation": "relu"}, "inbound_nodes": [[["conv4_block9_0_bn", 0, 0, {}]]]}, {"class_name": "Conv2D", "name": "conv4_block9_1_conv", "config": {"trainable": true, "padding": "valid", "filters": 128, "use_bias": false, "kernel_regularizer": null, "bias_constraint": null, "strides": [1, 1], "activity_regularizer": null, "bias_regularizer": null, "bias_initializer": {"class_name": "Zeros", "config": {}}, "dilation_rate": [1, 1], "name": "conv4_block9_1_conv", "activation": "linear", "data_format": "channels_last", "kernel_constraint": null, "kernel_initializer": {"class_name": "VarianceScaling", "config": {"seed": null, "scale": 1.0, "distribution": "uniform", "mode": "fan_avg"}}, "kernel_size": [1, 1]}, "inbound_nodes": [[["conv4_block9_0_relu", 0, 0, {}]]]}, {"class_name": "BatchNormalization", "name": "conv4_block9_1_bn", "config": {"trainable": true, "gamma_regularizer": null, "scale": true, "gamma_initializer": {"class_name": "Ones", "config": {}}, "beta_regularizer": null, "momentum": 0.99, "center": true, "gamma_constraint": null, "moving_mean_initializer": {"class_name": "Zeros", "config": {}}, "moving_variance_initializer": {"class_name": "Ones", "config": {}}, "axis": 3, "beta_initializer": {"class_name": "Zeros", "config": {}}, "epsilon": 1.001e-05, "name": "conv4_block9_1_bn", "beta_constraint": null}, "inbound_nodes": [[["conv4_block9_1_conv", 0, 0, {}]]]}, {"class_name": "Activation", "name": "conv4_block9_1_relu", "config": {"trainable": true, "name": "conv4_block9_1_relu", "activation": "relu"}, "inbound_nodes": [[["conv4_block9_1_bn", 0, 0, {}]]]}, {"class_name": "Conv2D", "name": "conv4_block9_2_conv", "config": {"trainable": true, "padding": "same", "filters": 32, "use_bias": false, "kernel_regularizer": null, "bias_constraint": null, "strides": [1, 1], "activity_regularizer": null, "bias_regularizer": null, "bias_initializer": {"class_name": "Zeros", "config": {}}, "dilation_rate": [1, 1], "name": "conv4_block9_2_conv", "activation": "linear", "data_format": "channels_last", "kernel_constraint": null, "kernel_initializer": {"class_name": "VarianceScaling", "config": {"seed": null, "scale": 1.0, "distribution": "uniform", "mode": "fan_avg"}}, "kernel_size": [3, 3]}, "inbound_nodes": [[["conv4_block9_1_relu", 0, 0, {}]]]}, {"class_name": "Concatenate", "name": "conv4_block9_concat", "config": {"trainable": true, "name": "conv4_block9_concat", "axis": 3}, "inbound_nodes": [[["conv4_block8_concat", 0, 0, {}], ["conv4_block9_2_conv", 0, 0, {}]]]}, {"class_name": "BatchNormalization", "name": "conv4_block10_0_bn", "config": {"trainable": true, "gamma_regularizer": null, "scale": true, "gamma_initializer": {"class_name": "Ones", "config": {}}, "beta_regularizer": null, "momentum": 0.99, "center": true, "gamma_constraint": null, "moving_mean_initializer": {"class_name": "Zeros", "config": {}}, "moving_variance_initializer": {"class_name": "Ones", "config": {}}, "axis": 3, "beta_initializer": {"class_name": "Zeros", "config": {}}, "epsilon": 1.001e-05, "name": "conv4_block10_0_bn", "beta_constraint": null}, "inbound_nodes": [[["conv4_block9_concat", 0, 0, {}]]]}, {"class_name": "Activation", "name": "conv4_block10_0_relu", "config": {"trainable": true, "name": "conv4_block10_0_relu", "activation": "relu"}, "inbound_nodes": [[["conv4_block10_0_bn", 0, 0, {}]]]}, {"class_name": "Conv2D", "name": "conv4_block10_1_conv", "config": {"trainable": true, "padding": "valid", "filters": 128, "use_bias": false, "kernel_regularizer": null, "bias_constraint": null, "strides": [1, 1], "activity_regularizer": null, "bias_regularizer": null, "bias_initializer": {"class_name": "Zeros", "config": {}}, "dilation_rate": [1, 1], "name": "conv4_block10_1_conv", "activation": "linear", "data_format": "channels_last", "kernel_constraint": null, "kernel_initializer": {"class_name": "VarianceScaling", "config": {"seed": null, "scale": 1.0, "distribution": "uniform", "mode": "fan_avg"}}, "kernel_size": [1, 1]}, "inbound_nodes": [[["conv4_block10_0_relu", 0, 0, {}]]]}, {"class_name": "BatchNormalization", "name": "conv4_block10_1_bn", "config": {"trainable": true, "gamma_regularizer": null, "scale": true, "gamma_initializer": {"class_name": "Ones", "config": {}}, "beta_regularizer": null, "momentum": 0.99, "center": true, "gamma_constraint": null, "moving_mean_initializer": {"class_name": "Zeros", "config": {}}, "moving_variance_initializer": {"class_name": "Ones", "config": {}}, "axis": 3, "beta_initializer": {"class_name": "Zeros", "config": {}}, "epsilon": 1.001e-05, "name": "conv4_block10_1_bn", "beta_constraint": null}, "inbound_nodes": [[["conv4_block10_1_conv", 0, 0, {}]]]}, {"class_name": "Activation", "name": "conv4_block10_1_relu", "config": {"trainable": true, "name": "conv4_block10_1_relu", "activation": "relu"}, "inbound_nodes": [[["conv4_block10_1_bn", 0, 0, {}]]]}, {"class_name": "Conv2D", "name": "conv4_block10_2_conv", "config": {"trainable": true, "padding": "same", "filters": 32, "use_bias": false, "kernel_regularizer": null, "bias_constraint": null, "strides": [1, 1], "activity_regularizer": null, "bias_regularizer": null, "bias_initializer": {"class_name": "Zeros", "config": {}}, "dilation_rate": [1, 1], "name": "conv4_block10_2_conv", "activation": "linear", "data_format": "channels_last", "kernel_constraint": null, "kernel_initializer": {"class_name": "VarianceScaling", "config": {"seed": null, "scale": 1.0, "distribution": "uniform", "mode": "fan_avg"}}, "kernel_size": [3, 3]}, "inbound_nodes": [[["conv4_block10_1_relu", 0, 0, {}]]]}, {"class_name": "Concatenate", "name": "conv4_block10_concat", "config": {"trainable": true, "name": "conv4_block10_concat", "axis": 3}, "inbound_nodes": [[["conv4_block9_concat", 0, 0, {}], ["conv4_block10_2_conv", 0, 0, {}]]]}, {"class_name": "BatchNormalization", "name": "conv4_block11_0_bn", "config": {"trainable": true, "gamma_regularizer": null, "scale": true, "gamma_initializer": {"class_name": "Ones", "config": {}}, "beta_regularizer": null, "momentum": 0.99, "center": true, "gamma_constraint": null, "moving_mean_initializer": {"class_name": "Zeros", "config": {}}, "moving_variance_initializer": {"class_name": "Ones", "config": {}}, "axis": 3, "beta_initializer": {"class_name": "Zeros", "config": {}}, "epsilon": 1.001e-05, "name": "conv4_block11_0_bn", "beta_constraint": null}, "inbound_nodes": [[["conv4_block10_concat", 0, 0, {}]]]}, {"class_name": "Activation", "name": "conv4_block11_0_relu", "config": {"trainable": true, "name": "conv4_block11_0_relu", "activation": "relu"}, "inbound_nodes": [[["conv4_block11_0_bn", 0, 0, {}]]]}, {"class_name": "Conv2D", "name": "conv4_block11_1_conv", "config": {"trainable": true, "padding": "valid", "filters": 128, "use_bias": false, "kernel_regularizer": null, "bias_constraint": null, "strides": [1, 1], "activity_regularizer": null, "bias_regularizer": null, "bias_initializer": {"class_name": "Zeros", "config": {}}, "dilation_rate": [1, 1], "name": "conv4_block11_1_conv", "activation": "linear", "data_format": "channels_last", "kernel_constraint": null, "kernel_initializer": {"class_name": "VarianceScaling", "config": {"seed": null, "scale": 1.0, "distribution": "uniform", "mode": "fan_avg"}}, "kernel_size": [1, 1]}, "inbound_nodes": [[["conv4_block11_0_relu", 0, 0, {}]]]}, {"class_name": "BatchNormalization", "name": "conv4_block11_1_bn", "config": {"trainable": true, "gamma_regularizer": null, "scale": true, "gamma_initializer": {"class_name": "Ones", "config": {}}, "beta_regularizer": null, "momentum": 0.99, "center": true, "gamma_constraint": null, "moving_mean_initializer": {"class_name": "Zeros", "config": {}}, "moving_variance_initializer": {"class_name": "Ones", "config": {}}, "axis": 3, "beta_initializer": {"class_name": "Zeros", "config": {}}, "epsilon": 1.001e-05, "name": "conv4_block11_1_bn", "beta_constraint": null}, "inbound_nodes": [[["conv4_block11_1_conv", 0, 0, {}]]]}, {"class_name": "Activation", "name": "conv4_block11_1_relu", "config": {"trainable": true, "name": "conv4_block11_1_relu", "activation": "relu"}, "inbound_nodes": [[["conv4_block11_1_bn", 0, 0, {}]]]}, {"class_name": "Conv2D", "name": "conv4_block11_2_conv", "config": {"trainable": true, "padding": "same", "filters": 32, "use_bias": false, "kernel_regularizer": null, "bias_constraint": null, "strides": [1, 1], "activity_regularizer": null, "bias_regularizer": null, "bias_initializer": {"class_name": "Zeros", "config": {}}, "dilation_rate": [1, 1], "name": "conv4_block11_2_conv", "activation": "linear", "data_format": "channels_last", "kernel_constraint": null, "kernel_initializer": {"class_name": "VarianceScaling", "config": {"seed": null, "scale": 1.0, "distribution": "uniform", "mode": "fan_avg"}}, "kernel_size": [3, 3]}, "inbound_nodes": [[["conv4_block11_1_relu", 0, 0, {}]]]}, {"class_name": "Concatenate", "name": "conv4_block11_concat", "config": {"trainable": true, "name": "conv4_block11_concat", "axis": 3}, "inbound_nodes": [[["conv4_block10_concat", 0, 0, {}], ["conv4_block11_2_conv", 0, 0, {}]]]}, {"class_name": "BatchNormalization", "name": "conv4_block12_0_bn", "config": {"trainable": true, "gamma_regularizer": null, "scale": true, "gamma_initializer": {"class_name": "Ones", "config": {}}, "beta_regularizer": null, "momentum": 0.99, "center": true, "gamma_constraint": null, "moving_mean_initializer": {"class_name": "Zeros", "config": {}}, "moving_variance_initializer": {"class_name": "Ones", "config": {}}, "axis": 3, "beta_initializer": {"class_name": "Zeros", "config": {}}, "epsilon": 1.001e-05, "name": "conv4_block12_0_bn", "beta_constraint": null}, "inbound_nodes": [[["conv4_block11_concat", 0, 0, {}]]]}, {"class_name": "Activation", "name": "conv4_block12_0_relu", "config": {"trainable": true, "name": "conv4_block12_0_relu", "activation": "relu"}, "inbound_nodes": [[["conv4_block12_0_bn", 0, 0, {}]]]}, {"class_name": "Conv2D", "name": "conv4_block12_1_conv", "config": {"trainable": true, "padding": "valid", "filters": 128, "use_bias": false, "kernel_regularizer": null, "bias_constraint": null, "strides": [1, 1], "activity_regularizer": null, "bias_regularizer": null, "bias_initializer": {"class_name": "Zeros", "config": {}}, "dilation_rate": [1, 1], "name": "conv4_block12_1_conv", "activation": "linear", "data_format": "channels_last", "kernel_constraint": null, "kernel_initializer": {"class_name": "VarianceScaling", "config": {"seed": null, "scale": 1.0, "distribution": "uniform", "mode": "fan_avg"}}, "kernel_size": [1, 1]}, "inbound_nodes": [[["conv4_block12_0_relu", 0, 0, {}]]]}, {"class_name": "BatchNormalization", "name": "conv4_block12_1_bn", "config": {"trainable": true, "gamma_regularizer": null, "scale": true, "gamma_initializer": {"class_name": "Ones", "config": {}}, "beta_regularizer": null, "momentum": 0.99, "center": true, "gamma_constraint": null, "moving_mean_initializer": {"class_name": "Zeros", "config": {}}, "moving_variance_initializer": {"class_name": "Ones", "config": {}}, "axis": 3, "beta_initializer": {"class_name": "Zeros", "config": {}}, "epsilon": 1.001e-05, "name": "conv4_block12_1_bn", "beta_constraint": null}, "inbound_nodes": [[["conv4_block12_1_conv", 0, 0, {}]]]}, {"class_name": "Activation", "name": "conv4_block12_1_relu", "config": {"trainable": true, "name": "conv4_block12_1_relu", "activation": "relu"}, "inbound_nodes": [[["conv4_block12_1_bn", 0, 0, {}]]]}, {"class_name": "Conv2D", "name": "conv4_block12_2_conv", "config": {"trainable": true, "padding": "same", "filters": 32, "use_bias": false, "kernel_regularizer": null, "bias_constraint": null, "strides": [1, 1], "activity_regularizer": null, "bias_regularizer": null, "bias_initializer": {"class_name": "Zeros", "config": {}}, "dilation_rate": [1, 1], "name": "conv4_block12_2_conv", "activation": "linear", "data_format": "channels_last", "kernel_constraint": null, "kernel_initializer": {"class_name": "VarianceScaling", "config": {"seed": null, "scale": 1.0, "distribution": "uniform", "mode": "fan_avg"}}, "kernel_size": [3, 3]}, "inbound_nodes": [[["conv4_block12_1_relu", 0, 0, {}]]]}, {"class_name": "Concatenate", "name": "conv4_block12_concat", "config": {"trainable": true, "name": "conv4_block12_concat", "axis": 3}, "inbound_nodes": [[["conv4_block11_concat", 0, 0, {}], ["conv4_block12_2_conv", 0, 0, {}]]]}, {"class_name": "BatchNormalization", "name": "conv4_block13_0_bn", "config": {"trainable": true, "gamma_regularizer": null, "scale": true, "gamma_initializer": {"class_name": "Ones", "config": {}}, "beta_regularizer": null, "momentum": 0.99, "center": true, "gamma_constraint": null, "moving_mean_initializer": {"class_name": "Zeros", "config": {}}, "moving_variance_initializer": {"class_name": "Ones", "config": {}}, "axis": 3, "beta_initializer": {"class_name": "Zeros", "config": {}}, "epsilon": 1.001e-05, "name": "conv4_block13_0_bn", "beta_constraint": null}, "inbound_nodes": [[["conv4_block12_concat", 0, 0, {}]]]}, {"class_name": "Activation", "name": "conv4_block13_0_relu", "config": {"trainable": true, "name": "conv4_block13_0_relu", "activation": "relu"}, "inbound_nodes": [[["conv4_block13_0_bn", 0, 0, {}]]]}, {"class_name": "Conv2D", "name": "conv4_block13_1_conv", "config": {"trainable": true, "padding": "valid", "filters": 128, "use_bias": false, "kernel_regularizer": null, "bias_constraint": null, "strides": [1, 1], "activity_regularizer": null, "bias_regularizer": null, "bias_initializer": {"class_name": "Zeros", "config": {}}, "dilation_rate": [1, 1], "name": "conv4_block13_1_conv", "activation": "linear", "data_format": "channels_last", "kernel_constraint": null, "kernel_initializer": {"class_name": "VarianceScaling", "config": {"seed": null, "scale": 1.0, "distribution": "uniform", "mode": "fan_avg"}}, "kernel_size": [1, 1]}, "inbound_nodes": [[["conv4_block13_0_relu", 0, 0, {}]]]}, {"class_name": "BatchNormalization", "name": "conv4_block13_1_bn", "config": {"trainable": true, "gamma_regularizer": null, "scale": true, "gamma_initializer": {"class_name": "Ones", "config": {}}, "beta_regularizer": null, "momentum": 0.99, "center": true, "gamma_constraint": null, "moving_mean_initializer": {"class_name": "Zeros", "config": {}}, "moving_variance_initializer": {"class_name": "Ones", "config": {}}, "axis": 3, "beta_initializer": {"class_name": "Zeros", "config": {}}, "epsilon": 1.001e-05, "name": "conv4_block13_1_bn", "beta_constraint": null}, "inbound_nodes": [[["conv4_block13_1_conv", 0, 0, {}]]]}, {"class_name": "Activation", "name": "conv4_block13_1_relu", "config": {"trainable": true, "name": "conv4_block13_1_relu", "activation": "relu"}, "inbound_nodes": [[["conv4_block13_1_bn", 0, 0, {}]]]}, {"class_name": "Conv2D", "name": "conv4_block13_2_conv", "config": {"trainable": true, "padding": "same", "filters": 32, "use_bias": false, "kernel_regularizer": null, "bias_constraint": null, "strides": [1, 1], "activity_regularizer": null, "bias_regularizer": null, "bias_initializer": {"class_name": "Zeros", "config": {}}, "dilation_rate": [1, 1], "name": "conv4_block13_2_conv", "activation": "linear", "data_format": "channels_last", "kernel_constraint": null, "kernel_initializer": {"class_name": "VarianceScaling", "config": {"seed": null, "scale": 1.0, "distribution": "uniform", "mode": "fan_avg"}}, "kernel_size": [3, 3]}, "inbound_nodes": [[["conv4_block13_1_relu", 0, 0, {}]]]}, {"class_name": "Concatenate", "name": "conv4_block13_concat", "config": {"trainable": true, "name": "conv4_block13_concat", "axis": 3}, "inbound_nodes": [[["conv4_block12_concat", 0, 0, {}], ["conv4_block13_2_conv", 0, 0, {}]]]}, {"class_name": "BatchNormalization", "name": "conv4_block14_0_bn", "config": {"trainable": true, "gamma_regularizer": null, "scale": true, "gamma_initializer": {"class_name": "Ones", "config": {}}, "beta_regularizer": null, "momentum": 0.99, "center": true, "gamma_constraint": null, "moving_mean_initializer": {"class_name": "Zeros", "config": {}}, "moving_variance_initializer": {"class_name": "Ones", "config": {}}, "axis": 3, "beta_initializer": {"class_name": "Zeros", "config": {}}, "epsilon": 1.001e-05, "name": "conv4_block14_0_bn", "beta_constraint": null}, "inbound_nodes": [[["conv4_block13_concat", 0, 0, {}]]]}, {"class_name": "Activation", "name": "conv4_block14_0_relu", "config": {"trainable": true, "name": "conv4_block14_0_relu", "activation": "relu"}, "inbound_nodes": [[["conv4_block14_0_bn", 0, 0, {}]]]}, {"class_name": "Conv2D", "name": "conv4_block14_1_conv", "config": {"trainable": true, "padding": "valid", "filters": 128, "use_bias": false, "kernel_regularizer": null, "bias_constraint": null, "strides": [1, 1], "activity_regularizer": null, "bias_regularizer": null, "bias_initializer": {"class_name": "Zeros", "config": {}}, "dilation_rate": [1, 1], "name": "conv4_block14_1_conv", "activation": "linear", "data_format": "channels_last", "kernel_constraint": null, "kernel_initializer": {"class_name": "VarianceScaling", "config": {"seed": null, "scale": 1.0, "distribution": "uniform", "mode": "fan_avg"}}, "kernel_size": [1, 1]}, "inbound_nodes": [[["conv4_block14_0_relu", 0, 0, {}]]]}, {"class_name": "BatchNormalization", "name": "conv4_block14_1_bn", "config": {"trainable": true, "gamma_regularizer": null, "scale": true, "gamma_initializer": {"class_name": "Ones", "config": {}}, "beta_regularizer": null, "momentum": 0.99, "center": true, "gamma_constraint": null, "moving_mean_initializer": {"class_name": "Zeros", "config": {}}, "moving_variance_initializer": {"class_name": "Ones", "config": {}}, "axis": 3, "beta_initializer": {"class_name": "Zeros", "config": {}}, "epsilon": 1.001e-05, "name": "conv4_block14_1_bn", "beta_constraint": null}, "inbound_nodes": [[["conv4_block14_1_conv", 0, 0, {}]]]}, {"class_name": "Activation", "name": "conv4_block14_1_relu", "config": {"trainable": true, "name": "conv4_block14_1_relu", "activation": "relu"}, "inbound_nodes": [[["conv4_block14_1_bn", 0, 0, {}]]]}, {"class_name": "Conv2D", "name": "conv4_block14_2_conv", "config": {"trainable": true, "padding": "same", "filters": 32, "use_bias": false, "kernel_regularizer": null, "bias_constraint": null, "strides": [1, 1], "activity_regularizer": null, "bias_regularizer": null, "bias_initializer": {"class_name": "Zeros", "config": {}}, "dilation_rate": [1, 1], "name": "conv4_block14_2_conv", "activation": "linear", "data_format": "channels_last", "kernel_constraint": null, "kernel_initializer": {"class_name": "VarianceScaling", "config": {"seed": null, "scale": 1.0, "distribution": "uniform", "mode": "fan_avg"}}, "kernel_size": [3, 3]}, "inbound_nodes": [[["conv4_block14_1_relu", 0, 0, {}]]]}, {"class_name": "Concatenate", "name": "conv4_block14_concat", "config": {"trainable": true, "name": "conv4_block14_concat", "axis": 3}, "inbound_nodes": [[["conv4_block13_concat", 0, 0, {}], ["conv4_block14_2_conv", 0, 0, {}]]]}, {"class_name": "BatchNormalization", "name": "conv4_block15_0_bn", "config": {"trainable": true, "gamma_regularizer": null, "scale": true, "gamma_initializer": {"class_name": "Ones", "config": {}}, "beta_regularizer": null, "momentum": 0.99, "center": true, "gamma_constraint": null, "moving_mean_initializer": {"class_name": "Zeros", "config": {}}, "moving_variance_initializer": {"class_name": "Ones", "config": {}}, "axis": 3, "beta_initializer": {"class_name": "Zeros", "config": {}}, "epsilon": 1.001e-05, "name": "conv4_block15_0_bn", "beta_constraint": null}, "inbound_nodes": [[["conv4_block14_concat", 0, 0, {}]]]}, {"class_name": "Activation", "name": "conv4_block15_0_relu", "config": {"trainable": true, "name": "conv4_block15_0_relu", "activation": "relu"}, "inbound_nodes": [[["conv4_block15_0_bn", 0, 0, {}]]]}, {"class_name": "Conv2D", "name": "conv4_block15_1_conv", "config": {"trainable": true, "padding": "valid", "filters": 128, "use_bias": false, "kernel_regularizer": null, "bias_constraint": null, "strides": [1, 1], "activity_regularizer": null, "bias_regularizer": null, "bias_initializer": {"class_name": "Zeros", "config": {}}, "dilation_rate": [1, 1], "name": "conv4_block15_1_conv", "activation": "linear", "data_format": "channels_last", "kernel_constraint": null, "kernel_initializer": {"class_name": "VarianceScaling", "config": {"seed": null, "scale": 1.0, "distribution": "uniform", "mode": "fan_avg"}}, "kernel_size": [1, 1]}, "inbound_nodes": [[["conv4_block15_0_relu", 0, 0, {}]]]}, {"class_name": "BatchNormalization", "name": "conv4_block15_1_bn", "config": {"trainable": true, "gamma_regularizer": null, "scale": true, "gamma_initializer": {"class_name": "Ones", "config": {}}, "beta_regularizer": null, "momentum": 0.99, "center": true, "gamma_constraint": null, "moving_mean_initializer": {"class_name": "Zeros", "config": {}}, "moving_variance_initializer": {"class_name": "Ones", "config": {}}, "axis": 3, "beta_initializer": {"class_name": "Zeros", "config": {}}, "epsilon": 1.001e-05, "name": "conv4_block15_1_bn", "beta_constraint": null}, "inbound_nodes": [[["conv4_block15_1_conv", 0, 0, {}]]]}, {"class_name": "Activation", "name": "conv4_block15_1_relu", "config": {"trainable": true, "name": "conv4_block15_1_relu", "activation": "relu"}, "inbound_nodes": [[["conv4_block15_1_bn", 0, 0, {}]]]}, {"class_name": "Conv2D", "name": "conv4_block15_2_conv", "config": {"trainable": true, "padding": "same", "filters": 32, "use_bias": false, "kernel_regularizer": null, "bias_constraint": null, "strides": [1, 1], "activity_regularizer": null, "bias_regularizer": null, "bias_initializer": {"class_name": "Zeros", "config": {}}, "dilation_rate": [1, 1], "name": "conv4_block15_2_conv", "activation": "linear", "data_format": "channels_last", "kernel_constraint": null, "kernel_initializer": {"class_name": "VarianceScaling", "config": {"seed": null, "scale": 1.0, "distribution": "uniform", "mode": "fan_avg"}}, "kernel_size": [3, 3]}, "inbound_nodes": [[["conv4_block15_1_relu", 0, 0, {}]]]}, {"class_name": "Concatenate", "name": "conv4_block15_concat", "config": {"trainable": true, "name": "conv4_block15_concat", "axis": 3}, "inbound_nodes": [[["conv4_block14_concat", 0, 0, {}], ["conv4_block15_2_conv", 0, 0, {}]]]}, {"class_name": "BatchNormalization", "name": "conv4_block16_0_bn", "config": {"trainable": true, "gamma_regularizer": null, "scale": true, "gamma_initializer": {"class_name": "Ones", "config": {}}, "beta_regularizer": null, "momentum": 0.99, "center": true, "gamma_constraint": null, "moving_mean_initializer": {"class_name": "Zeros", "config": {}}, "moving_variance_initializer": {"class_name": "Ones", "config": {}}, "axis": 3, "beta_initializer": {"class_name": "Zeros", "config": {}}, "epsilon": 1.001e-05, "name": "conv4_block16_0_bn", "beta_constraint": null}, "inbound_nodes": [[["conv4_block15_concat", 0, 0, {}]]]}, {"class_name": "Activation", "name": "conv4_block16_0_relu", "config": {"trainable": true, "name": "conv4_block16_0_relu", "activation": "relu"}, "inbound_nodes": [[["conv4_block16_0_bn", 0, 0, {}]]]}, {"class_name": "Conv2D", "name": "conv4_block16_1_conv", "config": {"trainable": true, "padding": "valid", "filters": 128, "use_bias": false, "kernel_regularizer": null, "bias_constraint": null, "strides": [1, 1], "activity_regularizer": null, "bias_regularizer": null, "bias_initializer": {"class_name": "Zeros", "config": {}}, "dilation_rate": [1, 1], "name": "conv4_block16_1_conv", "activation": "linear", "data_format": "channels_last", "kernel_constraint": null, "kernel_initializer": {"class_name": "VarianceScaling", "config": {"seed": null, "scale": 1.0, "distribution": "uniform", "mode": "fan_avg"}}, "kernel_size": [1, 1]}, "inbound_nodes": [[["conv4_block16_0_relu", 0, 0, {}]]]}, {"class_name": "BatchNormalization", "name": "conv4_block16_1_bn", "config": {"trainable": true, "gamma_regularizer": null, "scale": true, "gamma_initializer": {"class_name": "Ones", "config": {}}, "beta_regularizer": null, "momentum": 0.99, "center": true, "gamma_constraint": null, "moving_mean_initializer": {"class_name": "Zeros", "config": {}}, "moving_variance_initializer": {"class_name": "Ones", "config": {}}, "axis": 3, "beta_initializer": {"class_name": "Zeros", "config": {}}, "epsilon": 1.001e-05, "name": "conv4_block16_1_bn", "beta_constraint": null}, "inbound_nodes": [[["conv4_block16_1_conv", 0, 0, {}]]]}, {"class_name": "Activation", "name": "conv4_block16_1_relu", "config": {"trainable": true, "name": "conv4_block16_1_relu", "activation": "relu"}, "inbound_nodes": [[["conv4_block16_1_bn", 0, 0, {}]]]}, {"class_name": "Conv2D", "name": "conv4_block16_2_conv", "config": {"trainable": true, "padding": "same", "filters": 32, "use_bias": false, "kernel_regularizer": null, "bias_constraint": null, "strides": [1, 1], "activity_regularizer": null, "bias_regularizer": null, "bias_initializer": {"class_name": "Zeros", "config": {}}, "dilation_rate": [1, 1], "name": "conv4_block16_2_conv", "activation": "linear", "data_format": "channels_last", "kernel_constraint": null, "kernel_initializer": {"class_name": "VarianceScaling", "config": {"seed": null, "scale": 1.0, "distribution": "uniform", "mode": "fan_avg"}}, "kernel_size": [3, 3]}, "inbound_nodes": [[["conv4_block16_1_relu", 0, 0, {}]]]}, {"class_name": "Concatenate", "name": "conv4_block16_concat", "config": {"trainable": true, "name": "conv4_block16_concat", "axis": 3}, "inbound_nodes": [[["conv4_block15_concat", 0, 0, {}], ["conv4_block16_2_conv", 0, 0, {}]]]}, {"class_name": "BatchNormalization", "name": "conv4_block17_0_bn", "config": {"trainable": true, "gamma_regularizer": null, "scale": true, "gamma_initializer": {"class_name": "Ones", "config": {}}, "beta_regularizer": null, "momentum": 0.99, "center": true, "gamma_constraint": null, "moving_mean_initializer": {"class_name": "Zeros", "config": {}}, "moving_variance_initializer": {"class_name": "Ones", "config": {}}, "axis": 3, "beta_initializer": {"class_name": "Zeros", "config": {}}, "epsilon": 1.001e-05, "name": "conv4_block17_0_bn", "beta_constraint": null}, "inbound_nodes": [[["conv4_block16_concat", 0, 0, {}]]]}, {"class_name": "Activation", "name": "conv4_block17_0_relu", "config": {"trainable": true, "name": "conv4_block17_0_relu", "activation": "relu"}, "inbound_nodes": [[["conv4_block17_0_bn", 0, 0, {}]]]}, {"class_name": "Conv2D", "name": "conv4_block17_1_conv", "config": {"trainable": true, "padding": "valid", "filters": 128, "use_bias": false, "kernel_regularizer": null, "bias_constraint": null, "strides": [1, 1], "activity_regularizer": null, "bias_regularizer": null, "bias_initializer": {"class_name": "Zeros", "config": {}}, "dilation_rate": [1, 1], "name": "conv4_block17_1_conv", "activation": "linear", "data_format": "channels_last", "kernel_constraint": null, "kernel_initializer": {"class_name": "VarianceScaling", "config": {"seed": null, "scale": 1.0, "distribution": "uniform", "mode": "fan_avg"}}, "kernel_size": [1, 1]}, "inbound_nodes": [[["conv4_block17_0_relu", 0, 0, {}]]]}, {"class_name": "BatchNormalization", "name": "conv4_block17_1_bn", "config": {"trainable": true, "gamma_regularizer": null, "scale": true, "gamma_initializer": {"class_name": "Ones", "config": {}}, "beta_regularizer": null, "momentum": 0.99, "center": true, "gamma_constraint": null, "moving_mean_initializer": {"class_name": "Zeros", "config": {}}, "moving_variance_initializer": {"class_name": "Ones", "config": {}}, "axis": 3, "beta_initializer": {"class_name": "Zeros", "config": {}}, "epsilon": 1.001e-05, "name": "conv4_block17_1_bn", "beta_constraint": null}, "inbound_nodes": [[["conv4_block17_1_conv", 0, 0, {}]]]}, {"class_name": "Activation", "name": "conv4_block17_1_relu", "config": {"trainable": true, "name": "conv4_block17_1_relu", "activation": "relu"}, "inbound_nodes": [[["conv4_block17_1_bn", 0, 0, {}]]]}, {"class_name": "Conv2D", "name": "conv4_block17_2_conv", "config": {"trainable": true, "padding": "same", "filters": 32, "use_bias": false, "kernel_regularizer": null, "bias_constraint": null, "strides": [1, 1], "activity_regularizer": null, "bias_regularizer": null, "bias_initializer": {"class_name": "Zeros", "config": {}}, "dilation_rate": [1, 1], "name": "conv4_block17_2_conv", "activation": "linear", "data_format": "channels_last", "kernel_constraint": null, "kernel_initializer": {"class_name": "VarianceScaling", "config": {"seed": null, "scale": 1.0, "distribution": "uniform", "mode": "fan_avg"}}, "kernel_size": [3, 3]}, "inbound_nodes": [[["conv4_block17_1_relu", 0, 0, {}]]]}, {"class_name": "Concatenate", "name": "conv4_block17_concat", "config": {"trainable": true, "name": "conv4_block17_concat", "axis": 3}, "inbound_nodes": [[["conv4_block16_concat", 0, 0, {}], ["conv4_block17_2_conv", 0, 0, {}]]]}, {"class_name": "BatchNormalization", "name": "conv4_block18_0_bn", "config": {"trainable": true, "gamma_regularizer": null, "scale": true, "gamma_initializer": {"class_name": "Ones", "config": {}}, "beta_regularizer": null, "momentum": 0.99, "center": true, "gamma_constraint": null, "moving_mean_initializer": {"class_name": "Zeros", "config": {}}, "moving_variance_initializer": {"class_name": "Ones", "config": {}}, "axis": 3, "beta_initializer": {"class_name": "Zeros", "config": {}}, "epsilon": 1.001e-05, "name": "conv4_block18_0_bn", "beta_constraint": null}, "inbound_nodes": [[["conv4_block17_concat", 0, 0, {}]]]}, {"class_name": "Activation", "name": "conv4_block18_0_relu", "config": {"trainable": true, "name": "conv4_block18_0_relu", "activation": "relu"}, "inbound_nodes": [[["conv4_block18_0_bn", 0, 0, {}]]]}, {"class_name": "Conv2D", "name": "conv4_block18_1_conv", "config": {"trainable": true, "padding": "valid", "filters": 128, "use_bias": false, "kernel_regularizer": null, "bias_constraint": null, "strides": [1, 1], "activity_regularizer": null, "bias_regularizer": null, "bias_initializer": {"class_name": "Zeros", "config": {}}, "dilation_rate": [1, 1], "name": "conv4_block18_1_conv", "activation": "linear", "data_format": "channels_last", "kernel_constraint": null, "kernel_initializer": {"class_name": "VarianceScaling", "config": {"seed": null, "scale": 1.0, "distribution": "uniform", "mode": "fan_avg"}}, "kernel_size": [1, 1]}, "inbound_nodes": [[["conv4_block18_0_relu", 0, 0, {}]]]}, {"class_name": "BatchNormalization", "name": "conv4_block18_1_bn", "config": {"trainable": true, "gamma_regularizer": null, "scale": true, "gamma_initializer": {"class_name": "Ones", "config": {}}, "beta_regularizer": null, "momentum": 0.99, "center": true, "gamma_constraint": null, "moving_mean_initializer": {"class_name": "Zeros", "config": {}}, "moving_variance_initializer": {"class_name": "Ones", "config": {}}, "axis": 3, "beta_initializer": {"class_name": "Zeros", "config": {}}, "epsilon": 1.001e-05, "name": "conv4_block18_1_bn", "beta_constraint": null}, "inbound_nodes": [[["conv4_block18_1_conv", 0, 0, {}]]]}, {"class_name": "Activation", "name": "conv4_block18_1_relu", "config": {"trainable": true, "name": "conv4_block18_1_relu", "activation": "relu"}, "inbound_nodes": [[["conv4_block18_1_bn", 0, 0, {}]]]}, {"class_name": "Conv2D", "name": "conv4_block18_2_conv", "config": {"trainable": true, "padding": "same", "filters": 32, "use_bias": false, "kernel_regularizer": null, "bias_constraint": null, "strides": [1, 1], "activity_regularizer": null, "bias_regularizer": null, "bias_initializer": {"class_name": "Zeros", "config": {}}, "dilation_rate": [1, 1], "name": "conv4_block18_2_conv", "activation": "linear", "data_format": "channels_last", "kernel_constraint": null, "kernel_initializer": {"class_name": "VarianceScaling", "config": {"seed": null, "scale": 1.0, "distribution": "uniform", "mode": "fan_avg"}}, "kernel_size": [3, 3]}, "inbound_nodes": [[["conv4_block18_1_relu", 0, 0, {}]]]}, {"class_name": "Concatenate", "name": "conv4_block18_concat", "config": {"trainable": true, "name": "conv4_block18_concat", "axis": 3}, "inbound_nodes": [[["conv4_block17_concat", 0, 0, {}], ["conv4_block18_2_conv", 0, 0, {}]]]}, {"class_name": "BatchNormalization", "name": "conv4_block19_0_bn", "config": {"trainable": true, "gamma_regularizer": null, "scale": true, "gamma_initializer": {"class_name": "Ones", "config": {}}, "beta_regularizer": null, "momentum": 0.99, "center": true, "gamma_constraint": null, "moving_mean_initializer": {"class_name": "Zeros", "config": {}}, "moving_variance_initializer": {"class_name": "Ones", "config": {}}, "axis": 3, "beta_initializer": {"class_name": "Zeros", "config": {}}, "epsilon": 1.001e-05, "name": "conv4_block19_0_bn", "beta_constraint": null}, "inbound_nodes": [[["conv4_block18_concat", 0, 0, {}]]]}, {"class_name": "Activation", "name": "conv4_block19_0_relu", "config": {"trainable": true, "name": "conv4_block19_0_relu", "activation": "relu"}, "inbound_nodes": [[["conv4_block19_0_bn", 0, 0, {}]]]}, {"class_name": "Conv2D", "name": "conv4_block19_1_conv", "config": {"trainable": true, "padding": "valid", "filters": 128, "use_bias": false, "kernel_regularizer": null, "bias_constraint": null, "strides": [1, 1], "activity_regularizer": null, "bias_regularizer": null, "bias_initializer": {"class_name": "Zeros", "config": {}}, "dilation_rate": [1, 1], "name": "conv4_block19_1_conv", "activation": "linear", "data_format": "channels_last", "kernel_constraint": null, "kernel_initializer": {"class_name": "VarianceScaling", "config": {"seed": null, "scale": 1.0, "distribution": "uniform", "mode": "fan_avg"}}, "kernel_size": [1, 1]}, "inbound_nodes": [[["conv4_block19_0_relu", 0, 0, {}]]]}, {"class_name": "BatchNormalization", "name": "conv4_block19_1_bn", "config": {"trainable": true, "gamma_regularizer": null, "scale": true, "gamma_initializer": {"class_name": "Ones", "config": {}}, "beta_regularizer": null, "momentum": 0.99, "center": true, "gamma_constraint": null, "moving_mean_initializer": {"class_name": "Zeros", "config": {}}, "moving_variance_initializer": {"class_name": "Ones", "config": {}}, "axis": 3, "beta_initializer": {"class_name": "Zeros", "config": {}}, "epsilon": 1.001e-05, "name": "conv4_block19_1_bn", "beta_constraint": null}, "inbound_nodes": [[["conv4_block19_1_conv", 0, 0, {}]]]}, {"class_name": "Activation", "name": "conv4_block19_1_relu", "config": {"trainable": true, "name": "conv4_block19_1_relu", "activation": "relu"}, "inbound_nodes": [[["conv4_block19_1_bn", 0, 0, {}]]]}, {"class_name": "Conv2D", "name": "conv4_block19_2_conv", "config": {"trainable": true, "padding": "same", "filters": 32, "use_bias": false, "kernel_regularizer": null, "bias_constraint": null, "strides": [1, 1], "activity_regularizer": null, "bias_regularizer": null, "bias_initializer": {"class_name": "Zeros", "config": {}}, "dilation_rate": [1, 1], "name": "conv4_block19_2_conv", "activation": "linear", "data_format": "channels_last", "kernel_constraint": null, "kernel_initializer": {"class_name": "VarianceScaling", "config": {"seed": null, "scale": 1.0, "distribution": "uniform", "mode": "fan_avg"}}, "kernel_size": [3, 3]}, "inbound_nodes": [[["conv4_block19_1_relu", 0, 0, {}]]]}, {"class_name": "Concatenate", "name": "conv4_block19_concat", "config": {"trainable": true, "name": "conv4_block19_concat", "axis": 3}, "inbound_nodes": [[["conv4_block18_concat", 0, 0, {}], ["conv4_block19_2_conv", 0, 0, {}]]]}, {"class_name": "BatchNormalization", "name": "conv4_block20_0_bn", "config": {"trainable": true, "gamma_regularizer": null, "scale": true, "gamma_initializer": {"class_name": "Ones", "config": {}}, "beta_regularizer": null, "momentum": 0.99, "center": true, "gamma_constraint": null, "moving_mean_initializer": {"class_name": "Zeros", "config": {}}, "moving_variance_initializer": {"class_name": "Ones", "config": {}}, "axis": 3, "beta_initializer": {"class_name": "Zeros", "config": {}}, "epsilon": 1.001e-05, "name": "conv4_block20_0_bn", "beta_constraint": null}, "inbound_nodes": [[["conv4_block19_concat", 0, 0, {}]]]}, {"class_name": "Activation", "name": "conv4_block20_0_relu", "config": {"trainable": true, "name": "conv4_block20_0_relu", "activation": "relu"}, "inbound_nodes": [[["conv4_block20_0_bn", 0, 0, {}]]]}, {"class_name": "Conv2D", "name": "conv4_block20_1_conv", "config": {"trainable": true, "padding": "valid", "filters": 128, "use_bias": false, "kernel_regularizer": null, "bias_constraint": null, "strides": [1, 1], "activity_regularizer": null, "bias_regularizer": null, "bias_initializer": {"class_name": "Zeros", "config": {}}, "dilation_rate": [1, 1], "name": "conv4_block20_1_conv", "activation": "linear", "data_format": "channels_last", "kernel_constraint": null, "kernel_initializer": {"class_name": "VarianceScaling", "config": {"seed": null, "scale": 1.0, "distribution": "uniform", "mode": "fan_avg"}}, "kernel_size": [1, 1]}, "inbound_nodes": [[["conv4_block20_0_relu", 0, 0, {}]]]}, {"class_name": "BatchNormalization", "name": "conv4_block20_1_bn", "config": {"trainable": true, "gamma_regularizer": null, "scale": true, "gamma_initializer": {"class_name": "Ones", "config": {}}, "beta_regularizer": null, "momentum": 0.99, "center": true, "gamma_constraint": null, "moving_mean_initializer": {"class_name": "Zeros", "config": {}}, "moving_variance_initializer": {"class_name": "Ones", "config": {}}, "axis": 3, "beta_initializer": {"class_name": "Zeros", "config": {}}, "epsilon": 1.001e-05, "name": "conv4_block20_1_bn", "beta_constraint": null}, "inbound_nodes": [[["conv4_block20_1_conv", 0, 0, {}]]]}, {"class_name": "Activation", "name": "conv4_block20_1_relu", "config": {"trainable": true, "name": "conv4_block20_1_relu", "activation": "relu"}, "inbound_nodes": [[["conv4_block20_1_bn", 0, 0, {}]]]}, {"class_name": "Conv2D", "name": "conv4_block20_2_conv", "config": {"trainable": true, "padding": "same", "filters": 32, "use_bias": false, "kernel_regularizer": null, "bias_constraint": null, "strides": [1, 1], "activity_regularizer": null, "bias_regularizer": null, "bias_initializer": {"class_name": "Zeros", "config": {}}, "dilation_rate": [1, 1], "name": "conv4_block20_2_conv", "activation": "linear", "data_format": "channels_last", "kernel_constraint": null, "kernel_initializer": {"class_name": "VarianceScaling", "config": {"seed": null, "scale": 1.0, "distribution": "uniform", "mode": "fan_avg"}}, "kernel_size": [3, 3]}, "inbound_nodes": [[["conv4_block20_1_relu", 0, 0, {}]]]}, {"class_name": "Concatenate", "name": "conv4_block20_concat", "config": {"trainable": true, "name": "conv4_block20_concat", "axis": 3}, "inbound_nodes": [[["conv4_block19_concat", 0, 0, {}], ["conv4_block20_2_conv", 0, 0, {}]]]}, {"class_name": "BatchNormalization", "name": "conv4_block21_0_bn", "config": {"trainable": true, "gamma_regularizer": null, "scale": true, "gamma_initializer": {"class_name": "Ones", "config": {}}, "beta_regularizer": null, "momentum": 0.99, "center": true, "gamma_constraint": null, "moving_mean_initializer": {"class_name": "Zeros", "config": {}}, "moving_variance_initializer": {"class_name": "Ones", "config": {}}, "axis": 3, "beta_initializer": {"class_name": "Zeros", "config": {}}, "epsilon": 1.001e-05, "name": "conv4_block21_0_bn", "beta_constraint": null}, "inbound_nodes": [[["conv4_block20_concat", 0, 0, {}]]]}, {"class_name": "Activation", "name": "conv4_block21_0_relu", "config": {"trainable": true, "name": "conv4_block21_0_relu", "activation": "relu"}, "inbound_nodes": [[["conv4_block21_0_bn", 0, 0, {}]]]}, {"class_name": "Conv2D", "name": "conv4_block21_1_conv", "config": {"trainable": true, "padding": "valid", "filters": 128, "use_bias": false, "kernel_regularizer": null, "bias_constraint": null, "strides": [1, 1], "activity_regularizer": null, "bias_regularizer": null, "bias_initializer": {"class_name": "Zeros", "config": {}}, "dilation_rate": [1, 1], "name": "conv4_block21_1_conv", "activation": "linear", "data_format": "channels_last", "kernel_constraint": null, "kernel_initializer": {"class_name": "VarianceScaling", "config": {"seed": null, "scale": 1.0, "distribution": "uniform", "mode": "fan_avg"}}, "kernel_size": [1, 1]}, "inbound_nodes": [[["conv4_block21_0_relu", 0, 0, {}]]]}, {"class_name": "BatchNormalization", "name": "conv4_block21_1_bn", "config": {"trainable": true, "gamma_regularizer": null, "scale": true, "gamma_initializer": {"class_name": "Ones", "config": {}}, "beta_regularizer": null, "momentum": 0.99, "center": true, "gamma_constraint": null, "moving_mean_initializer": {"class_name": "Zeros", "config": {}}, "moving_variance_initializer": {"class_name": "Ones", "config": {}}, "axis": 3, "beta_initializer": {"class_name": "Zeros", "config": {}}, "epsilon": 1.001e-05, "name": "conv4_block21_1_bn", "beta_constraint": null}, "inbound_nodes": [[["conv4_block21_1_conv", 0, 0, {}]]]}, {"class_name": "Activation", "name": "conv4_block21_1_relu", "config": {"trainable": true, "name": "conv4_block21_1_relu", "activation": "relu"}, "inbound_nodes": [[["conv4_block21_1_bn", 0, 0, {}]]]}, {"class_name": "Conv2D", "name": "conv4_block21_2_conv", "config": {"trainable": true, "padding": "same", "filters": 32, "use_bias": false, "kernel_regularizer": null, "bias_constraint": null, "strides": [1, 1], "activity_regularizer": null, "bias_regularizer": null, "bias_initializer": {"class_name": "Zeros", "config": {}}, "dilation_rate": [1, 1], "name": "conv4_block21_2_conv", "activation": "linear", "data_format": "channels_last", "kernel_constraint": null, "kernel_initializer": {"class_name": "VarianceScaling", "config": {"seed": null, "scale": 1.0, "distribution": "uniform", "mode": "fan_avg"}}, "kernel_size": [3, 3]}, "inbound_nodes": [[["conv4_block21_1_relu", 0, 0, {}]]]}, {"class_name": "Concatenate", "name": "conv4_block21_concat", "config": {"trainable": true, "name": "conv4_block21_concat", "axis": 3}, "inbound_nodes": [[["conv4_block20_concat", 0, 0, {}], ["conv4_block21_2_conv", 0, 0, {}]]]}, {"class_name": "BatchNormalization", "name": "conv4_block22_0_bn", "config": {"trainable": true, "gamma_regularizer": null, "scale": true, "gamma_initializer": {"class_name": "Ones", "config": {}}, "beta_regularizer": null, "momentum": 0.99, "center": true, "gamma_constraint": null, "moving_mean_initializer": {"class_name": "Zeros", "config": {}}, "moving_variance_initializer": {"class_name": "Ones", "config": {}}, "axis": 3, "beta_initializer": {"class_name": "Zeros", "config": {}}, "epsilon": 1.001e-05, "name": "conv4_block22_0_bn", "beta_constraint": null}, "inbound_nodes": [[["conv4_block21_concat", 0, 0, {}]]]}, {"class_name": "Activation", "name": "conv4_block22_0_relu", "config": {"trainable": true, "name": "conv4_block22_0_relu", "activation": "relu"}, "inbound_nodes": [[["conv4_block22_0_bn", 0, 0, {}]]]}, {"class_name": "Conv2D", "name": "conv4_block22_1_conv", "config": {"trainable": true, "padding": "valid", "filters": 128, "use_bias": false, "kernel_regularizer": null, "bias_constraint": null, "strides": [1, 1], "activity_regularizer": null, "bias_regularizer": null, "bias_initializer": {"class_name": "Zeros", "config": {}}, "dilation_rate": [1, 1], "name": "conv4_block22_1_conv", "activation": "linear", "data_format": "channels_last", "kernel_constraint": null, "kernel_initializer": {"class_name": "VarianceScaling", "config": {"seed": null, "scale": 1.0, "distribution": "uniform", "mode": "fan_avg"}}, "kernel_size": [1, 1]}, "inbound_nodes": [[["conv4_block22_0_relu", 0, 0, {}]]]}, {"class_name": "BatchNormalization", "name": "conv4_block22_1_bn", "config": {"trainable": true, "gamma_regularizer": null, "scale": true, "gamma_initializer": {"class_name": "Ones", "config": {}}, "beta_regularizer": null, "momentum": 0.99, "center": true, "gamma_constraint": null, "moving_mean_initializer": {"class_name": "Zeros", "config": {}}, "moving_variance_initializer": {"class_name": "Ones", "config": {}}, "axis": 3, "beta_initializer": {"class_name": "Zeros", "config": {}}, "epsilon": 1.001e-05, "name": "conv4_block22_1_bn", "beta_constraint": null}, "inbound_nodes": [[["conv4_block22_1_conv", 0, 0, {}]]]}, {"class_name": "Activation", "name": "conv4_block22_1_relu", "config": {"trainable": true, "name": "conv4_block22_1_relu", "activation": "relu"}, "inbound_nodes": [[["conv4_block22_1_bn", 0, 0, {}]]]}, {"class_name": "Conv2D", "name": "conv4_block22_2_conv", "config": {"trainable": true, "padding": "same", "filters": 32, "use_bias": false, "kernel_regularizer": null, "bias_constraint": null, "strides": [1, 1], "activity_regularizer": null, "bias_regularizer": null, "bias_initializer": {"class_name": "Zeros", "config": {}}, "dilation_rate": [1, 1], "name": "conv4_block22_2_conv", "activation": "linear", "data_format": "channels_last", "kernel_constraint": null, "kernel_initializer": {"class_name": "VarianceScaling", "config": {"seed": null, "scale": 1.0, "distribution": "uniform", "mode": "fan_avg"}}, "kernel_size": [3, 3]}, "inbound_nodes": [[["conv4_block22_1_relu", 0, 0, {}]]]}, {"class_name": "Concatenate", "name": "conv4_block22_concat", "config": {"trainable": true, "name": "conv4_block22_concat", "axis": 3}, "inbound_nodes": [[["conv4_block21_concat", 0, 0, {}], ["conv4_block22_2_conv", 0, 0, {}]]]}, {"class_name": "BatchNormalization", "name": "conv4_block23_0_bn", "config": {"trainable": true, "gamma_regularizer": null, "scale": true, "gamma_initializer": {"class_name": "Ones", "config": {}}, "beta_regularizer": null, "momentum": 0.99, "center": true, "gamma_constraint": null, "moving_mean_initializer": {"class_name": "Zeros", "config": {}}, "moving_variance_initializer": {"class_name": "Ones", "config": {}}, "axis": 3, "beta_initializer": {"class_name": "Zeros", "config": {}}, "epsilon": 1.001e-05, "name": "conv4_block23_0_bn", "beta_constraint": null}, "inbound_nodes": [[["conv4_block22_concat", 0, 0, {}]]]}, {"class_name": "Activation", "name": "conv4_block23_0_relu", "config": {"trainable": true, "name": "conv4_block23_0_relu", "activation": "relu"}, "inbound_nodes": [[["conv4_block23_0_bn", 0, 0, {}]]]}, {"class_name": "Conv2D", "name": "conv4_block23_1_conv", "config": {"trainable": true, "padding": "valid", "filters": 128, "use_bias": false, "kernel_regularizer": null, "bias_constraint": null, "strides": [1, 1], "activity_regularizer": null, "bias_regularizer": null, "bias_initializer": {"class_name": "Zeros", "config": {}}, "dilation_rate": [1, 1], "name": "conv4_block23_1_conv", "activation": "linear", "data_format": "channels_last", "kernel_constraint": null, "kernel_initializer": {"class_name": "VarianceScaling", "config": {"seed": null, "scale": 1.0, "distribution": "uniform", "mode": "fan_avg"}}, "kernel_size": [1, 1]}, "inbound_nodes": [[["conv4_block23_0_relu", 0, 0, {}]]]}, {"class_name": "BatchNormalization", "name": "conv4_block23_1_bn", "config": {"trainable": true, "gamma_regularizer": null, "scale": true, "gamma_initializer": {"class_name": "Ones", "config": {}}, "beta_regularizer": null, "momentum": 0.99, "center": true, "gamma_constraint": null, "moving_mean_initializer": {"class_name": "Zeros", "config": {}}, "moving_variance_initializer": {"class_name": "Ones", "config": {}}, "axis": 3, "beta_initializer": {"class_name": "Zeros", "config": {}}, "epsilon": 1.001e-05, "name": "conv4_block23_1_bn", "beta_constraint": null}, "inbound_nodes": [[["conv4_block23_1_conv", 0, 0, {}]]]}, {"class_name": "Activation", "name": "conv4_block23_1_relu", "config": {"trainable": true, "name": "conv4_block23_1_relu", "activation": "relu"}, "inbound_nodes": [[["conv4_block23_1_bn", 0, 0, {}]]]}, {"class_name": "Conv2D", "name": "conv4_block23_2_conv", "config": {"trainable": true, "padding": "same", "filters": 32, "use_bias": false, "kernel_regularizer": null, "bias_constraint": null, "strides": [1, 1], "activity_regularizer": null, "bias_regularizer": null, "bias_initializer": {"class_name": "Zeros", "config": {}}, "dilation_rate": [1, 1], "name": "conv4_block23_2_conv", "activation": "linear", "data_format": "channels_last", "kernel_constraint": null, "kernel_initializer": {"class_name": "VarianceScaling", "config": {"seed": null, "scale": 1.0, "distribution": "uniform", "mode": "fan_avg"}}, "kernel_size": [3, 3]}, "inbound_nodes": [[["conv4_block23_1_relu", 0, 0, {}]]]}, {"class_name": "Concatenate", "name": "conv4_block23_concat", "config": {"trainable": true, "name": "conv4_block23_concat", "axis": 3}, "inbound_nodes": [[["conv4_block22_concat", 0, 0, {}], ["conv4_block23_2_conv", 0, 0, {}]]]}, {"class_name": "BatchNormalization", "name": "conv4_block24_0_bn", "config": {"trainable": true, "gamma_regularizer": null, "scale": true, "gamma_initializer": {"class_name": "Ones", "config": {}}, "beta_regularizer": null, "momentum": 0.99, "center": true, "gamma_constraint": null, "moving_mean_initializer": {"class_name": "Zeros", "config": {}}, "moving_variance_initializer": {"class_name": "Ones", "config": {}}, "axis": 3, "beta_initializer": {"class_name": "Zeros", "config": {}}, "epsilon": 1.001e-05, "name": "conv4_block24_0_bn", "beta_constraint": null}, "inbound_nodes": [[["conv4_block23_concat", 0, 0, {}]]]}, {"class_name": "Activation", "name": "conv4_block24_0_relu", "config": {"trainable": true, "name": "conv4_block24_0_relu", "activation": "relu"}, "inbound_nodes": [[["conv4_block24_0_bn", 0, 0, {}]]]}, {"class_name": "Conv2D", "name": "conv4_block24_1_conv", "config": {"trainable": true, "padding": "valid", "filters": 128, "use_bias": false, "kernel_regularizer": null, "bias_constraint": null, "strides": [1, 1], "activity_regularizer": null, "bias_regularizer": null, "bias_initializer": {"class_name": "Zeros", "config": {}}, "dilation_rate": [1, 1], "name": "conv4_block24_1_conv", "activation": "linear", "data_format": "channels_last", "kernel_constraint": null, "kernel_initializer": {"class_name": "VarianceScaling", "config": {"seed": null, "scale": 1.0, "distribution": "uniform", "mode": "fan_avg"}}, "kernel_size": [1, 1]}, "inbound_nodes": [[["conv4_block24_0_relu", 0, 0, {}]]]}, {"class_name": "BatchNormalization", "name": "conv4_block24_1_bn", "config": {"trainable": true, "gamma_regularizer": null, "scale": true, "gamma_initializer": {"class_name": "Ones", "config": {}}, "beta_regularizer": null, "momentum": 0.99, "center": true, "gamma_constraint": null, "moving_mean_initializer": {"class_name": "Zeros", "config": {}}, "moving_variance_initializer": {"class_name": "Ones", "config": {}}, "axis": 3, "beta_initializer": {"class_name": "Zeros", "config": {}}, "epsilon": 1.001e-05, "name": "conv4_block24_1_bn", "beta_constraint": null}, "inbound_nodes": [[["conv4_block24_1_conv", 0, 0, {}]]]}, {"class_name": "Activation", "name": "conv4_block24_1_relu", "config": {"trainable": true, "name": "conv4_block24_1_relu", "activation": "relu"}, "inbound_nodes": [[["conv4_block24_1_bn", 0, 0, {}]]]}, {"class_name": "Conv2D", "name": "conv4_block24_2_conv", "config": {"trainable": true, "padding": "same", "filters": 32, "use_bias": false, "kernel_regularizer": null, "bias_constraint": null, "strides": [1, 1], "activity_regularizer": null, "bias_regularizer": null, "bias_initializer": {"class_name": "Zeros", "config": {}}, "dilation_rate": [1, 1], "name": "conv4_block24_2_conv", "activation": "linear", "data_format": "channels_last", "kernel_constraint": null, "kernel_initializer": {"class_name": "VarianceScaling", "config": {"seed": null, "scale": 1.0, "distribution": "uniform", "mode": "fan_avg"}}, "kernel_size": [3, 3]}, "inbound_nodes": [[["conv4_block24_1_relu", 0, 0, {}]]]}, {"class_name": "Concatenate", "name": "conv4_block24_concat", "config": {"trainable": true, "name": "conv4_block24_concat", "axis": 3}, "inbound_nodes": [[["conv4_block23_concat", 0, 0, {}], ["conv4_block24_2_conv", 0, 0, {}]]]}, {"class_name": "BatchNormalization", "name": "pool4_bn", "config": {"trainable": true, "gamma_regularizer": null, "scale": true, "gamma_initializer": {"class_name": "Ones", "config": {}}, "beta_regularizer": null, "momentum": 0.99, "center": true, "gamma_constraint": null, "moving_mean_initializer": {"class_name": "Zeros", "config": {}}, "moving_variance_initializer": {"class_name": "Ones", "config": {}}, "axis": 3, "beta_initializer": {"class_name": "Zeros", "config": {}}, "epsilon": 1.001e-05, "name": "pool4_bn", "beta_constraint": null}, "inbound_nodes": [[["conv4_block24_concat", 0, 0, {}]]]}, {"class_name": "Activation", "name": "pool4_relu", "config": {"trainable": true, "name": "pool4_relu", "activation": "relu"}, "inbound_nodes": [[["pool4_bn", 0, 0, {}]]]}, {"class_name": "Conv2D", "name": "pool4_conv", "config": {"trainable": true, "padding": "valid", "filters": 512, "use_bias": false, "kernel_regularizer": null, "bias_constraint": null, "strides": [1, 1], "activity_regularizer": null, "bias_regularizer": null, "bias_initializer": {"class_name": "Zeros", "config": {}}, "dilation_rate": [1, 1], "name": "pool4_conv", "activation": "linear", "data_format": "channels_last", "kernel_constraint": null, "kernel_initializer": {"class_name": "VarianceScaling", "config": {"seed": null, "scale": 1.0, "distribution": "uniform", "mode": "fan_avg"}}, "kernel_size": [1, 1]}, "inbound_nodes": [[["pool4_relu", 0, 0, {}]]]}, {"class_name": "AveragePooling2D", "name": "pool4_pool", "config": {"trainable": true, "padding": "valid", "pool_size": [2, 2], "name": "pool4_pool", "data_format": "channels_last", "strides": [2, 2]}, "inbound_nodes": [[["pool4_conv", 0, 0, {}]]]}, {"class_name": "BatchNormalization", "name": "conv5_block1_0_bn", "config": {"trainable": true, "gamma_regularizer": null, "scale": true, "gamma_initializer": {"class_name": "Ones", "config": {}}, "beta_regularizer": null, "momentum": 0.99, "center": true, "gamma_constraint": null, "moving_mean_initializer": {"class_name": "Zeros", "config": {}}, "moving_variance_initializer": {"class_name": "Ones", "config": {}}, "axis": 3, "beta_initializer": {"class_name": "Zeros", "config": {}}, "epsilon": 1.001e-05, "name": "conv5_block1_0_bn", "beta_constraint": null}, "inbound_nodes": [[["pool4_pool", 0, 0, {}]]]}, {"class_name": "Activation", "name": "conv5_block1_0_relu", "config": {"trainable": true, "name": "conv5_block1_0_relu", "activation": "relu"}, "inbound_nodes": [[["conv5_block1_0_bn", 0, 0, {}]]]}, {"class_name": "Conv2D", "name": "conv5_block1_1_conv", "config": {"trainable": true, "padding": "valid", "filters": 128, "use_bias": false, "kernel_regularizer": null, "bias_constraint": null, "strides": [1, 1], "activity_regularizer": null, "bias_regularizer": null, "bias_initializer": {"class_name": "Zeros", "config": {}}, "dilation_rate": [1, 1], "name": "conv5_block1_1_conv", "activation": "linear", "data_format": "channels_last", "kernel_constraint": null, "kernel_initializer": {"class_name": "VarianceScaling", "config": {"seed": null, "scale": 1.0, "distribution": "uniform", "mode": "fan_avg"}}, "kernel_size": [1, 1]}, "inbound_nodes": [[["conv5_block1_0_relu", 0, 0, {}]]]}, {"class_name": "BatchNormalization", "name": "conv5_block1_1_bn", "config": {"trainable": true, "gamma_regularizer": null, "scale": true, "gamma_initializer": {"class_name": "Ones", "config": {}}, "beta_regularizer": null, "momentum": 0.99, "center": true, "gamma_constraint": null, "moving_mean_initializer": {"class_name": "Zeros", "config": {}}, "moving_variance_initializer": {"class_name": "Ones", "config": {}}, "axis": 3, "beta_initializer": {"class_name": "Zeros", "config": {}}, "epsilon": 1.001e-05, "name": "conv5_block1_1_bn", "beta_constraint": null}, "inbound_nodes": [[["conv5_block1_1_conv", 0, 0, {}]]]}, {"class_name": "Activation", "name": "conv5_block1_1_relu", "config": {"trainable": true, "name": "conv5_block1_1_relu", "activation": "relu"}, "inbound_nodes": [[["conv5_block1_1_bn", 0, 0, {}]]]}, {"class_name": "Conv2D", "name": "conv5_block1_2_conv", "config": {"trainable": true, "padding": "same", "filters": 32, "use_bias": false, "kernel_regularizer": null, "bias_constraint": null, "strides": [1, 1], "activity_regularizer": null, "bias_regularizer": null, "bias_initializer": {"class_name": "Zeros", "config": {}}, "dilation_rate": [1, 1], "name": "conv5_block1_2_conv", "activation": "linear", "data_format": "channels_last", "kernel_constraint": null, "kernel_initializer": {"class_name": "VarianceScaling", "config": {"seed": null, "scale": 1.0, "distribution": "uniform", "mode": "fan_avg"}}, "kernel_size": [3, 3]}, "inbound_nodes": [[["conv5_block1_1_relu", 0, 0, {}]]]}, {"class_name": "Concatenate", "name": "conv5_block1_concat", "config": {"trainable": true, "name": "conv5_block1_concat", "axis": 3}, "inbound_nodes": [[["pool4_pool", 0, 0, {}], ["conv5_block1_2_conv", 0, 0, {}]]]}, {"class_name": "BatchNormalization", "name": "conv5_block2_0_bn", "config": {"trainable": true, "gamma_regularizer": null, "scale": true, "gamma_initializer": {"class_name": "Ones", "config": {}}, "beta_regularizer": null, "momentum": 0.99, "center": true, "gamma_constraint": null, "moving_mean_initializer": {"class_name": "Zeros", "config": {}}, "moving_variance_initializer": {"class_name": "Ones", "config": {}}, "axis": 3, "beta_initializer": {"class_name": "Zeros", "config": {}}, "epsilon": 1.001e-05, "name": "conv5_block2_0_bn", "beta_constraint": null}, "inbound_nodes": [[["conv5_block1_concat", 0, 0, {}]]]}, {"class_name": "Activation", "name": "conv5_block2_0_relu", "config": {"trainable": true, "name": "conv5_block2_0_relu", "activation": "relu"}, "inbound_nodes": [[["conv5_block2_0_bn", 0, 0, {}]]]}, {"class_name": "Conv2D", "name": "conv5_block2_1_conv", "config": {"trainable": true, "padding": "valid", "filters": 128, "use_bias": false, "kernel_regularizer": null, "bias_constraint": null, "strides": [1, 1], "activity_regularizer": null, "bias_regularizer": null, "bias_initializer": {"class_name": "Zeros", "config": {}}, "dilation_rate": [1, 1], "name": "conv5_block2_1_conv", "activation": "linear", "data_format": "channels_last", "kernel_constraint": null, "kernel_initializer": {"class_name": "VarianceScaling", "config": {"seed": null, "scale": 1.0, "distribution": "uniform", "mode": "fan_avg"}}, "kernel_size": [1, 1]}, "inbound_nodes": [[["conv5_block2_0_relu", 0, 0, {}]]]}, {"class_name": "BatchNormalization", "name": "conv5_block2_1_bn", "config": {"trainable": true, "gamma_regularizer": null, "scale": true, "gamma_initializer": {"class_name": "Ones", "config": {}}, "beta_regularizer": null, "momentum": 0.99, "center": true, "gamma_constraint": null, "moving_mean_initializer": {"class_name": "Zeros", "config": {}}, "moving_variance_initializer": {"class_name": "Ones", "config": {}}, "axis": 3, "beta_initializer": {"class_name": "Zeros", "config": {}}, "epsilon": 1.001e-05, "name": "conv5_block2_1_bn", "beta_constraint": null}, "inbound_nodes": [[["conv5_block2_1_conv", 0, 0, {}]]]}, {"class_name": "Activation", "name": "conv5_block2_1_relu", "config": {"trainable": true, "name": "conv5_block2_1_relu", "activation": "rel…
relu", 0, 0, {}]]]}, {"class_name": "Concatenate", "name": "conv5_block3_concat", "config": {"trainable": true, "name": "conv5_block3_concat", "axis": 3}, "inbound_nodes": [[["conv5_block2_concat", 0, 0, {}], ["conv5_block3_2_conv", 0, 0, {}]]]}, {"class_name": "BatchNormalization", "name": "conv5_block4_0_bn", "config": {"trainable": true, "gamma_regularizer": null, "scale": true, "gamma_initializer": {"class_name": "Ones", "config": {}}, "beta_regularizer": null, "momentum": 0.99, "center": true, "gamma_constraint": null, "moving_mean_initializer": {"class_name": "Zeros", "config": {}}, "moving_variance_initializer": {"class_name": "Ones", "config": {}}, "axis": 3, "beta_initializer": {"class_name": "Zeros", "config": {}}, "epsilon": 1.001e-05, "name": "conv5_block4_0_bn", "beta_constraint": null}, "inbound_nodes": [[["conv5_block3_concat", 0, 0, {}]]]}, {"class_name": "Activation", "name": "conv5_block4_0_relu", "config": {"trainable": true, "name": "conv5_block4_0_relu", "activation": "relu"}, "inbound_nodes": [[["conv5_block4_0_bn", 0, 0, {}]]]}, {"class_name": "Conv2D", "name": "conv5_block4_1_conv", "config": {"trainable": true, "padding": "valid", "filters": 128, "use_bias": false, "kernel_regularizer": null, "bias_constraint": null, "strides": [1, 1], "activity_regularizer": null, "bias_regularizer": null, "bias_initializer": {"class_name": "Zeros", "config": {}}, "dilation_rate": [1, 1], "name": "conv5_block4_1_conv", "activation": "linear", "data_format": "channels_last", "kernel_constraint": null, "kernel_initializer": {"class_name": "VarianceScaling", "config": {"seed": null, "scale": 1.0, "distribution": "uniform", "mode": "fan_avg"}}, "kernel_size": [1, 1]}, "inbound_nodes": [[["conv5_block4_0_relu", 0, 0, {}]]]}, {"class_name": "BatchNormalization", "name": "conv5_block4_1_bn", "config": {"trainable": true, "gamma_regularizer": null, "scale": true, "gamma_initializer": {"class_name": "Ones", "config": {}}, "beta_regularizer": null, "momentum": 0.99, "center": true, "gamma_constraint": null, "moving_mean_initializer": {"class_name": "Zeros", "config": {}}, "moving_variance_initializer": {"class_name": "Ones", "config": {}}, "axis": 3, "beta_initializer": {"class_name": "Zeros", "config": {}}, "epsilon": 1.001e-05, "name": "conv5_block4_1_bn", "beta_constraint": null}, "inbound_nodes": [[["conv5_block4_1_conv", 0, 0, {}]]]}, {"class_name": "Activation", "name": "conv5_block4_1_relu", "config": {"trainable": true, "name": "conv5_block4_1_relu", "activation": "relu"}, "inbound_nodes": [[["conv5_block4_1_bn", 0, 0, {}]]]}, {"class_name": "Conv2D", "name": "conv5_block4_2_conv", "config": {"trainable": true, "padding": "same", "filters": 32, "use_bias": false, "kernel_regularizer": null, "bias_constraint": null, "strides": [1, 1], "activity_regularizer": null, "bias_regularizer": null, "bias_initializer": {"class_name": "Zeros", "config": {}}, "dilation_rate": [1, 1], "name": "conv5_block4_2_conv", "activation": "linear", "data_format": "channels_last", "kernel_constraint": null, "kernel_initializer": {"class_name": "VarianceScaling", "config": {"seed": null, "scale": 1.0, "distribution": "uniform", "mode": "fan_avg"}}, "kernel_size": [3, 3]}, "inbound_nodes": [[["conv5_block4_1_relu", 0, 0, {}]]]}, {"class_name": "Concatenate", "name": "conv5_block4_concat", "config": {"trainable": true, "name": "conv5_block4_concat", "axis": 3}, "inbound_nodes": [[["conv5_block3_concat", 0, 0, {}], ["conv5_block4_2_conv", 0, 0, {}]]]}, {"class_name": "BatchNormalization", "name": "conv5_block5_0_bn", "config": {"trainable": true, "gamma_regularizer": null, "scale": true, "gamma_initializer": {"class_name": "Ones", "config": {}}, "beta_regularizer": null, "momentum": 0.99, "center": true, "gamma_constraint": null, "moving_mean_initializer": {"class_name": "Zeros", "config": {}}, "moving_variance_initializer": {"class_name": "Ones", "config": {}}, "axis": 3, "beta_initializer": {"class_name": "Zeros", "config": {}}, "epsilon": 1.001e-05, "name": "conv5_block5_0_bn", "beta_constraint": null}, "inbound_nodes": [[["conv5_block4_concat", 0, 0, {}]]]}, {"class_name": "Activation", "name": "conv5_block5_0_relu", "config": {"trainable": true, "name": "conv5_block5_0_relu", "activation": "relu"}, "inbound_nodes": [[["conv5_block5_0_bn", 0, 0, {}]]]}, {"class_name": "Conv2D", "name": "conv5_block5_1_conv", "config": {"trainable": true, "padding": "valid", "filters": 128, "use_bias": false, "kernel_regularizer": null, "bias_constraint": null, "strides": [1, 1], "activity_regularizer": null, "bias_regularizer": null, "bias_initializer": {"class_name": "Zeros", "config": {}}, "dilation_rate": [1, 1], "name": "conv5_block5_1_conv", "activation": "linear", "data_format": "channels_last", "kernel_constraint": null, "kernel_initializer": {"class_name": "VarianceScaling", "config": {"seed": null, "scale": 1.0, "distribution": "uniform", "mode": "fan_avg"}}, "kernel_size": [1, 1]}, "inbound_nodes": [[["conv5_block5_0_relu", 0, 0, {}]]]}, {"class_name": "BatchNormalization", "name": "conv5_block5_1_bn", "config": {"trainable": true, "gamma_regularizer": null, "scale": true, "gamma_initializer": {"class_name": "Ones", "config": {}}, "beta_regularizer": null, "momentum": 0.99, "center": true, "gamma_constraint": null, "moving_mean_initializer": {"class_name": "Zeros", "config": {}}, "moving_variance_initializer": {"class_name": "Ones", "config": {}}, "axis": 3, "beta_initializer": {"class_name": "Zeros", "config": {}}, "epsilon": 1.001e-05, "name": "conv5_block5_1_bn", "beta_constraint": null}, "inbound_nodes": [[["conv5_block5_1_conv", 0, 0, {}]]]}, {"class_name": "Activation", "name": "conv5_block5_1_relu", "config": {"trainable": true, "name": "conv5_block5_1_relu", "activation": "relu"}, "inbound_nodes": [[["conv5_block5_1_bn", 0, 0, {}]]]}, {"class_name": "Conv2D", "name": "conv5_block5_2_conv", "config": {"trainable": true, "padding": "same", "filters": 32, "use_bias": false, "kernel_regularizer": null, "bias_constraint": null, "strides": [1, 1], "activity_regularizer": null, "bias_regularizer": null, "bias_initializer": {"class_name": "Zeros", "config": {}}, "dilation_rate": [1, 1], "name": "conv5_block5_2_conv", "activation": "linear", "data_format": "channels_last", "kernel_constraint": null, "kernel_initializer": {"class_name": "VarianceScaling", "config": {"seed": null, "scale": 1.0, "distribution": "uniform", "mode": "fan_avg"}}, "kernel_size": [3, 3]}, "inbound_nodes": [[["conv5_block5_1_relu", 0, 0, {}]]]}, {"class_name": "Concatenate", "name": "conv5_block5_concat", "config": {"trainable": true, "name": "conv5_block5_concat", "axis": 3}, "inbound_nodes": [[["conv5_block4_concat", 0, 0, {}], ["conv5_block5_2_conv", 0, 0, {}]]]}, {"class_name": "BatchNormalization", "name": "conv5_block6_0_bn", "config": {"trainable": true, "gamma_regularizer": null, "scale": true, "gamma_initializer": {"class_name": "Ones", "config": {}}, "beta_regularizer": null, "momentum": 0.99, "center": true, "gamma_constraint": null, "moving_mean_initializer": {"class_name": "Zeros", "config": {}}, "moving_variance_initializer": {"class_name": "Ones", "config": {}}, "axis": 3, "beta_initializer": {"class_name": "Zeros", "config": {}}, "epsilon": 1.001e-05, "name": "conv5_block6_0_bn", "beta_constraint": null}, "inbound_nodes": [[["conv5_block5_concat", 0, 0, {}]]]}, {"class_name": "Activation", "name": "conv5_block6_0_relu", "config": {"trainable": true, "name": "conv5_block6_0_relu", "activation": "relu"}, "inbound_nodes": [[["conv5_block6_0_bn", 0, 0, {}]]]}, {"class_name": "Conv2D", "name": "conv5_block6_1_conv", "config": {"trainable": true, "padding": "valid", "filters": 128, "use_bias": false, "kernel_regularizer": null, "bias_constraint": null, "strides": [1, 1], "activity_regularizer": null, "bias_regularizer": null, "bias_initializer": {"class_name": "Zeros", "config": {}}, "dilation_rate": [1, 1], "name": "conv5_block6_1_conv", "activation": "linear", "data_format": "channels_last", "kernel_constraint": null, "kernel_initializer": {"class_name": "VarianceScaling", "config": {"seed": null, "scale": 1.0, "distribution": "uniform", "mode": "fan_avg"}}, "kernel_size": [1, 1]}, "inbound_nodes": [[["conv5_block6_0_relu", 0, 0, {}]]]}, {"class_name": "BatchNormalization", "name": "conv5_block6_1_bn", "config": {"trainable": true, "gamma_regularizer": null, "scale": true, "gamma_initializer": {"class_name": "Ones", "config": {}}, "beta_regularizer": null, "momentum": 0.99, "center": true, "gamma_constraint": null, "moving_mean_initializer": {"class_name": "Zeros", "config": {}}, "moving_variance_initializer": {"class_name": "Ones", "config": {}}, "axis": 3, "beta_initializer": {"class_name": "Zeros", "config": {}}, "epsilon": 1.001e-05, "name": "conv5_block6_1_bn", "beta_constraint": null}, "inbound_nodes": [[["conv5_block6_1_conv", 0, 0, {}]]]}, {"class_name": "Activation", "name": "conv5_block6_1_relu", "config": {"trainable": true, "name": "conv5_block6_1_relu", "activation": "relu"}, "inbound_nodes": [[["conv5_block6_1_bn", 0, 0, {}]]]}, {"class_name": "Conv2D", "name": "conv5_block6_2_conv", "config": {"trainable": true, "padding": "same", "filters": 32, "use_bias": false, "kernel_regularizer": null, "bias_constraint": null, "strides": [1, 1], "activity_regularizer": null, "bias_regularizer": null, "bias_initializer": {"class_name": "Zeros", "config": {}}, "dilation_rate": [1, 1], "name": "conv5_block6_2_conv", "activation": "linear", "data_format": "channels_last", "kernel_constraint": null, "kernel_initializer": {"class_name": "VarianceScaling", "config": {"seed": null, "scale": 1.0, "distribution": "uniform", "mode": "fan_avg"}}, "kernel_size": [3, 3]}, "inbound_nodes": [[["conv5_block6_1_relu", 0, 0, {}]]]}, {"class_name": "Concatenate", "name": "conv5_block6_concat", "config": {"trainable": true, "name": "conv5_block6_concat", "axis": 3}, "inbound_nodes": [[["conv5_block5_concat", 0, 0, {}], ["conv5_block6_2_conv", 0, 0, {}]]]}, {"class_name": "BatchNormalization", "name": "conv5_block7_0_bn", "config": {"trainable": true, "gamma_regularizer": null, "scale": true, "gamma_initializer": {"class_name": "Ones", "config": {}}, "beta_regularizer": null, "momentum": 0.99, "center": true, "gamma_constraint": null, "moving_mean_initializer": {"class_name": "Zeros", "config": {}}, "moving_variance_initializer": {"class_name": "Ones", "config": {}}, "axis": 3, "beta_initializer": {"class_name": "Zeros", "config": {}}, "epsilon": 1.001e-05, "name": "conv5_block7_0_bn", "beta_constraint": null}, "inbound_nodes": [[["conv5_block6_concat", 0, 0, {}]]]}, {"class_name": "Activation", "name": "conv5_block7_0_relu", "config": {"trainable": true, "name": "conv5_block7_0_relu", "activation": "relu"}, "inbound_nodes": [[["conv5_block7_0_bn", 0, 0, {}]]]}, {"class_name": "Conv2D", "name": "conv5_block7_1_conv", "config": {"trainable": true, "padding": "valid", "filters": 128, "use_bias": false, "kernel_regularizer": null, "bias_constraint": null, "strides": [1, 1], "activity_regularizer": null, "bias_regularizer": null, "bias_initializer": {"class_name": "Zeros", "config": {}}, "dilation_rate": [1, 1], "name": "conv5_block7_1_conv", "activation": "linear", "data_format": "channels_last", "kernel_constraint": null, "kernel_initializer": {"class_name": "VarianceScaling", "config": {"seed": null, "scale": 1.0, "distribution": "uniform", "mode": "fan_avg"}}, "kernel_size": [1, 1]}, "inbound_nodes": [[["conv5_block7_0_relu", 0, 0, {}]]]}, {"class_name": "BatchNormalization", "name": "conv5_block7_1_bn", "config": {"trainable": true, "gamma_regularizer": null, "scale": true, "gamma_initializer": {"class_name": "Ones", "config": {}}, "beta_regularizer": null, "momentum": 0.99, "center": true, "gamma_constraint": null, "moving_mean_initializer": {"class_name": "Zeros", "config": {}}, "moving_variance_initializer": {"class_name": "Ones", "config": {}}, "axis": 3, "beta_initializer": {"class_name": "Zeros", "config": {}}, "epsilon": 1.001e-05, "name": "conv5_block7_1_bn", "beta_constraint": null}, "inbound_nodes": [[["conv5_block7_1_conv", 0, 0, {}]]]}, {"class_name": "Activation", "name": "conv5_block7_1_relu", "config": {"trainable": true, "name": "conv5_block7_1_relu", "activation": "relu"}, "inbound_nodes": [[["conv5_block7_1_bn", 0, 0, {}]]]}, {"class_name": "Conv2D", "name": "conv5_block7_2_conv", "config": {"trainable": true, "padding": "same", "filters": 32, "use_bias": false, "kernel_regularizer": null, "bias_constraint": null, "strides": [1, 1], "activity_regularizer": null, "bias_regularizer": null, "bias_initializer": {"class_name": "Zeros", "config": {}}, "dilation_rate": [1, 1], "name": "conv5_block7_2_conv", "activation": "linear", "data_format": "channels_last", "kernel_constraint": null, "kernel_initializer": {"class_name": "VarianceScaling", "config": {"seed": null, "scale": 1.0, "distribution": "uniform", "mode": "fan_avg"}}, "kernel_size": [3, 3]}, "inbound_nodes": [[["conv5_block7_1_relu", 0, 0, {}]]]}, {"class_name": "Concatenate", "name": "conv5_block7_concat", "config": {"trainable": true, "name": "conv5_block7_concat", "axis": 3}, "inbound_nodes": [[["conv5_block6_concat", 0, 0, {}], ["conv5_block7_2_conv", 0, 0, {}]]]}, {"class_name": "BatchNormalization", "name": "conv5_block8_0_bn", "config": {"trainable": true, "gamma_regularizer": null, "scale": true, "gamma_initializer": {"class_name": "Ones", "config": {}}, "beta_regularizer": null, "momentum": 0.99, "center": true, "gamma_constraint": null, "moving_mean_initializer": {"class_name": "Zeros", "config": {}}, "moving_variance_initializer": {"class_name": "Ones", "config": {}}, "axis": 3, "beta_initializer": {"class_name": "Zeros", "config": {}}, "epsilon": 1.001e-05, "name": "conv5_block8_0_bn", "beta_constraint": null}, "inbound_nodes": [[["conv5_block7_concat", 0, 0, {}]]]}, {"class_name": "Activation", "name": "conv5_block8_0_relu", "config": {"trainable": true, "name": "conv5_block8_0_relu", "activation": "relu"}, "inbound_nodes": [[["conv5_block8_0_bn", 0, 0, {}]]]}, {"class_name": "Conv2D", "name": "conv5_block8_1_conv", "config": {"trainable": true, "padding": "valid", "filters": 128, "use_bias": false, "kernel_regularizer": null, "bias_constraint": null, "strides": [1, 1], "activity_regularizer": null, "bias_regularizer": null, "bias_initializer": {"class_name": "Zeros", "config": {}}, "dilation_rate": [1, 1], "name": "conv5_block8_1_conv", "activation": "linear", "data_format": "channels_last", "kernel_constraint": null, "kernel_initializer": {"class_name": "VarianceScaling", "config": {"seed": null, "scale": 1.0, "distribution": "uniform", "mode": "fan_avg"}}, "kernel_size": [1, 1]}, "inbound_nodes": [[["conv5_block8_0_relu", 0, 0, {}]]]}, {"class_name": "BatchNormalization", "name": "conv5_block8_1_bn", "config": {"trainable": true, "gamma_regularizer": null, "scale": true, "gamma_initializer": {"class_name": "Ones", "config": {}}, "beta_regularizer": null, "momentum": 0.99, "center": true, "gamma_constraint": null, "moving_mean_initializer": {"class_name": "Zeros", "config": {}}, "moving_variance_initializer": {"class_name": "Ones", "config": {}}, "axis": 3, "beta_initializer": {"class_name": "Zeros", "config": {}}, "epsilon": 1.001e-05, "name": "conv5_block8_1_bn", "beta_constraint": null}, "inbound_nodes": [[["conv5_block8_1_conv", 0, 0, {}]]]}, {"class_name": "Activation", "name": "conv5_block8_1_relu", "config": {"trainable": true, "name": "conv5_block8_1_relu", "activation": "relu"}, "inbound_nodes": [[["conv5_block8_1_bn", 0, 0, {}]]]}, {"class_name": "Conv2D", "name": "conv5_block8_2_conv", "config": {"trainable": true, "padding": "same", "filters": 32, "use_bias": false, "kernel_regularizer": null, "bias_constraint": null, "strides": [1, 1], "activity_regularizer": null, "bias_regularizer": null, "bias_initializer": {"class_name": "Zeros", "config": {}}, "dilation_rate": [1, 1], "name": "conv5_block8_2_conv", "activation": "linear", "data_format": "channels_last", "kernel_constraint": null, "kernel_initializer": {"class_name": "VarianceScaling", "config": {"seed": null, "scale": 1.0, "distribution": "uniform", "mode": "fan_avg"}}, "kernel_size": [3, 3]}, "inbound_nodes": [[["conv5_block8_1_relu", 0, 0, {}]]]}, {"class_name": "Concatenate", "name": "conv5_block8_concat", "config": {"trainable": true, "name": "conv5_block8_concat", "axis": 3}, "inbound_nodes": [[["conv5_block7_concat", 0, 0, {}], ["conv5_block8_2_conv", 0, 0, {}]]]}, {"class_name": "BatchNormalization", "name": "conv5_block9_0_bn", "config": {"trainable": true, "gamma_regularizer": null, "scale": true, "gamma_initializer": {"class_name": "Ones", "config": {}}, "beta_regularizer": null, "momentum": 0.99, "center": true, "gamma_constraint": null, "moving_mean_initializer": {"class_name": "Zeros", "config": {}}, "moving_variance_initializer": {"class_name": "Ones", "config": {}}, "axis": 3, "beta_initializer": {"class_name": "Zeros", "config": {}}, "epsilon": 1.001e-05, "name": "conv5_block9_0_bn", "beta_constraint": null}, "inbound_nodes": [[["conv5_block8_concat", 0, 0, {}]]]}, {"class_name": "Activation", "name": "conv5_block9_0_relu", "config": {"trainable": true, "name": "conv5_block9_0_relu", "activation": "relu"}, "inbound_nodes": [[["conv5_block9_0_bn", 0, 0, {}]]]}, {"class_name": "Conv2D", "name": "conv5_block9_1_conv", "config": {"trainable": true, "padding": "valid", "filters": 128, "use_bias": false, "kernel_regularizer": null, "bias_constraint": null, "strides": [1, 1], "activity_regularizer": null, "bias_regularizer": null, "bias_initializer": {"class_name": "Zeros", "config": {}}, "dilation_rate": [1, 1], "name": "conv5_block9_1_conv", "activation": "linear", "data_format": "channels_last", "kernel_constraint": null, "kernel_initializer": {"class_name": "VarianceScaling", "config": {"seed": null, "scale": 1.0, "distribution": "uniform", "mode": "fan_avg"}}, "kernel_size": [1, 1]}, "inbound_nodes": [[["conv5_block9_0_relu", 0, 0, {}]]]}, {"class_name": "BatchNormalization", "name": "conv5_block9_1_bn", "config": {"trainable": true, "gamma_regularizer": null, "scale": true, "gamma_initializer": {"class_name": "Ones", "config": {}}, "beta_regularizer": null, "momentum": 0.99, "center": true, "gamma_constraint": null, "moving_mean_initializer": {"class_name": "Zeros", "config": {}}, "moving_variance_initializer": {"class_name": "Ones", "config": {}}, "axis": 3, "beta_initializer": {"class_name": "Zeros", "config": {}}, "epsilon": 1.001e-05, "name": "conv5_block9_1_bn", "beta_constraint": null}, "inbound_nodes": [[["conv5_block9_1_conv", 0, 0, {}]]]}, {"class_name": "Activation", "name": "conv5_block9_1_relu", "config": {"trainable": true, "name": "conv5_block9_1_relu", "activation": "relu"}, "inbound_nodes": [[["conv5_block9_1_bn", 0, 0, {}]]]}, {"class_name": "Conv2D", "name": "conv5_block9_2_conv", "config": {"trainable": true, "padding": "same", "filters": 32, "use_bias": false, "kernel_regularizer": null, "bias_constraint": null, "strides": [1, 1], "activity_regularizer": null, "bias_regularizer": null, "bias_initializer": {"class_name": "Zeros", "config": {}}, "dilation_rate": [1, 1], "name": "conv5_block9_2_conv", "activation": "linear", "data_format": "channels_last", "kernel_constraint": null, "kernel_initializer": {"class_name": "VarianceScaling", "config": {"seed": null, "scale": 1.0, "distribution": "uniform", "mode": "fan_avg"}}, "kernel_size": [3, 3]}, "inbound_nodes": [[["conv5_block9_1_relu", 0, 0, {}]]]}, {"class_name": "Concatenate", "name": "conv5_block9_concat", "config": {"trainable": true, "name": "conv5_block9_concat", "axis": 3}, "inbound_nodes": [[["conv5_block8_concat", 0, 0, {}], ["conv5_block9_2_conv", 0, 0, {}]]]}, {"class_name": "BatchNormalization", "name": "conv5_block10_0_bn", "config": {"trainable": true, "gamma_regularizer": null, "scale": true, "gamma_initializer": {"class_name": "Ones", "config": {}}, "beta_regularizer": null, "momentum": 0.99, "center": true, "gamma_constraint": null, "moving_mean_initializer": {"class_name": "Zeros", "config": {}}, "moving_variance_initializer": {"class_name": "Ones", "config": {}}, "axis": 3, "beta_initializer": {"class_name": "Zeros", "config": {}}, "epsilon": 1.001e-05, "name": "conv5_block10_0_bn", "beta_constraint": null}, "inbound_nodes": [[["conv5_block9_concat", 0, 0, {}]]]}, {"class_name": "Activation", "name": "conv5_block10_0_relu", "config": {"trainable": true, "name": "conv5_block10_0_relu", "activation": "relu"}, "inbound_nodes": [[["conv5_block10_0_bn", 0, 0, {}]]]}, {"class_name": "Conv2D", "name": "conv5_block10_1_conv", "config": {"trainable": true, "padding": "valid", "filters": 128, "use_bias": false, "kernel_regularizer": null, "bias_constraint": null, "strides": [1, 1], "activity_regularizer": null, "bias_regularizer": null, "bias_initializer": {"class_name": "Zeros", "config": {}}, "dilation_rate": [1, 1], "name": "conv5_block10_1_conv", "activation": "linear", "data_format": "channels_last", "kernel_constraint": null, "kernel_initializer": {"class_name": "VarianceScaling", "config": {"seed": null, "scale": 1.0, "distribution": "uniform", "mode": "fan_avg"}}, "kernel_size": [1, 1]}, "inbound_nodes": [[["conv5_block10_0_relu", 0, 0, {}]]]}, {"class_name": "BatchNormalization", "name": "conv5_block10_1_bn", "config": {"trainable": true, "gamma_regularizer": null, "scale": true, "gamma_initializer": {"class_name": "Ones", "config": {}}, "beta_regularizer": null, "momentum": 0.99, "center": true, "gamma_constraint": null, "moving_mean_initializer": {"class_name": "Zeros", "config": {}}, "moving_variance_initializer": {"class_name": "Ones", "config": {}}, "axis": 3, "beta_initializer": {"class_name": "Zeros", "config": {}}, "epsilon": 1.001e-05, "name": "conv5_block10_1_bn", "beta_constraint": null}, "inbound_nodes": [[["conv5_block10_1_conv", 0, 0, {}]]]}, {"class_name": "Activation", "name": "conv5_block10_1_relu", "config": {"trainable": true, "name": "conv5_block10_1_relu", "activation": "relu"}, "inbound_nodes": [[["conv5_block10_1_bn", 0, 0, {}]]]}, {"class_name": "Conv2D", "name": "conv5_block10_2_conv", "config": {"trainable": true, "padding": "same", "filters": 32, "use_bias": false, "kernel_regularizer": null, "bias_constraint": null, "strides": [1, 1], "activity_regularizer": null, "bias_regularizer": null, "bias_initializer": {"class_name": "Zeros", "config": {}}, "dilation_rate": [1, 1], "name": "conv5_block10_2_conv", "activation": "linear", "data_format": "channels_last", "kernel_constraint": null, "kernel_initializer": {"class_name": "VarianceScaling", "config": {"seed": null, "scale": 1.0, "distribution": "uniform", "mode": "fan_avg"}}, "kernel_size": [3, 3]}, "inbound_nodes": [[["conv5_block10_1_relu", 0, 0, {}]]]}, {"class_name": "Concatenate", "name": "conv5_block10_concat", "config": {"trainable": true, "name": "conv5_block10_concat", "axis": 3}, "inbound_nodes": [[["conv5_block9_concat", 0, 0, {}], ["conv5_block10_2_conv", 0, 0, {}]]]}, {"class_name": "BatchNormalization", "name": "conv5_block11_0_bn", "config": {"trainable": true, "gamma_regularizer": null, "scale": true, "gamma_initializer": {"class_name": "Ones", "config": {}}, "beta_regularizer": null, "momentum": 0.99, "center": true, "gamma_constraint": null, "moving_mean_initializer": {"class_name": "Zeros", "config": {}}, "moving_variance_initializer": {"class_name": "Ones", "config": {}}, "axis": 3, "beta_initializer": {"class_name": "Zeros", "config": {}}, "epsilon": 1.001e-05, "name": "conv5_block11_0_bn", "beta_constraint": null}, "inbound_nodes": [[["conv5_block10_concat", 0, 0, {}]]]}, {"class_name": "Activation", "name": "conv5_block11_0_relu", "config": {"trainable": true, "name": "conv5_block11_0_relu", "activation": "relu"}, "inbound_nodes": [[["conv5_block11_0_bn", 0, 0, {}]]]}, {"class_name": "Conv2D", "name": "conv5_block11_1_conv", "config": {"trainable": true, "padding": "valid", "filters": 128, "use_bias": false, "kernel_regularizer": null, "bias_constraint": null, "strides": [1, 1], "activity_regularizer": null, "bias_regularizer": null, "bias_initializer": {"class_name": "Zeros", "config": {}}, "dilation_rate": [1, 1], "name": "conv5_block11_1_conv", "activation": "linear", "data_format": "channels_last", "kernel_constraint": null, "kernel_initializer": {"class_name": "VarianceScaling", "config": {"seed": null, "scale": 1.0, "distribution": "uniform", "mode": "fan_avg"}}, "kernel_size": [1, 1]}, "inbound_nodes": [[["conv5_block11_0_relu", 0, 0, {}]]]}, {"class_name": "BatchNormalization", "name": "conv5_block11_1_bn", "config": {"trainable": true, "gamma_regularizer": null, "scale": true, "gamma_initializer": {"class_name": "Ones", "config": {}}, "beta_regularizer": null, "momentum": 0.99, "center": true, "gamma_constraint": null, "moving_mean_initializer": {"class_name": "Zeros", "config": {}}, "moving_variance_initializer": {"class_name": "Ones", "config": {}}, "axis": 3, "beta_initializer": {"class_name": "Zeros", "config": {}}, "epsilon": 1.001e-05, "name": "conv5_block11_1_bn", "beta_constraint": null}, "inbound_nodes": [[["conv5_block11_1_conv", 0, 0, {}]]]}, {"class_name": "Activation", "name": "conv5_block11_1_relu", "config": {"trainable": true, "name": "conv5_block11_1_relu", "activation": "relu"}, "inbound_nodes": [[["conv5_block11_1_bn", 0, 0, {}]]]}, {"class_name": "Conv2D", "name": "conv5_block11_2_conv", "config": {"trainable": true, "padding": "same", "filters": 32, "use_bias": false, "kernel_regularizer": null, "bias_constraint": null, "strides": [1, 1], "activity_regularizer": null, "bias_regularizer": null, "bias_initializer": {"class_name": "Zeros", "config": {}}, "dilation_rate": [1, 1], "name": "conv5_block11_2_conv", "activation": "linear", "data_format": "channels_last", "kernel_constraint": null, "kernel_initializer": {"class_name": "VarianceScaling", "config": {"seed": null, "scale": 1.0, "distribution": "uniform", "mode": "fan_avg"}}, "kernel_size": [3, 3]}, "inbound_nodes": [[["conv5_block11_1_relu", 0, 0, {}]]]}, {"class_name": "Concatenate", "name": "conv5_block11_concat", "config": {"trainable": true, "name": "conv5_block11_concat", "axis": 3}, "inbound_nodes": [[["conv5_block10_concat", 0, 0, {}], ["conv5_block11_2_conv", 0, 0, {}]]]}, {"class_name": "BatchNormalization", "name": "conv5_block12_0_bn", "config": {"trainable": true, "gamma_regularizer": null, "scale": true, "gamma_initializer": {"class_name": "Ones", "config": {}}, "beta_regularizer": null, "momentum": 0.99, "center": true, "gamma_constraint": null, "moving_mean_initializer": {"class_name": "Zeros", "config": {}}, "moving_variance_initializer": {"class_name": "Ones", "config": {}}, "axis": 3, "beta_initializer": {"class_name": "Zeros", "config": {}}, "epsilon": 1.001e-05, "name": "conv5_block12_0_bn", "beta_constraint": null}, "inbound_nodes": [[["conv5_block11_concat", 0, 0, {}]]]}, {"class_name": "Activation", "name": "conv5_block12_0_relu", "config": {"trainable": true, "name": "conv5_block12_0_relu", "activation": "relu"}, "inbound_nodes": [[["conv5_block12_0_bn", 0, 0, {}]]]}, {"class_name": "Conv2D", "name": "conv5_block12_1_conv", "config": {"trainable": true, "padding": "valid", "filters": 128, "use_bias": false, "kernel_regularizer": null, "bias_constraint": null, "strides": [1, 1], "activity_regularizer": null, "bias_regularizer": null, "bias_initializer": {"class_name": "Zeros", "config": {}}, "dilation_rate": [1, 1], "name": "conv5_block12_1_conv", "activation": "linear", "data_format": "channels_last", "kernel_constraint": null, "kernel_initializer": {"class_name": "VarianceScaling", "config": {"seed": null, "scale": 1.0, "distribution": "uniform", "mode": "fan_avg"}}, "kernel_size": [1, 1]}, "inbound_nodes": [[["conv5_block12_0_relu", 0, 0, {}]]]}, {"class_name": "BatchNormalization", "name": "conv5_block12_1_bn", "config": {"trainable": true, "gamma_regularizer": null, "scale": true, "gamma_initializer": {"class_name": "Ones", "config": {}}, "beta_regularizer": null, "momentum": 0.99, "center": true, "gamma_constraint": null, "moving_mean_initializer": {"class_name": "Zeros", "config": {}}, "moving_variance_initializer": {"class_name": "Ones", "config": {}}, "axis": 3, "beta_initializer": {"class_name": "Zeros", "config": {}}, "epsilon": 1.001e-05, "name": "conv5_block12_1_bn", "beta_constraint": null}, "inbound_nodes": [[["conv5_block12_1_conv", 0, 0, {}]]]}, {"class_name": "Activation", "name": "conv5_block12_1_relu", "config": {"trainable": true, "name": "conv5_block12_1_relu", "activation": "relu"}, "inbound_nodes": [[["conv5_block12_1_bn", 0, 0, {}]]]}, {"class_name": "Conv2D", "name": "conv5_block12_2_conv", "config": {"trainable": true, "padding": "same", "filters": 32, "use_bias": false, "kernel_regularizer": null, "bias_constraint": null, "strides": [1, 1], "activity_regularizer": null, "bias_regularizer": null, "bias_initializer": {"class_name": "Zeros", "config": {}}, "dilation_rate": [1, 1], "name": "conv5_block12_2_conv", "activation": "linear", "data_format": "channels_last", "kernel_constraint": null, "kernel_initializer": {"class_name": "VarianceScaling", "config": {"seed": null, "scale": 1.0, "distribution": "uniform", "mode": "fan_avg"}}, "kernel_size": [3, 3]}, "inbound_nodes": [[["conv5_block12_1_relu", 0, 0, {}]]]}, {"class_name": "Concatenate", "name": "conv5_block12_concat", "config": {"trainable": true, "name": "conv5_block12_concat", "axis": 3}, "inbound_nodes": [[["conv5_block11_concat", 0, 0, {}], ["conv5_block12_2_conv", 0, 0, {}]]]}, {"class_name": "BatchNormalization", "name": "conv5_block13_0_bn", "config": {"trainable": true, "gamma_regularizer": null, "scale": true, "gamma_initializer": {"class_name": "Ones", "config": {}}, "beta_regularizer": null, "momentum": 0.99, "center": true, "gamma_constraint": null, "moving_mean_initializer": {"class_name": "Zeros", "config": {}}, "moving_variance_initializer": {"class_name": "Ones", "config": {}}, "axis": 3, "beta_initializer": {"class_name": "Zeros", "config": {}}, "epsilon": 1.001e-05, "name": "conv5_block13_0_bn", "beta_constraint": null}, "inbound_nodes": [[["conv5_block12_concat", 0, 0, {}]]]}, {"class_name": "Activation", "name": "conv5_block13_0_relu", "config": {"trainable": true, "name": "conv5_block13_0_relu", "activation": "relu"}, "inbound_nodes": [[["conv5_block13_0_bn", 0, 0, {}]]]}, {"class_name": "Conv2D", "name": "conv5_block13_1_conv", "config": {"trainable": true, "padding": "valid", "filters": 128, "use_bias": false, "kernel_regularizer": null, "bias_constraint": null, "strides": [1, 1], "activity_regularizer": null, "bias_regularizer": null, "bias_initializer": {"class_name": "Zeros", "config": {}}, "dilation_rate": [1, 1], "name": "conv5_block13_1_conv", "activation": "linear", "data_format": "channels_last", "kernel_constraint": null, "kernel_initializer": {"class_name": "VarianceScaling", "config": {"seed": null, "scale": 1.0, "distribution": "uniform", "mode": "fan_avg"}}, "kernel_size": [1, 1]}, "inbound_nodes": [[["conv5_block13_0_relu", 0, 0, {}]]]}, {"class_name": "BatchNormalization", "name": "conv5_block13_1_bn", "config": {"trainable": true, "gamma_regularizer": null, "scale": true, "gamma_initializer": {"class_name": "Ones", "config": {}}, "beta_regularizer": null, "momentum": 0.99, "center": true, "gamma_constraint": null, "moving_mean_initializer": {"class_name": "Zeros", "config": {}}, "moving_variance_initializer": {"class_name": "Ones", "config": {}}, "axis": 3, "beta_initializer": {"class_name": "Zeros", "config": {}}, "epsilon": 1.001e-05, "name": "conv5_block13_1_bn", "beta_constraint": null}, "inbound_nodes": [[["conv5_block13_1_conv", 0, 0, {}]]]}, {"class_name": "Activation", "name": "conv5_block13_1_relu", "config": {"trainable": true, "name": "conv5_block13_1_relu", "activation": "relu"}, "inbound_nodes": [[["conv5_block13_1_bn", 0, 0, {}]]]}, {"class_name": "Conv2D", "name": "conv5_block13_2_conv", "config": {"trainable": true, "padding": "same", "filters": 32, "use_bias": false, "kernel_regularizer": null, "bias_constraint": null, "strides": [1, 1], "activity_regularizer": null, "bias_regularizer": null, "bias_initializer": {"class_name": "Zeros", "config": {}}, "dilation_rate": [1, 1], "name": "conv5_block13_2_conv", "activation": "linear", "data_format": "channels_last", "kernel_constraint": null, "kernel_initializer": {"class_name": "VarianceScaling", "config": {"seed": null, "scale": 1.0, "distribution": "uniform", "mode": "fan_avg"}}, "kernel_size": [3, 3]}, "inbound_nodes": [[["conv5_block13_1_relu", 0, 0, {}]]]}, {"class_name": "Concatenate", "name": "conv5_block13_concat", "config": {"trainable": true, "name": "conv5_block13_concat", "axis": 3}, "inbound_nodes": [[["conv5_block12_concat", 0, 0, {}], ["conv5_block13_2_conv", 0, 0, {}]]]}, {"class_name": "BatchNormalization", "name": "conv5_block14_0_bn", "config": {"trainable": true, "gamma_regularizer": null, "scale": true, "gamma_initializer": {"class_name": "Ones", "config": {}}, "beta_regularizer": null, "momentum": 0.99, "center": true, "gamma_constraint": null, "moving_mean_initializer": {"class_name": "Zeros", "config": {}}, "moving_variance_initializer": {"class_name": "Ones", "config": {}}, "axis": 3, "beta_initializer": {"class_name": "Zeros", "config": {}}, "epsilon": 1.001e-05, "name": "conv5_block14_0_bn", "beta_constraint": null}, "inbound_nodes": [[["conv5_block13_concat", 0, 0, {}]]]}, {"class_name": "Activation", "name": "conv5_block14_0_relu", "config": {"trainable": true, "name": "conv5_block14_0_relu", "activation": "relu"}, "inbound_nodes": [[["conv5_block14_0_bn", 0, 0, {}]]]}, {"class_name": "Conv2D", "name": "conv5_block14_1_conv", "config": {"trainable": true, "padding": "valid", "filters": 128, "use_bias": false, "kernel_regularizer": null, "bias_constraint": null, "strides": [1, 1], "activity_regularizer": null, "bias_regularizer": null, "bias_initializer": {"class_name": "Zeros", "config": {}}, "dilation_rate": [1, 1], "name": "conv5_block14_1_conv", "activation": "linear", "data_format": "channels_last", "kernel_constraint": null, "kernel_initializer": {"class_name": "VarianceScaling", "config": {"seed": null, "scale": 1.0, "distribution": "uniform", "mode": "fan_avg"}}, "kernel_size": [1, 1]}, "inbound_nodes": [[["conv5_block14_0_relu", 0, 0, {}]]]}, {"class_name": "BatchNormalization", "name": "conv5_block14_1_bn", "config": {"trainable": true, "gamma_regularizer": null, "scale": true, "gamma_initializer": {"class_name": "Ones", "config": {}}, "beta_regularizer": null, "momentum": 0.99, "center": true, "gamma_constraint": null, "moving_mean_initializer": {"class_name": "Zeros", "config": {}}, "moving_variance_initializer": {"class_name": "Ones", "config": {}}, "axis": 3, "beta_initializer": {"class_name": "Zeros", "config": {}}, "epsilon": 1.001e-05, "name": "conv5_block14_1_bn", "beta_constraint": null}, "inbound_nodes": [[["conv5_block14_1_conv", 0, 0, {}]]]}, {"class_name": "Activation", "name": "conv5_block14_1_relu", "config": {"trainable": true, "name": "conv5_block14_1_relu", "activation": "relu"}, "inbound_nodes": [[["conv5_block14_1_bn", 0, 0, {}]]]}, {"class_name": "Conv2D", "name": "conv5_block14_2_conv", "config": {"trainable": true, "padding": "same", "filters": 32, "use_bias": false, "kernel_regularizer": null, "bias_constraint": null, "strides": [1, 1], "activity_regularizer": null, "bias_regularizer": null, "bias_initializer": {"class_name": "Zeros", "config": {}}, "dilation_rate": [1, 1], "name": "conv5_block14_2_conv", "activation": "linear", "data_format": "channels_last", "kernel_constraint": null, "kernel_initializer": {"class_name": "VarianceScaling", "config": {"seed": null, "scale": 1.0, "distribution": "uniform", "mode": "fan_avg"}}, "kernel_size": [3, 3]}, "inbound_nodes": [[["conv5_block14_1_relu", 0, 0, {}]]]}, {"class_name": "Concatenate", "name": "conv5_block14_concat", "config": {"trainable": true, "name": "conv5_block14_concat", "axis": 3}, "inbound_nodes": [[["conv5_block13_concat", 0, 0, {}], ["conv5_block14_2_conv", 0, 0, {}]]]}, {"class_name": "BatchNormalization", "name": "conv5_block15_0_bn", "config": {"trainable": true, "gamma_regularizer": null, "scale": true, "gamma_initializer": {"class_name": "Ones", "config": {}}, "beta_regularizer": null, "momentum": 0.99, "center": true, "gamma_constraint": null, "moving_mean_initializer": {"class_name": "Zeros", "config": {}}, "moving_variance_initializer": {"class_name": "Ones", "config": {}}, "axis": 3, "beta_initializer": {"class_name": "Zeros", "config": {}}, "epsilon": 1.001e-05, "name": "conv5_block15_0_bn", "beta_constraint": null}, "inbound_nodes": [[["conv5_block14_concat", 0, 0, {}]]]}, {"class_name": "Activation", "name": "conv5_block15_0_relu", "config": {"trainable": true, "name": "conv5_block15_0_relu", "activation": "relu"}, "inbound_nodes": [[["conv5_block15_0_bn", 0, 0, {}]]]}, {"class_name": "Conv2D", "name": "conv5_block15_1_conv", "config": {"trainable": true, "padding": "valid", "filters": 128, "use_bias": false, "kernel_regularizer": null, "bias_constraint": null, "strides": [1, 1], "activity_regularizer": null, "bias_regularizer": null, "bias_initializer": {"class_name": "Zeros", "config": {}}, "dilation_rate": [1, 1], "name": "conv5_block15_1_conv", "activation": "linear", "data_format": "channels_last", "kernel_constraint": null, "kernel_initializer": {"class_name": "VarianceScaling", "config": {"seed": null, "scale": 1.0, "distribution": "uniform", "mode": "fan_avg"}}, "kernel_size": [1, 1]}, "inbound_nodes": [[["conv5_block15_0_relu", 0, 0, {}]]]}, {"class_name": "BatchNormalization", "name": "conv5_block15_1_bn", "config": {"trainable": true, "gamma_regularizer": null, "scale": true, "gamma_initializer": {"class_name": "Ones", "config": {}}, "beta_regularizer": null, "momentum": 0.99, "center": true, "gamma_constraint": null, "moving_mean_initializer": {"class_name": "Zeros", "config": {}}, "moving_variance_initializer": {"class_name": "Ones", "config": {}}, "axis": 3, "beta_initializer": {"class_name": "Zeros", "config": {}}, "epsilon": 1.001e-05, "name": "conv5_block15_1_bn", "beta_constraint": null}, "inbound_nodes": [[["conv5_block15_1_conv", 0, 0, {}]]]}, {"class_name": "Activation", "name": "conv5_block15_1_relu", "config": {"trainable": true, "name": "conv5_block15_1_relu", "activation": "relu"}, "inbound_nodes": [[["conv5_block15_1_bn", 0, 0, {}]]]}, {"class_name": "Conv2D", "name": "conv5_block15_2_conv", "config": {"trainable": true, "padding": "same", "filters": 32, "use_bias": false, "kernel_regularizer": null, "bias_constraint": null, "strides": [1, 1], "activity_regularizer": null, "bias_regularizer": null, "bias_initializer": {"class_name": "Zeros", "config": {}}, "dilation_rate": [1, 1], "name": "conv5_block15_2_conv", "activation": "linear", "data_format": "channels_last", "kernel_constraint": null, "kernel_initializer": {"class_name": "VarianceScaling", "config": {"seed": null, "scale": 1.0, "distribution": "uniform", "mode": "fan_avg"}}, "kernel_size": [3, 3]}, "inbound_nodes": [[["conv5_block15_1_relu", 0, 0, {}]]]}, {"class_name": "Concatenate", "name": "conv5_block15_concat", "config": {"trainable": true, "name": "conv5_block15_concat", "axis": 3}, "inbound_nodes": [[["conv5_block14_concat", 0, 0, {}], ["conv5_block15_2_conv", 0, 0, {}]]]}, {"class_name": "BatchNormalization", "name": "conv5_block16_0_bn", "config": {"trainable": true, "gamma_regularizer": null, "scale": true, "gamma_initializer": {"class_name": "Ones", "config": {}}, "beta_regularizer": null, "momentum": 0.99, "center": true, "gamma_constraint": null, "moving_mean_initializer": {"class_name": "Zeros", "config": {}}, "moving_variance_initializer": {"class_name": "Ones", "config": {}}, "axis": 3, "beta_initializer": {"class_name": "Zeros", "config": {}}, "epsilon": 1.001e-05, "name": "conv5_block16_0_bn", "beta_constraint": null}, "inbound_nodes": [[["conv5_block15_concat", 0, 0, {}]]]}, {"class_name": "Activation", "name": "conv5_block16_0_relu", "config": {"trainable": true, "name": "conv5_block16_0_relu", "activation": "relu"}, "inbound_nodes": [[["conv5_block16_0_bn", 0, 0, {}]]]}, {"class_name": "Conv2D", "name": "conv5_block16_1_conv", "config": {"trainable": true, "padding": "valid", "filters": 128, "use_bias": false, "kernel_regularizer": null, "bias_constraint": null, "strides": [1, 1], "activity_regularizer": null, "bias_regularizer": null, "bias_initializer": {"class_name": "Zeros", "config": {}}, "dilation_rate": [1, 1], "name": "conv5_block16_1_conv", "activation": "linear", "data_format": "channels_last", "kernel_constraint": null, "kernel_initializer": {"class_name": "VarianceScaling", "config": {"seed": null, "scale": 1.0, "distribution": "uniform", "mode": "fan_avg"}}, "kernel_size": [1, 1]}, "inbound_nodes": [[["conv5_block16_0_relu", 0, 0, {}]]]}, {"class_name": "BatchNormalization", "name": "conv5_block16_1_bn", "config": {"trainable": true, "gamma_regularizer": null, "scale": true, "gamma_initializer": {"class_name": "Ones", "config": {}}, "beta_regularizer": null, "momentum": 0.99, "center": true, "gamma_constraint": null, "moving_mean_initializer": {"class_name": "Zeros", "config": {}}, "moving_variance_initializer": {"class_name": "Ones", "config": {}}, "axis": 3, "beta_initializer": {"class_name": "Zeros", "config": {}}, "epsilon": 1.001e-05, "name": "conv5_block16_1_bn", "beta_constraint": null}, "inbound_nodes": [[["conv5_block16_1_conv", 0, 0, {}]]]}, {"class_name": "Activation", "name": "conv5_block16_1_relu", "config": {"trainable": true, "name": "conv5_block16_1_relu", "activation": "relu"}, "inbound_nodes": [[["conv5_block16_1_bn", 0, 0, {}]]]}, {"class_name": "Conv2D", "name": "conv5_block16_2_conv", "config": {"trainable": true, "padding": "same", "filters": 32, "use_bias": false, "kernel_regularizer": null, "bias_constraint": null, "strides": [1, 1], "activity_regularizer": null, "bias_regularizer": null, "bias_initializer": {"class_name": "Zeros", "config": {}}, "dilation_rate": [1, 1], "name": "conv5_block16_2_conv", "activation": "linear", "data_format": "channels_last", "kernel_constraint": null, "kernel_initializer": {"class_name": "VarianceScaling", "config": {"seed": null, "scale": 1.0, "distribution": "uniform", "mode": "fan_avg"}}, "kernel_size": [3, 3]}, "inbound_nodes": [[["conv5_block16_1_relu", 0, 0, {}]]]}, {"class_name": "Concatenate", "name": "conv5_block16_concat", "config": {"trainable": true, "name": "conv5_block16_concat", "axis": 3}, "inbound_nodes": [[["conv5_block15_concat", 0, 0, {}], ["conv5_block16_2_conv", 0, 0, {}]]]}, {"class_name": "BatchNormalization", "name": "bn", "config": {"trainable": true, "gamma_regularizer": null, "scale": true, "gamma_initializer": {"class_name": "Ones", "config": {}}, "beta_regularizer": null, "momentum": 0.99, "center": true, "gamma_constraint": null, "moving_mean_initializer": {"class_name": "Zeros", "config": {}}, "moving_variance_initializer": {"class_name": "Ones", "config": {}}, "axis": 3, "beta_initializer": {"class_name": "Zeros", "config": {}}, "epsilon": 1.001e-05, "name": "bn", "beta_constraint": null}, "inbound_nodes": [[["conv5_block16_concat", 0, 0, {}]]]}], "output_layers": [["bn", 0, 0]], "input_layers": [["input_3", 0, 0]]}, "inbound_nodes": [[["image_input", 0, 0, {}]]]}, {"class_name": "InputLayer", "name": "words_input", "config": {"sparse": false, "name": "words_input", "batch_input_shape": [null, 193], "dtype": "float32"}, "inbound_nodes": []}, {"class_name": "Dropout", "name": "dropout_17", "config": {"trainable": true, "name": "dropout_17", "seed": null, "noise_shape": null, "rate": 0.1}, "inbound_nodes": [[["densenet121", 1, 0, {}]]]}, {"class_name": "Model", "name": "textModel", "config": {"name": "textModel", "layers": [{"class_name": "InputLayer", "name": "words_input", "config": {"sparse": false, "name": "words_input", "batch_input_shape": [null, 193], "dtype": "float32"}, "inbound_nodes": []}, {"class_name": "Embedding", "name": "w2v_emb", "config": {"trainable": true, "embeddings_regularizer": null, "dtype": "float32", "output_dim": 300, "activity_regularizer": null, "batch_input_shape": [null, null], "input_dim": 1943, "name": "w2v_emb", "mask_zero": false, "embeddings_initializer": {"class_name": "RandomUniform", "config": {"maxval": 0.05, "seed": null, "minval": -0.05}}, "embeddings_constraint": null, "input_length": null}, "inbound_nodes": [[["words_input", 0, 0, {}]]]}, {"class_name": "Conv1D", "name": "conv1d_4", "config": {"trainable": true, "padding": "valid", "filters": 512, "use_bias": true, "kernel_regularizer": null, "bias_constraint": null, "strides": [1], "activity_regularizer": null, "bias_regularizer": null, "bias_initializer": {"class_name": "Zeros", "config": {}}, "dilation_rate": [1], "name": "conv1d_4", "activation": "relu", "data_format": "channels_last", "kernel_constraint": null, "kernel_initializer": {"class_name": "VarianceScaling", "config": {"seed": null, "scale": 1.0, "distribution": "uniform", "mode": "fan_avg"}}, "kernel_size": [3]}, "inbound_nodes": [[["w2v_emb", 0, 0, {}]]]}, {"class_name": "Dropout", "name": "dropout_16", "config": {"trainable": true, "name": "dropout_16", "rate": 0.1, "seed": null, "noise_shape": null}, "inbound_nodes": [[["conv1d_4", 0, 0, {}]]]}, {"class_name": "SelfAttention", "name": "self_attention_4", "config": {"trainable": true, "name": "self_attention_4"}, "inbound_nodes": [[["dropout_16", 0, 0, {}]]]}, {"class_name": "GlobalAveragePooling1D", "name": "sa_gap", "config": {"trainable": true, "name": "sa_gap"}, "inbound_nodes": [[["self_attention_4", 0, 0, {}]]]}, {"class_name": "Dense", "name": "dense_10", "config": {"trainable": true, "units": 512, "kernel_regularizer": null, "bias_constraint": null, "activity_regularizer": null, "bias_initializer": {"class_name": "Zeros", "config": {}}, "bias_regularizer": null, "use_bias": true, "name": "dense_10", "activation": "relu", "kernel_constraint": null, "kernel_initializer": {"class_name": "VarianceScaling", "config": {"seed": null, "scale": 1.0, "distribution": "uniform", "mode": "fan_avg"}}}, "inbound_nodes": [[["sa_gap", 0, 0, {}]]]}, {"class_name": "Attention", "name": "attention_4", "config": {"trainable": true, "name": "attention_4"}, "inbound_nodes": [[["dense_10", 0, 0, {}], ["self_attention_4", 0, 0, {}]]]}, {"class_name": "Lambda", "name": "a_gap", "config": {"trainable": true, "arguments": {}, "function": ["4wEAAAAAAAAAAQAAAAQAAABTAAAAcxYAAAB0AABqAQBqAgB8AABkAQBkAgCDAQFTKQNO2gRheGlz\n6QEAAAApA9oBS9oCdGbaB3NxdWVlemUpAdoBeKkAcgcAAAD6IDxpcHl0aG9uLWlucHV0LTI0My1i\nYTU1NzVjNThiMjI+2gg8bGFtYmRhPgsAAABzAAAAAA==\n", null, null], "name": "a_gap", "output_shape_type": "raw", "output_shape": null, "function_type": "lambda"}, "inbound_nodes": [[["attention_4", 0, 0, {}]]]}, {"class_name": "Concatenate", "name": "concatenate_6", "config": {"trainable": true, "name": "concatenate_6", "axis": -1}, "inbound_nodes": [[["a_gap", 0, 0, {}], ["dense_10", 0, 0, {}]]]}], "output_layers": [["concatenate_6", 0, 0]], "input_layers": [["words_input", 0, 0]]}, "inbound_nodes": [[["words_input", 0, 0, {}]]]}, {"class_name": "Flatten", "name": "flatten_3", "config": {"trainable": true, "name": "flatten_3", "data_format": "channels_last"}, "inbound_nodes": [[["dropout_17", 0, 0, {}]]]}, {"class_name": "Dropout", "name": "dropout_18", "config": {"trainable": true, "name": "dropout_18", "seed": null, "noise_shape": null, "rate": 0.1}, "inbound_nodes": [[["textModel", 1, 0, {}]]]}, {"class_name": "Dense", "name": "dense_11", "config": {"trainable": true, "units": 512, "use_bias": true, "kernel_regularizer": null, "bias_constraint": null, "activity_regularizer": null, "bias_regularizer": null, "bias_initializer": {"class_name": "Zeros", "config": {}}, "name": "dense_11", "activation": "relu", "kernel_constraint": null, "kernel_initializer": {"class_name": "VarianceScaling", "config": {"seed": null, "scale": 1.0, "distribution": "uniform", "mode": "fan_avg"}}}, "inbound_nodes": [[["flatten_3", 0, 0, {}]]]}, {"class_name": "Dense", "name": "dense_12", "config": {"trainable": true, "units": 512, "use_bias": true, "kernel_regularizer": null, "bias_constraint": null, "activity_regularizer": null, "bias_regularizer": null, "bias_initializer": {"class_name": "Zeros", "config": {}}, "name": "dense_12", "activation": "relu", "kernel_constraint": null, "kernel_initializer": {"class_name": "VarianceScaling", "config": {"seed": null, "scale": 1.0, "distribution": "uniform", "mode": "fan_avg"}}}, "inbound_nodes": [[["dropout_18", 0, 0, {}]]]}, {"class_name": "Concatenate", "name": "concatenate_7", "config": {"trainable": true, "name": "concatenate_7", "axis": -1}, "inbound_nodes": [[["dense_11", 0, 0, {}], ["dense_12", 0, 0, {}]]]}, {"class_name": "Dense", "name": "dense_13", "config": {"trainable": true, "units": 512, "use_bias": true, "kernel_regularizer": null, "bias_constraint": null, "activity_regularizer": null, "bias_regularizer": null, "bias_initializer": {"class_name": "Zeros", "config": {}}, "name": "dense_13", "activation": "relu", "kernel_constraint": null, "kernel_initializer": {"class_name": "VarianceScaling", "config": {"seed": null, "scale": 1.0, "distribution": "uniform", "mode": "fan_avg"}}}, "inbound_nodes": [[["concatenate_7", 0, 0, {}]]]}, {"class_name": "Dense", "name": "target_word", "config": {"trainable": true, "units": 1943, "use_bias": true, "kernel_regularizer": null, "bias_constraint": null, "activity_regularizer": null, "bias_regularizer": null, "bias_initializer": {"class_name": "Zeros", "config": {}}, "name": "target_word", "activation": "softmax", "kernel_constraint": null, "kernel_initializer": {"class_name": "VarianceScaling", "config": {"seed": null, "scale": 1.0, "distribution": "uniform", "mode": "fan_avg"}}}, "inbound_nodes": [[["dense_13", 0, 0, {}]]]}], "output_layers": [["target_word", 0, 0]], "input_layers": [["image_input", 0, 0], ["words_input", 0, 0]]}, "keras_version": "2.2.2"}