{"backend": "tensorflow", "class_name": "Model", "config": {"input_layers": [["image_input", 0, 0], ["words_input", 0, 0]], "output_layers": [["target_word", 0, 0]], "layers": [{"class_name": "InputLayer", "config": {"dtype": "float32", "sparse": false, "batch_input_shape": [null, 256, 256, 3], "name": "image_input"}, "inbound_nodes": [], "name": "image_input"}, {"class_name": "Model", "config": {"input_layers": [["input_1", 0, 0]], "output_layers": [["bn", 0, 0]], "layers": [{"class_name": "InputLayer", "config": {"name": "input_1", "sparse": false, "batch_input_shape": [null, 256, 256, 3], "dtype": "float32"}, "inbound_nodes": [], "name": "input_1"}, {"class_name": "ZeroPadding2D", "config": {"trainable": true, "padding": [[3, 3], [3, 3]], "data_format": "channels_last", "name": "zero_padding2d_1"}, "inbound_nodes": [[["input_1", 0, 0, {}]]], "name": "zero_padding2d_1"}, {"class_name": "Conv2D", "config": {"activation": "linear", "filters": 64, "activity_regularizer": null, "data_format": "channels_last", "kernel_constraint": null, "kernel_initializer": {"class_name": "VarianceScaling", "config": {"seed": null, "distribution": "uniform", "scale": 1.0, "mode": "fan_avg"}}, "bias_regularizer": null, "bias_initializer": {"class_name": "Zeros", "config": {}}, "kernel_regularizer": null, "dilation_rate": [1, 1], "use_bias": false, "bias_constraint": null, "trainable": true, "padding": "valid", "kernel_size": [7, 7], "strides": [2, 2], "name": "conv1/conv"}, "inbound_nodes": [[["zero_padding2d_1", 0, 0, {}]]], "name": "conv1/conv"}, {"class_name": "BatchNormalization", "config": {"moving_mean_initializer": {"class_name": "Zeros", "config": {}}, "gamma_regularizer": null, "momentum": 0.99, "beta_constraint": null, "scale": true, "moving_variance_initializer": {"class_name": "Ones", "config": {}}, "center": true, "axis": 3, "beta_regularizer": null, "gamma_constraint": null, "beta_initializer": {"class_name": "Zeros", "config": {}}, "gamma_initializer": {"class_name": "Ones", "config": {}}, "epsilon": 1.001e-05, "trainable": true, "name": "conv1/bn"}, "inbound_nodes": [[["conv1/conv", 0, 0, {}]]], "name": "conv1/bn"}, {"class_name": "Activation", "config": {"activation": "relu", "trainable": true, "name": "conv1/relu"}, "inbound_nodes": [[["conv1/bn", 0, 0, {}]]], "name": "conv1/relu"}, {"class_name": "ZeroPadding2D", "config": {"trainable": true, "padding": [[1, 1], [1, 1]], "data_format": "channels_last", "name": "zero_padding2d_2"}, "inbound_nodes": [[["conv1/relu", 0, 0, {}]]], "name": "zero_padding2d_2"}, {"class_name": "MaxPooling2D", "config": {"pool_size": [3, 3], "data_format": "channels_last", "trainable": true, "padding": "valid", "strides": [2, 2], "name": "pool1"}, "inbound_nodes": [[["zero_padding2d_2", 0, 0, {}]]], "name": "pool1"}, {"class_name": "BatchNormalization", "config": {"moving_mean_initializer": {"class_name": "Zeros", "config": {}}, "gamma_regularizer": null, "momentum": 0.99, "beta_constraint": null, "scale": true, "moving_variance_initializer": {"class_name": "Ones", "config": {}}, "center": true, "axis": 3, "beta_regularizer": null, "gamma_constraint": null, "beta_initializer": {"class_name": "Zeros", "config": {}}, "gamma_initializer": {"class_name": "Ones", "config": {}}, "epsilon": 1.001e-05, "trainable": true, "name": "conv2_block1_0_bn"}, "inbound_nodes": [[["pool1", 0, 0, {}]]], "name": "conv2_block1_0_bn"}, {"class_name": "Activation", "config": {"activation": "relu", "trainable": true, "name": "conv2_block1_0_relu"}, "inbound_nodes": [[["conv2_block1_0_bn", 0, 0, {}]]], "name": "conv2_block1_0_relu"}, {"class_name": "Conv2D", "config": {"activation": "linear", "filters": 128, "activity_regularizer": null, "data_format": "channels_last", "kernel_constraint": null, "kernel_initializer": {"class_name": "VarianceScaling", "config": {"seed": null, "distribution": "uniform", "scale": 1.0, "mode": "fan_avg"}}, "bias_regularizer": null, "bias_initializer": {"class_name": "Zeros", "config": {}}, "kernel_regularizer": null, "dilation_rate": [1, 1], "use_bias": false, "bias_constraint": null, "trainable": true, "padding": "valid", "kernel_size": [1, 1], "strides": [1, 1], "name": "conv2_block1_1_conv"}, "inbound_nodes": [[["conv2_block1_0_relu", 0, 0, {}]]], "name": "conv2_block1_1_conv"}, {"class_name": "BatchNormalization", "config": {"moving_mean_initializer": {"class_name": "Zeros", "config": {}}, "gamma_regularizer": null, "momentum": 0.99, "beta_constraint": null, "scale": true, "moving_variance_initializer": {"class_name": "Ones", "config": {}}, "center": true, "axis": 3, "beta_regularizer": null, "gamma_constraint": null, "beta_initializer": {"class_name": "Zeros", "config": {}}, "gamma_initializer": {"class_name": "Ones", "config": {}}, "epsilon": 1.001e-05, "trainable": true, "name": "conv2_block1_1_bn"}, "inbound_nodes": [[["conv2_block1_1_conv", 0, 0, {}]]], "name": "conv2_block1_1_bn"}, {"class_name": "Activation", "config": {"activation": "relu", "trainable": true, "name": "conv2_block1_1_relu"}, "inbound_nodes": [[["conv2_block1_1_bn", 0, 0, {}]]], "name": "conv2_block1_1_relu"}, {"class_name": "Conv2D", "config": {"activation": "linear", "filters": 32, "activity_regularizer": null, "data_format": "channels_last", "kernel_constraint": null, "kernel_initializer": {"class_name": "VarianceScaling", "config": {"seed": null, "distribution": "uniform", "scale": 1.0, "mode": "fan_avg"}}, "bias_regularizer": null, "bias_initializer": {"class_name": "Zeros", "config": {}}, "kernel_regularizer": null, "dilation_rate": [1, 1], "use_bias": false, "bias_constraint": null, "trainable": true, "padding": "same", "kernel_size": [3, 3], "strides": [1, 1], "name": "conv2_block1_2_conv"}, "inbound_nodes": [[["conv2_block1_1_relu", 0, 0, {}]]], "name": "conv2_block1_2_conv"}, {"class_name": "Concatenate", "config": {"trainable": true, "axis": 3, "name": "conv2_block1_concat"}, "inbound_nodes": [[["pool1", 0, 0, {}], ["conv2_block1_2_conv", 0, 0, {}]]], "name": "conv2_block1_concat"}, {"class_name": "BatchNormalization", "config": {"moving_mean_initializer": {"class_name": "Zeros", "config": {}}, "gamma_regularizer": null, "momentum": 0.99, "beta_constraint": null, "scale": true, "moving_variance_initializer": {"class_name": "Ones", "config": {}}, "center": true, "axis": 3, "beta_regularizer": null, "gamma_constraint": null, "beta_initializer": {"class_name": "Zeros", "config": {}}, "gamma_initializer": {"class_name": "Ones", "config": {}}, "epsilon": 1.001e-05, "trainable": true, "name": "conv2_block2_0_bn"}, "inbound_nodes": [[["conv2_block1_concat", 0, 0, {}]]], "name": "conv2_block2_0_bn"}, {"class_name": "Activation", "config": {"activation": "relu", "trainable": true, "name": "conv2_block2_0_relu"}, "inbound_nodes": [[["conv2_block2_0_bn", 0, 0, {}]]], "name": "conv2_block2_0_relu"}, {"class_name": "Conv2D", "config": {"activation": "linear", "filters": 128, "activity_regularizer": null, "data_format": "channels_last", "kernel_constraint": null, "kernel_initializer": {"class_name": "VarianceScaling", "config": {"seed": null, "distribution": "uniform", "scale": 1.0, "mode": "fan_avg"}}, "bias_regularizer": null, "bias_initializer": {"class_name": "Zeros", "config": {}}, "kernel_regularizer": null, "dilation_rate": [1, 1], "use_bias": false, "bias_constraint": null, "trainable": true, "padding": "valid", "kernel_size": [1, 1], "strides": [1, 1], "name": "conv2_block2_1_conv"}, "inbound_nodes": [[["conv2_block2_0_relu", 0, 0, {}]]], "name": "conv2_block2_1_conv"}, {"class_name": "BatchNormalization", "config": {"moving_mean_initializer": {"class_name": "Zeros", "config": {}}, "gamma_regularizer": null, "momentum": 0.99, "beta_constraint": null, "scale": true, "moving_variance_initializer": {"class_name": "Ones", "config": {}}, "center": true, "axis": 3, "beta_regularizer": null, "gamma_constraint": null, "beta_initializer": {"class_name": "Zeros", "config": {}}, "gamma_initializer": {"class_name": "Ones", "config": {}}, "epsilon": 1.001e-05, "trainable": true, "name": "conv2_block2_1_bn"}, "inbound_nodes": [[["conv2_block2_1_conv", 0, 0, {}]]], "name": "conv2_block2_1_bn"}, {"class_name": "Activation", "config": {"activation": "relu", "trainable": true, "name": "conv2_block2_1_relu"}, "inbound_nodes": [[["conv2_block2_1_bn", 0, 0, {}]]], "name": "conv2_block2_1_relu"}, {"class_name": "Conv2D", "config": {"activation": "linear", "filters": 32, "activity_regularizer": null, "data_format": "channels_last", "kernel_constraint": null, "kernel_initializer": {"class_name": "VarianceScaling", "config": {"seed": null, "distribution": "uniform", "scale": 1.0, "mode": "fan_avg"}}, "bias_regularizer": null, "bias_initializer": {"class_name": "Zeros", "config": {}}, "kernel_regularizer": null, "dilation_rate": [1, 1], "use_bias": false, "bias_constraint": null, "trainable": true, "padding": "same", "kernel_size": [3, 3], "strides": [1, 1], "name": "conv2_block2_2_conv"}, "inbound_nodes": [[["conv2_block2_1_relu", 0, 0, {}]]], "name": "conv2_block2_2_conv"}, {"class_name": "Concatenate", "config": {"trainable": true, "axis": 3, "name": "conv2_block2_concat"}, "inbound_nodes": [[["conv2_block1_concat", 0, 0, {}], ["conv2_block2_2_conv", 0, 0, {}]]], "name": "conv2_block2_concat"}, {"class_name": "BatchNormalization", "config": {"moving_mean_initializer": {"class_name": "Zeros", "config": {}}, "gamma_regularizer": null, "momentum": 0.99, "beta_constraint": null, "scale": true, "moving_variance_initializer": {"class_name": "Ones", "config": {}}, "center": true, "axis": 3, "beta_regularizer": null, "gamma_constraint": null, "beta_initializer": {"class_name": "Zeros", "config": {}}, "gamma_initializer": {"class_name": "Ones", "config": {}}, "epsilon": 1.001e-05, "trainable": true, "name": "conv2_block3_0_bn"}, "inbound_nodes": [[["conv2_block2_concat", 0, 0, {}]]], "name": "conv2_block3_0_bn"}, {"class_name": "Activation", "config": {"activation": "relu", "trainable": true, "name": "conv2_block3_0_relu"}, "inbound_nodes": [[["conv2_block3_0_bn", 0, 0, {}]]], "name": "conv2_block3_0_relu"}, {"class_name": "Conv2D", "config": {"activation": "linear", "filters": 128, "activity_regularizer": null, "data_format": "channels_last", "kernel_constraint": null, "kernel_initializer": {"class_name": "VarianceScaling", "config": {"seed": null, "distribution": "uniform", "scale": 1.0, "mode": "fan_avg"}}, "bias_regularizer": null, "bias_initializer": {"class_name": "Zeros", "config": {}}, "kernel_regularizer": null, "dilation_rate": [1, 1], "use_bias": false, "bias_constraint": null, "trainable": true, "padding": "valid", "kernel_size": [1, 1], "strides": [1, 1], "name": "conv2_block3_1_conv"}, "inbound_nodes": [[["conv2_block3_0_relu", 0, 0, {}]]], "name": "conv2_block3_1_conv"}, {"class_name": "BatchNormalization", "config": {"moving_mean_initializer": {"class_name": "Zeros", "config": {}}, "gamma_regularizer": null, "momentum": 0.99, "beta_constraint": null, "scale": true, "moving_variance_initializer": {"class_name": "Ones", "config": {}}, "center": true, "axis": 3, "beta_regularizer": null, "gamma_constraint": null, "beta_initializer": {"class_name": "Zeros", "config": {}}, "gamma_initializer": {"class_name": "Ones", "config": {}}, "epsilon": 1.001e-05, "trainable": true, "name": "conv2_block3_1_bn"}, "inbound_nodes": [[["conv2_block3_1_conv", 0, 0, {}]]], "name": "conv2_block3_1_bn"}, {"class_name": "Activation", "config": {"activation": "relu", "trainable": true, "name": "conv2_block3_1_relu"}, "inbound_nodes": [[["conv2_block3_1_bn", 0, 0, {}]]], "name": "conv2_block3_1_relu"}, {"class_name": "Conv2D", "config": {"activation": "linear", "filters": 32, "activity_regularizer": null, "data_format": "channels_last", "kernel_constraint": null, "kernel_initializer": {"class_name": "VarianceScaling", "config": {"seed": null, "distribution": "uniform", "scale": 1.0, "mode": "fan_avg"}}, "bias_regularizer": null, "bias_initializer": {"class_name": "Zeros", "config": {}}, "kernel_regularizer": null, "dilation_rate": [1, 1], "use_bias": false, "bias_constraint": null, "trainable": true, "padding": "same", "kernel_size": [3, 3], "strides": [1, 1], "name": "conv2_block3_2_conv"}, "inbound_nodes": [[["conv2_block3_1_relu", 0, 0, {}]]], "name": "conv2_block3_2_conv"}, {"class_name": "Concatenate", "config": {"trainable": true, "axis": 3, "name": "conv2_block3_concat"}, "inbound_nodes": [[["conv2_block2_concat", 0, 0, {}], ["conv2_block3_2_conv", 0, 0, {}]]], "name": "conv2_block3_concat"}, {"class_name": "BatchNormalization", "config": {"moving_mean_initializer": {"class_name": "Zeros", "config": {}}, "gamma_regularizer": null, "momentum": 0.99, "beta_constraint": null, "scale": true, "moving_variance_initializer": {"class_name": "Ones", "config": {}}, "center": true, "axis": 3, "beta_regularizer": null, "gamma_constraint": null, "beta_initializer": {"class_name": "Zeros", "config": {}}, "gamma_initializer": {"class_name": "Ones", "config": {}}, "epsilon": 1.001e-05, "trainable": true, "name": "conv2_block4_0_bn"}, "inbound_nodes": [[["conv2_block3_concat", 0, 0, {}]]], "name": "conv2_block4_0_bn"}, {"class_name": "Activation", "config": {"activation": "relu", "trainable": true, "name": "conv2_block4_0_relu"}, "inbound_nodes": [[["conv2_block4_0_bn", 0, 0, {}]]], "name": "conv2_block4_0_relu"}, {"class_name": "Conv2D", "config": {"activation": "linear", "filters": 128, "activity_regularizer": null, "data_format": "channels_last", "kernel_constraint": null, "kernel_initializer": {"class_name": "VarianceScaling", "config": {"seed": null, "distribution": "uniform", "scale": 1.0, "mode": "fan_avg"}}, "bias_regularizer": null, "bias_initializer": {"class_name": "Zeros", "config": {}}, "kernel_regularizer": null, "dilation_rate": [1, 1], "use_bias": false, "bias_constraint": null, "trainable": true, "padding": "valid", "kernel_size": [1, 1], "strides": [1, 1], "name": "conv2_block4_1_conv"}, "inbound_nodes": [[["conv2_block4_0_relu", 0, 0, {}]]], "name": "conv2_block4_1_conv"}, {"class_name": "BatchNormalization", "config": {"moving_mean_initializer": {"class_name": "Zeros", "config": {}}, "gamma_regularizer": null, "momentum": 0.99, "beta_constraint": null, "scale": true, "moving_variance_initializer": {"class_name": "Ones", "config": {}}, "center": true, "axis": 3, "beta_regularizer": null, "gamma_constraint": null, "beta_initializer": {"class_name": "Zeros", "config": {}}, "gamma_initializer": {"class_name": "Ones", "config": {}}, "epsilon": 1.001e-05, "trainable": true, "name": "conv2_block4_1_bn"}, "inbound_nodes": [[["conv2_block4_1_conv", 0, 0, {}]]], "name": "conv2_block4_1_bn"}, {"class_name": "Activation", "config": {"activation": "relu", "trainable": true, "name": "conv2_block4_1_relu"}, "inbound_nodes": [[["conv2_block4_1_bn", 0, 0, {}]]], "name": "conv2_block4_1_relu"}, {"class_name": "Conv2D", "config": {"activation": "linear", "filters": 32, "activity_regularizer": null, "data_format": "channels_last", "kernel_constraint": null, "kernel_initializer": {"class_name": "VarianceScaling", "config": {"seed": null, "distribution": "uniform", "scale": 1.0, "mode": "fan_avg"}}, "bias_regularizer": null, "bias_initializer": {"class_name": "Zeros", "config": {}}, "kernel_regularizer": null, "dilation_rate": [1, 1], "use_bias": false, "bias_constraint": null, "trainable": true, "padding": "same", "kernel_size": [3, 3], "strides": [1, 1], "name": "conv2_block4_2_conv"}, "inbound_nodes": [[["conv2_block4_1_relu", 0, 0, {}]]], "name": "conv2_block4_2_conv"}, {"class_name": "Concatenate", "config": {"trainable": true, "axis": 3, "name": "conv2_block4_concat"}, "inbound_nodes": [[["conv2_block3_concat", 0, 0, {}], ["conv2_block4_2_conv", 0, 0, {}]]], "name": "conv2_block4_concat"}, {"class_name": "BatchNormalization", "config": {"moving_mean_initializer": {"class_name": "Zeros", "config": {}}, "gamma_regularizer": null, "momentum": 0.99, "beta_constraint": null, "scale": true, "moving_variance_initializer": {"class_name": "Ones", "config": {}}, "center": true, "axis": 3, "beta_regularizer": null, "gamma_constraint": null, "beta_initializer": {"class_name": "Zeros", "config": {}}, "gamma_initializer": {"class_name": "Ones", "config": {}}, "epsilon": 1.001e-05, "trainable": true, "name": "conv2_block5_0_bn"}, "inbound_nodes": [[["conv2_block4_concat", 0, 0, {}]]], "name": "conv2_block5_0_bn"}, {"class_name": "Activation", "config": {"activation": "relu", "trainable": true, "name": "conv2_block5_0_relu"}, "inbound_nodes": [[["conv2_block5_0_bn", 0, 0, {}]]], "name": "conv2_block5_0_relu"}, {"class_name": "Conv2D", "config": {"activation": "linear", "filters": 128, "activity_regularizer": null, "data_format": "channels_last", "kernel_constraint": null, "kernel_initializer": {"class_name": "VarianceScaling", "config": {"seed": null, "distribution": "uniform", "scale": 1.0, "mode": "fan_avg"}}, "bias_regularizer": null, "bias_initializer": {"class_name": "Zeros", "config": {}}, "kernel_regularizer": null, "dilation_rate": [1, 1], "use_bias": false, "bias_constraint": null, "trainable": true, "padding": "valid", "kernel_size": [1, 1], "strides": [1, 1], "name": "conv2_block5_1_conv"}, "inbound_nodes": [[["conv2_block5_0_relu", 0, 0, {}]]], "name": "conv2_block5_1_conv"}, {"class_name": "BatchNormalization", "config": {"moving_mean_initializer": {"class_name": "Zeros", "config": {}}, "gamma_regularizer": null, "momentum": 0.99, "beta_constraint": null, "scale": true, "moving_variance_initializer": {"class_name": "Ones", "config": {}}, "center": true, "axis": 3, "beta_regularizer": null, "gamma_constraint": null, "beta_initializer": {"class_name": "Zeros", "config": {}}, "gamma_initializer": {"class_name": "Ones", "config": {}}, "epsilon": 1.001e-05, "trainable": true, "name": "conv2_block5_1_bn"}, "inbound_nodes": [[["conv2_block5_1_conv", 0, 0, {}]]], "name": "conv2_block5_1_bn"}, {"class_name": "Activation", "config": {"activation": "relu", "trainable": true, "name": "conv2_block5_1_relu"}, "inbound_nodes": [[["conv2_block5_1_bn", 0, 0, {}]]], "name": "conv2_block5_1_relu"}, {"class_name": "Conv2D", "config": {"activation": "linear", "filters": 32, "activity_regularizer": null, "data_format": "channels_last", "kernel_constraint": null, "kernel_initializer": {"class_name": "VarianceScaling", "config": {"seed": null, "distribution": "uniform", "scale": 1.0, "mode": "fan_avg"}}, "bias_regularizer": null, "bias_initializer": {"class_name": "Zeros", "config": {}}, "kernel_regularizer": null, "dilation_rate": [1, 1], "use_bias": false, "bias_constraint": null, "trainable": true, "padding": "same", "kernel_size": [3, 3], "strides": [1, 1], "name": "conv2_block5_2_conv"}, "inbound_nodes": [[["conv2_block5_1_relu", 0, 0, {}]]], "name": "conv2_block5_2_conv"}, {"class_name": "Concatenate", "config": {"trainable": true, "axis": 3, "name": "conv2_block5_concat"}, "inbound_nodes": [[["conv2_block4_concat", 0, 0, {}], ["conv2_block5_2_conv", 0, 0, {}]]], "name": "conv2_block5_concat"}, {"class_name": "BatchNormalization", "config": {"moving_mean_initializer": {"class_name": "Zeros", "config": {}}, "gamma_regularizer": null, "momentum": 0.99, "beta_constraint": null, "scale": true, "moving_variance_initializer": {"class_name": "Ones", "config": {}}, "center": true, "axis": 3, "beta_regularizer": null, "gamma_constraint": null, "beta_initializer": {"class_name": "Zeros", "config": {}}, "gamma_initializer": {"class_name": "Ones", "config": {}}, "epsilon": 1.001e-05, "trainable": true, "name": "conv2_block6_0_bn"}, "inbound_nodes": [[["conv2_block5_concat", 0, 0, {}]]], "name": "conv2_block6_0_bn"}, {"class_name": "Activation", "config": {"activation": "relu", "trainable": true, "name": "conv2_block6_0_relu"}, "inbound_nodes": [[["conv2_block6_0_bn", 0, 0, {}]]], "name": "conv2_block6_0_relu"}, {"class_name": "Conv2D", "config": {"activation": "linear", "filters": 128, "activity_regularizer": null, "data_format": "channels_last", "kernel_constraint": null, "kernel_initializer": {"class_name": "VarianceScaling", "config": {"seed": null, "distribution": "uniform", "scale": 1.0, "mode": "fan_avg"}}, "bias_regularizer": null, "bias_initializer": {"class_name": "Zeros", "config": {}}, "kernel_regularizer": null, "dilation_rate": [1, 1], "use_bias": false, "bias_constraint": null, "trainable": true, "padding": "valid", "kernel_size": [1, 1], "strides": [1, 1], "name": "conv2_block6_1_conv"}, "inbound_nodes": [[["conv2_block6_0_relu", 0, 0, {}]]], "name": "conv2_block6_1_conv"}, {"class_name": "BatchNormalization", "config": {"moving_mean_initializer": {"class_name": "Zeros", "config": {}}, "gamma_regularizer": null, "momentum": 0.99, "beta_constraint": null, "scale": true, "moving_variance_initializer": {"class_name": "Ones", "config": {}}, "center": true, "axis": 3, "beta_regularizer": null, "gamma_constraint": null, "beta_initializer": {"class_name": "Zeros", "config": {}}, "gamma_initializer": {"class_name": "Ones", "config": {}}, "epsilon": 1.001e-05, "trainable": true, "name": "conv2_block6_1_bn"}, "inbound_nodes": [[["conv2_block6_1_conv", 0, 0, {}]]], "name": "conv2_block6_1_bn"}, {"class_name": "Activation", "config": {"activation": "relu", "trainable": true, "name": "conv2_block6_1_relu"}, "inbound_nodes": [[["conv2_block6_1_bn", 0, 0, {}]]], "name": "conv2_block6_1_relu"}, {"class_name": "Conv2D", "config": {"activation": "linear", "filters": 32, "activity_regularizer": null, "data_format": "channels_last", "kernel_constraint": null, "kernel_initializer": {"class_name": "VarianceScaling", "config": {"seed": null, "distribution": "uniform", "scale": 1.0, "mode": "fan_avg"}}, "bias_regularizer": null, "bias_initializer": {"class_name": "Zeros", "config": {}}, "kernel_regularizer": null, "dilation_rate": [1, 1], "use_bias": false, "bias_constraint": null, "trainable": true, "padding": "same", "kernel_size": [3, 3], "strides": [1, 1], "name": "conv2_block6_2_conv"}, "inbound_nodes": [[["conv2_block6_1_relu", 0, 0, {}]]], "name": "conv2_block6_2_conv"}, {"class_name": "Concatenate", "config": {"trainable": true, "axis": 3, "name": "conv2_block6_concat"}, "inbound_nodes": [[["conv2_block5_concat", 0, 0, {}], ["conv2_block6_2_conv", 0, 0, {}]]], "name": "conv2_block6_concat"}, {"class_name": "BatchNormalization", "config": {"moving_mean_initializer": {"class_name": "Zeros", "config": {}}, "gamma_regularizer": null, "momentum": 0.99, "beta_constraint": null, "scale": true, "moving_variance_initializer": {"class_name": "Ones", "config": {}}, "center": true, "axis": 3, "beta_regularizer": null, "gamma_constraint": null, "beta_initializer": {"class_name": "Zeros", "config": {}}, "gamma_initializer": {"class_name": "Ones", "config": {}}, "epsilon": 1.001e-05, "trainable": true, "name": "pool2_bn"}, "inbound_nodes": [[["conv2_block6_concat", 0, 0, {}]]], "name": "pool2_bn"}, {"class_name": "Activation", "config": {"activation": "relu", "trainable": true, "name": "pool2_relu"}, "inbound_nodes": [[["pool2_bn", 0, 0, {}]]], "name": "pool2_relu"}, {"class_name": "Conv2D", "config": {"activation": "linear", "filters": 128, "activity_regularizer": null, "data_format": "channels_last", "kernel_constraint": null, "kernel_initializer": {"class_name": "VarianceScaling", "config": {"seed": null, "distribution": "uniform", "scale": 1.0, "mode": "fan_avg"}}, "bias_regularizer": null, "bias_initializer": {"class_name": "Zeros", "config": {}}, "kernel_regularizer": null, "dilation_rate": [1, 1], "use_bias": false, "bias_constraint": null, "trainable": true, "padding": "valid", "kernel_size": [1, 1], "strides": [1, 1], "name": "pool2_conv"}, "inbound_nodes": [[["pool2_relu", 0, 0, {}]]], "name": "pool2_conv"}, {"class_name": "AveragePooling2D", "config": {"pool_size": [2, 2], "data_format": "channels_last", "trainable": true, "padding": "valid", "strides": [2, 2], "name": "pool2_pool"}, "inbound_nodes": [[["pool2_conv", 0, 0, {}]]], "name": "pool2_pool"}, {"class_name": "BatchNormalization", "config": {"moving_mean_initializer": {"class_name": "Zeros", "config": {}}, "gamma_regularizer": null, "momentum": 0.99, "beta_constraint": null, "scale": true, "moving_variance_initializer": {"class_name": "Ones", "config": {}}, "center": true, "axis": 3, "beta_regularizer": null, "gamma_constraint": null, "beta_initializer": {"class_name": "Zeros", "config": {}}, "gamma_initializer": {"class_name": "Ones", "config": {}}, "epsilon": 1.001e-05, "trainable": true, "name": "conv3_block1_0_bn"}, "inbound_nodes": [[["pool2_pool", 0, 0, {}]]], "name": "conv3_block1_0_bn"}, {"class_name": "Activation", "config": {"activation": "relu", "trainable": true, "name": "conv3_block1_0_relu"}, "inbound_nodes": [[["conv3_block1_0_bn", 0, 0, {}]]], "name": "conv3_block1_0_relu"}, {"class_name": "Conv2D", "config": {"activation": "linear", "filters": 128, "activity_regularizer": null, "data_format": "channels_last", "kernel_constraint": null, "kernel_initializer": {"class_name": "VarianceScaling", "config": {"seed": null, "distribution": "uniform", "scale": 1.0, "mode": "fan_avg"}}, "bias_regularizer": null, "bias_initializer": {"class_name": "Zeros", "config": {}}, "kernel_regularizer": null, "dilation_rate": [1, 1], "use_bias": false, "bias_constraint": null, "trainable": true, "padding": "valid", "kernel_size": [1, 1], "strides": [1, 1], "name": "conv3_block1_1_conv"}, "inbound_nodes": [[["conv3_block1_0_relu", 0, 0, {}]]], "name": "conv3_block1_1_conv"}, {"class_name": "BatchNormalization", "config": {"moving_mean_initializer": {"class_name": "Zeros", "config": {}}, "gamma_regularizer": null, "momentum": 0.99, "beta_constraint": null, "scale": true, "moving_variance_initializer": {"class_name": "Ones", "config": {}}, "center": true, "axis": 3, "beta_regularizer": null, "gamma_constraint": null, "beta_initializer": {"class_name": "Zeros", "config": {}}, "gamma_initializer": {"class_name": "Ones", "config": {}}, "epsilon": 1.001e-05, "trainable": true, "name": "conv3_block1_1_bn"}, "inbound_nodes": [[["conv3_block1_1_conv", 0, 0, {}]]], "name": "conv3_block1_1_bn"}, {"class_name": "Activation", "config": {"activation": "relu", "trainable": true, "name": "conv3_block1_1_relu"}, "inbound_nodes": [[["conv3_block1_1_bn", 0, 0, {}]]], "name": "conv3_block1_1_relu"}, {"class_name": "Conv2D", "config": {"activation": "linear", "filters": 32, "activity_regularizer": null, "data_format": "channels_last", "kernel_constraint": null, "kernel_initializer": {"class_name": "VarianceScaling", "config": {"seed": null, "distribution": "uniform", "scale": 1.0, "mode": "fan_avg"}}, "bias_regularizer": null, "bias_initializer": {"class_name": "Zeros", "config": {}}, "kernel_regularizer": null, "dilation_rate": [1, 1], "use_bias": false, "bias_constraint": null, "trainable": true, "padding": "same", "kernel_size": [3, 3], "strides": [1, 1], "name": "conv3_block1_2_conv"}, "inbound_nodes": [[["conv3_block1_1_relu", 0, 0, {}]]], "name": "conv3_block1_2_conv"}, {"class_name": "Concatenate", "config": {"trainable": true, "axis": 3, "name": "conv3_block1_concat"}, "inbound_nodes": [[["pool2_pool", 0, 0, {}], ["conv3_block1_2_conv", 0, 0, {}]]], "name": "conv3_block1_concat"}, {"class_name": "BatchNormalization", "config": {"moving_mean_initializer": {"class_name": "Zeros", "config": {}}, "gamma_regularizer": null, "momentum": 0.99, "beta_constraint": null, "scale": true, "moving_variance_initializer": {"class_name": "Ones", "config": {}}, "center": true, "axis": 3, "beta_regularizer": null, "gamma_constraint": null, "beta_initializer": {"class_name": "Zeros", "config": {}}, "gamma_initializer": {"class_name": "Ones", "config": {}}, "epsilon": 1.001e-05, "trainable": true, "name": "conv3_block2_0_bn"}, "inbound_nodes": [[["conv3_block1_concat", 0, 0, {}]]], "name": "conv3_block2_0_bn"}, {"class_name": "Activation", "config": {"activation": "relu", "trainable": true, "name": "conv3_block2_0_relu"}, "inbound_nodes": [[["conv3_block2_0_bn", 0, 0, {}]]], "name": "conv3_block2_0_relu"}, {"class_name": "Conv2D", "config": {"activation": "linear", "filters": 128, "activity_regularizer": null, "data_format": "channels_last", "kernel_constraint": null, "kernel_initializer": {"class_name": "VarianceScaling", "config": {"seed": null, "distribution": "uniform", "scale": 1.0, "mode": "fan_avg"}}, "bias_regularizer": null, "bias_initializer": {"class_name": "Zeros", "config": {}}, "kernel_regularizer": null, "dilation_rate": [1, 1], "use_bias": false, "bias_constraint": null, "trainable": true, "padding": "valid", "kernel_size": [1, 1], "strides": [1, 1], "name": "conv3_block2_1_conv"}, "inbound_nodes": [[["conv3_block2_0_relu", 0, 0, {}]]], "name": "conv3_block2_1_conv"}, {"class_name": "BatchNormalization", "config": {"moving_mean_initializer": {"class_name": "Zeros", "config": {}}, "gamma_regularizer": null, "momentum": 0.99, "beta_constraint": null, "scale": true, "moving_variance_initializer": {"class_name": "Ones", "config": {}}, "center": true, "axis": 3, "beta_regularizer": null, "gamma_constraint": null, "beta_initializer": {"class_name": "Zeros", "config": {}}, "gamma_initializer": {"class_name": "Ones", "config": {}}, "epsilon": 1.001e-05, "trainable": true, "name": "conv3_block2_1_bn"}, "inbound_nodes": [[["conv3_block2_1_conv", 0, 0, {}]]], "name": "conv3_block2_1_bn"}, {"class_name": "Activation", "config": {"activation": "relu", "trainable": true, "name": "conv3_block2_1_relu"}, "inbound_nodes": [[["conv3_block2_1_bn", 0, 0, {}]]], "name": "conv3_block2_1_relu"}, {"class_name": "Conv2D", "config": {"activation": "linear", "filters": 32, "activity_regularizer": null, "data_format": "channels_last", "kernel_constraint": null, "kernel_initializer": {"class_name": "VarianceScaling", "config": {"seed": null, "distribution": "uniform", "scale": 1.0, "mode": "fan_avg"}}, "bias_regularizer": null, "bias_initializer": {"class_name": "Zeros", "config": {}}, "kernel_regularizer": null, "dilation_rate": [1, 1], "use_bias": false, "bias_constraint": null, "trainable": true, "padding": "same", "kernel_size": [3, 3], "strides": [1, 1], "name": "conv3_block2_2_conv"}, "inbound_nodes": [[["conv3_block2_1_relu", 0, 0, {}]]], "name": "conv3_block2_2_conv"}, {"class_name": "Concatenate", "config": {"trainable": true, "axis": 3, "name": "conv3_block2_concat"}, "inbound_nodes": [[["conv3_block1_concat", 0, 0, {}], ["conv3_block2_2_conv", 0, 0, {}]]], "name": "conv3_block2_concat"}, {"class_name": "BatchNormalization", "config": {"moving_mean_initializer": {"class_name": "Zeros", "config": {}}, "gamma_regularizer": null, "momentum": 0.99, "beta_constraint": null, "scale": true, "moving_variance_initializer": {"class_name": "Ones", "config": {}}, "center": true, "axis": 3, "beta_regularizer": null, "gamma_constraint": null, "beta_initializer": {"class_name": "Zeros", "config": {}}, "gamma_initializer": {"class_name": "Ones", "config": {}}, "epsilon": 1.001e-05, "trainable": true, "name": "conv3_block3_0_bn"}, "inbound_nodes": [[["conv3_block2_concat", 0, 0, {}]]], "name": "conv3_block3_0_bn"}, {"class_name": "Activation", "config": {"activation": "relu", "trainable": true, "name": "conv3_block3_0_relu"}, "inbound_nodes": [[["conv3_block3_0_bn", 0, 0, {}]]], "name": "conv3_block3_0_relu"}, {"class_name": "Conv2D", "config": {"activation": "linear", "filters": 128, "activity_regularizer": null, "data_format": "channels_last", "kernel_constraint": null, "kernel_initializer": {"class_name": "VarianceScaling", "config": {"seed": null, "distribution": "uniform", "scale": 1.0, "mode": "fan_avg"}}, "bias_regularizer": null, "bias_initializer": {"class_name": "Zeros", "config": {}}, "kernel_regularizer": null, "dilation_rate": [1, 1], "use_bias": false, "bias_constraint": null, "trainable": true, "padding": "valid", "kernel_size": [1, 1], "strides": [1, 1], "name": "conv3_block3_1_conv"}, "inbound_nodes": [[["conv3_block3_0_relu", 0, 0, {}]]], "name": "conv3_block3_1_conv"}, {"class_name": "BatchNormalization", "config": {"moving_mean_initializer": {"class_name": "Zeros", "config": {}}, "gamma_regularizer": null, "momentum": 0.99, "beta_constraint": null, "scale": true, "moving_variance_initializer": {"class_name": "Ones", "config": {}}, "center": true, "axis": 3, "beta_regularizer": null, "gamma_constraint": null, "beta_initializer": {"class_name": "Zeros", "config": {}}, "gamma_initializer": {"class_name": "Ones", "config": {}}, "epsilon": 1.001e-05, "trainable": true, "name": "conv3_block3_1_bn"}, "inbound_nodes": [[["conv3_block3_1_conv", 0, 0, {}]]], "name": "conv3_block3_1_bn"}, {"class_name": "Activation", "config": {"activation": "relu", "trainable": true, "name": "conv3_block3_1_relu"}, "inbound_nodes": [[["conv3_block3_1_bn", 0, 0, {}]]], "name": "conv3_block3_1_relu"}, {"class_name": "Conv2D", "config": {"activation": "linear", "filters": 32, "activity_regularizer": null, "data_format": "channels_last", "kernel_constraint": null, "kernel_initializer": {"class_name": "VarianceScaling", "config": {"seed": null, "distribution": "uniform", "scale": 1.0, "mode": "fan_avg"}}, "bias_regularizer": null, "bias_initializer": {"class_name": "Zeros", "config": {}}, "kernel_regularizer": null, "dilation_rate": [1, 1], "use_bias": false, "bias_constraint": null, "trainable": true, "padding": "same", "kernel_size": [3, 3], "strides": [1, 1], "name": "conv3_block3_2_conv"}, "inbound_nodes": [[["conv3_block3_1_relu", 0, 0, {}]]], "name": "conv3_block3_2_conv"}, {"class_name": "Concatenate", "config": {"trainable": true, "axis": 3, "name": "conv3_block3_concat"}, "inbound_nodes": [[["conv3_block2_concat", 0, 0, {}], ["conv3_block3_2_conv", 0, 0, {}]]], "name": "conv3_block3_concat"}, {"class_name": "BatchNormalization", "config": {"moving_mean_initializer": {"class_name": "Zeros", "config": {}}, "gamma_regularizer": null, "momentum": 0.99, "beta_constraint": null, "scale": true, "moving_variance_initializer": {"class_name": "Ones", "config": {}}, "center": true, "axis": 3, "beta_regularizer": null, "gamma_constraint": null, "beta_initializer": {"class_name": "Zeros", "config": {}}, "gamma_initializer": {"class_name": "Ones", "config": {}}, "epsilon": 1.001e-05, "trainable": true, "name": "conv3_block4_0_bn"}, "inbound_nodes": [[["conv3_block3_concat", 0, 0, {}]]], "name": "conv3_block4_0_bn"}, {"class_name": "Activation", "config": {"activation": "relu", "trainable": true, "name": "conv3_block4_0_relu"}, "inbound_nodes": [[["conv3_block4_0_bn", 0, 0, {}]]], "name": "conv3_block4_0_relu"}, {"class_name": "Conv2D", "config": {"activation": "linear", "filters": 128, "activity_regularizer": null, "data_format": "channels_last", "kernel_constraint": null, "kernel_initializer": {"class_name": "VarianceScaling", "config": {"seed": null, "distribution": "uniform", "scale": 1.0, "mode": "fan_avg"}}, "bias_regularizer": null, "bias_initializer": {"class_name": "Zeros", "config": {}}, "kernel_regularizer": null, "dilation_rate": [1, 1], "use_bias": false, "bias_constraint": null, "trainable": true, "padding": "valid", "kernel_size": [1, 1], "strides": [1, 1], "name": "conv3_block4_1_conv"}, "inbound_nodes": [[["conv3_block4_0_relu", 0, 0, {}]]], "name": "conv3_block4_1_conv"}, {"class_name": "BatchNormalization", "config": {"moving_mean_initializer": {"class_name": "Zeros", "config": {}}, "gamma_regularizer": null, "momentum": 0.99, "beta_constraint": null, "scale": true, "moving_variance_initializer": {"class_name": "Ones", "config": {}}, "center": true, "axis": 3, "beta_regularizer": null, "gamma_constraint": null, "beta_initializer": {"class_name": "Zeros", "config": {}}, "gamma_initializer": {"class_name": "Ones", "config": {}}, "epsilon": 1.001e-05, "trainable": true, "name": "conv3_block4_1_bn"}, "inbound_nodes": [[["conv3_block4_1_conv", 0, 0, {}]]], "name": "conv3_block4_1_bn"}, {"class_name": "Activation", "config": {"activation": "relu", "trainable": true, "name": "conv3_block4_1_relu"}, "inbound_nodes": [[["conv3_block4_1_bn", 0, 0, {}]]], "name": "conv3_block4_1_relu"}, {"class_name": "Conv2D", "config": {"activation": "linear", "filters": 32, "activity_regularizer": null, "data_format": "channels_last", "kernel_constraint": null, "kernel_initializer": {"class_name": "VarianceScaling", "config": {"seed": null, "distribution": "uniform", "scale": 1.0, "mode": "fan_avg"}}, "bias_regularizer": null, "bias_initializer": {"class_name": "Zeros", "config": {}}, "kernel_regularizer": null, "dilation_rate": [1, 1], "use_bias": false, "bias_constraint": null, "trainable": true, "padding": "same", "kernel_size": [3, 3], "strides": [1, 1], "name": "conv3_block4_2_conv"}, "inbound_nodes": [[["conv3_block4_1_relu", 0, 0, {}]]], "name": "conv3_block4_2_conv"}, {"class_name": "Concatenate", "config": {"trainable": true, "axis": 3, "name": "conv3_block4_concat"}, "inbound_nodes": [[["conv3_block3_concat", 0, 0, {}], ["conv3_block4_2_conv", 0, 0, {}]]], "name": "conv3_block4_concat"}, {"class_name": "BatchNormalization", "config": {"moving_mean_initializer": {"class_name": "Zeros", "config": {}}, "gamma_regularizer": null, "momentum": 0.99, "beta_constraint": null, "scale": true, "moving_variance_initializer": {"class_name": "Ones", "config": {}}, "center": true, "axis": 3, "beta_regularizer": null, "gamma_constraint": null, "beta_initializer": {"class_name": "Zeros", "config": {}}, "gamma_initializer": {"class_name": "Ones", "config": {}}, "epsilon": 1.001e-05, "trainable": true, "name": "conv3_block5_0_bn"}, "inbound_nodes": [[["conv3_block4_concat", 0, 0, {}]]], "name": "conv3_block5_0_bn"}, {"class_name": "Activation", "config": {"activation": "relu", "trainable": true, "name": "conv3_block5_0_relu"}, "inbound_nodes": [[["conv3_block5_0_bn", 0, 0, {}]]], "name": "conv3_block5_0_relu"}, {"class_name": "Conv2D", "config": {"activation": "linear", "filters": 128, "activity_regularizer": null, "data_format": "channels_last", "kernel_constraint": null, "kernel_initializer": {"class_name": "VarianceScaling", "config": {"seed": null, "distribution": "uniform", "scale": 1.0, "mode": "fan_avg"}}, "bias_regularizer": null, "bias_initializer": {"class_name": "Zeros", "config": {}}, "kernel_regularizer": null, "dilation_rate": [1, 1], "use_bias": false, "bias_constraint": null, "trainable": true, "padding": "valid", "kernel_size": [1, 1], "strides": [1, 1], "name": "conv3_block5_1_conv"}, "inbound_nodes": [[["conv3_block5_0_relu", 0, 0, {}]]], "name": "conv3_block5_1_conv"}, {"class_name": "BatchNormalization", "config": {"moving_mean_initializer": {"class_name": "Zeros", "config": {}}, "gamma_regularizer": null, "momentum": 0.99, "beta_constraint": null, "scale": true, "moving_variance_initializer": {"class_name": "Ones", "config": {}}, "center": true, "axis": 3, "beta_regularizer": null, "gamma_constraint": null, "beta_initializer": {"class_name": "Zeros", "config": {}}, "gamma_initializer": {"class_name": "Ones", "config": {}}, "epsilon": 1.001e-05, "trainable": true, "name": "conv3_block5_1_bn"}, "inbound_nodes": [[["conv3_block5_1_conv", 0, 0, {}]]], "name": "conv3_block5_1_bn"}, {"class_name": "Activation", "config": {"activation": "relu", "trainable": true, "name": "conv3_block5_1_relu"}, "inbound_nodes": [[["conv3_block5_1_bn", 0, 0, {}]]], "name": "conv3_block5_1_relu"}, {"class_name": "Conv2D", "config": {"activation": "linear", "filters": 32, "activity_regularizer": null, "data_format": "channels_last", "kernel_constraint": null, "kernel_initializer": {"class_name": "VarianceScaling", "config": {"seed": null, "distribution": "uniform", "scale": 1.0, "mode": "fan_avg"}}, "bias_regularizer": null, "bias_initializer": {"class_name": "Zeros", "config": {}}, "kernel_regularizer": null, "dilation_rate": [1, 1], "use_bias": false, "bias_constraint": null, "trainable": true, "padding": "same", "kernel_size": [3, 3], "strides": [1, 1], "name": "conv3_block5_2_conv"}, "inbound_nodes": [[["conv3_block5_1_relu", 0, 0, {}]]], "name": "conv3_block5_2_conv"}, {"class_name": "Concatenate", "config": {"trainable": true, "axis": 3, "name": "conv3_block5_concat"}, "inbound_nodes": [[["conv3_block4_concat", 0, 0, {}], ["conv3_block5_2_conv", 0, 0, {}]]], "name": "conv3_block5_concat"}, {"class_name": "BatchNormalization", "config": {"moving_mean_initializer": {"class_name": "Zeros", "config": {}}, "gamma_regularizer": null, "momentum": 0.99, "beta_constraint": null, "scale": true, "moving_variance_initializer": {"class_name": "Ones", "config": {}}, "center": true, "axis": 3, "beta_regularizer": null, "gamma_constraint": null, "beta_initializer": {"class_name": "Zeros", "config": {}}, "gamma_initializer": {"class_name": "Ones", "config": {}}, "epsilon": 1.001e-05, "trainable": true, "name": "conv3_block6_0_bn"}, "inbound_nodes": [[["conv3_block5_concat", 0, 0, {}]]], "name": "conv3_block6_0_bn"}, {"class_name": "Activation", "config": {"activation": "relu", "trainable": true, "name": "conv3_block6_0_relu"}, "inbound_nodes": [[["conv3_block6_0_bn", 0, 0, {}]]], "name": "conv3_block6_0_relu"}, {"class_name": "Conv2D", "config": {"activation": "linear", "filters": 128, "activity_regularizer": null, "data_format": "channels_last", "kernel_constraint": null, "kernel_initializer": {"class_name": "VarianceScaling", "config": {"seed": null, "distribution": "uniform", "scale": 1.0, "mode": "fan_avg"}}, "bias_regularizer": null, "bias_initializer": {"class_name": "Zeros", "config": {}}, "kernel_regularizer": null, "dilation_rate": [1, 1], "use_bias": false, "bias_constraint": null, "trainable": true, "padding": "valid", "kernel_size": [1, 1], "strides": [1, 1], "name": "conv3_block6_1_conv"}, "inbound_nodes": [[["conv3_block6_0_relu", 0, 0, {}]]], "name": "conv3_block6_1_conv"}, {"class_name": "BatchNormalization", "config": {"moving_mean_initializer": {"class_name": "Zeros", "config": {}}, "gamma_regularizer": null, "momentum": 0.99, "beta_constraint": null, "scale": true, "moving_variance_initializer": {"class_name": "Ones", "config": {}}, "center": true, "axis": 3, "beta_regularizer": null, "gamma_constraint": null, "beta_initializer": {"class_name": "Zeros", "config": {}}, "gamma_initializer": {"class_name": "Ones", "config": {}}, "epsilon": 1.001e-05, "trainable": true, "name": "conv3_block6_1_bn"}, "inbound_nodes": [[["conv3_block6_1_conv", 0, 0, {}]]], "name": "conv3_block6_1_bn"}, {"class_name": "Activation", "config": {"activation": "relu", "trainable": true, "name": "conv3_block6_1_relu"}, "inbound_nodes": [[["conv3_block6_1_bn", 0, 0, {}]]], "name": "conv3_block6_1_relu"}, {"class_name": "Conv2D", "config": {"activation": "linear", "filters": 32, "activity_regularizer": null, "data_format": "channels_last", "kernel_constraint": null, "kernel_initializer": {"class_name": "VarianceScaling", "config": {"seed": null, "distribution": "uniform", "scale": 1.0, "mode": "fan_avg"}}, "bias_regularizer": null, "bias_initializer": {"class_name": "Zeros", "config": {}}, "kernel_regularizer": null, "dilation_rate": [1, 1], "use_bias": false, "bias_constraint": null, "trainable": true, "padding": "same", "kernel_size": [3, 3], "strides": [1, 1], "name": "conv3_block6_2_conv"}, "inbound_nodes": [[["conv3_block6_1_relu", 0, 0, {}]]], "name": "conv3_block6_2_conv"}, {"class_name": "Concatenate", "config": {"trainable": true, "axis": 3, "name": "conv3_block6_concat"}, "inbound_nodes": [[["conv3_block5_concat", 0, 0, {}], ["conv3_block6_2_conv", 0, 0, {}]]], "name": "conv3_block6_concat"}, {"class_name": "BatchNormalization", "config": {"moving_mean_initializer": {"class_name": "Zeros", "config": {}}, "gamma_regularizer": null, "momentum": 0.99, "beta_constraint": null, "scale": true, "moving_variance_initializer": {"class_name": "Ones", "config": {}}, "center": true, "axis": 3, "beta_regularizer": null, "gamma_constraint": null, "beta_initializer": {"class_name": "Zeros", "config": {}}, "gamma_initializer": {"class_name": "Ones", "config": {}}, "epsilon": 1.001e-05, "trainable": true, "name": "conv3_block7_0_bn"}, "inbound_nodes": [[["conv3_block6_concat", 0, 0, {}]]], "name": "conv3_block7_0_bn"}, {"class_name": "Activation", "config": {"activation": "relu", "trainable": true, "name": "conv3_block7_0_relu"}, "inbound_nodes": [[["conv3_block7_0_bn", 0, 0, {}]]], "name": "conv3_block7_0_relu"}, {"class_name": "Conv2D", "config": {"activation": "linear", "filters": 128, "activity_regularizer": null, "data_format": "channels_last", "kernel_constraint": null, "kernel_initializer": {"class_name": "VarianceScaling", "config": {"seed": null, "distribution": "uniform", "scale": 1.0, "mode": "fan_avg"}}, "bias_regularizer": null, "bias_initializer": {"class_name": "Zeros", "config": {}}, "kernel_regularizer": null, "dilation_rate": [1, 1], "use_bias": false, "bias_constraint": null, "trainable": true, "padding": "valid", "kernel_size": [1, 1], "strides": [1, 1], "name": "conv3_block7_1_conv"}, "inbound_nodes": [[["conv3_block7_0_relu", 0, 0, {}]]], "name": "conv3_block7_1_conv"}, {"class_name": "BatchNormalization", "config": {"moving_mean_initializer": {"class_name": "Zeros", "config": {}}, "gamma_regularizer": null, "momentum": 0.99, "beta_constraint": null, "scale": true, "moving_variance_initializer": {"class_name": "Ones", "config": {}}, "center": true, "axis": 3, "beta_regularizer": null, "gamma_constraint": null, "beta_initializer": {"class_name": "Zeros", "config": {}}, "gamma_initializer": {"class_name": "Ones", "config": {}}, "epsilon": 1.001e-05, "trainable": true, "name": "conv3_block7_1_bn"}, "inbound_nodes": [[["conv3_block7_1_conv", 0, 0, {}]]], "name": "conv3_block7_1_bn"}, {"class_name": "Activation", "config": {"activation": "relu", "trainable": true, "name": "conv3_block7_1_relu"}, "inbound_nodes": [[["conv3_block7_1_bn", 0, 0, {}]]], "name": "conv3_block7_1_relu"}, {"class_name": "Conv2D", "config": {"activation": "linear", "filters": 32, "activity_regularizer": null, "data_format": "channels_last", "kernel_constraint": null, "kernel_initializer": {"class_name": "VarianceScaling", "config": {"seed": null, "distribution": "uniform", "scale": 1.0, "mode": "fan_avg"}}, "bias_regularizer": null, "bias_initializer": {"class_name": "Zeros", "config": {}}, "kernel_regularizer": null, "dilation_rate": [1, 1], "use_bias": false, "bias_constraint": null, "trainable": true, "padding": "same", "kernel_size": [3, 3], "strides": [1, 1], "name": "conv3_block7_2_conv"}, "inbound_nodes": [[["conv3_block7_1_relu", 0, 0, {}]]], "name": "conv3_block7_2_conv"}, {"class_name": "Concatenate", "config": {"trainable": true, "axis": 3, "name": "conv3_block7_concat"}, "inbound_nodes": [[["conv3_block6_concat", 0, 0, {}], ["conv3_block7_2_conv", 0, 0, {}]]], "name": "conv3_block7_concat"}, {"class_name": "BatchNormalization", "config": {"moving_mean_initializer": {"class_name": "Zeros", "config": {}}, "gamma_regularizer": null, "momentum": 0.99, "beta_constraint": null, "scale": true, "moving_variance_initializer": {"class_name": "Ones", "config": {}}, "center": true, "axis": 3, "beta_regularizer": null, "gamma_constraint": null, "beta_initializer": {"class_name": "Zeros", "config": {}}, "gamma_initializer": {"class_name": "Ones", "config": {}}, "epsilon": 1.001e-05, "trainable": true, "name": "conv3_block8_0_bn"}, "inbound_nodes": [[["conv3_block7_concat", 0, 0, {}]]], "name": "conv3_block8_0_bn"}, {"class_name": "Activation", "config": {"activation": "relu", "trainable": true, "name": "conv3_block8_0_relu"}, "inbound_nodes": [[["conv3_block8_0_bn", 0, 0, {}]]], "name": "conv3_block8_0_relu"}, {"class_name": "Conv2D", "config": {"activation": "linear", "filters": 128, "activity_regularizer": null, "data_format": "channels_last", "kernel_constraint": null, "kernel_initializer": {"class_name": "VarianceScaling", "config": {"seed": null, "distribution": "uniform", "scale": 1.0, "mode": "fan_avg"}}, "bias_regularizer": null, "bias_initializer": {"class_name": "Zeros", "config": {}}, "kernel_regularizer": null, "dilation_rate": [1, 1], "use_bias": false, "bias_constraint": null, "trainable": true, "padding": "valid", "kernel_size": [1, 1], "strides": [1, 1], "name": "conv3_block8_1_conv"}, "inbound_nodes": [[["conv3_block8_0_relu", 0, 0, {}]]], "name": "conv3_block8_1_conv"}, {"class_name": "BatchNormalization", "config": {"moving_mean_initializer": {"class_name": "Zeros", "config": {}}, "gamma_regularizer": null, "momentum": 0.99, "beta_constraint": null, "scale": true, "moving_variance_initializer": {"class_name": "Ones", "config": {}}, "center": true, "axis": 3, "beta_regularizer": null, "gamma_constraint": null, "beta_initializer": {"class_name": "Zeros", "config": {}}, "gamma_initializer": {"class_name": "Ones", "config": {}}, "epsilon": 1.001e-05, "trainable": true, "name": "conv3_block8_1_bn"}, "inbound_nodes": [[["conv3_block8_1_conv", 0, 0, {}]]], "name": "conv3_block8_1_bn"}, {"class_name": "Activation", "config": {"activation": "relu", "trainable": true, "name": "conv3_block8_1_relu"}, "inbound_nodes": [[["conv3_block8_1_bn", 0, 0, {}]]], "name": "conv3_block8_1_relu"}, {"class_name": "Conv2D", "config": {"activation": "linear", "filters": 32, "activity_regularizer": null, "data_format": "channels_last", "kernel_constraint": null, "kernel_initializer": {"class_name": "VarianceScaling", "config": {"seed": null, "distribution": "uniform", "scale": 1.0, "mode": "fan_avg"}}, "bias_regularizer": null, "bias_initializer": {"class_name": "Zeros", "config": {}}, "kernel_regularizer": null, "dilation_rate": [1, 1], "use_bias": false, "bias_constraint": null, "trainable": true, "padding": "same", "kernel_size": [3, 3], "strides": [1, 1], "name": "conv3_block8_2_conv"}, "inbound_nodes": [[["conv3_block8_1_relu", 0, 0, {}]]], "name": "conv3_block8_2_conv"}, {"class_name": "Concatenate", "config": {"trainable": true, "axis": 3, "name": "conv3_block8_concat"}, "inbound_nodes": [[["conv3_block7_concat", 0, 0, {}], ["conv3_block8_2_conv", 0, 0, {}]]], "name": "conv3_block8_concat"}, {"class_name": "BatchNormalization", "config": {"moving_mean_initializer": {"class_name": "Zeros", "config": {}}, "gamma_regularizer": null, "momentum": 0.99, "beta_constraint": null, "scale": true, "moving_variance_initializer": {"class_name": "Ones", "config": {}}, "center": true, "axis": 3, "beta_regularizer": null, "gamma_constraint": null, "beta_initializer": {"class_name": "Zeros", "config": {}}, "gamma_initializer": {"class_name": "Ones", "config": {}}, "epsilon": 1.001e-05, "trainable": true, "name": "conv3_block9_0_bn"}, "inbound_nodes": [[["conv3_block8_concat", 0, 0, {}]]], "name": "conv3_block9_0_bn"}, {"class_name": "Activation", "config": {"activation": "relu", "trainable": true, "name": "conv3_block9_0_relu"}, "inbound_nodes": [[["conv3_block9_0_bn", 0, 0, {}]]], "name": "conv3_block9_0_relu"}, {"class_name": "Conv2D", "config": {"activation": "linear", "filters": 128, "activity_regularizer": null, "data_format": "channels_last", "kernel_constraint": null, "kernel_initializer": {"class_name": "VarianceScaling", "config": {"seed": null, "distribution": "uniform", "scale": 1.0, "mode": "fan_avg"}}, "bias_regularizer": null, "bias_initializer": {"class_name": "Zeros", "config": {}}, "kernel_regularizer": null, "dilation_rate": [1, 1], "use_bias": false, "bias_constraint": null, "trainable": true, "padding": "valid", "kernel_size": [1, 1], "strides": [1, 1], "name": "conv3_block9_1_conv"}, "inbound_nodes": [[["conv3_block9_0_relu", 0, 0, {}]]], "name": "conv3_block9_1_conv"}, {"class_name": "BatchNormalization", "config": {"moving_mean_initializer": {"class_name": "Zeros", "config": {}}, "gamma_regularizer": null, "momentum": 0.99, "beta_constraint": null, "scale": true, "moving_variance_initializer": {"class_name": "Ones", "config": {}}, "center": true, "axis": 3, "beta_regularizer": null, "gamma_constraint": null, "beta_initializer": {"class_name": "Zeros", "config": {}}, "gamma_initializer": {"class_name": "Ones", "config": {}}, "epsilon": 1.001e-05, "trainable": true, "name": "conv3_block9_1_bn"}, "inbound_nodes": [[["conv3_block9_1_conv", 0, 0, {}]]], "name": "conv3_block9_1_bn"}, {"class_name": "Activation", "config": {"activation": "relu", "trainable": true, "name": "conv3_block9_1_relu"}, "inbound_nodes": [[["conv3_block9_1_bn", 0, 0, {}]]], "name": "conv3_block9_1_relu"}, {"class_name": "Conv2D", "config": {"activation": "linear", "filters": 32, "activity_regularizer": null, "data_format": "channels_last", "kernel_constraint": null, "kernel_initializer": {"class_name": "VarianceScaling", "config": {"seed": null, "distribution": "uniform", "scale": 1.0, "mode": "fan_avg"}}, "bias_regularizer": null, "bias_initializer": {"class_name": "Zeros", "config": {}}, "kernel_regularizer": null, "dilation_rate": [1, 1], "use_bias": false, "bias_constraint": null, "trainable": true, "padding": "same", "kernel_size": [3, 3], "strides": [1, 1], "name": "conv3_block9_2_conv"}, "inbound_nodes": [[["conv3_block9_1_relu", 0, 0, {}]]], "name": "conv3_block9_2_conv"}, {"class_name": "Concatenate", "config": {"trainable": true, "axis": 3, "name": "conv3_block9_concat"}, "inbound_nodes": [[["conv3_block8_concat", 0, 0, {}], ["conv3_block9_2_conv", 0, 0, {}]]], "name": "conv3_block9_concat"}, {"class_name": "BatchNormalization", "config": {"moving_mean_initializer": {"class_name": "Zeros", "config": {}}, "gamma_regularizer": null, "momentum": 0.99, "beta_constraint": null, "scale": true, "moving_variance_initializer": {"class_name": "Ones", "config": {}}, "center": true, "axis": 3, "beta_regularizer": null, "gamma_constraint": null, "beta_initializer": {"class_name": "Zeros", "config": {}}, "gamma_initializer": {"class_name": "Ones", "config": {}}, "epsilon": 1.001e-05, "trainable": true, "name": "conv3_block10_0_bn"}, "inbound_nodes": [[["conv3_block9_concat", 0, 0, {}]]], "name": "conv3_block10_0_bn"}, {"class_name": "Activation", "config": {"activation": "relu", "trainable": true, "name": "conv3_block10_0_relu"}, "inbound_nodes": [[["conv3_block10_0_bn", 0, 0, {}]]], "name": "conv3_block10_0_relu"}, {"class_name": "Conv2D", "config": {"activation": "linear", "filters": 128, "activity_regularizer": null, "data_format": "channels_last", "kernel_constraint": null, "kernel_initializer": {"class_name": "VarianceScaling", "config": {"seed": null, "distribution": "uniform", "scale": 1.0, "mode": "fan_avg"}}, "bias_regularizer": null, "bias_initializer": {"class_name": "Zeros", "config": {}}, "kernel_regularizer": null, "dilation_rate": [1, 1], "use_bias": false, "bias_constraint": null, "trainable": true, "padding": "valid", "kernel_size": [1, 1], "strides": [1, 1], "name": "conv3_block10_1_conv"}, "inbound_nodes": [[["conv3_block10_0_relu", 0, 0, {}]]], "name": "conv3_block10_1_conv"}, {"class_name": "BatchNormalization", "config": {"moving_mean_initializer": {"class_name": "Zeros", "config": {}}, "gamma_regularizer": null, "momentum": 0.99, "beta_constraint": null, "scale": true, "moving_variance_initializer": {"class_name": "Ones", "config": {}}, "center": true, "axis": 3, "beta_regularizer": null, "gamma_constraint": null, "beta_initializer": {"class_name": "Zeros", "config": {}}, "gamma_initializer": {"class_name": "Ones", "config": {}}, "epsilon": 1.001e-05, "trainable": true, "name": "conv3_block10_1_bn"}, "inbound_nodes": [[["conv3_block10_1_conv", 0, 0, {}]]], "name": "conv3_block10_1_bn"}, {"class_name": "Activation", "config": {"activation": "relu", "trainable": true, "name": "conv3_block10_1_relu"}, "inbound_nodes": [[["conv3_block10_1_bn", 0, 0, {}]]], "name": "conv3_block10_1_relu"}, {"class_name": "Conv2D", "config": {"activation": "linear", "filters": 32, "activity_regularizer": null, "data_format": "channels_last", "kernel_constraint": null, "kernel_initializer": {"class_name": "VarianceScaling", "config": {"seed": null, "distribution": "uniform", "scale": 1.0, "mode": "fan_avg"}}, "bias_regularizer": null, "bias_initializer": {"class_name": "Zeros", "config": {}}, "kernel_regularizer": null, "dilation_rate": [1, 1], "use_bias": false, "bias_constraint": null, "trainable": true, "padding": "same", "kernel_size": [3, 3], "strides": [1, 1], "name": "conv3_block10_2_conv"}, "inbound_nodes": [[["conv3_block10_1_relu", 0, 0, {}]]], "name": "conv3_block10_2_conv"}, {"class_name": "Concatenate", "config": {"trainable": true, "axis": 3, "name": "conv3_block10_concat"}, "inbound_nodes": [[["conv3_block9_concat", 0, 0, {}], ["conv3_block10_2_conv", 0, 0, {}]]], "name": "conv3_block10_concat"}, {"class_name": "BatchNormalization", "config": {"moving_mean_initializer": {"class_name": "Zeros", "config": {}}, "gamma_regularizer": null, "momentum": 0.99, "beta_constraint": null, "scale": true, "moving_variance_initializer": {"class_name": "Ones", "config": {}}, "center": true, "axis": 3, "beta_regularizer": null, "gamma_constraint": null, "beta_initializer": {"class_name": "Zeros", "config": {}}, "gamma_initializer": {"class_name": "Ones", "config": {}}, "epsilon": 1.001e-05, "trainable": true, "name": "conv3_block11_0_bn"}, "inbound_nodes": [[["conv3_block10_concat", 0, 0, {}]]], "name": "conv3_block11_0_bn"}, {"class_name": "Activation", "config": {"activation": "relu", "trainable": true, "name": "conv3_block11_0_relu"}, "inbound_nodes": [[["conv3_block11_0_bn", 0, 0, {}]]], "name": "conv3_block11_0_relu"}, {"class_name": "Conv2D", "config": {"activation": "linear", "filters": 128, "activity_regularizer": null, "data_format": "channels_last", "kernel_constraint": null, "kernel_initializer": {"class_name": "VarianceScaling", "config": {"seed": null, "distribution": "uniform", "scale": 1.0, "mode": "fan_avg"}}, "bias_regularizer": null, "bias_initializer": {"class_name": "Zeros", "config": {}}, "kernel_regularizer": null, "dilation_rate": [1, 1], "use_bias": false, "bias_constraint": null, "trainable": true, "padding": "valid", "kernel_size": [1, 1], "strides": [1, 1], "name": "conv3_block11_1_conv"}, "inbound_nodes": [[["conv3_block11_0_relu", 0, 0, {}]]], "name": "conv3_block11_1_conv"}, {"class_name": "BatchNormalization", "config": {"moving_mean_initializer": {"class_name": "Zeros", "config": {}}, "gamma_regularizer": null, "momentum": 0.99, "beta_constraint": null, "scale": true, "moving_variance_initializer": {"class_name": "Ones", "config": {}}, "center": true, "axis": 3, "beta_regularizer": null, "gamma_constraint": null, "beta_initializer": {"class_name": "Zeros", "config": {}}, "gamma_initializer": {"class_name": "Ones", "config": {}}, "epsilon": 1.001e-05, "trainable": true, "name": "conv3_block11_1_bn"}, "inbound_nodes": [[["conv3_block11_1_conv", 0, 0, {}]]], "name": "conv3_block11_1_bn"}, {"class_name": "Activation", "config": {"activation": "relu", "trainable": true, "name": "conv3_block11_1_relu"}, "inbound_nodes": [[["conv3_block11_1_bn", 0, 0, {}]]], "name": "conv3_block11_1_relu"}, {"class_name": "Conv2D", "config": {"activation": "linear", "filters": 32, "activity_regularizer": null, "data_format": "channels_last", "kernel_constraint": null, "kernel_initializer": {"class_name": "VarianceScaling", "config": {"seed": null, "distribution": "uniform", "scale": 1.0, "mode": "fan_avg"}}, "bias_regularizer": null, "bias_initializer": {"class_name": "Zeros", "config": {}}, "kernel_regularizer": null, "dilation_rate": [1, 1], "use_bias": false, "bias_constraint": null, "trainable": true, "padding": "same", "kernel_size": [3, 3], "strides": [1, 1], "name": "conv3_block11_2_conv"}, "inbound_nodes": [[["conv3_block11_1_relu", 0, 0, {}]]], "name": "conv3_block11_2_conv"}, {"class_name": "Concatenate", "config": {"trainable": true, "axis": 3, "name": "conv3_block11_concat"}, "inbound_nodes": [[["conv3_block10_concat", 0, 0, {}], ["conv3_block11_2_conv", 0, 0, {}]]], "name": "conv3_block11_concat"}, {"class_name": "BatchNormalization", "config": {"moving_mean_initializer": {"class_name": "Zeros", "config": {}}, "gamma_regularizer": null, "momentum": 0.99, "beta_constraint": null, "scale": true, "moving_variance_initializer": {"class_name": "Ones", "config": {}}, "center": true, "axis": 3, "beta_regularizer": null, "gamma_constraint": null, "beta_initializer": {"class_name": "Zeros", "config": {}}, "gamma_initializer": {"class_name": "Ones", "config": {}}, "epsilon": 1.001e-05, "trainable": true, "name": "conv3_block12_0_bn"}, "inbound_nodes": [[["conv3_block11_concat", 0, 0, {}]]], "name": "conv3_block12_0_bn"}, {"class_name": "Activation", "config": {"activation": "relu", "trainable": true, "name": "conv3_block12_0_relu"}, "inbound_nodes": [[["conv3_block12_0_bn", 0, 0, {}]]], "name": "conv3_block12_0_relu"}, {"class_name": "Conv2D", "config": {"activation": "linear", "filters": 128, "activity_regularizer": null, "data_format": "channels_last", "kernel_constraint": null, "kernel_initializer": {"class_name": "VarianceScaling", "config": {"seed": null, "distribution": "uniform", "scale": 1.0, "mode": "fan_avg"}}, "bias_regularizer": null, "bias_initializer": {"class_name": "Zeros", "config": {}}, "kernel_regularizer": null, "dilation_rate": [1, 1], "use_bias": false, "bias_constraint": null, "trainable": true, "padding": "valid", "kernel_size": [1, 1], "strides": [1, 1], "name": "conv3_block12_1_conv"}, "inbound_nodes": [[["conv3_block12_0_relu", 0, 0, {}]]], "name": "conv3_block12_1_conv"}, {"class_name": "BatchNormalization", "config": {"moving_mean_initializer": {"class_name": "Zeros", "config": {}}, "gamma_regularizer": null, "momentum": 0.99, "beta_constraint": null, "scale": true, "moving_variance_initializer": {"class_name": "Ones", "config": {}}, "center": true, "axis": 3, "beta_regularizer": null, "gamma_constraint": null, "beta_initializer": {"class_name": "Zeros", "config": {}}, "gamma_initializer": {"class_name": "Ones", "config": {}}, "epsilon": 1.001e-05, "trainable": true, "name": "conv3_block12_1_bn"}, "inbound_nodes": [[["conv3_block12_1_conv", 0, 0, {}]]], "name": "conv3_block12_1_bn"}, {"class_name": "Activation", "config": {"activation": "relu", "trainable": true, "name": "conv3_block12_1_relu"}, "inbound_nodes": [[["conv3_block12_1_bn", 0, 0, {}]]], "name": "conv3_block12_1_relu"}, {"class_name": "Conv2D", "config": {"activation": "linear", "filters": 32, "activity_regularizer": null, "data_format": "channels_last", "kernel_constraint": null, "kernel_initializer": {"class_name": "VarianceScaling", "config": {"seed": null, "distribution": "uniform", "scale": 1.0, "mode": "fan_avg"}}, "bias_regularizer": null, "bias_initializer": {"class_name": "Zeros", "config": {}}, "kernel_regularizer": null, "dilation_rate": [1, 1], "use_bias": false, "bias_constraint": null, "trainable": true, "padding": "same", "kernel_size": [3, 3], "strides": [1, 1], "name": "conv3_block12_2_conv"}, "inbound_nodes": [[["conv3_block12_1_relu", 0, 0, {}]]], "name": "conv3_block12_2_conv"}, {"class_name": "Concatenate", "config": {"trainable": true, "axis": 3, "name": "conv3_block12_concat"}, "inbound_nodes": [[["conv3_block11_concat", 0, 0, {}], ["conv3_block12_2_conv", 0, 0, {}]]], "name": "conv3_block12_concat"}, {"class_name": "BatchNormalization", "config": {"moving_mean_initializer": {"class_name": "Zeros", "config": {}}, "gamma_regularizer": null, "momentum": 0.99, "beta_constraint": null, "scale": true, "moving_variance_initializer": {"class_name": "Ones", "config": {}}, "center": true, "axis": 3, "beta_regularizer": null, "gamma_constraint": null, "beta_initializer": {"class_name": "Zeros", "config": {}}, "gamma_initializer": {"class_name": "Ones", "config": {}}, "epsilon": 1.001e-05, "trainable": true, "name": "pool3_bn"}, "inbound_nodes": [[["conv3_block12_concat", 0, 0, {}]]], "name": "pool3_bn"}, {"class_name": "Activation", "config": {"activation": "relu", "trainable": true, "name": "pool3_relu"}, "inbound_nodes": [[["pool3_bn", 0, 0, {}]]], "name": "pool3_relu"}, {"class_name": "Conv2D", "config": {"activation": "linear", "filters": 256, "activity_regularizer": null, "data_format": "channels_last", "kernel_constraint": null, "kernel_initializer": {"class_name": "VarianceScaling", "config": {"seed": null, "distribution": "uniform", "scale": 1.0, "mode": "fan_avg"}}, "bias_regularizer": null, "bias_initializer": {"class_name": "Zeros", "config": {}}, "kernel_regularizer": null, "dilation_rate": [1, 1], "use_bias": false, "bias_constraint": null, "trainable": true, "padding": "valid", "kernel_size": [1, 1], "strides": [1, 1], "name": "pool3_conv"}, "inbound_nodes": [[["pool3_relu", 0, 0, {}]]], "name": "pool3_conv"}, {"class_name": "AveragePooling2D", "config": {"pool_size": [2, 2], "data_format": "channels_last", "trainable": true, "padding": "valid", "strides": [2, 2], "name": "pool3_pool"}, "inbound_nodes": [[["pool3_conv", 0, 0, {}]]], "name": "pool3_pool"}, {"class_name": "BatchNormalization", "config": {"moving_mean_initializer": {"class_name": "Zeros", "config": {}}, "gamma_regularizer": null, "momentum": 0.99, "beta_constraint": null, "scale": true, "moving_variance_initializer": {"class_name": "Ones", "config": {}}, "center": true, "axis": 3, "beta_regularizer": null, "gamma_constraint": null, "beta_initializer": {"class_name": "Zeros", "config": {}}, "gamma_initializer": {"class_name": "Ones", "config": {}}, "epsilon": 1.001e-05, "trainable": true, "name": "conv4_block1_0_bn"}, "inbound_nodes": [[["pool3_pool", 0, 0, {}]]], "name": "conv4_block1_0_bn"}, {"class_name": "Activation", "config": {"activation": "relu", "trainable": true, "name": "conv4_block1_0_relu"}, "inbound_nodes": [[["conv4_block1_0_bn", 0, 0, {}]]], "name": "conv4_block1_0_relu"}, {"class_name": "Conv2D", "config": {"activation": "linear", "filters": 128, "activity_regularizer": null, "data_format": "channels_last", "kernel_constraint": null, "kernel_initializer": {"class_name": "VarianceScaling", "config": {"seed": null, "distribution": "uniform", "scale": 1.0, "mode": "fan_avg"}}, "bias_regularizer": null, "bias_initializer": {"class_name": "Zeros", "config": {}}, "kernel_regularizer": null, "dilation_rate": [1, 1], "use_bias": false, "bias_constraint": null, "trainable": true, "padding": "valid", "kernel_size": [1, 1], "strides": [1, 1], "name": "conv4_block1_1_conv"}, "inbound_nodes": [[["conv4_block1_0_relu", 0, 0, {}]]], "name": "conv4_block1_1_conv"}, {"class_name": "BatchNormalization", "config": {"moving_mean_initializer": {"class_name": "Zeros", "config": {}}, "gamma_regularizer": null, "momentum": 0.99, "beta_constraint": null, "scale": true, "moving_variance_initializer": {"class_name": "Ones", "config": {}}, "center": true, "axis": 3, "beta_regularizer": null, "gamma_constraint": null, "beta_initializer": {"class_name": "Zeros", "config": {}}, "gamma_initializer": {"class_name": "Ones", "config": {}}, "epsilon": 1.001e-05, "trainable": true, "name": "conv4_block1_1_bn"}, "inbound_nodes": [[["conv4_block1_1_conv", 0, 0, {}]]], "name": "conv4_block1_1_bn"}, {"class_name": "Activation", "config": {"activation": "relu", "trainable": true, "name": "conv4_block1_1_relu"}, "inbound_nodes": [[["conv4_block1_1_bn", 0, 0, {}]]], "name": "conv4_block1_1_relu"}, {"class_name": "Conv2D", "config": {"activation": "linear", "filters": 32, "activity_regularizer": null, "data_format": "channels_last", "kernel_constraint": null, "kernel_initializer": {"class_name": "VarianceScaling", "config": {"seed": null, "distribution": "uniform", "scale": 1.0, "mode": "fan_avg"}}, "bias_regularizer": null, "bias_initializer": {"class_name": "Zeros", "config": {}}, "kernel_regularizer": null, "dilation_rate": [1, 1], "use_bias": false, "bias_constraint": null, "trainable": true, "padding": "same", "kernel_size": [3, 3], "strides": [1, 1], "name": "conv4_block1_2_conv"}, "inbound_nodes": [[["conv4_block1_1_relu", 0, 0, {}]]], "name": "conv4_block1_2_conv"}, {"class_name": "Concatenate", "config": {"trainable": true, "axis": 3, "name": "conv4_block1_concat"}, "inbound_nodes": [[["pool3_pool", 0, 0, {}], ["conv4_block1_2_conv", 0, 0, {}]]], "name": "conv4_block1_concat"}, {"class_name": "BatchNormalization", "config": {"moving_mean_initializer": {"class_name": "Zeros", "config": {}}, "gamma_regularizer": null, "momentum": 0.99, "beta_constraint": null, "scale": true, "moving_variance_initializer": {"class_name": "Ones", "config": {}}, "center": true, "axis": 3, "beta_regularizer": null, "gamma_constraint": null, "beta_initializer": {"class_name": "Zeros", "config": {}}, "gamma_initializer": {"class_name": "Ones", "config": {}}, "epsilon": 1.001e-05, "trainable": true, "name": "conv4_block2_0_bn"}, "inbound_nodes": [[["conv4_block1_concat", 0, 0, {}]]], "name": "conv4_block2_0_bn"}, {"class_name": "Activation", "config": {"activation": "relu", "trainable": true, "name": "conv4_block2_0_relu"}, "inbound_nodes": [[["conv4_block2_0_bn", 0, 0, {}]]], "name": "conv4_block2_0_relu"}, {"class_name": "Conv2D", "config": {"activation": "linear", "filters": 128, "activity_regularizer": null, "data_format": "channels_last", "kernel_constraint": null, "kernel_initializer": {"class_name": "VarianceScaling", "config": {"seed": null, "distribution": "uniform", "scale": 1.0, "mode": "fan_avg"}}, "bias_regularizer": null, "bias_initializer": {"class_name": "Zeros", "config": {}}, "kernel_regularizer": null, "dilation_rate": [1, 1], "use_bias": false, "bias_constraint": null, "trainable": true, "padding": "valid", "kernel_size": [1, 1], "strides": [1, 1], "name": "conv4_block2_1_conv"}, "inbound_nodes": [[["conv4_block2_0_relu", 0, 0, {}]]], "name": "conv4_block2_1_conv"}, {"class_name": "BatchNormalization", "config": {"moving_mean_initializer": {"class_name": "Zeros", "config": {}}, "gamma_regularizer": null, "momentum": 0.99, "beta_constraint": null, "scale": true, "moving_variance_initializer": {"class_name": "Ones", "config": {}}, "center": true, "axis": 3, "beta_regularizer": null, "gamma_constraint": null, "beta_initializer": {"class_name": "Zeros", "config": {}}, "gamma_initializer": {"class_name": "Ones", "config": {}}, "epsilon": 1.001e-05, "trainable": true, "name": "conv4_block2_1_bn"}, "inbound_nodes": [[["conv4_block2_1_conv", 0, 0, {}]]], "name": "conv4_block2_1_bn"}, {"class_name": "Activation", "config": {"activation": "relu", "trainable": true, "name": "conv4_block2_1_relu"}, "inbound_nodes": [[["conv4_block2_1_bn", 0, 0, {}]]], "name": "conv4_block2_1_relu"}, {"class_name": "Conv2D", "config": {"activation": "linear", "filters": 32, "activity_regularizer": null, "data_format": "channels_last", "kernel_constraint": null, "kernel_initializer": {"class_name": "VarianceScaling", "config": {"seed": null, "distribution": "uniform", "scale": 1.0, "mode": "fan_avg"}}, "bias_regularizer": null, "bias_initializer": {"class_name": "Zeros", "config": {}}, "kernel_regularizer": null, "dilation_rate": [1, 1], "use_bias": false, "bias_constraint": null, "trainable": true, "padding": "same", "kernel_size": [3, 3], "strides": [1, 1], "name": "conv4_block2_2_conv"}, "inbound_nodes": [[["conv4_block2_1_relu", 0, 0, {}]]], "name": "conv4_block2_2_conv"}, {"class_name": "Concatenate", "config": {"trainable": true, "axis": 3, "name": "conv4_block2_concat"}, "inbound_nodes": [[["conv4_block1_concat", 0, 0, {}], ["conv4_block2_2_conv", 0, 0, {}]]], "name": "conv4_block2_concat"}, {"class_name": "BatchNormalization", "config": {"moving_mean_initializer": {"class_name": "Zeros", "config": {}}, "gamma_regularizer": null, "momentum": 0.99, "beta_constraint": null, "scale": true, "moving_variance_initializer": {"class_name": "Ones", "config": {}}, "center": true, "axis": 3, "beta_regularizer": null, "gamma_constraint": null, "beta_initializer": {"class_name": "Zeros", "config": {}}, "gamma_initializer": {"class_name": "Ones", "config": {}}, "epsilon": 1.001e-05, "trainable": true, "name": "conv4_block3_0_bn"}, "inbound_nodes": [[["conv4_block2_concat", 0, 0, {}]]], "name": "conv4_block3_0_bn"}, {"class_name": "Activation", "config": {"activation": "relu", "trainable": true, "name": "conv4_block3_0_relu"}, "inbound_nodes": [[["conv4_block3_0_bn", 0, 0, {}]]], "name": "conv4_block3_0_relu"}, {"class_name": "Conv2D", "config": {"activation": "linear", "filters": 128, "activity_regularizer": null, "data_format": "channels_last", "kernel_constraint": null, "kernel_initializer": {"class_name": "VarianceScaling", "config": {"seed": null, "distribution": "uniform", "scale": 1.0, "mode": "fan_avg"}}, "bias_regularizer": null, "bias_initializer": {"class_name": "Zeros", "config": {}}, "kernel_regularizer": null, "dilation_rate": [1, 1], "use_bias": false, "bias_constraint": null, "trainable": true, "padding": "valid", "kernel_size": [1, 1], "strides": [1, 1], "name": "conv4_block3_1_conv"}, "inbound_nodes": [[["conv4_block3_0_relu", 0, 0, {}]]], "name": "conv4_block3_1_conv"}, {"class_name": "BatchNormalization", "config": {"moving_mean_initializer": {"class_name": "Zeros", "config": {}}, "gamma_regularizer": null, "momentum": 0.99, "beta_constraint": null, "scale": true, "moving_variance_initializer": {"class_name": "Ones", "config": {}}, "center": true, "axis": 3, "beta_regularizer": null, "gamma_constraint": null, "beta_initializer": {"class_name": "Zeros", "config": {}}, "gamma_initializer": {"class_name": "Ones", "config": {}}, "epsilon": 1.001e-05, "trainable": true, "name": "conv4_block3_1_bn"}, "inbound_nodes": [[["conv4_block3_1_conv", 0, 0, {}]]], "name": "conv4_block3_1_bn"}, {"class_name": "Activation", "config": {"activation": "relu", "trainable": true, "name": "conv4_block3_1_relu"}, "inbound_nodes": [[["conv4_block3_1_bn", 0, 0, {}]]], "name": "conv4_block3_1_relu"}, {"class_name": "Conv2D", "config": {"activation": "linear", "filters": 32, "activity_regularizer": null, "data_format": "channels_last", "kernel_constraint": null, "kernel_initializer": {"class_name": "VarianceScaling", "config": {"seed": null, "distribution": "uniform", "scale": 1.0, "mode": "fan_avg"}}, "bias_regularizer": null, "bias_initializer": {"class_name": "Zeros", "config": {}}, "kernel_regularizer": null, "dilation_rate": [1, 1], "use_bias": false, "bias_constraint": null, "trainable": true, "padding": "same", "kernel_size": [3, 3], "strides": [1, 1], "name": "conv4_block3_2_conv"}, "inbound_nodes": [[["conv4_block3_1_relu", 0, 0, {}]]], "name": "conv4_block3_2_conv"}, {"class_name": "Concatenate", "config": {"trainable": true, "axis": 3, "name": "conv4_block3_concat"}, "inbound_nodes": [[["conv4_block2_concat", 0, 0, {}], ["conv4_block3_2_conv", 0, 0, {}]]], "name": "conv4_block3_concat"}, {"class_name": "BatchNormalization", "config": {"moving_mean_initializer": {"class_name": "Zeros", "config": {}}, "gamma_regularizer": null, "momentum": 0.99, "beta_constraint": null, "scale": true, "moving_variance_initializer": {"class_name": "Ones", "config": {}}, "center": true, "axis": 3, "beta_regularizer": null, "gamma_constraint": null, "beta_initializer": {"class_name": "Zeros", "config": {}}, "gamma_initializer": {"class_name": "Ones", "config": {}}, "epsilon": 1.001e-05, "trainable": true, "name": "conv4_block4_0_bn"}, "inbound_nodes": [[["conv4_block3_concat", 0, 0, {}]]], "name": "conv4_block4_0_bn"}, {"class_name": "Activation", "config": {"activation": "relu", "trainable": true, "name": "conv4_block4_0_relu"}, "inbound_nodes": [[["conv4_block4_0_bn", 0, 0, {}]]], "name": "conv4_block4_0_relu"}, {"class_name": "Conv2D", "config": {"activation": "linear", "filters": 128, "activity_regularizer": null, "data_format": "channels_last", "kernel_constraint": null, "kernel_initializer": {"class_name": "VarianceScaling", "config": {"seed": null, "distribution": "uniform", "scale": 1.0, "mode": "fan_avg"}}, "bias_regularizer": null, "bias_initializer": {"class_name": "Zeros", "config": {}}, "kernel_regularizer": null, "dilation_rate": [1, 1], "use_bias": false, "bias_constraint": null, "trainable": true, "padding": "valid", "kernel_size": [1, 1], "strides": [1, 1], "name": "conv4_block4_1_conv"}, "inbound_nodes": [[["conv4_block4_0_relu", 0, 0, {}]]], "name": "conv4_block4_1_conv"}, {"class_name": "BatchNormalization", "config": {"moving_mean_initializer": {"class_name": "Zeros", "config": {}}, "gamma_regularizer": null, "momentum": 0.99, "beta_constraint": null, "scale": true, "moving_variance_initializer": {"class_name": "Ones", "config": {}}, "center": true, "axis": 3, "beta_regularizer": null, "gamma_constraint": null, "beta_initializer": {"class_name": "Zeros", "config": {}}, "gamma_initializer": {"class_name": "Ones", "config": {}}, "epsilon": 1.001e-05, "trainable": true, "name": "conv4_block4_1_bn"}, "inbound_nodes": [[["conv4_block4_1_conv", 0, 0, {}]]], "name": "conv4_block4_1_bn"}, {"class_name": "Activation", "config": {"activation": "relu", "trainable": true, "name": "conv4_block4_1_relu"}, "inbound_nodes": [[["conv4_block4_1_bn", 0, 0, {}]]], "name": "conv4_block4_1_relu"}, {"class_name": "Conv2D", "config": {"activation": "linear", "filters": 32, "activity_regularizer": null, "data_format": "channels_last", "kernel_constraint": null, "kernel_initializer": {"class_name": "VarianceScaling", "config": {"seed": null, "distribution": "uniform", "scale": 1.0, "mode": "fan_avg"}}, "bias_regularizer": null, "bias_initializer": {"class_name": "Zeros", "config": {}}, "kernel_regularizer": null, "dilation_rate": [1, 1], "use_bias": false, "bias_constraint": null, "trainable": true, "padding": "same", "kernel_size": [3, 3], "strides": [1, 1], "name": "conv4_block4_2_conv"}, "inbound_nodes": [[["conv4_block4_1_relu", 0, 0, {}]]], "name": "conv4_block4_2_conv"}, {"class_name": "Concatenate", "config": {"trainable": true, "axis": 3, "name": "conv4_block4_concat"}, "inbound_nodes": [[["conv4_block3_concat", 0, 0, {}], ["conv4_block4_2_conv", 0, 0, {}]]], "name": "conv4_block4_concat"}, {"class_name": "BatchNormalization", "config": {"moving_mean_initializer": {"class_name": "Zeros", "config": {}}, "gamma_regularizer": null, "momentum": 0.99, "beta_constraint": null, "scale": true, "moving_variance_initializer": {"class_name": "Ones", "config": {}}, "center": true, "axis": 3, "beta_regularizer": null, "gamma_constraint": null, "beta_initializer": {"class_name": "Zeros", "config": {}}, "gamma_initializer": {"class_name": "Ones", "config": {}}, "epsilon": 1.001e-05, "trainable": true, "name": "conv4_block5_0_bn"}, "inbound_nodes": [[["conv4_block4_concat", 0, 0, {}]]], "name": "conv4_block5_0_bn"}, {"class_name": "Activation", "config": {"activation": "relu", "trainable": true, "name": "conv4_block5_0_relu"}, "inbound_nodes": [[["conv4_block5_0_bn", 0, 0, {}]]], "name": "conv4_block5_0_relu"}, {"class_name": "Conv2D", "config": {"activation": "linear", "filters": 128, "activity_regularizer": null, "data_format": "channels_last", "kernel_constraint": null, "kernel_initializer": {"class_name": "VarianceScaling", "config": {"seed": null, "distribution": "uniform", "scale": 1.0, "mode": "fan_avg"}}, "bias_regularizer": null, "bias_initializer": {"class_name": "Zeros", "config": {}}, "kernel_regularizer": null, "dilation_rate": [1, 1], "use_bias": false, "bias_constraint": null, "trainable": true, "padding": "valid", "kernel_size": [1, 1], "strides": [1, 1], "name": "conv4_block5_1_conv"}, "inbound_nodes": [[["conv4_block5_0_relu", 0, 0, {}]]], "name": "conv4_block5_1_conv"}, {"class_name": "BatchNormalization", "config": {"moving_mean_initializer": {"class_name": "Zeros", "config": {}}, "gamma_regularizer": null, "momentum": 0.99, "beta_constraint": null, "scale": true, "moving_variance_initializer": {"class_name": "Ones", "config": {}}, "center": true, "axis": 3, "beta_regularizer": null, "gamma_constraint": null, "beta_initializer": {"class_name": "Zeros", "config": {}}, "gamma_initializer": {"class_name": "Ones", "config": {}}, "epsilon": 1.001e-05, "trainable": true, "name": "conv4_block5_1_bn"}, "inbound_nodes": [[["conv4_block5_1_conv", 0, 0, {}]]], "name": "conv4_block5_1_bn"}, {"class_name": "Activation", "config": {"activation": "relu", "trainable": true, "name": "conv4_block5_1_relu"}, "inbound_nodes": [[["conv4_block5_1_bn", 0, 0, {}]]], "name": "conv4_block5_1_relu"}, {"class_name": "Conv2D", "config": {"activation": "linear", "filters": 32, "activity_regularizer": null, "data_format": "channels_last", "kernel_constraint": null, "kernel_initializer": {"class_name": "VarianceScaling", "config": {"seed": null, "distribution": "uniform", "scale": 1.0, "mode": "fan_avg"}}, "bias_regularizer": null, "bias_initializer": {"class_name": "Zeros", "config": {}}, "kernel_regularizer": null, "dilation_rate": [1, 1], "use_bias": false, "bias_constraint": null, "trainable": true, "padding": "same", "kernel_size": [3, 3], "strides": [1, 1], "name": "conv4_block5_2_conv"}, "inbound_nodes": [[["conv4_block5_1_relu", 0, 0, {}]]], "name": "conv4_block5_2_conv"}, {"class_name": "Concatenate", "config": {"trainable": true, "axis": 3, "name": "conv4_block5_concat"}, "inbound_nodes": [[["conv4_block4_concat", 0, 0, {}], ["conv4_block5_2_conv", 0, 0, {}]]], "name": "conv4_block5_concat"}, {"class_name": "BatchNormalization", "config": {"moving_mean_initializer": {"class_name": "Zeros", "config": {}}, "gamma_regularizer": null, "momentum": 0.99, "beta_constraint": null, "scale": true, "moving_variance_initializer": {"class_name": "Ones", "config": {}}, "center": true, "axis": 3, "beta_regularizer": null, "gamma_constraint": null, "beta_initializer": {"class_name": "Zeros", "config": {}}, "gamma_initializer": {"class_name": "Ones", "config": {}}, "epsilon": 1.001e-05, "trainable": true, "name": "conv4_block6_0_bn"}, "inbound_nodes": [[["conv4_block5_concat", 0, 0, {}]]], "name": "conv4_block6_0_bn"}, {"class_name": "Activation", "config": {"activation": "relu", "trainable": true, "name": "conv4_block6_0_relu"}, "inbound_nodes": [[["conv4_block6_0_bn", 0, 0, {}]]], "name": "conv4_block6_0_relu"}, {"class_name": "Conv2D", "config": {"activation": "linear", "filters": 128, "activity_regularizer": null, "data_format": "channels_last", "kernel_constraint": null, "kernel_initializer": {"class_name": "VarianceScaling", "config": {"seed": null, "distribution": "uniform", "scale": 1.0, "mode": "fan_avg"}}, "bias_regularizer": null, "bias_initializer": {"class_name": "Zeros", "config": {}}, "kernel_regularizer": null, "dilation_rate": [1, 1], "use_bias": false, "bias_constraint": null, "trainable": true, "padding": "valid", "kernel_size": [1, 1], "strides": [1, 1], "name": "conv4_block6_1_conv"}, "inbound_nodes": [[["conv4_block6_0_relu", 0, 0, {}]]], "name": "conv4_block6_1_conv"}, {"class_name": "BatchNormalization", "config": {"moving_mean_initializer": {"class_name": "Zeros", "config": {}}, "gamma_regularizer": null, "momentum": 0.99, "beta_constraint": null, "scale": true, "moving_variance_initializer": {"class_name": "Ones", "config": {}}, "center": true, "axis": 3, "beta_regularizer": null, "gamma_constraint": null, "beta_initializer": {"class_name": "Zeros", "config": {}}, "gamma_initializer": {"class_name": "Ones", "config": {}}, "epsilon": 1.001e-05, "trainable": true, "name": "conv4_block6_1_bn"}, "inbound_nodes": [[["conv4_block6_1_conv", 0, 0, {}]]], "name": "conv4_block6_1_bn"}, {"class_name": "Activation", "config": {"activation": "relu", "trainable": true, "name": "conv4_block6_1_relu"}, "inbound_nodes": [[["conv4_block6_1_bn", 0, 0, {}]]], "name": "conv4_block6_1_relu"}, {"class_name": "Conv2D", "config": {"activation": "linear", "filters": 32, "activity_regularizer": null, "data_format": "channels_last", "kernel_constraint": null, "kernel_initializer": {"class_name": "VarianceScaling", "config": {"seed": null, "distribution": "uniform", "scale": 1.0, "mode": "fan_avg"}}, "bias_regularizer": null, "bias_initializer": {"class_name": "Zeros", "config": {}}, "kernel_regularizer": null, "dilation_rate": [1, 1], "use_bias": false, "bias_constraint": null, "trainable": true, "padding": "same", "kernel_size": [3, 3], "strides": [1, 1], "name": "conv4_block6_2_conv"}, "inbound_nodes": [[["conv4_block6_1_relu", 0, 0, {}]]], "name": "conv4_block6_2_conv"}, {"class_name": "Concatenate", "config": {"trainable": true, "axis": 3, "name": "conv4_block6_concat"}, "inbound_nodes": [[["conv4_block5_concat", 0, 0, {}], ["conv4_block6_2_conv", 0, 0, {}]]], "name": "conv4_block6_concat"}, {"class_name": "BatchNormalization", "config": {"moving_mean_initializer": {"class_name": "Zeros", "config": {}}, "gamma_regularizer": null, "momentum": 0.99, "beta_constraint": null, "scale": true, "moving_variance_initializer": {"class_name": "Ones", "config": {}}, "center": true, "axis": 3, "beta_regularizer": null, "gamma_constraint": null, "beta_initializer": {"class_name": "Zeros", "config": {}}, "gamma_initializer": {"class_name": "Ones", "config": {}}, "epsilon": 1.001e-05, "trainable": true, "name": "conv4_block7_0_bn"}, "inbound_nodes": [[["conv4_block6_concat", 0, 0, {}]]], "name": "conv4_block7_0_bn"}, {"class_name": "Activation", "config": {"activation": "relu", "trainable": true, "name": "conv4_block7_0_relu"}, "inbound_nodes": [[["conv4_block7_0_bn", 0, 0, {}]]], "name": "conv4_block7_0_relu"}, {"class_name": "Conv2D", "config": {"activation": "linear", "filters": 128, "activity_regularizer": null, "data_format": "channels_last", "kernel_constraint": null, "kernel_initializer": {"class_name": "VarianceScaling", "config": {"seed": null, "distribution": "uniform", "scale": 1.0, "mode": "fan_avg"}}, "bias_regularizer": null, "bias_initializer": {"class_name": "Zeros", "config": {}}, "kernel_regularizer": null, "dilation_rate": [1, 1], "use_bias": false, "bias_constraint": null, "trainable": true, "padding": "valid", "kernel_size": [1, 1], "strides": [1, 1], "name": "conv4_block7_1_conv"}, "inbound_nodes": [[["conv4_block7_0_relu", 0, 0, {}]]], "name": "conv4_block7_1_conv"}, {"class_name": "BatchNormalization", "config": {"moving_mean_initializer": {"class_name": "Zeros", "config": {}}, "gamma_regularizer": null, "momentum": 0.99, "beta_constraint": null, "scale": true, "moving_variance_initializer": {"class_name": "Ones", "config": {}}, "center": true, "axis": 3, "beta_regularizer": null, "gamma_constraint": null, "beta_initializer": {"class_name": "Zeros", "config": {}}, "gamma_initializer": {"class_name": "Ones", "config": {}}, "epsilon": 1.001e-05, "trainable": true, "name": "conv4_block7_1_bn"}, "inbound_nodes": [[["conv4_block7_1_conv", 0, 0, {}]]], "name": "conv4_block7_1_bn"}, {"class_name": "Activation", "config": {"activation": "relu", "trainable": true, "name": "conv4_block7_1_relu"}, "inbound_nodes": [[["conv4_block7_1_bn", 0, 0, {}]]], "name": "conv4_block7_1_relu"}, {"class_name": "Conv2D", "config": {"activation": "linear", "filters": 32, "activity_regularizer": null, "data_format": "channels_last", "kernel_constraint": null, "kernel_initializer": {"class_name": "VarianceScaling", "config": {"seed": null, "distribution": "uniform", "scale": 1.0, "mode": "fan_avg"}}, "bias_regularizer": null, "bias_initializer": {"class_name": "Zeros", "config": {}}, "kernel_regularizer": null, "dilation_rate": [1, 1], "use_bias": false, "bias_constraint": null, "trainable": true, "padding": "same", "kernel_size": [3, 3], "strides": [1, 1], "name": "conv4_block7_2_conv"}, "inbound_nodes": [[["conv4_block7_1_relu", 0, 0, {}]]], "name": "conv4_block7_2_conv"}, {"class_name": "Concatenate", "config": {"trainable": true, "axis": 3, "name": "conv4_block7_concat"}, "inbound_nodes": [[["conv4_block6_concat", 0, 0, {}], ["conv4_block7_2_conv", 0, 0, {}]]], "name": "conv4_block7_concat"}, {"class_name": "BatchNormalization", "config": {"moving_mean_initializer": {"class_name": "Zeros", "config": {}}, "gamma_regularizer": null, "momentum": 0.99, "beta_constraint": null, "scale": true, "moving_variance_initializer": {"class_name": "Ones", "config": {}}, "center": true, "axis": 3, "beta_regularizer": null, "gamma_constraint": null, "beta_initializer": {"class_name": "Zeros", "config": {}}, "gamma_initializer": {"class_name": "Ones", "config": {}}, "epsilon": 1.001e-05, "trainable": true, "name": "conv4_block8_0_bn"}, "inbound_nodes": [[["conv4_block7_concat", 0, 0, {}]]], "name": "conv4_block8_0_bn"}, {"class_name": "Activation", "config": {"activation": "relu", "trainable": true, "name": "conv4_block8_0_relu"}, "inbound_nodes": [[["conv4_block8_0_bn", 0, 0, {}]]], "name": "conv4_block8_0_relu"}, {"class_name": "Conv2D", "config": {"activation": "linear", "filters": 128, "activity_regularizer": null, "data_format": "channels_last", "kernel_constraint": null, "kernel_initializer": {"class_name": "VarianceScaling", "config": {"seed": null, "distribution": "uniform", "scale": 1.0, "mode": "fan_avg"}}, "bias_regularizer": null, "bias_initializer": {"class_name": "Zeros", "config": {}}, "kernel_regularizer": null, "dilation_rate": [1, 1], "use_bias": false, "bias_constraint": null, "trainable": true, "padding": "valid", "kernel_size": [1, 1], "strides": [1, 1], "name": "conv4_block8_1_conv"}, "inbound_nodes": [[["conv4_block8_0_relu", 0, 0, {}]]], "name": "conv4_block8_1_conv"}, {"class_name": "BatchNormalization", "config": {"moving_mean_initializer": {"class_name": "Zeros", "config": {}}, "gamma_regularizer": null, "momentum": 0.99, "beta_constraint": null, "scale": true, "moving_variance_initializer": {"class_name": "Ones", "config": {}}, "center": true, "axis": 3, "beta_regularizer": null, "gamma_constraint": null, "beta_initializer": {"class_name": "Zeros", "config": {}}, "gamma_initializer": {"class_name": "Ones", "config": {}}, "epsilon": 1.001e-05, "trainable": true, "name": "conv4_block8_1_bn"}, "inbound_nodes": [[["conv4_block8_1_conv", 0, 0, {}]]], "name": "conv4_block8_1_bn"}, {"class_name": "Activation", "config": {"activation": "relu", "trainable": true, "name": "conv4_block8_1_relu"}, "inbound_nodes": [[["conv4_block8_1_bn", 0, 0, {}]]], "name": "conv4_block8_1_relu"}, {"class_name": "Conv2D", "config": {"activation": "linear", "filters": 32, "activity_regularizer": null, "data_format": "channels_last", "kernel_constraint": null, "kernel_initializer": {"class_name": "VarianceScaling", "config": {"seed": null, "distribution": "uniform", "scale": 1.0, "mode": "fan_avg"}}, "bias_regularizer": null, "bias_initializer": {"class_name": "Zeros", "config": {}}, "kernel_regularizer": null, "dilation_rate": [1, 1], "use_bias": false, "bias_constraint": null, "trainable": true, "padding": "same", "kernel_size": [3, 3], "strides": [1, 1], "name": "conv4_block8_2_conv"}, "inbound_nodes": [[["conv4_block8_1_relu", 0, 0, {}]]], "name": "conv4_block8_2_conv"}, {"class_name": "Concatenate", "config": {"trainable": true, "axis": 3, "name": "conv4_block8_concat"}, "inbound_nodes": [[["conv4_block7_concat", 0, 0, {}], ["conv4_block8_2_conv", 0, 0, {}]]], "name": "conv4_block8_concat"}, {"class_name": "BatchNormalization", "config": {"moving_mean_initializer": {"class_name": "Zeros", "config": {}}, "gamma_regularizer": null, "momentum": 0.99, "beta_constraint": null, "scale": true, "moving_variance_initializer": {"class_name": "Ones", "config": {}}, "center": true, "axis": 3, "beta_regularizer": null, "gamma_constraint": null, "beta_initializer": {"class_name": "Zeros", "config": {}}, "gamma_initializer": {"class_name": "Ones", "config": {}}, "epsilon": 1.001e-05, "trainable": true, "name": "conv4_block9_0_bn"}, "inbound_nodes": [[["conv4_block8_concat", 0, 0, {}]]], "name": "conv4_block9_0_bn"}, {"class_name": "Activation", "config": {"activation": "relu", "trainable": true, "name": "conv4_block9_0_relu"}, "inbound_nodes": [[["conv4_block9_0_bn", 0, 0, {}]]], "name": "conv4_block9_0_relu"}, {"class_name": "Conv2D", "config": {"activation": "linear", "filters": 128, "activity_regularizer": null, "data_format": "channels_last", "kernel_constraint": null, "kernel_initializer": {"class_name": "VarianceScaling", "config": {"seed": null, "distribution": "uniform", "scale": 1.0, "mode": "fan_avg"}}, "bias_regularizer": null, "bias_initializer": {"class_name": "Zeros", "config": {}}, "kernel_regularizer": null, "dilation_rate": [1, 1], "use_bias": false, "bias_constraint": null, "trainable": true, "padding": "valid", "kernel_size": [1, 1], "strides": [1, 1], "name": "conv4_block9_1_conv"}, "inbound_nodes": [[["conv4_block9_0_relu", 0, 0, {}]]], "name": "conv4_block9_1_conv"}, {"class_name": "BatchNormalization", "config": {"moving_mean_initializer": {"class_name": "Zeros", "config": {}}, "gamma_regularizer": null, "momentum": 0.99, "beta_constraint": null, "scale": true, "moving_variance_initializer": {"class_name": "Ones", "config": {}}, "center": true, "axis": 3, "beta_regularizer": null, "gamma_constraint": null, "beta_initializer": {"class_name": "Zeros", "config": {}}, "gamma_initializer": {"class_name": "Ones", "config": {}}, "epsilon": 1.001e-05, "trainable": true, "name": "conv4_block9_1_bn"}, "inbound_nodes": [[["conv4_block9_1_conv", 0, 0, {}]]], "name": "conv4_block9_1_bn"}, {"class_name": "Activation", "config": {"activation": "relu", "trainable": true, "name": "conv4_block9_1_relu"}, "inbound_nodes": [[["conv4_block9_1_bn", 0, 0, {}]]], "name": "conv4_block9_1_relu"}, {"class_name": "Conv2D", "config": {"activation": "linear", "filters": 32, "activity_regularizer": null, "data_format": "channels_last", "kernel_constraint": null, "kernel_initializer": {"class_name": "VarianceScaling", "config": {"seed": null, "distribution": "uniform", "scale": 1.0, "mode": "fan_avg"}}, "bias_regularizer": null, "bias_initializer": {"class_name": "Zeros", "config": {}}, "kernel_regularizer": null, "dilation_rate": [1, 1], "use_bias": false, "bias_constraint": null, "trainable": true, "padding": "same", "kernel_size": [3, 3], "strides": [1, 1], "name": "conv4_block9_2_conv"}, "inbound_nodes": [[["conv4_block9_1_relu", 0, 0, {}]]], "name": "conv4_block9_2_conv"}, {"class_name": "Concatenate", "config": {"trainable": true, "axis": 3, "name": "conv4_block9_concat"}, "inbound_nodes": [[["conv4_block8_concat", 0, 0, {}], ["conv4_block9_2_conv", 0, 0, {}]]], "name": "conv4_block9_concat"}, {"class_name": "BatchNormalization", "config": {"moving_mean_initializer": {"class_name": "Zeros", "config": {}}, "gamma_regularizer": null, "momentum": 0.99, "beta_constraint": null, "scale": true, "moving_variance_initializer": {"class_name": "Ones", "config": {}}, "center": true, "axis": 3, "beta_regularizer": null, "gamma_constraint": null, "beta_initializer": {"class_name": "Zeros", "config": {}}, "gamma_initializer": {"class_name": "Ones", "config": {}}, "epsilon": 1.001e-05, "trainable": true, "name": "conv4_block10_0_bn"}, "inbound_nodes": [[["conv4_block9_concat", 0, 0, {}]]], "name": "conv4_block10_0_bn"}, {"class_name": "Activation", "config": {"activation": "relu", "trainable": true, "name": "conv4_block10_0_relu"}, "inbound_nodes": [[["conv4_block10_0_bn", 0, 0, {}]]], "name": "conv4_block10_0_relu"}, {"class_name": "Conv2D", "config": {"activation": "linear", "filters": 128, "activity_regularizer": null, "data_format": "channels_last", "kernel_constraint": null, "kernel_initializer": {"class_name": "VarianceScaling", "config": {"seed": null, "distribution": "uniform", "scale": 1.0, "mode": "fan_avg"}}, "bias_regularizer": null, "bias_initializer": {"class_name": "Zeros", "config": {}}, "kernel_regularizer": null, "dilation_rate": [1, 1], "use_bias": false, "bias_constraint": null, "trainable": true, "padding": "valid", "kernel_size": [1, 1], "strides": [1, 1], "name": "conv4_block10_1_conv"}, "inbound_nodes": [[["conv4_block10_0_relu", 0, 0, {}]]], "name": "conv4_block10_1_conv"}, {"class_name": "BatchNormalization", "config": {"moving_mean_initializer": {"class_name": "Zeros", "config": {}}, "gamma_regularizer": null, "momentum": 0.99, "beta_constraint": null, "scale": true, "moving_variance_initializer": {"class_name": "Ones", "config": {}}, "center": true, "axis": 3, "beta_regularizer": null, "gamma_constraint": null, "beta_initializer": {"class_name": "Zeros", "config": {}}, "gamma_initializer": {"class_name": "Ones", "config": {}}, "epsilon": 1.001e-05, "trainable": true, "name": "conv4_block10_1_bn"}, "inbound_nodes": [[["conv4_block10_1_conv", 0, 0, {}]]], "name": "conv4_block10_1_bn"}, {"class_name": "Activation", "config": {"activation": "relu", "trainable": true, "name": "conv4_block10_1_relu"}, "inbound_nodes": [[["conv4_block10_1_bn", 0, 0, {}]]], "name": "conv4_block10_1_relu"}, {"class_name": "Conv2D", "config": {"activation": "linear", "filters": 32, "activity_regularizer": null, "data_format": "channels_last", "kernel_constraint": null, "kernel_initializer": {"class_name": "VarianceScaling", "config": {"seed": null, "distribution": "uniform", "scale": 1.0, "mode": "fan_avg"}}, "bias_regularizer": null, "bias_initializer": {"class_name": "Zeros", "config": {}}, "kernel_regularizer": null, "dilation_rate": [1, 1], "use_bias": false, "bias_constraint": null, "trainable": true, "padding": "same", "kernel_size": [3, 3], "strides": [1, 1], "name": "conv4_block10_2_conv"}, "inbound_nodes": [[["conv4_block10_1_relu", 0, 0, {}]]], "name": "conv4_block10_2_conv"}, {"class_name": "Concatenate", "config": {"trainable": true, "axis": 3, "name": "conv4_block10_concat"}, "inbound_nodes": [[["conv4_block9_concat", 0, 0, {}], ["conv4_block10_2_conv", 0, 0, {}]]], "name": "conv4_block10_concat"}, {"class_name": "BatchNormalization", "config": {"moving_mean_initializer": {"class_name": "Zeros", "config": {}}, "gamma_regularizer": null, "momentum": 0.99, "beta_constraint": null, "scale": true, "moving_variance_initializer": {"class_name": "Ones", "config": {}}, "center": true, "axis": 3, "beta_regularizer": null, "gamma_constraint": null, "beta_initializer": {"class_name": "Zeros", "config": {}}, "gamma_initializer": {"class_name": "Ones", "config": {}}, "epsilon": 1.001e-05, "trainable": true, "name": "conv4_block11_0_bn"}, "inbound_nodes": [[["conv4_block10_concat", 0, 0, {}]]], "name": "conv4_block11_0_bn"}, {"class_name": "Activation", "config": {"activation": "relu", "trainable": true, "name": "conv4_block11_0_relu"}, "inbound_nodes": [[["conv4_block11_0_bn", 0, 0, {}]]], "name": "conv4_block11_0_relu"}, {"class_name": "Conv2D", "config": {"activation": "linear", "filters": 128, "activity_regularizer": null, "data_format": "channels_last", "kernel_constraint": null, "kernel_initializer": {"class_name": "VarianceScaling", "config": {"seed": null, "distribution": "uniform", "scale": 1.0, "mode": "fan_avg"}}, "bias_regularizer": null, "bias_initializer": {"class_name": "Zeros", "config": {}}, "kernel_regularizer": null, "dilation_rate": [1, 1], "use_bias": false, "bias_constraint": null, "trainable": true, "padding": "valid", "kernel_size": [1, 1], "strides": [1, 1], "name": "conv4_block11_1_conv"}, "inbound_nodes": [[["conv4_block11_0_relu", 0, 0, {}]]], "name": "conv4_block11_1_conv"}, {"class_name": "BatchNormalization", "config": {"moving_mean_initializer": {"class_name": "Zeros", "config": {}}, "gamma_regularizer": null, "momentum": 0.99, "beta_constraint": null, "scale": true, "moving_variance_initializer": {"class_name": "Ones", "config": {}}, "center": true, "axis": 3, "beta_regularizer": null, "gamma_constraint": null, "beta_initializer": {"class_name": "Zeros", "config": {}}, "gamma_initializer": {"class_name": "Ones", "config": {}}, "epsilon": 1.001e-05, "trainable": true, "name": "conv4_block11_1_bn"}, "inbound_nodes": [[["conv4_block11_1_conv", 0, 0, {}]]], "name": "conv4_block11_1_bn"}, {"class_name": "Activation", "config": {"activation": "relu", "trainable": true, "name": "conv4_block11_1_relu"}, "inbound_nodes": [[["conv4_block11_1_bn", 0, 0, {}]]], "name": "conv4_block11_1_relu"}, {"class_name": "Conv2D", "config": {"activation": "linear", "filters": 32, "activity_regularizer": null, "data_format": "channels_last", "kernel_constraint": null, "kernel_initializer": {"class_name": "VarianceScaling", "config": {"seed": null, "distribution": "uniform", "scale": 1.0, "mode": "fan_avg"}}, "bias_regularizer": null, "bias_initializer": {"class_name": "Zeros", "config": {}}, "kernel_regularizer": null, "dilation_rate": [1, 1], "use_bias": false, "bias_constraint": null, "trainable": true, "padding": "same", "kernel_size": [3, 3], "strides": [1, 1], "name": "conv4_block11_2_conv"}, "inbound_nodes": [[["conv4_block11_1_relu", 0, 0, {}]]], "name": "conv4_block11_2_conv"}, {"class_name": "Concatenate", "config": {"trainable": true, "axis": 3, "name": "conv4_block11_concat"}, "inbound_nodes": [[["conv4_block10_concat", 0, 0, {}], ["conv4_block11_2_conv", 0, 0, {}]]], "name": "conv4_block11_concat"}, {"class_name": "BatchNormalization", "config": {"moving_mean_initializer": {"class_name": "Zeros", "config": {}}, "gamma_regularizer": null, "momentum": 0.99, "beta_constraint": null, "scale": true, "moving_variance_initializer": {"class_name": "Ones", "config": {}}, "center": true, "axis": 3, "beta_regularizer": null, "gamma_constraint": null, "beta_initializer": {"class_name": "Zeros", "config": {}}, "gamma_initializer": {"class_name": "Ones", "config": {}}, "epsilon": 1.001e-05, "trainable": true, "name": "conv4_block12_0_bn"}, "inbound_nodes": [[["conv4_block11_concat", 0, 0, {}]]], "name": "conv4_block12_0_bn"}, {"class_name": "Activation", "config": {"activation": "relu", "trainable": true, "name": "conv4_block12_0_relu"}, "inbound_nodes": [[["conv4_block12_0_bn", 0, 0, {}]]], "name": "conv4_block12_0_relu"}, {"class_name": "Conv2D", "config": {"activation": "linear", "filters": 128, "activity_regularizer": null, "data_format": "channels_last", "kernel_constraint": null, "kernel_initializer": {"class_name": "VarianceScaling", "config": {"seed": null, "distribution": "uniform", "scale": 1.0, "mode": "fan_avg"}}, "bias_regularizer": null, "bias_initializer": {"class_name": "Zeros", "config": {}}, "kernel_regularizer": null, "dilation_rate": [1, 1], "use_bias": false, "bias_constraint": null, "trainable": true, "padding": "valid", "kernel_size": [1, 1], "strides": [1, 1], "name": "conv4_block12_1_conv"}, "inbound_nodes": [[["conv4_block12_0_relu", 0, 0, {}]]], "name": "conv4_block12_1_conv"}, {"class_name": "BatchNormalization", "config": {"moving_mean_initializer": {"class_name": "Zeros", "config": {}}, "gamma_regularizer": null, "momentum": 0.99, "beta_constraint": null, "scale": true, "moving_variance_initializer": {"class_name": "Ones", "config": {}}, "center": true, "axis": 3, "beta_regularizer": null, "gamma_constraint": null, "beta_initializer": {"class_name": "Zeros", "config": {}}, "gamma_initializer": {"class_name": "Ones", "config": {}}, "epsilon": 1.001e-05, "trainable": true, "name": "conv4_block12_1_bn"}, "inbound_nodes": [[["conv4_block12_1_conv", 0, 0, {}]]], "name": "conv4_block12_1_bn"}, {"class_name": "Activation", "config": {"activation": "relu", "trainable": true, "name": "conv4_block12_1_relu"}, "inbound_nodes": [[["conv4_block12_1_bn", 0, 0, {}]]], "name": "conv4_block12_1_relu"}, {"class_name": "Conv2D", "config": {"activation": "linear", "filters": 32, "activity_regularizer": null, "data_format": "channels_last", "kernel_constraint": null, "kernel_initializer": {"class_name": "VarianceScaling", "config": {"seed": null, "distribution": "uniform", "scale": 1.0, "mode": "fan_avg"}}, "bias_regularizer": null, "bias_initializer": {"class_name": "Zeros", "config": {}}, "kernel_regularizer": null, "dilation_rate": [1, 1], "use_bias": false, "bias_constraint": null, "trainable": true, "padding": "same", "kernel_size": [3, 3], "strides": [1, 1], "name": "conv4_block12_2_conv"}, "inbound_nodes": [[["conv4_block12_1_relu", 0, 0, {}]]], "name": "conv4_block12_2_conv"}, {"class_name": "Concatenate", "config": {"trainable": true, "axis": 3, "name": "conv4_block12_concat"}, "inbound_nodes": [[["conv4_block11_concat", 0, 0, {}], ["conv4_block12_2_conv", 0, 0, {}]]], "name": "conv4_block12_concat"}, {"class_name": "BatchNormalization", "config": {"moving_mean_initializer": {"class_name": "Zeros", "config": {}}, "gamma_regularizer": null, "momentum": 0.99, "beta_constraint": null, "scale": true, "moving_variance_initializer": {"class_name": "Ones", "config": {}}, "center": true, "axis": 3, "beta_regularizer": null, "gamma_constraint": null, "beta_initializer": {"class_name": "Zeros", "config": {}}, "gamma_initializer": {"class_name": "Ones", "config": {}}, "epsilon": 1.001e-05, "trainable": true, "name": "conv4_block13_0_bn"}, "inbound_nodes": [[["conv4_block12_concat", 0, 0, {}]]], "name": "conv4_block13_0_bn"}, {"class_name": "Activation", "config": {"activation": "relu", "trainable": true, "name": "conv4_block13_0_relu"}, "inbound_nodes": [[["conv4_block13_0_bn", 0, 0, {}]]], "name": "conv4_block13_0_relu"}, {"class_name": "Conv2D", "config": {"activation": "linear", "filters": 128, "activity_regularizer": null, "data_format": "channels_last", "kernel_constraint": null, "kernel_initializer": {"class_name": "VarianceScaling", "config": {"seed": null, "distribution": "uniform", "scale": 1.0, "mode": "fan_avg"}}, "bias_regularizer": null, "bias_initializer": {"class_name": "Zeros", "config": {}}, "kernel_regularizer": null, "dilation_rate": [1, 1], "use_bias": false, "bias_constraint": null, "trainable": true, "padding": "valid", "kernel_size": [1, 1], "strides": [1, 1], "name": "conv4_block13_1_conv"}, "inbound_nodes": [[["conv4_block13_0_relu", 0, 0, {}]]], "name": "conv4_block13_1_conv"}, {"class_name": "BatchNormalization", "config": {"moving_mean_initializer": {"class_name": "Zeros", "config": {}}, "gamma_regularizer": null, "momentum": 0.99, "beta_constraint": null, "scale": true, "moving_variance_initializer": {"class_name": "Ones", "config": {}}, "center": true, "axis": 3, "beta_regularizer": null, "gamma_constraint": null, "beta_initializer": {"class_name": "Zeros", "config": {}}, "gamma_initializer": {"class_name": "Ones", "config": {}}, "epsilon": 1.001e-05, "trainable": true, "name": "conv4_block13_1_bn"}, "inbound_nodes": [[["conv4_block13_1_conv", 0, 0, {}]]], "name": "conv4_block13_1_bn"}, {"class_name": "Activation", "config": {"activation": "relu", "trainable": true, "name": "conv4_block13_1_relu"}, "inbound_nodes": [[["conv4_block13_1_bn", 0, 0, {}]]], "name": "conv4_block13_1_relu"}, {"class_name": "Conv2D", "config": {"activation": "linear", "filters": 32, "activity_regularizer": null, "data_format": "channels_last", "kernel_constraint": null, "kernel_initializer": {"class_name": "VarianceScaling", "config": {"seed": null, "distribution": "uniform", "scale": 1.0, "mode": "fan_avg"}}, "bias_regularizer": null, "bias_initializer": {"class_name": "Zeros", "config": {}}, "kernel_regularizer": null, "dilation_rate": [1, 1], "use_bias": false, "bias_constraint": null, "trainable": true, "padding": "same", "kernel_size": [3, 3], "strides": [1, 1], "name": "conv4_block13_2_conv"}, "inbound_nodes": [[["conv4_block13_1_relu", 0, 0, {}]]], "name": "conv4_block13_2_conv"}, {"class_name": "Concatenate", "config": {"trainable": true, "axis": 3, "name": "conv4_block13_concat"}, "inbound_nodes": [[["conv4_block12_concat", 0, 0, {}], ["conv4_block13_2_conv", 0, 0, {}]]], "name": "conv4_block13_concat"}, {"class_name": "BatchNormalization", "config": {"moving_mean_initializer": {"class_name": "Zeros", "config": {}}, "gamma_regularizer": null, "momentum": 0.99, "beta_constraint": null, "scale": true, "moving_variance_initializer": {"class_name": "Ones", "config": {}}, "center": true, "axis": 3, "beta_regularizer": null, "gamma_constraint": null, "beta_initializer": {"class_name": "Zeros", "config": {}}, "gamma_initializer": {"class_name": "Ones", "config": {}}, "epsilon": 1.001e-05, "trainable": true, "name": "conv4_block14_0_bn"}, "inbound_nodes": [[["conv4_block13_concat", 0, 0, {}]]], "name": "conv4_block14_0_bn"}, {"class_name": "Activation", "config": {"activation": "relu", "trainable": true, "name": "conv4_block14_0_relu"}, "inbound_nodes": [[["conv4_block14_0_bn", 0, 0, {}]]], "name": "conv4_block14_0_relu"}, {"class_name": "Conv2D", "config": {"activation": "linear", "filters": 128, "activity_regularizer": null, "data_format": "channels_last", "kernel_constraint": null, "kernel_initializer": {"class_name": "VarianceScaling", "config": {"seed": null, "distribution": "uniform", "scale": 1.0, "mode": "fan_avg"}}, "bias_regularizer": null, "bias_initializer": {"class_name": "Zeros", "config": {}}, "kernel_regularizer": null, "dilation_rate": [1, 1], "use_bias": false, "bias_constraint": null, "trainable": true, "padding": "valid", "kernel_size": [1, 1], "strides": [1, 1], "name": "conv4_block14_1_conv"}, "inbound_nodes": [[["conv4_block14_0_relu", 0, 0, {}]]], "name": "conv4_block14_1_conv"}, {"class_name": "BatchNormalization", "config": {"moving_mean_initializer": {"class_name": "Zeros", "config": {}}, "gamma_regularizer": null, "momentum": 0.99, "beta_constraint": null, "scale": true, "moving_variance_initializer": {"class_name": "Ones", "config": {}}, "center": true, "axis": 3, "beta_regularizer": null, "gamma_constraint": null, "beta_initializer": {"class_name": "Zeros", "config": {}}, "gamma_initializer": {"class_name": "Ones", "config": {}}, "epsilon": 1.001e-05, "trainable": true, "name": "conv4_block14_1_bn"}, "inbound_nodes": [[["conv4_block14_1_conv", 0, 0, {}]]], "name": "conv4_block14_1_bn"}, {"class_name": "Activation", "config": {"activation": "relu", "trainable": true, "name": "conv4_block14_1_relu"}, "inbound_nodes": [[["conv4_block14_1_bn", 0, 0, {}]]], "name": "conv4_block14_1_relu"}, {"class_name": "Conv2D", "config": {"activation": "linear", "filters": 32, "activity_regularizer": null, "data_format": "channels_last", "kernel_constraint": null, "kernel_initializer": {"class_name": "VarianceScaling", "config": {"seed": null, "distribution": "uniform", "scale": 1.0, "mode": "fan_avg"}}, "bias_regularizer": null, "bias_initializer": {"class_name": "Zeros", "config": {}}, "kernel_regularizer": null, "dilation_rate": [1, 1], "use_bias": false, "bias_constraint": null, "trainable": true, "padding": "same", "kernel_size": [3, 3], "strides": [1, 1], "name": "conv4_block14_2_conv"}, "inbound_nodes": [[["conv4_block14_1_relu", 0, 0, {}]]], "name": "conv4_block14_2_conv"}, {"class_name": "Concatenate", "config": {"trainable": true, "axis": 3, "name": "conv4_block14_concat"}, "inbound_nodes": [[["conv4_block13_concat", 0, 0, {}], ["conv4_block14_2_conv", 0, 0, {}]]], "name": "conv4_block14_concat"}, {"class_name": "BatchNormalization", "config": {"moving_mean_initializer": {"class_name": "Zeros", "config": {}}, "gamma_regularizer": null, "momentum": 0.99, "beta_constraint": null, "scale": true, "moving_variance_initializer": {"class_name": "Ones", "config": {}}, "center": true, "axis": 3, "beta_regularizer": null, "gamma_constraint": null, "beta_initializer": {"class_name": "Zeros", "config": {}}, "gamma_initializer": {"class_name": "Ones", "config": {}}, "epsilon": 1.001e-05, "trainable": true, "name": "conv4_block15_0_bn"}, "inbound_nodes": [[["conv4_block14_concat", 0, 0, {}]]], "name": "conv4_block15_0_bn"}, {"class_name": "Activation", "config": {"activation": "relu", "trainable": true, "name": "conv4_block15_0_relu"}, "inbound_nodes": [[["conv4_block15_0_bn", 0, 0, {}]]], "name": "conv4_block15_0_relu"}, {"class_name": "Conv2D", "config": {"activation": "linear", "filters": 128, "activity_regularizer": null, "data_format": "channels_last", "kernel_constraint": null, "kernel_initializer": {"class_name": "VarianceScaling", "config": {"seed": null, "distribution": "uniform", "scale": 1.0, "mode": "fan_avg"}}, "bias_regularizer": null, "bias_initializer": {"class_name": "Zeros", "config": {}}, "kernel_regularizer": null, "dilation_rate": [1, 1], "use_bias": false, "bias_constraint": null, "trainable": true, "padding": "valid", "kernel_size": [1, 1], "strides": [1, 1], "name": "conv4_block15_1_conv"}, "inbound_nodes": [[["conv4_block15_0_relu", 0, 0, {}]]], "name": "conv4_block15_1_conv"}, {"class_name": "BatchNormalization", "config": {"moving_mean_initializer": {"class_name": "Zeros", "config": {}}, "gamma_regularizer": null, "momentum": 0.99, "beta_constraint": null, "scale": true, "moving_variance_initializer": {"class_name": "Ones", "config": {}}, "center": true, "axis": 3, "beta_regularizer": null, "gamma_constraint": null, "beta_initializer": {"class_name": "Zeros", "config": {}}, "gamma_initializer": {"class_name": "Ones", "config": {}}, "epsilon": 1.001e-05, "trainable": true, "name": "conv4_block15_1_bn"}, "inbound_nodes": [[["conv4_block15_1_conv", 0, 0, {}]]], "name": "conv4_block15_1_bn"}, {"class_name": "Activation", "config": {"activation": "relu", "trainable": true, "name": "conv4_block15_1_relu"}, "inbound_nodes": [[["conv4_block15_1_bn", 0, 0, {}]]], "name": "conv4_block15_1_relu"}, {"class_name": "Conv2D", "config": {"activation": "linear", "filters": 32, "activity_regularizer": null, "data_format": "channels_last", "kernel_constraint": null, "kernel_initializer": {"class_name": "VarianceScaling", "config": {"seed": null, "distribution": "uniform", "scale": 1.0, "mode": "fan_avg"}}, "bias_regularizer": null, "bias_initializer": {"class_name": "Zeros", "config": {}}, "kernel_regularizer": null, "dilation_rate": [1, 1], "use_bias": false, "bias_constraint": null, "trainable": true, "padding": "same", "kernel_size": [3, 3], "strides": [1, 1], "name": "conv4_block15_2_conv"}, "inbound_nodes": [[["conv4_block15_1_relu", 0, 0, {}]]], "name": "conv4_block15_2_conv"}, {"class_name": "Concatenate", "config": {"trainable": true, "axis": 3, "name": "conv4_block15_concat"}, "inbound_nodes": [[["conv4_block14_concat", 0, 0, {}], ["conv4_block15_2_conv", 0, 0, {}]]], "name": "conv4_block15_concat"}, {"class_name": "BatchNormalization", "config": {"moving_mean_initializer": {"class_name": "Zeros", "config": {}}, "gamma_regularizer": null, "momentum": 0.99, "beta_constraint": null, "scale": true, "moving_variance_initializer": {"class_name": "Ones", "config": {}}, "center": true, "axis": 3, "beta_regularizer": null, "gamma_constraint": null, "beta_initializer": {"class_name": "Zeros", "config": {}}, "gamma_initializer": {"class_name": "Ones", "config": {}}, "epsilon": 1.001e-05, "trainable": true, "name": "conv4_block16_0_bn"}, "inbound_nodes": [[["conv4_block15_concat", 0, 0, {}]]], "name": "conv4_block16_0_bn"}, {"class_name": "Activation", "config": {"activation": "relu", "trainable": true, "name": "conv4_block16_0_relu"}, "inbound_nodes": [[["conv4_block16_0_bn", 0, 0, {}]]], "name": "conv4_block16_0_relu"}, {"class_name": "Conv2D", "config": {"activation": "linear", "filters": 128, "activity_regularizer": null, "data_format": "channels_last", "kernel_constraint": null, "kernel_initializer": {"class_name": "VarianceScaling", "config": {"seed": null, "distribution": "uniform", "scale": 1.0, "mode": "fan_avg"}}, "bias_regularizer": null, "bias_initializer": {"class_name": "Zeros", "config": {}}, "kernel_regularizer": null, "dilation_rate": [1, 1], "use_bias": false, "bias_constraint": null, "trainable": true, "padding": "valid", "kernel_size": [1, 1], "strides": [1, 1], "name": "conv4_block16_1_conv"}, "inbound_nodes": [[["conv4_block16_0_relu", 0, 0, {}]]], "name": "conv4_block16_1_conv"}, {"class_name": "BatchNormalization", "config": {"moving_mean_initializer": {"class_name": "Zeros", "config": {}}, "gamma_regularizer": null, "momentum": 0.99, "beta_constraint": null, "scale": true, "moving_variance_initializer": {"class_name": "Ones", "config": {}}, "center": true, "axis": 3, "beta_regularizer": null, "gamma_constraint": null, "beta_initializer": {"class_name": "Zeros", "config": {}}, "gamma_initializer": {"class_name": "Ones", "config": {}}, "epsilon": 1.001e-05, "trainable": true, "name": "conv4_block16_1_bn"}, "inbound_nodes": [[["conv4_block16_1_conv", 0, 0, {}]]], "name": "conv4_block16_1_bn"}, {"class_name": "Activation", "config": {"activation": "relu", "trainable": true, "name": "conv4_block16_1_relu"}, "inbound_nodes": [[["conv4_block16_1_bn", 0, 0, {}]]], "name": "conv4_block16_1_relu"}, {"class_name": "Conv2D", "config": {"activation": "linear", "filters": 32, "activity_regularizer": null, "data_format": "channels_last", "kernel_constraint": null, "kernel_initializer": {"class_name": "VarianceScaling", "config": {"seed": null, "distribution": "uniform", "scale": 1.0, "mode": "fan_avg"}}, "bias_regularizer": null, "bias_initializer": {"class_name": "Zeros", "config": {}}, "kernel_regularizer": null, "dilation_rate": [1, 1], "use_bias": false, "bias_constraint": null, "trainable": true, "padding": "same", "kernel_size": [3, 3], "strides": [1, 1], "name": "conv4_block16_2_conv"}, "inbound_nodes": [[["conv4_block16_1_relu", 0, 0, {}]]], "name": "conv4_block16_2_conv"}, {"class_name": "Concatenate", "config": {"trainable": true, "axis": 3, "name": "conv4_block16_concat"}, "inbound_nodes": [[["conv4_block15_concat", 0, 0, {}], ["conv4_block16_2_conv", 0, 0, {}]]], "name": "conv4_block16_concat"}, {"class_name": "BatchNormalization", "config": {"moving_mean_initializer": {"class_name": "Zeros", "config": {}}, "gamma_regularizer": null, "momentum": 0.99, "beta_constraint": null, "scale": true, "moving_variance_initializer": {"class_name": "Ones", "config": {}}, "center": true, "axis": 3, "beta_regularizer": null, "gamma_constraint": null, "beta_initializer": {"class_name": "Zeros", "config": {}}, "gamma_initializer": {"class_name": "Ones", "config": {}}, "epsilon": 1.001e-05, "trainable": true, "name": "conv4_block17_0_bn"}, "inbound_nodes": [[["conv4_block16_concat", 0, 0, {}]]], "name": "conv4_block17_0_bn"}, {"class_name": "Activation", "config": {"activation": "relu", "trainable": true, "name": "conv4_block17_0_relu"}, "inbound_nodes": [[["conv4_block17_0_bn", 0, 0, {}]]], "name": "conv4_block17_0_relu"}, {"class_name": "Conv2D", "config": {"activation": "linear", "filters": 128, "activity_regularizer": null, "data_format": "channels_last", "kernel_constraint": null, "kernel_initializer": {"class_name": "VarianceScaling", "config": {"seed": null, "distribution": "uniform", "scale": 1.0, "mode": "fan_avg"}}, "bias_regularizer": null, "bias_initializer": {"class_name": "Zeros", "config": {}}, "kernel_regularizer": null, "dilation_rate": [1, 1], "use_bias": false, "bias_constraint": null, "trainable": true, "padding": "valid", "kernel_size": [1, 1], "strides": [1, 1], "name": "conv4_block17_1_conv"}, "inbound_nodes": [[["conv4_block17_0_relu", 0, 0, {}]]], "name": "conv4_block17_1_conv"}, {"class_name": "BatchNormalization", "config": {"moving_mean_initializer": {"class_name": "Zeros", "config": {}}, "gamma_regularizer": null, "momentum": 0.99, "beta_constraint": null, "scale": true, "moving_variance_initializer": {"class_name": "Ones", "config": {}}, "center": true, "axis": 3, "beta_regularizer": null, "gamma_constraint": null, "beta_initializer": {"class_name": "Zeros", "config": {}}, "gamma_initializer": {"class_name": "Ones", "config": {}}, "epsilon": 1.001e-05, "trainable": true, "name": "conv4_block17_1_bn"}, "inbound_nodes": [[["conv4_block17_1_conv", 0, 0, {}]]], "name": "conv4_block17_1_bn"}, {"class_name": "Activation", "config": {"activation": "relu", "trainable": true, "name": "conv4_block17_1_relu"}, "inbound_nodes": [[["conv4_block17_1_bn", 0, 0, {}]]], "name": "conv4_block17_1_relu"}, {"class_name": "Conv2D", "config": {"activation": "linear", "filters": 32, "activity_regularizer": null, "data_format": "channels_last", "kernel_constraint": null, "kernel_initializer": {"class_name": "VarianceScaling", "config": {"seed": null, "distribution": "uniform", "scale": 1.0, "mode": "fan_avg"}}, "bias_regularizer": null, "bias_initializer": {"class_name": "Zeros", "config": {}}, "kernel_regularizer": null, "dilation_rate": [1, 1], "use_bias": false, "bias_constraint": null, "trainable": true, "padding": "same", "kernel_size": [3, 3], "strides": [1, 1], "name": "conv4_block17_2_conv"}, "inbound_nodes": [[["conv4_block17_1_relu", 0, 0, {}]]], "name": "conv4_block17_2_conv"}, {"class_name": "Concatenate", "config": {"trainable": true, "axis": 3, "name": "conv4_block17_concat"}, "inbound_nodes": [[["conv4_block16_concat", 0, 0, {}], ["conv4_block17_2_conv", 0, 0, {}]]], "name": "conv4_block17_concat"}, {"class_name": "BatchNormalization", "config": {"moving_mean_initializer": {"class_name": "Zeros", "config": {}}, "gamma_regularizer": null, "momentum": 0.99, "beta_constraint": null, "scale": true, "moving_variance_initializer": {"class_name": "Ones", "config": {}}, "center": true, "axis": 3, "beta_regularizer": null, "gamma_constraint": null, "beta_initializer": {"class_name": "Zeros", "config": {}}, "gamma_initializer": {"class_name": "Ones", "config": {}}, "epsilon": 1.001e-05, "trainable": true, "name": "conv4_block18_0_bn"}, "inbound_nodes": [[["conv4_block17_concat", 0, 0, {}]]], "name": "conv4_block18_0_bn"}, {"class_name": "Activation", "config": {"activation": "relu", "trainable": true, "name": "conv4_block18_0_relu"}, "inbound_nodes": [[["conv4_block18_0_bn", 0, 0, {}]]], "name": "conv4_block18_0_relu"}, {"class_name": "Conv2D", "config": {"activation": "linear", "filters": 128, "activity_regularizer": null, "data_format": "channels_last", "kernel_constraint": null, "kernel_initializer": {"class_name": "VarianceScaling", "config": {"seed": null, "distribution": "uniform", "scale": 1.0, "mode": "fan_avg"}}, "bias_regularizer": null, "bias_initializer": {"class_name": "Zeros", "config": {}}, "kernel_regularizer": null, "dilation_rate": [1, 1], "use_bias": false, "bias_constraint": null, "trainable": true, "padding": "valid", "kernel_size": [1, 1], "strides": [1, 1], "name": "conv4_block18_1_conv"}, "inbound_nodes": [[["conv4_block18_0_relu", 0, 0, {}]]], "name": "conv4_block18_1_conv"}, {"class_name": "BatchNormalization", "config": {"moving_mean_initializer": {"class_name": "Zeros", "config": {}}, "gamma_regularizer": null, "momentum": 0.99, "beta_constraint": null, "scale": true, "moving_variance_initializer": {"class_name": "Ones", "config": {}}, "center": true, "axis": 3, "beta_regularizer": null, "gamma_constraint": null, "beta_initializer": {"class_name": "Zeros", "config": {}}, "gamma_initializer": {"class_name": "Ones", "config": {}}, "epsilon": 1.001e-05, "trainable": true, "name": "conv4_block18_1_bn"}, "inbound_nodes": [[["conv4_block18_1_conv", 0, 0, {}]]], "name": "conv4_block18_1_bn"}, {"class_name": "Activation", "config": {"activation": "relu", "trainable": true, "name": "conv4_block18_1_relu"}, "inbound_nodes": [[["conv4_block18_1_bn", 0, 0, {}]]], "name": "conv4_block18_1_relu"}, {"class_name": "Conv2D", "config": {"activation": "linear", "filters": 32, "activity_regularizer": null, "data_format": "channels_last", "kernel_constraint": null, "kernel_initializer": {"class_name": "VarianceScaling", "config": {"seed": null, "distribution": "uniform", "scale": 1.0, "mode": "fan_avg"}}, "bias_regularizer": null, "bias_initializer": {"class_name": "Zeros", "config": {}}, "kernel_regularizer": null, "dilation_rate": [1, 1], "use_bias": false, "bias_constraint": null, "trainable": true, "padding": "same", "kernel_size": [3, 3], "strides": [1, 1], "name": "conv4_block18_2_conv"}, "inbound_nodes": [[["conv4_block18_1_relu", 0, 0, {}]]], "name": "conv4_block18_2_conv"}, {"class_name": "Concatenate", "config": {"trainable": true, "axis": 3, "name": "conv4_block18_concat"}, "inbound_nodes": [[["conv4_block17_concat", 0, 0, {}], ["conv4_block18_2_conv", 0, 0, {}]]], "name": "conv4_block18_concat"}, {"class_name": "BatchNormalization", "config": {"moving_mean_initializer": {"class_name": "Zeros", "config": {}}, "gamma_regularizer": null, "momentum": 0.99, "beta_constraint": null, "scale": true, "moving_variance_initializer": {"class_name": "Ones", "config": {}}, "center": true, "axis": 3, "beta_regularizer": null, "gamma_constraint": null, "beta_initializer": {"class_name": "Zeros", "config": {}}, "gamma_initializer": {"class_name": "Ones", "config": {}}, "epsilon": 1.001e-05, "trainable": true, "name": "conv4_block19_0_bn"}, "inbound_nodes": [[["conv4_block18_concat", 0, 0, {}]]], "name": "conv4_block19_0_bn"}, {"class_name": "Activation", "config": {"activation": "relu", "trainable": true, "name": "conv4_block19_0_relu"}, "inbound_nodes": [[["conv4_block19_0_bn", 0, 0, {}]]], "name": "conv4_block19_0_relu"}, {"class_name": "Conv2D", "config": {"activation": "linear", "filters": 128, "activity_regularizer": null, "data_format": "channels_last", "kernel_constraint": null, "kernel_initializer": {"class_name": "VarianceScaling", "config": {"seed": null, "distribution": "uniform", "scale": 1.0, "mode": "fan_avg"}}, "bias_regularizer": null, "bias_initializer": {"class_name": "Zeros", "config": {}}, "kernel_regularizer": null, "dilation_rate": [1, 1], "use_bias": false, "bias_constraint": null, "trainable": true, "padding": "valid", "kernel_size": [1, 1], "strides": [1, 1], "name": "conv4_block19_1_conv"}, "inbound_nodes": [[["conv4_block19_0_relu", 0, 0, {}]]], "name": "conv4_block19_1_conv"}, {"class_name": "BatchNormalization", "config": {"moving_mean_initializer": {"class_name": "Zeros", "config": {}}, "gamma_regularizer": null, "momentum": 0.99, "beta_constraint": null, "scale": true, "moving_variance_initializer": {"class_name": "Ones", "config": {}}, "center": true, "axis": 3, "beta_regularizer": null, "gamma_constraint": null, "beta_initializer": {"class_name": "Zeros", "config": {}}, "gamma_initializer": {"class_name": "Ones", "config": {}}, "epsilon": 1.001e-05, "trainable": true, "name": "conv4_block19_1_bn"}, "inbound_nodes": [[["conv4_block19_1_conv", 0, 0, {}]]], "name": "conv4_block19_1_bn"}, {"class_name": "Activation", "config": {"activation": "relu", "trainable": true, "name": "conv4_block19_1_relu"}, "inbound_nodes": [[["conv4_block19_1_bn", 0, 0, {}]]], "name": "conv4_block19_1_relu"}, {"class_name": "Conv2D", "config": {"activation": "linear", "filters": 32, "activity_regularizer": null, "data_format": "channels_last", "kernel_constraint": null, "kernel_initializer": {"class_name": "VarianceScaling", "config": {"seed": null, "distribution": "uniform", "scale": 1.0, "mode": "fan_avg"}}, "bias_regularizer": null, "bias_initializer": {"class_name": "Zeros", "config": {}}, "kernel_regularizer": null, "dilation_rate": [1, 1], "use_bias": false, "bias_constraint": null, "trainable": true, "padding": "same", "kernel_size": [3, 3], "strides": [1, 1], "name": "conv4_block19_2_conv"}, "inbound_nodes": [[["conv4_block19_1_relu", 0, 0, {}]]], "name": "conv4_block19_2_conv"}, {"class_name": "Concatenate", "config": {"trainable": true, "axis": 3, "name": "conv4_block19_concat"}, "inbound_nodes": [[["conv4_block18_concat", 0, 0, {}], ["conv4_block19_2_conv", 0, 0, {}]]], "name": "conv4_block19_concat"}, {"class_name": "BatchNormalization", "config": {"moving_mean_initializer": {"class_name": "Zeros", "config": {}}, "gamma_regularizer": null, "momentum": 0.99, "beta_constraint": null, "scale": true, "moving_variance_initializer": {"class_name": "Ones", "config": {}}, "center": true, "axis": 3, "beta_regularizer": null, "gamma_constraint": null, "beta_initializer": {"class_name": "Zeros", "config": {}}, "gamma_initializer": {"class_name": "Ones", "config": {}}, "epsilon": 1.001e-05, "trainable": true, "name": "conv4_block20_0_bn"}, "inbound_nodes": [[["conv4_block19_concat", 0, 0, {}]]], "name": "conv4_block20_0_bn"}, {"class_name": "Activation", "config": {"activation": "relu", "trainable": true, "name": "conv4_block20_0_relu"}, "inbound_nodes": [[["conv4_block20_0_bn", 0, 0, {}]]], "name": "conv4_block20_0_relu"}, {"class_name": "Conv2D", "config": {"activation": "linear", "filters": 128, "activity_regularizer": null, "data_format": "channels_last", "kernel_constraint": null, "kernel_initializer": {"class_name": "VarianceScaling", "config": {"seed": null, "distribution": "uniform", "scale": 1.0, "mode": "fan_avg"}}, "bias_regularizer": null, "bias_initializer": {"class_name": "Zeros", "config": {}}, "kernel_regularizer": null, "dilation_rate": [1, 1], "use_bias": false, "bias_constraint": null, "trainable": true, "padding": "valid", "kernel_size": [1, 1], "strides": [1, 1], "name": "conv4_block20_1_conv"}, "inbound_nodes": [[["conv4_block20_0_relu", 0, 0, {}]]], "name": "conv4_block20_1_conv"}, {"class_name": "BatchNormalization", "config": {"moving_mean_initializer": {"class_name": "Zeros", "config": {}}, "gamma_regularizer": null, "momentum": 0.99, "beta_constraint": null, "scale": true, "moving_variance_initializer": {"class_name": "Ones", "config": {}}, "center": true, "axis": 3, "beta_regularizer": null, "gamma_constraint": null, "beta_initializer": {"class_name": "Zeros", "config": {}}, "gamma_initializer": {"class_name": "Ones", "config": {}}, "epsilon": 1.001e-05, "trainable": true, "name": "conv4_block20_1_bn"}, "inbound_nodes": [[["conv4_block20_1_conv", 0, 0, {}]]], "name": "conv4_block20_1_bn"}, {"class_name": "Activation", "config": {"activation": "relu", "trainable": true, "name": "conv4_block20_1_relu"}, "inbound_nodes": [[["conv4_block20_1_bn", 0, 0, {}]]], "name": "conv4_block20_1_relu"}, {"class_name": "Conv2D", "config": {"activation": "linear", "filters": 32, "activity_regularizer": null, "data_format": "channels_last", "kernel_constraint": null, "kernel_initializer": {"class_name": "VarianceScaling", "config": {"seed": null, "distribution": "uniform", "scale": 1.0, "mode": "fan_avg"}}, "bias_regularizer": null, "bias_initializer": {"class_name": "Zeros", "config": {}}, "kernel_regularizer": null, "dilation_rate": [1, 1], "use_bias": false, "bias_constraint": null, "trainable": true, "padding": "same", "kernel_size": [3, 3], "strides": [1, 1], "name": "conv4_block20_2_conv"}, "inbound_nodes": [[["conv4_block20_1_relu", 0, 0, {}]]], "name": "conv4_block20_2_conv"}, {"class_name": "Concatenate", "config": {"trainable": true, "axis": 3, "name": "conv4_block20_concat"}, "inbound_nodes": [[["conv4_block19_concat", 0, 0, {}], ["conv4_block20_2_conv", 0, 0, {}]]], "name": "conv4_block20_concat"}, {"class_name": "BatchNormalization", "config": {"moving_mean_initializer": {"class_name": "Zeros", "config": {}}, "gamma_regularizer": null, "momentum": 0.99, "beta_constraint": null, "scale": true, "moving_variance_initializer": {"class_name": "Ones", "config": {}}, "center": true, "axis": 3, "beta_regularizer": null, "gamma_constraint": null, "beta_initializer": {"class_name": "Zeros", "config": {}}, "gamma_initializer": {"class_name": "Ones", "config": {}}, "epsilon": 1.001e-05, "trainable": true, "name": "conv4_block21_0_bn"}, "inbound_nodes": [[["conv4_block20_concat", 0, 0, {}]]], "name": "conv4_block21_0_bn"}, {"class_name": "Activation", "config": {"activation": "relu", "trainable": true, "name": "conv4_block21_0_relu"}, "inbound_nodes": [[["conv4_block21_0_bn", 0, 0, {}]]], "name": "conv4_block21_0_relu"}, {"class_name": "Conv2D", "config": {"activation": "linear", "filters": 128, "activity_regularizer": null, "data_format": "channels_last", "kernel_constraint": null, "kernel_initializer": {"class_name": "VarianceScaling", "config": {"seed": null, "distribution": "uniform", "scale": 1.0, "mode": "fan_avg"}}, "bias_regularizer": null, "bias_initializer": {"class_name": "Zeros", "config": {}}, "kernel_regularizer": null, "dilation_rate": [1, 1], "use_bias": false, "bias_constraint": null, "trainable": true, "padding": "valid", "kernel_size": [1, 1], "strides": [1, 1], "name": "conv4_block21_1_conv"}, "inbound_nodes": [[["conv4_block21_0_relu", 0, 0, {}]]], "name": "conv4_block21_1_conv"}, {"class_name": "BatchNormalization", "config": {"moving_mean_initializer": {"class_name": "Zeros", "config": {}}, "gamma_regularizer": null, "momentum": 0.99, "beta_constraint": null, "scale": true, "moving_variance_initializer": {"class_name": "Ones", "config": {}}, "center": true, "axis": 3, "beta_regularizer": null, "gamma_constraint": null, "beta_initializer": {"class_name": "Zeros", "config": {}}, "gamma_initializer": {"class_name": "Ones", "config": {}}, "epsilon": 1.001e-05, "trainable": true, "name": "conv4_block21_1_bn"}, "inbound_nodes": [[["conv4_block21_1_conv", 0, 0, {}]]], "name": "conv4_block21_1_bn"}, {"class_name": "Activation", "config": {"activation": "relu", "trainable": true, "name": "conv4_block21_1_relu"}, "inbound_nodes": [[["conv4_block21_1_bn", 0, 0, {}]]], "name": "conv4_block21_1_relu"}, {"class_name": "Conv2D", "config": {"activation": "linear", "filters": 32, "activity_regularizer": null, "data_format": "channels_last", "kernel_constraint": null, "kernel_initializer": {"class_name": "VarianceScaling", "config": {"seed": null, "distribution": "uniform", "scale": 1.0, "mode": "fan_avg"}}, "bias_regularizer": null, "bias_initializer": {"class_name": "Zeros", "config": {}}, "kernel_regularizer": null, "dilation_rate": [1, 1], "use_bias": false, "bias_constraint": null, "trainable": true, "padding": "same", "kernel_size": [3, 3], "strides": [1, 1], "name": "conv4_block21_2_conv"}, "inbound_nodes": [[["conv4_block21_1_relu", 0, 0, {}]]], "name": "conv4_block21_2_conv"}, {"class_name": "Concatenate", "config": {"trainable": true, "axis": 3, "name": "conv4_block21_concat"}, "inbound_nodes": [[["conv4_block20_concat", 0, 0, {}], ["conv4_block21_2_conv", 0, 0, {}]]], "name": "conv4_block21_concat"}, {"class_name": "BatchNormalization", "config": {"moving_mean_initializer": {"class_name": "Zeros", "config": {}}, "gamma_regularizer": null, "momentum": 0.99, "beta_constraint": null, "scale": true, "moving_variance_initializer": {"class_name": "Ones", "config": {}}, "center": true, "axis": 3, "beta_regularizer": null, "gamma_constraint": null, "beta_initializer": {"class_name": "Zeros", "config": {}}, "gamma_initializer": {"class_name": "Ones", "config": {}}, "epsilon": 1.001e-05, "trainable": true, "name": "conv4_block22_0_bn"}, "inbound_nodes": [[["conv4_block21_concat", 0, 0, {}]]], "name": "conv4_block22_0_bn"}, {"class_name": "Activation", "config": {"activation": "relu", "trainable": true, "name": "conv4_block22_0_relu"}, "inbound_nodes": [[["conv4_block22_0_bn", 0, 0, {}]]], "name": "conv4_block22_0_relu"}, {"class_name": "Conv2D", "config": {"activation": "linear", "filters": 128, "activity_regularizer": null, "data_format": "channels_last", "kernel_constraint": null, "kernel_initializer": {"class_name": "VarianceScaling", "config": {"seed": null, "distribution": "uniform", "scale": 1.0, "mode": "fan_avg"}}, "bias_regularizer": null, "bias_initializer": {"class_name": "Zeros", "config": {}}, "kernel_regularizer": null, "dilation_rate": [1, 1], "use_bias": false, "bias_constraint": null, "trainable": true, "padding": "valid", "kernel_size": [1, 1], "strides": [1, 1], "name": "conv4_block22_1_conv"}, "inbound_nodes": [[["conv4_block22_0_relu", 0, 0, {}]]], "name": "conv4_block22_1_conv"}, {"class_name": "BatchNormalization", "config": {"moving_mean_initializer": {"class_name": "Zeros", "config": {}}, "gamma_regularizer": null, "momentum": 0.99, "beta_constraint": null, "scale": true, "moving_variance_initializer": {"class_name": "Ones", "config": {}}, "center": true, "axis": 3, "beta_regularizer": null, "gamma_constraint": null, "beta_initializer": {"class_name": "Zeros", "config": {}}, "gamma_initializer": {"class_name": "Ones", "config": {}}, "epsilon": 1.001e-05, "trainable": true, "name": "conv4_block22_1_bn"}, "inbound_nodes": [[["conv4_block22_1_conv", 0, 0, {}]]], "name": "conv4_block22_1_bn"}, {"class_name": "Activation", "config": {"activation": "relu", "trainable": true, "name": "conv4_block22_1_relu"}, "inbound_nodes": [[["conv4_block22_1_bn", 0, 0, {}]]], "name": "conv4_block22_1_relu"}, {"class_name": "Conv2D", "config": {"activation": "linear", "filters": 32, "activity_regularizer": null, "data_format": "channels_last", "kernel_constraint": null, "kernel_initializer": {"class_name": "VarianceScaling", "config": {"seed": null, "distribution": "uniform", "scale": 1.0, "mode": "fan_avg"}}, "bias_regularizer": null, "bias_initializer": {"class_name": "Zeros", "config": {}}, "kernel_regularizer": null, "dilation_rate": [1, 1], "use_bias": false, "bias_constraint": null, "trainable": true, "padding": "same", "kernel_size": [3, 3], "strides": [1, 1], "name": "conv4_block22_2_conv"}, "inbound_nodes": [[["conv4_block22_1_relu", 0, 0, {}]]], "name": "conv4_block22_2_conv"}, {"class_name": "Concatenate", "config": {"trainable": true, "axis": 3, "name": "conv4_block22_concat"}, "inbound_nodes": [[["conv4_block21_concat", 0, 0, {}], ["conv4_block22_2_conv", 0, 0, {}]]], "name": "conv4_block22_concat"}, {"class_name": "BatchNormalization", "config": {"moving_mean_initializer": {"class_name": "Zeros", "config": {}}, "gamma_regularizer": null, "momentum": 0.99, "beta_constraint": null, "scale": true, "moving_variance_initializer": {"class_name": "Ones", "config": {}}, "center": true, "axis": 3, "beta_regularizer": null, "gamma_constraint": null, "beta_initializer": {"class_name": "Zeros", "config": {}}, "gamma_initializer": {"class_name": "Ones", "config": {}}, "epsilon": 1.001e-05, "trainable": true, "name": "conv4_block23_0_bn"}, "inbound_nodes": [[["conv4_block22_concat", 0, 0, {}]]], "name": "conv4_block23_0_bn"}, {"class_name": "Activation", "config": {"activation": "relu", "trainable": true, "name": "conv4_block23_0_relu"}, "inbound_nodes": [[["conv4_block23_0_bn", 0, 0, {}]]], "name": "conv4_block23_0_relu"}, {"class_name": "Conv2D", "config": {"activation": "linear", "filters": 128, "activity_regularizer": null, "data_format": "channels_last", "kernel_constraint": null, "kernel_initializer": {"class_name": "VarianceScaling", "config": {"seed": null, "distribution": "uniform", "scale": 1.0, "mode": "fan_avg"}}, "bias_regularizer": null, "bias_initializer": {"class_name": "Zeros", "config": {}}, "kernel_regularizer": null, "dilation_rate": [1, 1], "use_bias": false, "bias_constraint": null, "trainable": true, "padding": "valid", "kernel_size": [1, 1], "strides": [1, 1], "name": "conv4_block23_1_conv"}, "inbound_nodes": [[["conv4_block23_0_relu", 0, 0, {}]]], "name": "conv4_block23_1_conv"}, {"class_name": "BatchNormalization", "config": {"moving_mean_initializer": {"class_name": "Zeros", "config": {}}, "gamma_regularizer": null, "momentum": 0.99, "beta_constraint": null, "scale": true, "moving_variance_initializer": {"class_name": "Ones", "config": {}}, "center": true, "axis": 3, "beta_regularizer": null, "gamma_constraint": null, "beta_initializer": {"class_name": "Zeros", "config": {}}, "gamma_initializer": {"class_name": "Ones", "config": {}}, "epsilon": 1.001e-05, "trainable": true, "name": "conv4_block23_1_bn"}, "inbound_nodes": [[["conv4_block23_1_conv", 0, 0, {}]]], "name": "conv4_block23_1_bn"}, {"class_name": "Activation", "config": {"activation": "relu", "trainable": true, "name": "conv4_block23_1_relu"}, "inbound_nodes": [[["conv4_block23_1_bn", 0, 0, {}]]], "name": "conv4_block23_1_relu"}, {"class_name": "Conv2D", "config": {"activation": "linear", "filters": 32, "activity_regularizer": null, "data_format": "channels_last", "kernel_constraint": null, "kernel_initializer": {"class_name": "VarianceScaling", "config": {"seed": null, "distribution": "uniform", "scale": 1.0, "mode": "fan_avg"}}, "bias_regularizer": null, "bias_initializer": {"class_name": "Zeros", "config": {}}, "kernel_regularizer": null, "dilation_rate": [1, 1], "use_bias": false, "bias_constraint": null, "trainable": true, "padding": "same", "kernel_size": [3, 3], "strides": [1, 1], "name": "conv4_block23_2_conv"}, "inbound_nodes": [[["conv4_block23_1_relu", 0, 0, {}]]], "name": "conv4_block23_2_conv"}, {"class_name": "Concatenate", "config": {"trainable": true, "axis": 3, "name": "conv4_block23_concat"}, "inbound_nodes": [[["conv4_block22_concat", 0, 0, {}], ["conv4_block23_2_conv", 0, 0, {}]]], "name": "conv4_block23_concat"}, {"class_name": "BatchNormalization", "config": {"moving_mean_initializer": {"class_name": "Zeros", "config": {}}, "gamma_regularizer": null, "momentum": 0.99, "beta_constraint": null, "scale": true, "moving_variance_initializer": {"class_name": "Ones", "config": {}}, "center": true, "axis": 3, "beta_regularizer": null, "gamma_constraint": null, "beta_initializer": {"class_name": "Zeros", "config": {}}, "gamma_initializer": {"class_name": "Ones", "config": {}}, "epsilon": 1.001e-05, "trainable": true, "name": "conv4_block24_0_bn"}, "inbound_nodes": [[["conv4_block23_concat", 0, 0, {}]]], "name": "conv4_block24_0_bn"}, {"class_name": "Activation", "config": {"activation": "relu", "trainable": true, "name": "conv4_block24_0_relu"}, "inbound_nodes": [[["conv4_block24_0_bn", 0, 0, {}]]], "name": "conv4_block24_0_relu"}, {"class_name": "Conv2D", "config": {"activation": "linear", "filters": 128, "activity_regularizer": null, "data_format": "channels_last", "kernel_constraint": null, "kernel_initializer": {"class_name": "VarianceScaling", "config": {"seed": null, "distribution": "uniform", "scale": 1.0, "mode": "fan_avg"}}, "bias_regularizer": null, "bias_initializer": {"class_name": "Zeros", "config": {}}, "kernel_regularizer": null, "dilation_rate": [1, 1], "use_bias": false, "bias_constraint": null, "trainable": true, "padding": "valid", "kernel_size": [1, 1], "strides": [1, 1], "name": "conv4_block24_1_conv"}, "inbound_nodes": [[["conv4_block24_0_relu", 0, 0, {}]]], "name": "conv4_block24_1_conv"}, {"class_name": "BatchNormalization", "config": {"moving_mean_initializer": {"class_name": "Zeros", "config": {}}, "gamma_regularizer": null, "momentum": 0.99, "beta_constraint": null, "scale": true, "moving_variance_initializer": {"class_name": "Ones", "config": {}}, "center": true, "axis": 3, "beta_regularizer": null, "gamma_constraint": null, "beta_initializer": {"class_name": "Zeros", "config": {}}, "gamma_initializer": {"class_name": "Ones", "config": {}}, "epsilon": 1.001e-05, "trainable": true, "name": "conv4_block24_1_bn"}, "inbound_nodes": [[["conv4_block24_1_conv", 0, 0, {}]]], "name": "conv4_block24_1_bn"}, {"class_name": "Activation", "config": {"activation": "relu", "trainable": true, "name": "conv4_block24_1_relu"}, "inbound_nodes": [[["conv4_block24_1_bn", 0, 0, {}]]], "name": "conv4_block24_1_relu"}, {"class_name": "Conv2D", "config": {"activation": "linear", "filters": 32, "activity_regularizer": null, "data_format": "channels_last", "kernel_constraint": null, "kernel_initializer": {"class_name": "VarianceScaling", "config": {"seed": null, "distribution": "uniform", "scale": 1.0, "mode": "fan_avg"}}, "bias_regularizer": null, "bias_initializer": {"class_name": "Zeros", "config": {}}, "kernel_regularizer": null, "dilation_rate": [1, 1], "use_bias": false, "bias_constraint": null, "trainable": true, "padding": "same", "kernel_size": [3, 3], "strides": [1, 1], "name": "conv4_block24_2_conv"}, "inbound_nodes": [[["conv4_block24_1_relu", 0, 0, {}]]], "name": "conv4_block24_2_conv"}, {"class_name": "Concatenate", "config": {"trainable": true, "axis": 3, "name": "conv4_block24_concat"}, "inbound_nodes": [[["conv4_block23_concat", 0, 0, {}], ["conv4_block24_2_conv", 0, 0, {}]]], "name": "conv4_block24_concat"}, {"class_name": "BatchNormalization", "config": {"moving_mean_initializer": {"class_name": "Zeros", "config": {}}, "gamma_regularizer": null, "momentum": 0.99, "beta_constraint": null, "scale": true, "moving_variance_initializer": {"class_name": "Ones", "config": {}}, "center": true, "axis": 3, "beta_regularizer": null, "gamma_constraint": null, "beta_initializer": {"class_name": "Zeros", "config": {}}, "gamma_initializer": {"class_name": "Ones", "config": {}}, "epsilon": 1.001e-05, "trainable": true, "name": "pool4_bn"}, "inbound_nodes": [[["conv4_block24_concat", 0, 0, {}]]], "name": "pool4_bn"}, {"class_name": "Activation", "config": {"activation": "relu", "trainable": true, "name": "pool4_relu"}, "inbound_nodes": [[["pool4_bn", 0, 0, {}]]], "name": "pool4_relu"}, {"class_name": "Conv2D", "config": {"activation": "linear", "filters": 512, "activity_regularizer": null, "data_format": "channels_last", "kernel_constraint": null, "kernel_initializer": {"class_name": "VarianceScaling", "config": {"seed": null, "distribution": "uniform", "scale": 1.0, "mode": "fan_avg"}}, "bias_regularizer": null, "bias_initializer": {"class_name": "Zeros", "config": {}}, "kernel_regularizer": null, "dilation_rate": [1, 1], "use_bias": false, "bias_constraint": null, "trainable": true, "padding": "valid", "kernel_size": [1, 1], "strides": [1, 1], "name": "pool4_conv"}, "inbound_nodes": [[["pool4_relu", 0, 0, {}]]], "name": "pool4_conv"}, {"class_name": "AveragePooling2D", "config": {"pool_size": [2, 2], "data_format": "channels_last", "trainable": true, "padding": "valid", "strides": [2, 2], "name": "pool4_pool"}, "inbound_nodes": [[["pool4_conv", 0, 0, {}]]], "name": "pool4_pool"}, {"class_name": "BatchNormalization", "config": {"moving_mean_initializer": {"class_name": "Zeros", "config": {}}, "gamma_regularizer": null, "momentum": 0.99, "beta_constraint": null, "scale": true, "moving_variance_initializer": {"class_name": "Ones", "config": {}}, "center": true, "axis": 3, "beta_regularizer": null, "gamma_constraint": null, "beta_initializer": {"class_name": "Zeros", "config": {}}, "gamma_initializer": {"class_name": "Ones", "config": {}}, "epsilon": 1.001e-05, "trainable": true, "name": "conv5_block1_0_bn"}, "inbound_nodes": [[["pool4_pool", 0, 0, {}]]], "name": "conv5_block1_0_bn"}, {"class_name": "Activation", "config": {"activation": "relu", "trainable": true, "name": "conv5_block1_0_relu"}, "inbound_nodes": [[["conv5_block1_0_bn", 0, 0, {}]]], "name": "conv5_block1_0_relu"}, {"class_name": "Conv2D", "config": {"activation": "linear", "filters": 128, "activity_regularizer": null, "data_format": "channels_last", "kernel_constraint": null, "kernel_initializer": {"class_name": "VarianceScaling", "config": {"seed": null, "distribution": "uniform", "scale": 1.0, "mode": "fan_avg"}}, "bias_regularizer": null, "bias_initializer": {"class_name": "Zeros", "config": {}}, "kernel_regularizer": null, "dilation_rate": [1, 1], "use_bias": false, "bias_constraint": null, "trainable": true, "padding": "valid", "kernel_size": [1, 1], "strides": [1, 1], "name": "conv5_block1_1_conv"}, "inbound_nodes": [[["conv5_block1_0_relu", 0, 0, {}]]], "name": "conv5_block1_1_conv"}, {"class_name": "BatchNormalization", "config": {"moving_mean_initializer": {"class_name": "Zeros", "config": {}}, "gamma_regularizer": null, "momentum": 0.99, "beta_constraint": null, "scale": true, "moving_variance_initializer": {"class_name": "Ones", "config": {}}, "center": true, "axis": 3, "beta_regularizer": null, "gamma_constraint": null, "beta_initializer": {"class_name": "Zeros", "config": {}}, "gamma_initializer": {"class_name": "Ones", "config": {}}, "epsilon": 1.001e-05, "trainable": true, "name": "conv5_block1_1_bn"}, "inbound_nodes": [[["conv5_block1_1_conv", 0, 0, {}]]], "name": "conv5_block1_1_bn"}, {"class_name": "Activation", "config": {"activation": "relu", "trainable": true, "name": "conv5_block1_1_relu"}, "inbound_nodes": [[["conv5_block1_1_bn", 0, 0, {}]]], "name": "conv5_block1_1_relu"}, {"class_name": "Conv2D", "config": {"activation": "linear", "filters": 32, "activity_regularizer": null, "data_format": "channels_last", "kernel_constraint": null, "kernel_initializer": {"class_name": "VarianceScaling", "config": {"seed": null, "distribution": "uniform", "scale": 1.0, "mode": "fan_avg"}}, "bias_regularizer": null, "bias_initializer": {"class_name": "Zeros", "config": {}}, "kernel_regularizer": null, "dilation_rate": [1, 1], "use_bias": false, "bias_constraint": null, "trainable": true, "padding": "same", "kernel_size": [3, 3], "strides": [1, 1], "name": "conv5_block1_2_conv"}, "inbound_nodes": [[["conv5_block1_1_relu", 0, 0, {}]]], "name": "conv5_block1_2_conv"}, {"class_name": "Concatenate", "config": {"trainable": true, "axis": 3, "name": "conv5_block1_concat"}, "inbound_nodes": [[["pool4_pool", 0, 0, {}], ["conv5_block1_2_conv", 0, 0, {}]]], "name": "conv5_block1_concat"}, {"class_name": "BatchNormalization", "config": {"moving_mean_initializer": {"class_name": "Zeros", "config": {}}, "gamma_regularizer": null, "momentum": 0.99, "beta_constraint": null, "scale": true, "moving_variance_initializer": {"class_name": "Ones", "config": {}}, "center": true, "axis": 3, "beta_regularizer": null, "gamma_constraint": null, "beta_initializer": {"class_name": "Zeros", "config": {}}, "gamma_initializer": {"class_name": "Ones", "config": {}}, "epsilon": 1.001e-05, "trainable": true, "name": "conv5_block2_0_bn"}, "inbound_nodes": [[["conv5_block1_concat", 0, 0, {}]]], "name": "conv5_block2_0_bn"}, {"class_name": "Activation", "config": {"activation": "relu", "trainable": true, "name": "conv5_block2_0_relu"}, "inbound_nodes": [[["conv5_block2_0_bn", 0, 0, {}]]], "name": "conv5_block2_0_relu"}, {"class_name": "Conv2D", "config": {"activation": "linear", "filters": 128, "activity_regularizer": null, "data_format": "channels_last", "kernel_constraint": null, "kernel_initializer": {"class_name": "VarianceScaling", "config": {"seed": null, "distribution": "uniform", "scale": 1.0, "mode": "fan_avg"}}, "bias_regularizer": null, "bias_initializer": {"class_name": "Zeros", "config": {}}, "kernel_regularizer": null, "dilation_rate": [1, 1], "use_bias": false, "bias_constraint": null, "trainable": true, "padding": "valid", "kernel_size": [1, 1], "strides": [1, 1], "name": "conv5_block2_1_conv"}, "inbound_nodes": [[["conv5_block2_0_relu", 0, 0, {}]]], "name": "conv5_block2_1_conv"}, {"class_name": "BatchNormalization", "config": {"moving_mean_initializer": {"class_name": "Zeros", "config": {}}, "gamma_regularizer": null, "momentum": 0.99, "beta_constraint": null, "scale": true, "moving_variance_initializer": {"class_name": "Ones", "config": {}}, "center": true, "axis": 3, "beta_regularizer": null, "gamma_constraint": null, "beta_initializer": {"class_name": "Zeros", "config": {}}, "gamma_initializer": {"class_name": "Ones", "config": {}}, "epsilon": 1.001e-05, "trainable": true, "name": "conv5_block2_1_bn"}, "inbound_nodes": [[["conv5_block2_1_conv", 0, 0, {}]]], "name": "conv5_block2_1_bn"}, {"class_name": "Activation",…
": "fan_avg"}}, "bias_regularizer": null, "bias_initializer": {"class_name": "Zeros", "config": {}}, "kernel_regularizer": null, "dilation_rate": [1, 1], "use_bias": false, "bias_constraint": null, "trainable": true, "padding": "same", "kernel_size": [3, 3], "strides": [1, 1], "name": "conv5_block4_2_conv"}, "inbound_nodes": [[["conv5_block4_1_relu", 0, 0, {}]]], "name": "conv5_block4_2_conv"}, {"class_name": "Concatenate", "config": {"trainable": true, "axis": 3, "name": "conv5_block4_concat"}, "inbound_nodes": [[["conv5_block3_concat", 0, 0, {}], ["conv5_block4_2_conv", 0, 0, {}]]], "name": "conv5_block4_concat"}, {"class_name": "BatchNormalization", "config": {"moving_mean_initializer": {"class_name": "Zeros", "config": {}}, "gamma_regularizer": null, "momentum": 0.99, "beta_constraint": null, "scale": true, "moving_variance_initializer": {"class_name": "Ones", "config": {}}, "center": true, "axis": 3, "beta_regularizer": null, "gamma_constraint": null, "beta_initializer": {"class_name": "Zeros", "config": {}}, "gamma_initializer": {"class_name": "Ones", "config": {}}, "epsilon": 1.001e-05, "trainable": true, "name": "conv5_block5_0_bn"}, "inbound_nodes": [[["conv5_block4_concat", 0, 0, {}]]], "name": "conv5_block5_0_bn"}, {"class_name": "Activation", "config": {"activation": "relu", "trainable": true, "name": "conv5_block5_0_relu"}, "inbound_nodes": [[["conv5_block5_0_bn", 0, 0, {}]]], "name": "conv5_block5_0_relu"}, {"class_name": "Conv2D", "config": {"activation": "linear", "filters": 128, "activity_regularizer": null, "data_format": "channels_last", "kernel_constraint": null, "kernel_initializer": {"class_name": "VarianceScaling", "config": {"seed": null, "distribution": "uniform", "scale": 1.0, "mode": "fan_avg"}}, "bias_regularizer": null, "bias_initializer": {"class_name": "Zeros", "config": {}}, "kernel_regularizer": null, "dilation_rate": [1, 1], "use_bias": false, "bias_constraint": null, "trainable": true, "padding": "valid", "kernel_size": [1, 1], "strides": [1, 1], "name": "conv5_block5_1_conv"}, "inbound_nodes": [[["conv5_block5_0_relu", 0, 0, {}]]], "name": "conv5_block5_1_conv"}, {"class_name": "BatchNormalization", "config": {"moving_mean_initializer": {"class_name": "Zeros", "config": {}}, "gamma_regularizer": null, "momentum": 0.99, "beta_constraint": null, "scale": true, "moving_variance_initializer": {"class_name": "Ones", "config": {}}, "center": true, "axis": 3, "beta_regularizer": null, "gamma_constraint": null, "beta_initializer": {"class_name": "Zeros", "config": {}}, "gamma_initializer": {"class_name": "Ones", "config": {}}, "epsilon": 1.001e-05, "trainable": true, "name": "conv5_block5_1_bn"}, "inbound_nodes": [[["conv5_block5_1_conv", 0, 0, {}]]], "name": "conv5_block5_1_bn"}, {"class_name": "Activation", "config": {"activation": "relu", "trainable": true, "name": "conv5_block5_1_relu"}, "inbound_nodes": [[["conv5_block5_1_bn", 0, 0, {}]]], "name": "conv5_block5_1_relu"}, {"class_name": "Conv2D", "config": {"activation": "linear", "filters": 32, "activity_regularizer": null, "data_format": "channels_last", "kernel_constraint": null, "kernel_initializer": {"class_name": "VarianceScaling", "config": {"seed": null, "distribution": "uniform", "scale": 1.0, "mode": "fan_avg"}}, "bias_regularizer": null, "bias_initializer": {"class_name": "Zeros", "config": {}}, "kernel_regularizer": null, "dilation_rate": [1, 1], "use_bias": false, "bias_constraint": null, "trainable": true, "padding": "same", "kernel_size": [3, 3], "strides": [1, 1], "name": "conv5_block5_2_conv"}, "inbound_nodes": [[["conv5_block5_1_relu", 0, 0, {}]]], "name": "conv5_block5_2_conv"}, {"class_name": "Concatenate", "config": {"trainable": true, "axis": 3, "name": "conv5_block5_concat"}, "inbound_nodes": [[["conv5_block4_concat", 0, 0, {}], ["conv5_block5_2_conv", 0, 0, {}]]], "name": "conv5_block5_concat"}, {"class_name": "BatchNormalization", "config": {"moving_mean_initializer": {"class_name": "Zeros", "config": {}}, "gamma_regularizer": null, "momentum": 0.99, "beta_constraint": null, "scale": true, "moving_variance_initializer": {"class_name": "Ones", "config": {}}, "center": true, "axis": 3, "beta_regularizer": null, "gamma_constraint": null, "beta_initializer": {"class_name": "Zeros", "config": {}}, "gamma_initializer": {"class_name": "Ones", "config": {}}, "epsilon": 1.001e-05, "trainable": true, "name": "conv5_block6_0_bn"}, "inbound_nodes": [[["conv5_block5_concat", 0, 0, {}]]], "name": "conv5_block6_0_bn"}, {"class_name": "Activation", "config": {"activation": "relu", "trainable": true, "name": "conv5_block6_0_relu"}, "inbound_nodes": [[["conv5_block6_0_bn", 0, 0, {}]]], "name": "conv5_block6_0_relu"}, {"class_name": "Conv2D", "config": {"activation": "linear", "filters": 128, "activity_regularizer": null, "data_format": "channels_last", "kernel_constraint": null, "kernel_initializer": {"class_name": "VarianceScaling", "config": {"seed": null, "distribution": "uniform", "scale": 1.0, "mode": "fan_avg"}}, "bias_regularizer": null, "bias_initializer": {"class_name": "Zeros", "config": {}}, "kernel_regularizer": null, "dilation_rate": [1, 1], "use_bias": false, "bias_constraint": null, "trainable": true, "padding": "valid", "kernel_size": [1, 1], "strides": [1, 1], "name": "conv5_block6_1_conv"}, "inbound_nodes": [[["conv5_block6_0_relu", 0, 0, {}]]], "name": "conv5_block6_1_conv"}, {"class_name": "BatchNormalization", "config": {"moving_mean_initializer": {"class_name": "Zeros", "config": {}}, "gamma_regularizer": null, "momentum": 0.99, "beta_constraint": null, "scale": true, "moving_variance_initializer": {"class_name": "Ones", "config": {}}, "center": true, "axis": 3, "beta_regularizer": null, "gamma_constraint": null, "beta_initializer": {"class_name": "Zeros", "config": {}}, "gamma_initializer": {"class_name": "Ones", "config": {}}, "epsilon": 1.001e-05, "trainable": true, "name": "conv5_block6_1_bn"}, "inbound_nodes": [[["conv5_block6_1_conv", 0, 0, {}]]], "name": "conv5_block6_1_bn"}, {"class_name": "Activation", "config": {"activation": "relu", "trainable": true, "name": "conv5_block6_1_relu"}, "inbound_nodes": [[["conv5_block6_1_bn", 0, 0, {}]]], "name": "conv5_block6_1_relu"}, {"class_name": "Conv2D", "config": {"activation": "linear", "filters": 32, "activity_regularizer": null, "data_format": "channels_last", "kernel_constraint": null, "kernel_initializer": {"class_name": "VarianceScaling", "config": {"seed": null, "distribution": "uniform", "scale": 1.0, "mode": "fan_avg"}}, "bias_regularizer": null, "bias_initializer": {"class_name": "Zeros", "config": {}}, "kernel_regularizer": null, "dilation_rate": [1, 1], "use_bias": false, "bias_constraint": null, "trainable": true, "padding": "same", "kernel_size": [3, 3], "strides": [1, 1], "name": "conv5_block6_2_conv"}, "inbound_nodes": [[["conv5_block6_1_relu", 0, 0, {}]]], "name": "conv5_block6_2_conv"}, {"class_name": "Concatenate", "config": {"trainable": true, "axis": 3, "name": "conv5_block6_concat"}, "inbound_nodes": [[["conv5_block5_concat", 0, 0, {}], ["conv5_block6_2_conv", 0, 0, {}]]], "name": "conv5_block6_concat"}, {"class_name": "BatchNormalization", "config": {"moving_mean_initializer": {"class_name": "Zeros", "config": {}}, "gamma_regularizer": null, "momentum": 0.99, "beta_constraint": null, "scale": true, "moving_variance_initializer": {"class_name": "Ones", "config": {}}, "center": true, "axis": 3, "beta_regularizer": null, "gamma_constraint": null, "beta_initializer": {"class_name": "Zeros", "config": {}}, "gamma_initializer": {"class_name": "Ones", "config": {}}, "epsilon": 1.001e-05, "trainable": true, "name": "conv5_block7_0_bn"}, "inbound_nodes": [[["conv5_block6_concat", 0, 0, {}]]], "name": "conv5_block7_0_bn"}, {"class_name": "Activation", "config": {"activation": "relu", "trainable": true, "name": "conv5_block7_0_relu"}, "inbound_nodes": [[["conv5_block7_0_bn", 0, 0, {}]]], "name": "conv5_block7_0_relu"}, {"class_name": "Conv2D", "config": {"activation": "linear", "filters": 128, "activity_regularizer": null, "data_format": "channels_last", "kernel_constraint": null, "kernel_initializer": {"class_name": "VarianceScaling", "config": {"seed": null, "distribution": "uniform", "scale": 1.0, "mode": "fan_avg"}}, "bias_regularizer": null, "bias_initializer": {"class_name": "Zeros", "config": {}}, "kernel_regularizer": null, "dilation_rate": [1, 1], "use_bias": false, "bias_constraint": null, "trainable": true, "padding": "valid", "kernel_size": [1, 1], "strides": [1, 1], "name": "conv5_block7_1_conv"}, "inbound_nodes": [[["conv5_block7_0_relu", 0, 0, {}]]], "name": "conv5_block7_1_conv"}, {"class_name": "BatchNormalization", "config": {"moving_mean_initializer": {"class_name": "Zeros", "config": {}}, "gamma_regularizer": null, "momentum": 0.99, "beta_constraint": null, "scale": true, "moving_variance_initializer": {"class_name": "Ones", "config": {}}, "center": true, "axis": 3, "beta_regularizer": null, "gamma_constraint": null, "beta_initializer": {"class_name": "Zeros", "config": {}}, "gamma_initializer": {"class_name": "Ones", "config": {}}, "epsilon": 1.001e-05, "trainable": true, "name": "conv5_block7_1_bn"}, "inbound_nodes": [[["conv5_block7_1_conv", 0, 0, {}]]], "name": "conv5_block7_1_bn"}, {"class_name": "Activation", "config": {"activation": "relu", "trainable": true, "name": "conv5_block7_1_relu"}, "inbound_nodes": [[["conv5_block7_1_bn", 0, 0, {}]]], "name": "conv5_block7_1_relu"}, {"class_name": "Conv2D", "config": {"activation": "linear", "filters": 32, "activity_regularizer": null, "data_format": "channels_last", "kernel_constraint": null, "kernel_initializer": {"class_name": "VarianceScaling", "config": {"seed": null, "distribution": "uniform", "scale": 1.0, "mode": "fan_avg"}}, "bias_regularizer": null, "bias_initializer": {"class_name": "Zeros", "config": {}}, "kernel_regularizer": null, "dilation_rate": [1, 1], "use_bias": false, "bias_constraint": null, "trainable": true, "padding": "same", "kernel_size": [3, 3], "strides": [1, 1], "name": "conv5_block7_2_conv"}, "inbound_nodes": [[["conv5_block7_1_relu", 0, 0, {}]]], "name": "conv5_block7_2_conv"}, {"class_name": "Concatenate", "config": {"trainable": true, "axis": 3, "name": "conv5_block7_concat"}, "inbound_nodes": [[["conv5_block6_concat", 0, 0, {}], ["conv5_block7_2_conv", 0, 0, {}]]], "name": "conv5_block7_concat"}, {"class_name": "BatchNormalization", "config": {"moving_mean_initializer": {"class_name": "Zeros", "config": {}}, "gamma_regularizer": null, "momentum": 0.99, "beta_constraint": null, "scale": true, "moving_variance_initializer": {"class_name": "Ones", "config": {}}, "center": true, "axis": 3, "beta_regularizer": null, "gamma_constraint": null, "beta_initializer": {"class_name": "Zeros", "config": {}}, "gamma_initializer": {"class_name": "Ones", "config": {}}, "epsilon": 1.001e-05, "trainable": true, "name": "conv5_block8_0_bn"}, "inbound_nodes": [[["conv5_block7_concat", 0, 0, {}]]], "name": "conv5_block8_0_bn"}, {"class_name": "Activation", "config": {"activation": "relu", "trainable": true, "name": "conv5_block8_0_relu"}, "inbound_nodes": [[["conv5_block8_0_bn", 0, 0, {}]]], "name": "conv5_block8_0_relu"}, {"class_name": "Conv2D", "config": {"activation": "linear", "filters": 128, "activity_regularizer": null, "data_format": "channels_last", "kernel_constraint": null, "kernel_initializer": {"class_name": "VarianceScaling", "config": {"seed": null, "distribution": "uniform", "scale": 1.0, "mode": "fan_avg"}}, "bias_regularizer": null, "bias_initializer": {"class_name": "Zeros", "config": {}}, "kernel_regularizer": null, "dilation_rate": [1, 1], "use_bias": false, "bias_constraint": null, "trainable": true, "padding": "valid", "kernel_size": [1, 1], "strides": [1, 1], "name": "conv5_block8_1_conv"}, "inbound_nodes": [[["conv5_block8_0_relu", 0, 0, {}]]], "name": "conv5_block8_1_conv"}, {"class_name": "BatchNormalization", "config": {"moving_mean_initializer": {"class_name": "Zeros", "config": {}}, "gamma_regularizer": null, "momentum": 0.99, "beta_constraint": null, "scale": true, "moving_variance_initializer": {"class_name": "Ones", "config": {}}, "center": true, "axis": 3, "beta_regularizer": null, "gamma_constraint": null, "beta_initializer": {"class_name": "Zeros", "config": {}}, "gamma_initializer": {"class_name": "Ones", "config": {}}, "epsilon": 1.001e-05, "trainable": true, "name": "conv5_block8_1_bn"}, "inbound_nodes": [[["conv5_block8_1_conv", 0, 0, {}]]], "name": "conv5_block8_1_bn"}, {"class_name": "Activation", "config": {"activation": "relu", "trainable": true, "name": "conv5_block8_1_relu"}, "inbound_nodes": [[["conv5_block8_1_bn", 0, 0, {}]]], "name": "conv5_block8_1_relu"}, {"class_name": "Conv2D", "config": {"activation": "linear", "filters": 32, "activity_regularizer": null, "data_format": "channels_last", "kernel_constraint": null, "kernel_initializer": {"class_name": "VarianceScaling", "config": {"seed": null, "distribution": "uniform", "scale": 1.0, "mode": "fan_avg"}}, "bias_regularizer": null, "bias_initializer": {"class_name": "Zeros", "config": {}}, "kernel_regularizer": null, "dilation_rate": [1, 1], "use_bias": false, "bias_constraint": null, "trainable": true, "padding": "same", "kernel_size": [3, 3], "strides": [1, 1], "name": "conv5_block8_2_conv"}, "inbound_nodes": [[["conv5_block8_1_relu", 0, 0, {}]]], "name": "conv5_block8_2_conv"}, {"class_name": "Concatenate", "config": {"trainable": true, "axis": 3, "name": "conv5_block8_concat"}, "inbound_nodes": [[["conv5_block7_concat", 0, 0, {}], ["conv5_block8_2_conv", 0, 0, {}]]], "name": "conv5_block8_concat"}, {"class_name": "BatchNormalization", "config": {"moving_mean_initializer": {"class_name": "Zeros", "config": {}}, "gamma_regularizer": null, "momentum": 0.99, "beta_constraint": null, "scale": true, "moving_variance_initializer": {"class_name": "Ones", "config": {}}, "center": true, "axis": 3, "beta_regularizer": null, "gamma_constraint": null, "beta_initializer": {"class_name": "Zeros", "config": {}}, "gamma_initializer": {"class_name": "Ones", "config": {}}, "epsilon": 1.001e-05, "trainable": true, "name": "conv5_block9_0_bn"}, "inbound_nodes": [[["conv5_block8_concat", 0, 0, {}]]], "name": "conv5_block9_0_bn"}, {"class_name": "Activation", "config": {"activation": "relu", "trainable": true, "name": "conv5_block9_0_relu"}, "inbound_nodes": [[["conv5_block9_0_bn", 0, 0, {}]]], "name": "conv5_block9_0_relu"}, {"class_name": "Conv2D", "config": {"activation": "linear", "filters": 128, "activity_regularizer": null, "data_format": "channels_last", "kernel_constraint": null, "kernel_initializer": {"class_name": "VarianceScaling", "config": {"seed": null, "distribution": "uniform", "scale": 1.0, "mode": "fan_avg"}}, "bias_regularizer": null, "bias_initializer": {"class_name": "Zeros", "config": {}}, "kernel_regularizer": null, "dilation_rate": [1, 1], "use_bias": false, "bias_constraint": null, "trainable": true, "padding": "valid", "kernel_size": [1, 1], "strides": [1, 1], "name": "conv5_block9_1_conv"}, "inbound_nodes": [[["conv5_block9_0_relu", 0, 0, {}]]], "name": "conv5_block9_1_conv"}, {"class_name": "BatchNormalization", "config": {"moving_mean_initializer": {"class_name": "Zeros", "config": {}}, "gamma_regularizer": null, "momentum": 0.99, "beta_constraint": null, "scale": true, "moving_variance_initializer": {"class_name": "Ones", "config": {}}, "center": true, "axis": 3, "beta_regularizer": null, "gamma_constraint": null, "beta_initializer": {"class_name": "Zeros", "config": {}}, "gamma_initializer": {"class_name": "Ones", "config": {}}, "epsilon": 1.001e-05, "trainable": true, "name": "conv5_block9_1_bn"}, "inbound_nodes": [[["conv5_block9_1_conv", 0, 0, {}]]], "name": "conv5_block9_1_bn"}, {"class_name": "Activation", "config": {"activation": "relu", "trainable": true, "name": "conv5_block9_1_relu"}, "inbound_nodes": [[["conv5_block9_1_bn", 0, 0, {}]]], "name": "conv5_block9_1_relu"}, {"class_name": "Conv2D", "config": {"activation": "linear", "filters": 32, "activity_regularizer": null, "data_format": "channels_last", "kernel_constraint": null, "kernel_initializer": {"class_name": "VarianceScaling", "config": {"seed": null, "distribution": "uniform", "scale": 1.0, "mode": "fan_avg"}}, "bias_regularizer": null, "bias_initializer": {"class_name": "Zeros", "config": {}}, "kernel_regularizer": null, "dilation_rate": [1, 1], "use_bias": false, "bias_constraint": null, "trainable": true, "padding": "same", "kernel_size": [3, 3], "strides": [1, 1], "name": "conv5_block9_2_conv"}, "inbound_nodes": [[["conv5_block9_1_relu", 0, 0, {}]]], "name": "conv5_block9_2_conv"}, {"class_name": "Concatenate", "config": {"trainable": true, "axis": 3, "name": "conv5_block9_concat"}, "inbound_nodes": [[["conv5_block8_concat", 0, 0, {}], ["conv5_block9_2_conv", 0, 0, {}]]], "name": "conv5_block9_concat"}, {"class_name": "BatchNormalization", "config": {"moving_mean_initializer": {"class_name": "Zeros", "config": {}}, "gamma_regularizer": null, "momentum": 0.99, "beta_constraint": null, "scale": true, "moving_variance_initializer": {"class_name": "Ones", "config": {}}, "center": true, "axis": 3, "beta_regularizer": null, "gamma_constraint": null, "beta_initializer": {"class_name": "Zeros", "config": {}}, "gamma_initializer": {"class_name": "Ones", "config": {}}, "epsilon": 1.001e-05, "trainable": true, "name": "conv5_block10_0_bn"}, "inbound_nodes": [[["conv5_block9_concat", 0, 0, {}]]], "name": "conv5_block10_0_bn"}, {"class_name": "Activation", "config": {"activation": "relu", "trainable": true, "name": "conv5_block10_0_relu"}, "inbound_nodes": [[["conv5_block10_0_bn", 0, 0, {}]]], "name": "conv5_block10_0_relu"}, {"class_name": "Conv2D", "config": {"activation": "linear", "filters": 128, "activity_regularizer": null, "data_format": "channels_last", "kernel_constraint": null, "kernel_initializer": {"class_name": "VarianceScaling", "config": {"seed": null, "distribution": "uniform", "scale": 1.0, "mode": "fan_avg"}}, "bias_regularizer": null, "bias_initializer": {"class_name": "Zeros", "config": {}}, "kernel_regularizer": null, "dilation_rate": [1, 1], "use_bias": false, "bias_constraint": null, "trainable": true, "padding": "valid", "kernel_size": [1, 1], "strides": [1, 1], "name": "conv5_block10_1_conv"}, "inbound_nodes": [[["conv5_block10_0_relu", 0, 0, {}]]], "name": "conv5_block10_1_conv"}, {"class_name": "BatchNormalization", "config": {"moving_mean_initializer": {"class_name": "Zeros", "config": {}}, "gamma_regularizer": null, "momentum": 0.99, "beta_constraint": null, "scale": true, "moving_variance_initializer": {"class_name": "Ones", "config": {}}, "center": true, "axis": 3, "beta_regularizer": null, "gamma_constraint": null, "beta_initializer": {"class_name": "Zeros", "config": {}}, "gamma_initializer": {"class_name": "Ones", "config": {}}, "epsilon": 1.001e-05, "trainable": true, "name": "conv5_block10_1_bn"}, "inbound_nodes": [[["conv5_block10_1_conv", 0, 0, {}]]], "name": "conv5_block10_1_bn"}, {"class_name": "Activation", "config": {"activation": "relu", "trainable": true, "name": "conv5_block10_1_relu"}, "inbound_nodes": [[["conv5_block10_1_bn", 0, 0, {}]]], "name": "conv5_block10_1_relu"}, {"class_name": "Conv2D", "config": {"activation": "linear", "filters": 32, "activity_regularizer": null, "data_format": "channels_last", "kernel_constraint": null, "kernel_initializer": {"class_name": "VarianceScaling", "config": {"seed": null, "distribution": "uniform", "scale": 1.0, "mode": "fan_avg"}}, "bias_regularizer": null, "bias_initializer": {"class_name": "Zeros", "config": {}}, "kernel_regularizer": null, "dilation_rate": [1, 1], "use_bias": false, "bias_constraint": null, "trainable": true, "padding": "same", "kernel_size": [3, 3], "strides": [1, 1], "name": "conv5_block10_2_conv"}, "inbound_nodes": [[["conv5_block10_1_relu", 0, 0, {}]]], "name": "conv5_block10_2_conv"}, {"class_name": "Concatenate", "config": {"trainable": true, "axis": 3, "name": "conv5_block10_concat"}, "inbound_nodes": [[["conv5_block9_concat", 0, 0, {}], ["conv5_block10_2_conv", 0, 0, {}]]], "name": "conv5_block10_concat"}, {"class_name": "BatchNormalization", "config": {"moving_mean_initializer": {"class_name": "Zeros", "config": {}}, "gamma_regularizer": null, "momentum": 0.99, "beta_constraint": null, "scale": true, "moving_variance_initializer": {"class_name": "Ones", "config": {}}, "center": true, "axis": 3, "beta_regularizer": null, "gamma_constraint": null, "beta_initializer": {"class_name": "Zeros", "config": {}}, "gamma_initializer": {"class_name": "Ones", "config": {}}, "epsilon": 1.001e-05, "trainable": true, "name": "conv5_block11_0_bn"}, "inbound_nodes": [[["conv5_block10_concat", 0, 0, {}]]], "name": "conv5_block11_0_bn"}, {"class_name": "Activation", "config": {"activation": "relu", "trainable": true, "name": "conv5_block11_0_relu"}, "inbound_nodes": [[["conv5_block11_0_bn", 0, 0, {}]]], "name": "conv5_block11_0_relu"}, {"class_name": "Conv2D", "config": {"activation": "linear", "filters": 128, "activity_regularizer": null, "data_format": "channels_last", "kernel_constraint": null, "kernel_initializer": {"class_name": "VarianceScaling", "config": {"seed": null, "distribution": "uniform", "scale": 1.0, "mode": "fan_avg"}}, "bias_regularizer": null, "bias_initializer": {"class_name": "Zeros", "config": {}}, "kernel_regularizer": null, "dilation_rate": [1, 1], "use_bias": false, "bias_constraint": null, "trainable": true, "padding": "valid", "kernel_size": [1, 1], "strides": [1, 1], "name": "conv5_block11_1_conv"}, "inbound_nodes": [[["conv5_block11_0_relu", 0, 0, {}]]], "name": "conv5_block11_1_conv"}, {"class_name": "BatchNormalization", "config": {"moving_mean_initializer": {"class_name": "Zeros", "config": {}}, "gamma_regularizer": null, "momentum": 0.99, "beta_constraint": null, "scale": true, "moving_variance_initializer": {"class_name": "Ones", "config": {}}, "center": true, "axis": 3, "beta_regularizer": null, "gamma_constraint": null, "beta_initializer": {"class_name": "Zeros", "config": {}}, "gamma_initializer": {"class_name": "Ones", "config": {}}, "epsilon": 1.001e-05, "trainable": true, "name": "conv5_block11_1_bn"}, "inbound_nodes": [[["conv5_block11_1_conv", 0, 0, {}]]], "name": "conv5_block11_1_bn"}, {"class_name": "Activation", "config": {"activation": "relu", "trainable": true, "name": "conv5_block11_1_relu"}, "inbound_nodes": [[["conv5_block11_1_bn", 0, 0, {}]]], "name": "conv5_block11_1_relu"}, {"class_name": "Conv2D", "config": {"activation": "linear", "filters": 32, "activity_regularizer": null, "data_format": "channels_last", "kernel_constraint": null, "kernel_initializer": {"class_name": "VarianceScaling", "config": {"seed": null, "distribution": "uniform", "scale": 1.0, "mode": "fan_avg"}}, "bias_regularizer": null, "bias_initializer": {"class_name": "Zeros", "config": {}}, "kernel_regularizer": null, "dilation_rate": [1, 1], "use_bias": false, "bias_constraint": null, "trainable": true, "padding": "same", "kernel_size": [3, 3], "strides": [1, 1], "name": "conv5_block11_2_conv"}, "inbound_nodes": [[["conv5_block11_1_relu", 0, 0, {}]]], "name": "conv5_block11_2_conv"}, {"class_name": "Concatenate", "config": {"trainable": true, "axis": 3, "name": "conv5_block11_concat"}, "inbound_nodes": [[["conv5_block10_concat", 0, 0, {}], ["conv5_block11_2_conv", 0, 0, {}]]], "name": "conv5_block11_concat"}, {"class_name": "BatchNormalization", "config": {"moving_mean_initializer": {"class_name": "Zeros", "config": {}}, "gamma_regularizer": null, "momentum": 0.99, "beta_constraint": null, "scale": true, "moving_variance_initializer": {"class_name": "Ones", "config": {}}, "center": true, "axis": 3, "beta_regularizer": null, "gamma_constraint": null, "beta_initializer": {"class_name": "Zeros", "config": {}}, "gamma_initializer": {"class_name": "Ones", "config": {}}, "epsilon": 1.001e-05, "trainable": true, "name": "conv5_block12_0_bn"}, "inbound_nodes": [[["conv5_block11_concat", 0, 0, {}]]], "name": "conv5_block12_0_bn"}, {"class_name": "Activation", "config": {"activation": "relu", "trainable": true, "name": "conv5_block12_0_relu"}, "inbound_nodes": [[["conv5_block12_0_bn", 0, 0, {}]]], "name": "conv5_block12_0_relu"}, {"class_name": "Conv2D", "config": {"activation": "linear", "filters": 128, "activity_regularizer": null, "data_format": "channels_last", "kernel_constraint": null, "kernel_initializer": {"class_name": "VarianceScaling", "config": {"seed": null, "distribution": "uniform", "scale": 1.0, "mode": "fan_avg"}}, "bias_regularizer": null, "bias_initializer": {"class_name": "Zeros", "config": {}}, "kernel_regularizer": null, "dilation_rate": [1, 1], "use_bias": false, "bias_constraint": null, "trainable": true, "padding": "valid", "kernel_size": [1, 1], "strides": [1, 1], "name": "conv5_block12_1_conv"}, "inbound_nodes": [[["conv5_block12_0_relu", 0, 0, {}]]], "name": "conv5_block12_1_conv"}, {"class_name": "BatchNormalization", "config": {"moving_mean_initializer": {"class_name": "Zeros", "config": {}}, "gamma_regularizer": null, "momentum": 0.99, "beta_constraint": null, "scale": true, "moving_variance_initializer": {"class_name": "Ones", "config": {}}, "center": true, "axis": 3, "beta_regularizer": null, "gamma_constraint": null, "beta_initializer": {"class_name": "Zeros", "config": {}}, "gamma_initializer": {"class_name": "Ones", "config": {}}, "epsilon": 1.001e-05, "trainable": true, "name": "conv5_block12_1_bn"}, "inbound_nodes": [[["conv5_block12_1_conv", 0, 0, {}]]], "name": "conv5_block12_1_bn"}, {"class_name": "Activation", "config": {"activation": "relu", "trainable": true, "name": "conv5_block12_1_relu"}, "inbound_nodes": [[["conv5_block12_1_bn", 0, 0, {}]]], "name": "conv5_block12_1_relu"}, {"class_name": "Conv2D", "config": {"activation": "linear", "filters": 32, "activity_regularizer": null, "data_format": "channels_last", "kernel_constraint": null, "kernel_initializer": {"class_name": "VarianceScaling", "config": {"seed": null, "distribution": "uniform", "scale": 1.0, "mode": "fan_avg"}}, "bias_regularizer": null, "bias_initializer": {"class_name": "Zeros", "config": {}}, "kernel_regularizer": null, "dilation_rate": [1, 1], "use_bias": false, "bias_constraint": null, "trainable": true, "padding": "same", "kernel_size": [3, 3], "strides": [1, 1], "name": "conv5_block12_2_conv"}, "inbound_nodes": [[["conv5_block12_1_relu", 0, 0, {}]]], "name": "conv5_block12_2_conv"}, {"class_name": "Concatenate", "config": {"trainable": true, "axis": 3, "name": "conv5_block12_concat"}, "inbound_nodes": [[["conv5_block11_concat", 0, 0, {}], ["conv5_block12_2_conv", 0, 0, {}]]], "name": "conv5_block12_concat"}, {"class_name": "BatchNormalization", "config": {"moving_mean_initializer": {"class_name": "Zeros", "config": {}}, "gamma_regularizer": null, "momentum": 0.99, "beta_constraint": null, "scale": true, "moving_variance_initializer": {"class_name": "Ones", "config": {}}, "center": true, "axis": 3, "beta_regularizer": null, "gamma_constraint": null, "beta_initializer": {"class_name": "Zeros", "config": {}}, "gamma_initializer": {"class_name": "Ones", "config": {}}, "epsilon": 1.001e-05, "trainable": true, "name": "conv5_block13_0_bn"}, "inbound_nodes": [[["conv5_block12_concat", 0, 0, {}]]], "name": "conv5_block13_0_bn"}, {"class_name": "Activation", "config": {"activation": "relu", "trainable": true, "name": "conv5_block13_0_relu"}, "inbound_nodes": [[["conv5_block13_0_bn", 0, 0, {}]]], "name": "conv5_block13_0_relu"}, {"class_name": "Conv2D", "config": {"activation": "linear", "filters": 128, "activity_regularizer": null, "data_format": "channels_last", "kernel_constraint": null, "kernel_initializer": {"class_name": "VarianceScaling", "config": {"seed": null, "distribution": "uniform", "scale": 1.0, "mode": "fan_avg"}}, "bias_regularizer": null, "bias_initializer": {"class_name": "Zeros", "config": {}}, "kernel_regularizer": null, "dilation_rate": [1, 1], "use_bias": false, "bias_constraint": null, "trainable": true, "padding": "valid", "kernel_size": [1, 1], "strides": [1, 1], "name": "conv5_block13_1_conv"}, "inbound_nodes": [[["conv5_block13_0_relu", 0, 0, {}]]], "name": "conv5_block13_1_conv"}, {"class_name": "BatchNormalization", "config": {"moving_mean_initializer": {"class_name": "Zeros", "config": {}}, "gamma_regularizer": null, "momentum": 0.99, "beta_constraint": null, "scale": true, "moving_variance_initializer": {"class_name": "Ones", "config": {}}, "center": true, "axis": 3, "beta_regularizer": null, "gamma_constraint": null, "beta_initializer": {"class_name": "Zeros", "config": {}}, "gamma_initializer": {"class_name": "Ones", "config": {}}, "epsilon": 1.001e-05, "trainable": true, "name": "conv5_block13_1_bn"}, "inbound_nodes": [[["conv5_block13_1_conv", 0, 0, {}]]], "name": "conv5_block13_1_bn"}, {"class_name": "Activation", "config": {"activation": "relu", "trainable": true, "name": "conv5_block13_1_relu"}, "inbound_nodes": [[["conv5_block13_1_bn", 0, 0, {}]]], "name": "conv5_block13_1_relu"}, {"class_name": "Conv2D", "config": {"activation": "linear", "filters": 32, "activity_regularizer": null, "data_format": "channels_last", "kernel_constraint": null, "kernel_initializer": {"class_name": "VarianceScaling", "config": {"seed": null, "distribution": "uniform", "scale": 1.0, "mode": "fan_avg"}}, "bias_regularizer": null, "bias_initializer": {"class_name": "Zeros", "config": {}}, "kernel_regularizer": null, "dilation_rate": [1, 1], "use_bias": false, "bias_constraint": null, "trainable": true, "padding": "same", "kernel_size": [3, 3], "strides": [1, 1], "name": "conv5_block13_2_conv"}, "inbound_nodes": [[["conv5_block13_1_relu", 0, 0, {}]]], "name": "conv5_block13_2_conv"}, {"class_name": "Concatenate", "config": {"trainable": true, "axis": 3, "name": "conv5_block13_concat"}, "inbound_nodes": [[["conv5_block12_concat", 0, 0, {}], ["conv5_block13_2_conv", 0, 0, {}]]], "name": "conv5_block13_concat"}, {"class_name": "BatchNormalization", "config": {"moving_mean_initializer": {"class_name": "Zeros", "config": {}}, "gamma_regularizer": null, "momentum": 0.99, "beta_constraint": null, "scale": true, "moving_variance_initializer": {"class_name": "Ones", "config": {}}, "center": true, "axis": 3, "beta_regularizer": null, "gamma_constraint": null, "beta_initializer": {"class_name": "Zeros", "config": {}}, "gamma_initializer": {"class_name": "Ones", "config": {}}, "epsilon": 1.001e-05, "trainable": true, "name": "conv5_block14_0_bn"}, "inbound_nodes": [[["conv5_block13_concat", 0, 0, {}]]], "name": "conv5_block14_0_bn"}, {"class_name": "Activation", "config": {"activation": "relu", "trainable": true, "name": "conv5_block14_0_relu"}, "inbound_nodes": [[["conv5_block14_0_bn", 0, 0, {}]]], "name": "conv5_block14_0_relu"}, {"class_name": "Conv2D", "config": {"activation": "linear", "filters": 128, "activity_regularizer": null, "data_format": "channels_last", "kernel_constraint": null, "kernel_initializer": {"class_name": "VarianceScaling", "config": {"seed": null, "distribution": "uniform", "scale": 1.0, "mode": "fan_avg"}}, "bias_regularizer": null, "bias_initializer": {"class_name": "Zeros", "config": {}}, "kernel_regularizer": null, "dilation_rate": [1, 1], "use_bias": false, "bias_constraint": null, "trainable": true, "padding": "valid", "kernel_size": [1, 1], "strides": [1, 1], "name": "conv5_block14_1_conv"}, "inbound_nodes": [[["conv5_block14_0_relu", 0, 0, {}]]], "name": "conv5_block14_1_conv"}, {"class_name": "BatchNormalization", "config": {"moving_mean_initializer": {"class_name": "Zeros", "config": {}}, "gamma_regularizer": null, "momentum": 0.99, "beta_constraint": null, "scale": true, "moving_variance_initializer": {"class_name": "Ones", "config": {}}, "center": true, "axis": 3, "beta_regularizer": null, "gamma_constraint": null, "beta_initializer": {"class_name": "Zeros", "config": {}}, "gamma_initializer": {"class_name": "Ones", "config": {}}, "epsilon": 1.001e-05, "trainable": true, "name": "conv5_block14_1_bn"}, "inbound_nodes": [[["conv5_block14_1_conv", 0, 0, {}]]], "name": "conv5_block14_1_bn"}, {"class_name": "Activation", "config": {"activation": "relu", "trainable": true, "name": "conv5_block14_1_relu"}, "inbound_nodes": [[["conv5_block14_1_bn", 0, 0, {}]]], "name": "conv5_block14_1_relu"}, {"class_name": "Conv2D", "config": {"activation": "linear", "filters": 32, "activity_regularizer": null, "data_format": "channels_last", "kernel_constraint": null, "kernel_initializer": {"class_name": "VarianceScaling", "config": {"seed": null, "distribution": "uniform", "scale": 1.0, "mode": "fan_avg"}}, "bias_regularizer": null, "bias_initializer": {"class_name": "Zeros", "config": {}}, "kernel_regularizer": null, "dilation_rate": [1, 1], "use_bias": false, "bias_constraint": null, "trainable": true, "padding": "same", "kernel_size": [3, 3], "strides": [1, 1], "name": "conv5_block14_2_conv"}, "inbound_nodes": [[["conv5_block14_1_relu", 0, 0, {}]]], "name": "conv5_block14_2_conv"}, {"class_name": "Concatenate", "config": {"trainable": true, "axis": 3, "name": "conv5_block14_concat"}, "inbound_nodes": [[["conv5_block13_concat", 0, 0, {}], ["conv5_block14_2_conv", 0, 0, {}]]], "name": "conv5_block14_concat"}, {"class_name": "BatchNormalization", "config": {"moving_mean_initializer": {"class_name": "Zeros", "config": {}}, "gamma_regularizer": null, "momentum": 0.99, "beta_constraint": null, "scale": true, "moving_variance_initializer": {"class_name": "Ones", "config": {}}, "center": true, "axis": 3, "beta_regularizer": null, "gamma_constraint": null, "beta_initializer": {"class_name": "Zeros", "config": {}}, "gamma_initializer": {"class_name": "Ones", "config": {}}, "epsilon": 1.001e-05, "trainable": true, "name": "conv5_block15_0_bn"}, "inbound_nodes": [[["conv5_block14_concat", 0, 0, {}]]], "name": "conv5_block15_0_bn"}, {"class_name": "Activation", "config": {"activation": "relu", "trainable": true, "name": "conv5_block15_0_relu"}, "inbound_nodes": [[["conv5_block15_0_bn", 0, 0, {}]]], "name": "conv5_block15_0_relu"}, {"class_name": "Conv2D", "config": {"activation": "linear", "filters": 128, "activity_regularizer": null, "data_format": "channels_last", "kernel_constraint": null, "kernel_initializer": {"class_name": "VarianceScaling", "config": {"seed": null, "distribution": "uniform", "scale": 1.0, "mode": "fan_avg"}}, "bias_regularizer": null, "bias_initializer": {"class_name": "Zeros", "config": {}}, "kernel_regularizer": null, "dilation_rate": [1, 1], "use_bias": false, "bias_constraint": null, "trainable": true, "padding": "valid", "kernel_size": [1, 1], "strides": [1, 1], "name": "conv5_block15_1_conv"}, "inbound_nodes": [[["conv5_block15_0_relu", 0, 0, {}]]], "name": "conv5_block15_1_conv"}, {"class_name": "BatchNormalization", "config": {"moving_mean_initializer": {"class_name": "Zeros", "config": {}}, "gamma_regularizer": null, "momentum": 0.99, "beta_constraint": null, "scale": true, "moving_variance_initializer": {"class_name": "Ones", "config": {}}, "center": true, "axis": 3, "beta_regularizer": null, "gamma_constraint": null, "beta_initializer": {"class_name": "Zeros", "config": {}}, "gamma_initializer": {"class_name": "Ones", "config": {}}, "epsilon": 1.001e-05, "trainable": true, "name": "conv5_block15_1_bn"}, "inbound_nodes": [[["conv5_block15_1_conv", 0, 0, {}]]], "name": "conv5_block15_1_bn"}, {"class_name": "Activation", "config": {"activation": "relu", "trainable": true, "name": "conv5_block15_1_relu"}, "inbound_nodes": [[["conv5_block15_1_bn", 0, 0, {}]]], "name": "conv5_block15_1_relu"}, {"class_name": "Conv2D", "config": {"activation": "linear", "filters": 32, "activity_regularizer": null, "data_format": "channels_last", "kernel_constraint": null, "kernel_initializer": {"class_name": "VarianceScaling", "config": {"seed": null, "distribution": "uniform", "scale": 1.0, "mode": "fan_avg"}}, "bias_regularizer": null, "bias_initializer": {"class_name": "Zeros", "config": {}}, "kernel_regularizer": null, "dilation_rate": [1, 1], "use_bias": false, "bias_constraint": null, "trainable": true, "padding": "same", "kernel_size": [3, 3], "strides": [1, 1], "name": "conv5_block15_2_conv"}, "inbound_nodes": [[["conv5_block15_1_relu", 0, 0, {}]]], "name": "conv5_block15_2_conv"}, {"class_name": "Concatenate", "config": {"trainable": true, "axis": 3, "name": "conv5_block15_concat"}, "inbound_nodes": [[["conv5_block14_concat", 0, 0, {}], ["conv5_block15_2_conv", 0, 0, {}]]], "name": "conv5_block15_concat"}, {"class_name": "BatchNormalization", "config": {"moving_mean_initializer": {"class_name": "Zeros", "config": {}}, "gamma_regularizer": null, "momentum": 0.99, "beta_constraint": null, "scale": true, "moving_variance_initializer": {"class_name": "Ones", "config": {}}, "center": true, "axis": 3, "beta_regularizer": null, "gamma_constraint": null, "beta_initializer": {"class_name": "Zeros", "config": {}}, "gamma_initializer": {"class_name": "Ones", "config": {}}, "epsilon": 1.001e-05, "trainable": true, "name": "conv5_block16_0_bn"}, "inbound_nodes": [[["conv5_block15_concat", 0, 0, {}]]], "name": "conv5_block16_0_bn"}, {"class_name": "Activation", "config": {"activation": "relu", "trainable": true, "name": "conv5_block16_0_relu"}, "inbound_nodes": [[["conv5_block16_0_bn", 0, 0, {}]]], "name": "conv5_block16_0_relu"}, {"class_name": "Conv2D", "config": {"activation": "linear", "filters": 128, "activity_regularizer": null, "data_format": "channels_last", "kernel_constraint": null, "kernel_initializer": {"class_name": "VarianceScaling", "config": {"seed": null, "distribution": "uniform", "scale": 1.0, "mode": "fan_avg"}}, "bias_regularizer": null, "bias_initializer": {"class_name": "Zeros", "config": {}}, "kernel_regularizer": null, "dilation_rate": [1, 1], "use_bias": false, "bias_constraint": null, "trainable": true, "padding": "valid", "kernel_size": [1, 1], "strides": [1, 1], "name": "conv5_block16_1_conv"}, "inbound_nodes": [[["conv5_block16_0_relu", 0, 0, {}]]], "name": "conv5_block16_1_conv"}, {"class_name": "BatchNormalization", "config": {"moving_mean_initializer": {"class_name": "Zeros", "config": {}}, "gamma_regularizer": null, "momentum": 0.99, "beta_constraint": null, "scale": true, "moving_variance_initializer": {"class_name": "Ones", "config": {}}, "center": true, "axis": 3, "beta_regularizer": null, "gamma_constraint": null, "beta_initializer": {"class_name": "Zeros", "config": {}}, "gamma_initializer": {"class_name": "Ones", "config": {}}, "epsilon": 1.001e-05, "trainable": true, "name": "conv5_block16_1_bn"}, "inbound_nodes": [[["conv5_block16_1_conv", 0, 0, {}]]], "name": "conv5_block16_1_bn"}, {"class_name": "Activation", "config": {"activation": "relu", "trainable": true, "name": "conv5_block16_1_relu"}, "inbound_nodes": [[["conv5_block16_1_bn", 0, 0, {}]]], "name": "conv5_block16_1_relu"}, {"class_name": "Conv2D", "config": {"activation": "linear", "filters": 32, "activity_regularizer": null, "data_format": "channels_last", "kernel_constraint": null, "kernel_initializer": {"class_name": "VarianceScaling", "config": {"seed": null, "distribution": "uniform", "scale": 1.0, "mode": "fan_avg"}}, "bias_regularizer": null, "bias_initializer": {"class_name": "Zeros", "config": {}}, "kernel_regularizer": null, "dilation_rate": [1, 1], "use_bias": false, "bias_constraint": null, "trainable": true, "padding": "same", "kernel_size": [3, 3], "strides": [1, 1], "name": "conv5_block16_2_conv"}, "inbound_nodes": [[["conv5_block16_1_relu", 0, 0, {}]]], "name": "conv5_block16_2_conv"}, {"class_name": "Concatenate", "config": {"trainable": true, "axis": 3, "name": "conv5_block16_concat"}, "inbound_nodes": [[["conv5_block15_concat", 0, 0, {}], ["conv5_block16_2_conv", 0, 0, {}]]], "name": "conv5_block16_concat"}, {"class_name": "BatchNormalization", "config": {"moving_mean_initializer": {"class_name": "Zeros", "config": {}}, "gamma_regularizer": null, "momentum": 0.99, "beta_constraint": null, "scale": true, "moving_variance_initializer": {"class_name": "Ones", "config": {}}, "center": true, "axis": 3, "beta_regularizer": null, "gamma_constraint": null, "beta_initializer": {"class_name": "Zeros", "config": {}}, "gamma_initializer": {"class_name": "Ones", "config": {}}, "epsilon": 1.001e-05, "trainable": true, "name": "bn"}, "inbound_nodes": [[["conv5_block16_concat", 0, 0, {}]]], "name": "bn"}], "name": "densenet121"}, "inbound_nodes": [[["image_input", 0, 0, {}]]], "name": "densenet121"}, {"class_name": "InputLayer", "config": {"dtype": "float32", "sparse": false, "batch_input_shape": [null, 193], "name": "words_input"}, "inbound_nodes": [], "name": "words_input"}, {"class_name": "Dropout", "config": {"trainable": true, "seed": null, "rate": 0.5, "noise_shape": null, "name": "dropout_4"}, "inbound_nodes": [[["densenet121", 1, 0, {}]]], "name": "dropout_4"}, {"class_name": "Model", "config": {"input_layers": [["words_input", 0, 0]], "output_layers": [["dense_1", 0, 0]], "layers": [{"class_name": "InputLayer", "config": {"name": "words_input", "sparse": false, "batch_input_shape": [null, 193], "dtype": "float32"}, "inbound_nodes": [], "name": "words_input"}, {"class_name": "Embedding", "config": {"embeddings_constraint": null, "activity_regularizer": null, "embeddings_regularizer": null, "mask_zero": false, "dtype": "float32", "input_dim": 1942, "embeddings_initializer": {"class_name": "RandomUniform", "config": {"minval": -0.05, "maxval": 0.05, "seed": null}}, "output_dim": 300, "input_length": null, "batch_input_shape": [null, null], "trainable": true, "name": "w2v_emb_1"}, "inbound_nodes": [[["words_input", 0, 0, {}]]], "name": "w2v_emb_1"}, {"class_name": "Embedding", "config": {"embeddings_constraint": null, "activity_regularizer": null, "embeddings_regularizer": null, "mask_zero": false, "dtype": "float32", "input_dim": 1942, "embeddings_initializer": {"class_name": "RandomUniform", "config": {"minval": -0.05, "maxval": 0.05, "seed": null}}, "output_dim": 300, "input_length": null, "batch_input_shape": [null, null], "trainable": true, "name": "w2v_emb_2"}, "inbound_nodes": [[["words_input", 0, 0, {}]]], "name": "w2v_emb_2"}, {"class_name": "Embedding", "config": {"embeddings_constraint": null, "activity_regularizer": null, "embeddings_regularizer": null, "mask_zero": false, "dtype": "float32", "input_dim": 1942, "embeddings_initializer": {"class_name": "RandomUniform", "config": {"minval": -0.05, "maxval": 0.05, "seed": null}}, "output_dim": 300, "input_length": null, "batch_input_shape": [null, null], "trainable": true, "name": "w2v_emb_3"}, "inbound_nodes": [[["words_input", 0, 0, {}]]], "name": "w2v_emb_3"}, {"class_name": "Conv1D", "config": {"activation": "relu", "filters": 100, "activity_regularizer": null, "data_format": "channels_last", "kernel_constraint": null, "kernel_initializer": {"class_name": "VarianceScaling", "config": {"seed": null, "distribution": "uniform", "scale": 1.0, "mode": "fan_avg"}}, "bias_regularizer": null, "bias_initializer": {"class_name": "Zeros", "config": {}}, "kernel_regularizer": null, "dilation_rate": [1], "use_bias": true, "bias_constraint": null, "trainable": true, "padding": "valid", "kernel_size": [3], "strides": [1], "name": "conv1d_1"}, "inbound_nodes": [[["w2v_emb_1", 0, 0, {}]]], "name": "conv1d_1"}, {"class_name": "Conv1D", "config": {"activation": "relu", "filters": 100, "activity_regularizer": null, "data_format": "channels_last", "kernel_constraint": null, "kernel_initializer": {"class_name": "VarianceScaling", "config": {"seed": null, "distribution": "uniform", "scale": 1.0, "mode": "fan_avg"}}, "bias_regularizer": null, "bias_initializer": {"class_name": "Zeros", "config": {}}, "kernel_regularizer": null, "dilation_rate": [1], "use_bias": true, "bias_constraint": null, "trainable": true, "padding": "valid", "kernel_size": [3], "strides": [1], "name": "conv1d_2"}, "inbound_nodes": [[["w2v_emb_2", 0, 0, {}]]], "name": "conv1d_2"}, {"class_name": "Conv1D", "config": {"activation": "relu", "filters": 100, "activity_regularizer": null, "data_format": "channels_last", "kernel_constraint": null, "kernel_initializer": {"class_name": "VarianceScaling", "config": {"seed": null, "distribution": "uniform", "scale": 1.0, "mode": "fan_avg"}}, "bias_regularizer": null, "bias_initializer": {"class_name": "Zeros", "config": {}}, "kernel_regularizer": null, "dilation_rate": [1], "use_bias": true, "bias_constraint": null, "trainable": true, "padding": "valid", "kernel_size": [3], "strides": [1], "name": "conv1d_3"}, "inbound_nodes": [[["w2v_emb_3", 0, 0, {}]]], "name": "conv1d_3"}, {"class_name": "Dropout", "config": {"trainable": true, "seed": null, "rate": 0.2, "noise_shape": null, "name": "dropout_1"}, "inbound_nodes": [[["conv1d_1", 0, 0, {}]]], "name": "dropout_1"}, {"class_name": "Dropout", "config": {"trainable": true, "seed": null, "rate": 0.2, "noise_shape": null, "name": "dropout_2"}, "inbound_nodes": [[["conv1d_2", 0, 0, {}]]], "name": "dropout_2"}, {"class_name": "Dropout", "config": {"trainable": true, "seed": null, "rate": 0.2, "noise_shape": null, "name": "dropout_3"}, "inbound_nodes": [[["conv1d_3", 0, 0, {}]]], "name": "dropout_3"}, {"class_name": "MaxPooling1D", "config": {"trainable": true, "padding": "valid", "pool_size": [2], "strides": [2], "name": "max_pooling1d_1"}, "inbound_nodes": [[["dropout_1", 0, 0, {}]]], "name": "max_pooling1d_1"}, {"class_name": "MaxPooling1D", "config": {"trainable": true, "padding": "valid", "pool_size": [2], "strides": [2], "name": "max_pooling1d_2"}, "inbound_nodes": [[["dropout_2", 0, 0, {}]]], "name": "max_pooling1d_2"}, {"class_name": "MaxPooling1D", "config": {"trainable": true, "padding": "valid", "pool_size": [2], "strides": [2], "name": "max_pooling1d_3"}, "inbound_nodes": [[["dropout_3", 0, 0, {}]]], "name": "max_pooling1d_3"}, {"class_name": "Flatten", "config": {"trainable": true, "data_format": "channels_last", "name": "flatten_1"}, "inbound_nodes": [[["max_pooling1d_1", 0, 0, {}]]], "name": "flatten_1"}, {"class_name": "Flatten", "config": {"trainable": true, "data_format": "channels_last", "name": "flatten_2"}, "inbound_nodes": [[["max_pooling1d_2", 0, 0, {}]]], "name": "flatten_2"}, {"class_name": "Flatten", "config": {"trainable": true, "data_format": "channels_last", "name": "flatten_3"}, "inbound_nodes": [[["max_pooling1d_3", 0, 0, {}]]], "name": "flatten_3"}, {"class_name": "Concatenate", "config": {"trainable": true, "axis": -1, "name": "concatenate_1"}, "inbound_nodes": [[["flatten_1", 0, 0, {}], ["flatten_2", 0, 0, {}], ["flatten_3", 0, 0, {}]]], "name": "concatenate_1"}, {"class_name": "Dense", "config": {"units": 512, "activation": "relu", "bias_initializer": {"class_name": "Zeros", "config": {}}, "activity_regularizer": null, "kernel_constraint": null, "kernel_initializer": {"class_name": "VarianceScaling", "config": {"seed": null, "distribution": "uniform", "scale": 1.0, "mode": "fan_avg"}}, "bias_regularizer": null, "kernel_regularizer": null, "use_bias": true, "bias_constraint": null, "trainable": true, "name": "dense_1"}, "inbound_nodes": [[["concatenate_1", 0, 0, {}]]], "name": "dense_1"}], "name": "textModel"}, "inbound_nodes": [[["words_input", 0, 0, {}]]], "name": "textModel"}, {"class_name": "GlobalAveragePooling2D", "config": {"trainable": true, "name": "global_average_pooling2d_1", "data_format": "channels_last"}, "inbound_nodes": [[["dropout_4", 0, 0, {}]]], "name": "global_average_pooling2d_1"}, {"class_name": "Dropout", "config": {"trainable": true, "seed": null, "rate": 0.1, "noise_shape": null, "name": "dropout_5"}, "inbound_nodes": [[["textModel", 1, 0, {}]]], "name": "dropout_5"}, {"class_name": "Dense", "config": {"units": 512, "activation": "relu", "bias_initializer": {"class_name": "Zeros", "config": {}}, "activity_regularizer": null, "kernel_constraint": null, "kernel_initializer": {"class_name": "VarianceScaling", "config": {"distribution": "uniform", "seed": null, "scale": 1.0, "mode": "fan_avg"}}, "bias_regularizer": null, "kernel_regularizer": null, "use_bias": true, "bias_constraint": null, "trainable": true, "name": "dense_2"}, "inbound_nodes": [[["global_average_pooling2d_1", 0, 0, {}]]], "name": "dense_2"}, {"class_name": "Dense", "config": {"units": 512, "activation": "relu", "bias_initializer": {"class_name": "Zeros", "config": {}}, "activity_regularizer": null, "kernel_constraint": null, "kernel_initializer": {"class_name": "VarianceScaling", "config": {"distribution": "uniform", "seed": null, "scale": 1.0, "mode": "fan_avg"}}, "bias_regularizer": null, "kernel_regularizer": null, "use_bias": true, "bias_constraint": null, "trainable": true, "name": "dense_3"}, "inbound_nodes": [[["dropout_5", 0, 0, {}]]], "name": "dense_3"}, {"class_name": "Concatenate", "config": {"trainable": true, "axis": -1, "name": "concatenate_2"}, "inbound_nodes": [[["dense_2", 0, 0, {}], ["dense_3", 0, 0, {}]]], "name": "concatenate_2"}, {"class_name": "Dense", "config": {"units": 512, "activation": "relu", "bias_initializer": {"class_name": "Zeros", "config": {}}, "activity_regularizer": null, "kernel_constraint": null, "kernel_initializer": {"class_name": "VarianceScaling", "config": {"distribution": "uniform", "seed": null, "scale": 1.0, "mode": "fan_avg"}}, "bias_regularizer": null, "kernel_regularizer": null, "use_bias": true, "bias_constraint": null, "trainable": true, "name": "dense_4"}, "inbound_nodes": [[["concatenate_2", 0, 0, {}]]], "name": "dense_4"}, {"class_name": "Dense", "config": {"units": 1942, "activation": "softmax", "bias_initializer": {"class_name": "Zeros", "config": {}}, "activity_regularizer": null, "kernel_constraint": null, "kernel_initializer": {"class_name": "VarianceScaling", "config": {"distribution": "uniform", "seed": null, "scale": 1.0, "mode": "fan_avg"}}, "bias_regularizer": null, "kernel_regularizer": null, "use_bias": true, "bias_constraint": null, "trainable": true, "name": "target_word"}, "inbound_nodes": [[["dense_4", 0, 0, {}]]], "name": "target_word"}], "name": "model_1"}, "keras_version": "2.2.2"}