{"class_name": "Model", "config": {"name": "imgModel", "layers": [{"name": "image_input", "class_name": "InputLayer", "config": {"batch_input_shape": [null, 256, 256, 3], "dtype": "float32", "sparse": false, "name": "image_input"}, "inbound_nodes": []}, {"name": "block1_conv1", "class_name": "Conv2D", "config": {"name": "block1_conv1", "trainable": true, "dtype": "float32", "filters": 64, "kernel_size": [3, 3], "strides": [1, 1], "padding": "same", "data_format": "channels_last", "dilation_rate": [1, 1], "activation": "linear", "use_bias": true, "kernel_initializer": {"class_name": "VarianceScaling", "config": {"scale": 1.0, "mode": "fan_avg", "distribution": "uniform", "seed": null}}, "bias_initializer": {"class_name": "Zeros", "config": {}}, "kernel_regularizer": null, "bias_regularizer": null, "activity_regularizer": null, "kernel_constraint": null, "bias_constraint": null}, "inbound_nodes": [[["image_input", 0, 0, {}]]]}, {"name": "activation_1", "class_name": "Activation", "config": {"name": "activation_1", "trainable": true, "dtype": "float32", "activation": "relu"}, "inbound_nodes": [[["block1_conv1", 0, 0, {}]]]}, {"name": "block1_conv2", "class_name": "Conv2D", "config": {"name": "block1_conv2", "trainable": true, "dtype": "float32", "filters": 64, "kernel_size": [3, 3], "strides": [1, 1], "padding": "same", "data_format": "channels_last", "dilation_rate": [1, 1], "activation": "linear", "use_bias": true, "kernel_initializer": {"class_name": "VarianceScaling", "config": {"scale": 1.0, "mode": "fan_avg", "distribution": "uniform", "seed": null}}, "bias_initializer": {"class_name": "Zeros", "config": {}}, "kernel_regularizer": null, "bias_regularizer": null, "activity_regularizer": null, "kernel_constraint": null, "bias_constraint": null}, "inbound_nodes": [[["activation_1", 0, 0, {}]]]}, {"name": "activation_2", "class_name": "Activation", "config": {"name": "activation_2", "trainable": true, "dtype": "float32", "activation": "relu"}, "inbound_nodes": [[["block1_conv2", 0, 0, {}]]]}, {"name": "block1_reduction_pool", "class_name": "MaxPooling2D", "config": {"name": "block1_reduction_pool", "trainable": true, "dtype": "float32", "pool_size": [2, 2], "padding": "same", "strides": [2, 2], "data_format": "channels_last"}, "inbound_nodes": [[["activation_2", 0, 0, {}]]]}, {"name": "activation_3", "class_name": "Activation", "config": {"name": "activation_3", "trainable": true, "dtype": "float32", "activation": "relu"}, "inbound_nodes": [[["block1_reduction_pool", 0, 0, {}]]]}, {"name": "batch_normalization_1", "class_name": "BatchNormalization", "config": {"name": "batch_normalization_1", "trainable": true, "dtype": "float32", "axis": -1, "momentum": 0.99, "epsilon": 0.001, "center": true, "scale": true, "beta_initializer": {"class_name": "Zeros", "config": {}}, "gamma_initializer": {"class_name": "Ones", "config": {}}, "moving_mean_initializer": {"class_name": "Zeros", "config": {}}, "moving_variance_initializer": {"class_name": "Ones", "config": {}}, "beta_regularizer": null, "gamma_regularizer": null, "beta_constraint": null, "gamma_constraint": null}, "inbound_nodes": [[["activation_3", 0, 0, {}]]]}, {"name": "block2_conv1", "class_name": "Conv2D", "config": {"name": "block2_conv1", "trainable": true, "dtype": "float32", "filters": 128, "kernel_size": [3, 3], "strides": [1, 1], "padding": "same", "data_format": "channels_last", "dilation_rate": [1, 1], "activation": "linear", "use_bias": true, "kernel_initializer": {"class_name": "VarianceScaling", "config": {"scale": 1.0, "mode": "fan_avg", "distribution": "uniform", "seed": null}}, "bias_initializer": {"class_name": "Zeros", "config": {}}, "kernel_regularizer": null, "bias_regularizer": null, "activity_regularizer": null, "kernel_constraint": null, "bias_constraint": null}, "inbound_nodes": [[["batch_normalization_1", 0, 0, {}]]]}, {"name": "activation_4", "class_name": "Activation", "config": {"name": "activation_4", "trainable": true, "dtype": "float32", "activation": "relu"}, "inbound_nodes": [[["block2_conv1", 0, 0, {}]]]}, {"name": "block2_conv2", "class_name": "Conv2D", "config": {"name": "block2_conv2", "trainable": true, "dtype": "float32", "filters": 128, "kernel_size": [3, 3], "strides": [1, 1], "padding": "same", "data_format": "channels_last", "dilation_rate": [1, 1], "activation": "linear", "use_bias": true, "kernel_initializer": {"class_name": "VarianceScaling", "config": {"scale": 1.0, "mode": "fan_avg", "distribution": "uniform", "seed": null}}, "bias_initializer": {"class_name": "Zeros", "config": {}}, "kernel_regularizer": null, "bias_regularizer": null, "activity_regularizer": null, "kernel_constraint": null, "bias_constraint": null}, "inbound_nodes": [[["activation_4", 0, 0, {}]]]}, {"name": "activation_5", "class_name": "Activation", "config": {"name": "activation_5", "trainable": true, "dtype": "float32", "activation": "relu"}, "inbound_nodes": [[["block2_conv2", 0, 0, {}]]]}, {"name": "block2_reduction_pool", "class_name": "MaxPooling2D", "config": {"name": "block2_reduction_pool", "trainable": true, "dtype": "float32", "pool_size": [2, 2], "padding": "same", "strides": [2, 2], "data_format": "channels_last"}, "inbound_nodes": [[["activation_5", 0, 0, {}]]]}, {"name": "activation_6", "class_name": "Activation", "config": {"name": "activation_6", "trainable": true, "dtype": "float32", "activation": "relu"}, "inbound_nodes": [[["block2_reduction_pool", 0, 0, {}]]]}, {"name": "batch_normalization_2", "class_name": "BatchNormalization", "config": {"name": "batch_normalization_2", "trainable": true, "dtype": "float32", "axis": -1, "momentum": 0.99, "epsilon": 0.001, "center": true, "scale": true, "beta_initializer": {"class_name": "Zeros", "config": {}}, "gamma_initializer": {"class_name": "Ones", "config": {}}, "moving_mean_initializer": {"class_name": "Zeros", "config": {}}, "moving_variance_initializer": {"class_name": "Ones", "config": {}}, "beta_regularizer": null, "gamma_regularizer": null, "beta_constraint": null, "gamma_constraint": null}, "inbound_nodes": [[["activation_6", 0, 0, {}]]]}, {"name": "block3_conv1", "class_name": "Conv2D", "config": {"name": "block3_conv1", "trainable": true, "dtype": "float32", "filters": 256, "kernel_size": [3, 3], "strides": [1, 1], "padding": "same", "data_format": "channels_last", "dilation_rate": [1, 1], "activation": "linear", "use_bias": true, "kernel_initializer": {"class_name": "VarianceScaling", "config": {"scale": 1.0, "mode": "fan_avg", "distribution": "uniform", "seed": null}}, "bias_initializer": {"class_name": "Zeros", "config": {}}, "kernel_regularizer": null, "bias_regularizer": null, "activity_regularizer": null, "kernel_constraint": null, "bias_constraint": null}, "inbound_nodes": [[["batch_normalization_2", 0, 0, {}]]]}, {"name": "activation_7", "class_name": "Activation", "config": {"name": "activation_7", "trainable": true, "dtype": "float32", "activation": "relu"}, "inbound_nodes": [[["block3_conv1", 0, 0, {}]]]}, {"name": "block3_conv2", "class_name": "Conv2D", "config": {"name": "block3_conv2", "trainable": true, "dtype": "float32", "filters": 256, "kernel_size": [3, 3], "strides": [1, 1], "padding": "same", "data_format": "channels_last", "dilation_rate": [1, 1], "activation": "linear", "use_bias": true, "kernel_initializer": {"class_name": "VarianceScaling", "config": {"scale": 1.0, "mode": "fan_avg", "distribution": "uniform", "seed": null}}, "bias_initializer": {"class_name": "Zeros", "config": {}}, "kernel_regularizer": null, "bias_regularizer": null, "activity_regularizer": null, "kernel_constraint": null, "bias_constraint": null}, "inbound_nodes": [[["activation_7", 0, 0, {}]]]}, {"name": "activation_8", "class_name": "Activation", "config": {"name": "activation_8", "trainable": true, "dtype": "float32", "activation": "relu"}, "inbound_nodes": [[["block3_conv2", 0, 0, {}]]]}, {"name": "block3_conv3", "class_name": "Conv2D", "config": {"name": "block3_conv3", "trainable": true, "dtype": "float32", "filters": 256, "kernel_size": [3, 3], "strides": [1, 1], "padding": "same", "data_format": "channels_last", "dilation_rate": [1, 1], "activation": "linear", "use_bias": true, "kernel_initializer": {"class_name": "VarianceScaling", "config": {"scale": 1.0, "mode": "fan_avg", "distribution": "uniform", "seed": null}}, "bias_initializer": {"class_name": "Zeros", "config": {}}, "kernel_regularizer": null, "bias_regularizer": null, "activity_regularizer": null, "kernel_constraint": null, "bias_constraint": null}, "inbound_nodes": [[["activation_8", 0, 0, {}]]]}, {"name": "activation_9", "class_name": "Activation", "config": {"name": "activation_9", "trainable": true, "dtype": "float32", "activation": "relu"}, "inbound_nodes": [[["block3_conv3", 0, 0, {}]]]}, {"name": "block3_reduction_pool", "class_name": "MaxPooling2D", "config": {"name": "block3_reduction_pool", "trainable": true, "dtype": "float32", "pool_size": [2, 2], "padding": "same", "strides": [2, 2], "data_format": "channels_last"}, "inbound_nodes": [[["activation_9", 0, 0, {}]]]}, {"name": "activation_10", "class_name": "Activation", "config": {"name": "activation_10", "trainable": true, "dtype": "float32", "activation": "relu"}, "inbound_nodes": [[["block3_reduction_pool", 0, 0, {}]]]}, {"name": "batch_normalization_3", "class_name": "BatchNormalization", "config": {"name": "batch_normalization_3", "trainable": true, "dtype": "float32", "axis": -1, "momentum": 0.99, "epsilon": 0.001, "center": true, "scale": true, "beta_initializer": {"class_name": "Zeros", "config": {}}, "gamma_initializer": {"class_name": "Ones", "config": {}}, "moving_mean_initializer": {"class_name": "Zeros", "config": {}}, "moving_variance_initializer": {"class_name": "Ones", "config": {}}, "beta_regularizer": null, "gamma_regularizer": null, "beta_constraint": null, "gamma_constraint": null}, "inbound_nodes": [[["activation_10", 0, 0, {}]]]}, {"name": "block4_conv1", "class_name": "Conv2D", "config": {"name": "block4_conv1", "trainable": true, "dtype": "float32", "filters": 512, "kernel_size": [3, 3], "strides": [1, 1], "padding": "same", "data_format": "channels_last", "dilation_rate": [1, 1], "activation": "linear", "use_bias": true, "kernel_initializer": {"class_name": "VarianceScaling", "config": {"scale": 1.0, "mode": "fan_avg", "distribution": "uniform", "seed": null}}, "bias_initializer": {"class_name": "Zeros", "config": {}}, "kernel_regularizer": null, "bias_regularizer": null, "activity_regularizer": null, "kernel_constraint": null, "bias_constraint": null}, "inbound_nodes": [[["batch_normalization_3", 0, 0, {}]]]}, {"name": "activation_11", "class_name": "Activation", "config": {"name": "activation_11", "trainable": true, "dtype": "float32", "activation": "relu"}, "inbound_nodes": [[["block4_conv1", 0, 0, {}]]]}, {"name": "block4_conv2", "class_name": "Conv2D", "config": {"name": "block4_conv2", "trainable": true, "dtype": "float32", "filters": 512, "kernel_size": [3, 3], "strides": [1, 1], "padding": "same", "data_format": "channels_last", "dilation_rate": [1, 1], "activation": "linear", "use_bias": true, "kernel_initializer": {"class_name": "VarianceScaling", "config": {"scale": 1.0, "mode": "fan_avg", "distribution": "uniform", "seed": null}}, "bias_initializer": {"class_name": "Zeros", "config": {}}, "kernel_regularizer": null, "bias_regularizer": null, "activity_regularizer": null, "kernel_constraint": null, "bias_constraint": null}, "inbound_nodes": [[["activation_11", 0, 0, {}]]]}, {"name": "activation_12", "class_name": "Activation", "config": {"name": "activation_12", "trainable": true, "dtype": "float32", "activation": "relu"}, "inbound_nodes": [[["block4_conv2", 0, 0, {}]]]}, {"name": "block4_conv3", "class_name": "Conv2D", "config": {"name": "block4_conv3", "trainable": true, "dtype": "float32", "filters": 512, "kernel_size": [3, 3], "strides": [1, 1], "padding": "same", "data_format": "channels_last", "dilation_rate": [1, 1], "activation": "linear", "use_bias": true, "kernel_initializer": {"class_name": "VarianceScaling", "config": {"scale": 1.0, "mode": "fan_avg", "distribution": "uniform", "seed": null}}, "bias_initializer": {"class_name": "Zeros", "config": {}}, "kernel_regularizer": null, "bias_regularizer": null, "activity_regularizer": null, "kernel_constraint": null, "bias_constraint": null}, "inbound_nodes": [[["activation_12", 0, 0, {}]]]}, {"name": "activation_13", "class_name": "Activation", "config": {"name": "activation_13", "trainable": true, "dtype": "float32", "activation": "relu"}, "inbound_nodes": [[["block4_conv3", 0, 0, {}]]]}, {"name": "block4_reduction_pool", "class_name": "MaxPooling2D", "config": {"name": "block4_reduction_pool", "trainable": true, "dtype": "float32", "pool_size": [2, 2], "padding": "same", "strides": [2, 2], "data_format": "channels_last"}, "inbound_nodes": [[["activation_13", 0, 0, {}]]]}, {"name": "activation_14", "class_name": "Activation", "config": {"name": "activation_14", "trainable": true, "dtype": "float32", "activation": "relu"}, "inbound_nodes": [[["block4_reduction_pool", 0, 0, {}]]]}, {"name": "batch_normalization_4", "class_name": "BatchNormalization", "config": {"name": "batch_normalization_4", "trainable": true, "dtype": "float32", "axis": -1, "momentum": 0.99, "epsilon": 0.001, "center": true, "scale": true, "beta_initializer": {"class_name": "Zeros", "config": {}}, "gamma_initializer": {"class_name": "Ones", "config": {}}, "moving_mean_initializer": {"class_name": "Zeros", "config": {}}, "moving_variance_initializer": {"class_name": "Ones", "config": {}}, "beta_regularizer": null, "gamma_regularizer": null, "beta_constraint": null, "gamma_constraint": null}, "inbound_nodes": [[["activation_14", 0, 0, {}]]]}, {"name": "block5_conv1", "class_name": "Conv2D", "config": {"name": "block5_conv1", "trainable": true, "dtype": "float32", "filters": 512, "kernel_size": [3, 3], "strides": [1, 1], "padding": "same", "data_format": "channels_last", "dilation_rate": [1, 1], "activation": "linear", "use_bias": true, "kernel_initializer": {"class_name": "VarianceScaling", "config": {"scale": 1.0, "mode": "fan_avg", "distribution": "uniform", "seed": null}}, "bias_initializer": {"class_name": "Zeros", "config": {}}, "kernel_regularizer": null, "bias_regularizer": null, "activity_regularizer": null, "kernel_constraint": null, "bias_constraint": null}, "inbound_nodes": [[["batch_normalization_4", 0, 0, {}]]]}, {"name": "activation_15", "class_name": "Activation", "config": {"name": "activation_15", "trainable": true, "dtype": "float32", "activation": "relu"}, "inbound_nodes": [[["block5_conv1", 0, 0, {}]]]}, {"name": "block5_conv2", "class_name": "Conv2D", "config": {"name": "block5_conv2", "trainable": true, "dtype": "float32", "filters": 512, "kernel_size": [3, 3], "strides": [1, 1], "padding": "same", "data_format": "channels_last", "dilation_rate": [1, 1], "activation": "linear", "use_bias": true, "kernel_initializer": {"class_name": "VarianceScaling", "config": {"scale": 1.0, "mode": "fan_avg", "distribution": "uniform", "seed": null}}, "bias_initializer": {"class_name": "Zeros", "config": {}}, "kernel_regularizer": null, "bias_regularizer": null, "activity_regularizer": null, "kernel_constraint": null, "bias_constraint": null}, "inbound_nodes": [[["activation_15", 0, 0, {}]]]}, {"name": "activation_16", "class_name": "Activation", "config": {"name": "activation_16", "trainable": true, "dtype": "float32", "activation": "relu"}, "inbound_nodes": [[["block5_conv2", 0, 0, {}]]]}, {"name": "block5_conv3", "class_name": "Conv2D", "config": {"name": "block5_conv3", "trainable": true, "dtype": "float32", "filters": 512, "kernel_size": [3, 3], "strides": [1, 1], "padding": "same", "data_format": "channels_last", "dilation_rate": [1, 1], "activation": "linear", "use_bias": true, "kernel_initializer": {"class_name": "VarianceScaling", "config": {"scale": 1.0, "mode": "fan_avg", "distribution": "uniform", "seed": null}}, "bias_initializer": {"class_name": "Zeros", "config": {}}, "kernel_regularizer": null, "bias_regularizer": null, "activity_regularizer": null, "kernel_constraint": null, "bias_constraint": null}, "inbound_nodes": [[["activation_16", 0, 0, {}]]]}, {"name": "activation_17", "class_name": "Activation", "config": {"name": "activation_17", "trainable": true, "dtype": "float32", "activation": "relu"}, "inbound_nodes": [[["block5_conv3", 0, 0, {}]]]}, {"name": "block5_reduction_pool", "class_name": "MaxPooling2D", "config": {"name": "block5_reduction_pool", "trainable": true, "dtype": "float32", "pool_size": [2, 2], "padding": "same", "strides": [2, 2], "data_format": "channels_last"}, "inbound_nodes": [[["activation_17", 0, 0, {}]]]}, {"name": "image_output_features", "class_name": "Activation", "config": {"name": "image_output_features", "trainable": true, "dtype": "float32", "activation": "relu"}, "inbound_nodes": [[["block5_reduction_pool", 0, 0, {}]]]}, {"name": "global_average_pooling2d_1", "class_name": "GlobalAveragePooling2D", "config": {"name": "global_average_pooling2d_1", "trainable": true, "dtype": "float32", "data_format": "channels_last"}, "inbound_nodes": [[["image_output_features", 0, 0, {}]]]}, {"name": "lambda_1", "class_name": "Lambda", "config": {"name": "lambda_1", "trainable": true, "dtype": "float32", "function": ["4wEAAAAAAAAAAQAAAAMAAAATAAAAcxAAAAB0AGoBiABkAY0BfACDAVMAKQJOKQHaDHRhcmdldF9z\naGFwZSkC2gJrbNoHUmVzaGFwZSkB2gF4KQHaCHJlc2hhcGVkqQD6HzxpcHl0aG9uLWlucHV0LTIz\nLTExYjkzYWVmOTQ1OD7aCDxsYW1iZGE+OQAAAPMAAAAA\n", null, [[64, 512]]], "function_type": "lambda", "output_shape": null, "output_shape_type": "raw", "arguments": {}}, "inbound_nodes": [[["image_output_features", 0, 0, {}]]]}, {"name": "a10", "class_name": "Attention", "config": {"name": "a10", "trainable": true, "dtype": "float32"}, "inbound_nodes": [[["global_average_pooling2d_1", 0, 0, {}], ["lambda_1", 0, 0, {}]]]}, {"name": "a11", "class_name": "Attention", "config": {"name": "a11", "trainable": true, "dtype": "float32"}, "inbound_nodes": [[["global_average_pooling2d_1", 0, 0, {}], ["lambda_1", 0, 0, {}]]]}, {"name": "a12", "class_name": "Attention", "config": {"name": "a12", "trainable": true, "dtype": "float32"}, "inbound_nodes": [[["global_average_pooling2d_1", 0, 0, {}], ["lambda_1", 0, 0, {}]]]}, {"name": "a13", "class_name": "Attention", "config": {"name": "a13", "trainable": true, "dtype": "float32"}, "inbound_nodes": [[["global_average_pooling2d_1", 0, 0, {}], ["lambda_1", 0, 0, {}]]]}, {"name": "a14", "class_name": "Attention", "config": {"name": "a14", "trainable": true, "dtype": "float32"}, "inbound_nodes": [[["global_average_pooling2d_1", 0, 0, {}], ["lambda_1", 0, 0, {}]]]}, {"name": "a15", "class_name": "Attention", "config": {"name": "a15", "trainable": true, "dtype": "float32"}, "inbound_nodes": [[["global_average_pooling2d_1", 0, 0, {}], ["lambda_1", 0, 0, {}]]]}, {"name": "a16", "class_name": "Attention", "config": {"name": "a16", "trainable": true, "dtype": "float32"}, "inbound_nodes": [[["global_average_pooling2d_1", 0, 0, {}], ["lambda_1", 0, 0, {}]]]}, {"name": "a17", "class_name": "Attention", "config": {"name": "a17", "trainable": true, "dtype": "float32"}, "inbound_nodes": [[["global_average_pooling2d_1", 0, 0, {}], ["lambda_1", 0, 0, {}]]]}, {"name": "batch_normalization_5", "class_name": "BatchNormalization", "config": {"name": "batch_normalization_5", "trainable": true, "dtype": "float32", "axis": -1, "momentum": 0.99, "epsilon": 0.001, "center": true, "scale": true, "beta_initializer": {"class_name": "Zeros", "config": {}}, "gamma_initializer": {"class_name": "Ones", "config": {}}, "moving_mean_initializer": {"class_name": "Zeros", "config": {}}, "moving_variance_initializer": {"class_name": "Ones", "config": {}}, "beta_regularizer": null, "gamma_regularizer": null, "beta_constraint": null, "gamma_constraint": null}, "inbound_nodes": [[["a10", 0, 0, {}]]]}, {"name": "batch_normalization_6", "class_name": "BatchNormalization", "config": {"name": "batch_normalization_6", "trainable": true, "dtype": "float32", "axis": -1, "momentum": 0.99, "epsilon": 0.001, "center": true, "scale": true, "beta_initializer": {"class_name": "Zeros", "config": {}}, "gamma_initializer": {"class_name": "Ones", "config": {}}, "moving_mean_initializer": {"class_name": "Zeros", "config": {}}, "moving_variance_initializer": {"class_name": "Ones", "config": {}}, "beta_regularizer": null, "gamma_regularizer": null, "beta_constraint": null, "gamma_constraint": null}, "inbound_nodes": [[["a11", 0, 0, {}]]]}, {"name": "batch_normalization_7", "class_name": "BatchNormalization", "config": {"name": "batch_normalization_7", "trainable": true, "dtype": "float32", "axis": -1, "momentum": 0.99, "epsilon": 0.001, "center": true, "scale": true, "beta_initializer": {"class_name": "Zeros", "config": {}}, "gamma_initializer": {"class_name": "Ones", "config": {}}, "moving_mean_initializer": {"class_name": "Zeros", "config": {}}, "moving_variance_initializer": {"class_name": "Ones", "config": {}}, "beta_regularizer": null, "gamma_regularizer": null, "beta_constraint": null, "gamma_constraint": null}, "inbound_nodes": [[["a12", 0, 0, {}]]]}, {"name": "batch_normalization_8", "class_name": "BatchNormalization", "config": {"name": "batch_normalization_8", "trainable": true, "dtype": "float32", "axis": -1, "momentum": 0.99, "epsilon": 0.001, "center": true, "scale": true, "beta_initializer": {"class_name": "Zeros", "config": {}}, "gamma_initializer": {"class_name": "Ones", "config": {}}, "moving_mean_initializer": {"class_name": "Zeros", "config": {}}, "moving_variance_initializer": {"class_name": "Ones", "config": {}}, "beta_regularizer": null, "gamma_regularizer": null, "beta_constraint": null, "gamma_constraint": null}, "inbound_nodes": [[["a13", 0, 0, {}]]]}, {"name": "batch_normalization_9", "class_name": "BatchNormalization", "config": {"name": "batch_normalization_9", "trainable": true, "dtype": "float32", "axis": -1, "momentum": 0.99, "epsilon": 0.001, "center": true, "scale": true, "beta_initializer": {"class_name": "Zeros", "config": {}}, "gamma_initializer": {"class_name": "Ones", "config": {}}, "moving_mean_initializer": {"class_name": "Zeros", "config": {}}, "moving_variance_initializer": {"class_name": "Ones", "config": {}}, "beta_regularizer": null, "gamma_regularizer": null, "beta_constraint": null, "gamma_constraint": null}, "inbound_nodes": [[["a14", 0, 0, {}]]]}, {"name": "batch_normalization_10", "class_name": "BatchNormalization", "config": {"name": "batch_normalization_10", "trainable": true, "dtype": "float32", "axis": -1, "momentum": 0.99, "epsilon": 0.001, "center": true, "scale": true, "beta_initializer": {"class_name": "Zeros", "config": {}}, "gamma_initializer": {"class_name": "Ones", "config": {}}, "moving_mean_initializer": {"class_name": "Zeros", "config": {}}, "moving_variance_initializer": {"class_name": "Ones", "config": {}}, "beta_regularizer": null, "gamma_regularizer": null, "beta_constraint": null, "gamma_constraint": null}, "inbound_nodes": [[["a15", 0, 0, {}]]]}, {"name": "batch_normalization_11", "class_name": "BatchNormalization", "config": {"name": "batch_normalization_11", "trainable": true, "dtype": "float32", "axis": -1, "momentum": 0.99, "epsilon": 0.001, "center": true, "scale": true, "beta_initializer": {"class_name": "Zeros", "config": {}}, "gamma_initializer": {"class_name": "Ones", "config": {}}, "moving_mean_initializer": {"class_name": "Zeros", "config": {}}, "moving_variance_initializer": {"class_name": "Ones", "config": {}}, "beta_regularizer": null, "gamma_regularizer": null, "beta_constraint": null, "gamma_constraint": null}, "inbound_nodes": [[["a16", 0, 0, {}]]]}, {"name": "batch_normalization_12", "class_name": "BatchNormalization", "config": {"name": "batch_normalization_12", "trainable": true, "dtype": "float32", "axis": -1, "momentum": 0.99, "epsilon": 0.001, "center": true, "scale": true, "beta_initializer": {"class_name": "Zeros", "config": {}}, "gamma_initializer": {"class_name": "Ones", "config": {}}, "moving_mean_initializer": {"class_name": "Zeros", "config": {}}, "moving_variance_initializer": {"class_name": "Ones", "config": {}}, "beta_regularizer": null, "gamma_regularizer": null, "beta_constraint": null, "gamma_constraint": null}, "inbound_nodes": [[["a17", 0, 0, {}]]]}, {"name": "concat_attn_1", "class_name": "Concatenate", "config": {"name": "concat_attn_1", "trainable": true, "dtype": "float32", "axis": -1}, "inbound_nodes": [[["batch_normalization_5", 0, 0, {}], ["batch_normalization_6", 0, 0, {}], ["batch_normalization_7", 0, 0, {}], ["batch_normalization_8", 0, 0, {}], ["batch_normalization_9", 0, 0, {}], ["batch_normalization_10", 0, 0, {}], ["batch_normalization_11", 0, 0, {}], ["batch_normalization_12", 0, 0, {}]]]}, {"name": "condense_attn1D_1", "class_name": "CondenseAttention1D", "config": {"name": "condense_attn1D_1", "trainable": true, "dtype": "float32"}, "inbound_nodes": [[["concat_attn_1", 0, 0, {}]]]}, {"name": "squeeze_attn_1", "class_name": "Lambda", "config": {"name": "squeeze_attn_1", "trainable": true, "dtype": "float32", "function": ["4wEAAAAAAAAAAQAAAAQAAABTAAAAcw4AAAB0AGoBfABkAWQCjQJTACkDTukBAAAAKQHaBGF4aXMp\nAtoBS9oHc3F1ZWV6ZSkB2gF4qQByBgAAAPoePGlweXRob24taW5wdXQtMy0wNmYyMDI1MGNmYjM+\n2gg8bGFtYmRhPjgAAADzAAAAAA==\n", null, null], "function_type": "lambda", "output_shape": null, "output_shape_type": "raw", "arguments": {}}, "inbound_nodes": [[["condense_attn1D_1", 0, 0, {}]]]}, {"name": "residual_combine_attn_1", "class_name": "ResidualCombine", "config": {"name": "residual_combine_attn_1", "trainable": true, "dtype": "float32"}, "inbound_nodes": [[["global_average_pooling2d_1", 0, 0, {}], ["squeeze_attn_1", 0, 0, {}]]]}, {"name": "batch_normalization_13", "class_name": "BatchNormalization", "config": {"name": "batch_normalization_13", "trainable": true, "dtype": "float32", "axis": -1, "momentum": 0.99, "epsilon": 0.001, "center": true, "scale": true, "beta_initializer": {"class_name": "Zeros", "config": {}}, "gamma_initializer": {"class_name": "Ones", "config": {}}, "moving_mean_initializer": {"class_name": "Zeros", "config": {}}, "moving_variance_initializer": {"class_name": "Ones", "config": {}}, "beta_regularizer": null, "gamma_regularizer": null, "beta_constraint": null, "gamma_constraint": null}, "inbound_nodes": [[["residual_combine_attn_1", 0, 0, {}]]]}, {"name": "repeat_vector_1", "class_name": "RepeatVector", "config": {"name": "repeat_vector_1", "trainable": true, "dtype": "float32", "n": 60}, "inbound_nodes": [[["batch_normalization_13", 0, 0, {}]]]}, {"name": "dense_28", "class_name": "Dense", "config": {"name": "dense_28", "trainable": true, "dtype": "float32", "units": 512, "activation": "relu", "use_bias": true, "kernel_initializer": {"class_name": "VarianceScaling", "config": {"scale": 1.0, "mode": "fan_avg", "distribution": "uniform", "seed": null}}, "bias_initializer": {"class_name": "Zeros", "config": {}}, "kernel_regularizer": null, "bias_regularizer": null, "activity_regularizer": null, "kernel_constraint": null, "bias_constraint": null}, "inbound_nodes": [[["repeat_vector_1", 0, 0, {}]]]}, {"name": "positional_encoding", "class_name": "InputLayer", "config": {"batch_input_shape": [null, 60, 512], "dtype": "float32", "sparse": false, "name": "positional_encoding"}, "inbound_nodes": []}, {"name": "add_2", "class_name": "Add", "config": {"name": "add_2", "trainable": true, "dtype": "float32"}, "inbound_nodes": [[["dense_28", 0, 0, {}], ["positional_encoding", 0, 0, {}]]]}, {"name": "sa10", "class_name": "SelfAttention", "config": {"name": "sa10", "trainable": true, "dtype": "float32"}, "inbound_nodes": [[["add_2", 0, 0, {}]]]}, {"name": "sa11", "class_name": "SelfAttention", "config": {"name": "sa11", "trainable": true, "dtype": "float32"}, "inbound_nodes": [[["add_2", 0, 0, {}]]]}, {"name": "sa12", "class_name": "SelfAttention", "config": {"name": "sa12", "trainable": true, "dtype": "float32"}, "inbound_nodes": [[["add_2", 0, 0, {}]]]}, {"name": "sa13", "class_name": "SelfAttention", "config": {"name": "sa13", "trainable": true, "dtype": "float32"}, "inbound_nodes": [[["add_2", 0, 0, {}]]]}, {"name": "sa14", "class_name": "SelfAttention", "config": {"name": "sa14", "trainable": true, "dtype": "float32"}, "inbound_nodes": [[["add_2", 0, 0, {}]]]}, {"name": "sa15", "class_name": "SelfAttention", "config": {"name": "sa15", "trainable": true, "dtype": "float32"}, "inbound_nodes": [[["add_2", 0, 0, {}]]]}, {"name": "sa16", "class_name": "SelfAttention", "config": {"name": "sa16", "trainable": true, "dtype": "float32"}, "inbound_nodes": [[["add_2", 0, 0, {}]]]}, {"name": "sa17", "class_name": "SelfAttention", "config": {"name": "sa17", "trainable": true, "dtype": "float32"}, "inbound_nodes": [[["add_2", 0, 0, {}]]]}, {"name": "concat_sa_1", "class_name": "Concatenate", "config": {"name": "concat_sa_1", "trainable": true, "dtype": "float32", "axis": -1}, "inbound_nodes": [[["sa10", 0, 7, {}], ["sa11", 0, 7, {}], ["sa12", 0, 7, {}], ["sa13", 0, 7, {}], ["sa14", 0, 7, {}], ["sa15", 0, 7, {}], ["sa16", 0, 7, {}], ["sa17", 0, 7, {}]]]}, {"name": "cond_sa_1", "class_name": "CondenseAttention1D", "config": {"name": "cond_sa_1", "trainable": true, "dtype": "float32"}, "inbound_nodes": [[["concat_sa_1", 0, 0, {}]]]}, {"name": "res_comb_sa_1", "class_name": "ResidualCombine", "config": {"name": "res_comb_sa_1", "trainable": true, "dtype": "float32"}, "inbound_nodes": [[["add_2", 0, 0, {}], ["cond_sa_1", 0, 0, {}]]]}, {"name": "batch_normalization_22", "class_name": "BatchNormalization", "config": {"name": "batch_normalization_22", "trainable": true, "dtype": "float32", "axis": -1, "momentum": 0.99, "epsilon": 0.001, "center": true, "scale": true, "beta_initializer": {"class_name": "Zeros", "config": {}}, "gamma_initializer": {"class_name": "Ones", "config": {}}, "moving_mean_initializer": {"class_name": "Zeros", "config": {}}, "moving_variance_initializer": {"class_name": "Ones", "config": {}}, "beta_regularizer": null, "gamma_regularizer": null, "beta_constraint": null, "gamma_constraint": null}, "inbound_nodes": [[["res_comb_sa_1", 0, 0, {}]]]}, {"name": "eca10", "class_name": "EncDecAttention", "config": {"name": "eca10", "trainable": true, "dtype": "float32"}, "inbound_nodes": [[["batch_normalization_22", 0, 0, {}], ["lambda_1", 0, 0, {}]]]}, {"name": "eca11", "class_name": "EncDecAttention", "config": {"name": "eca11", "trainable": true, "dtype": "float32"}, "inbound_nodes": [[["batch_normalization_22", 0, 0, {}], ["lambda_1", 0, 0, {}]]]}, {"name": "eca12", "class_name": "EncDecAttention", "config": {"name": "eca12", "trainable": true, "dtype": "float32"}, "inbound_nodes": [[["batch_normalization_22", 0, 0, {}], ["lambda_1", 0, 0, {}]]]}, {"name": "eca13", "class_name": "EncDecAttention", "config": {"name": "eca13", "trainable": true, "dtype": "float32"}, "inbound_nodes": [[["batch_normalization_22", 0, 0, {}], ["lambda_1", 0, 0, {}]]]}, {"name": "eca14", "class_name": "EncDecAttention", "config": {"name": "eca14", "trainable": true, "dtype": "float32"}, "inbound_nodes": [[["batch_normalization_22", 0, 0, {}], ["lambda_1", 0, 0, {}]]]}, {"name": "eca15", "class_name": "EncDecAttention", "config": {"name": "eca15", "trainable": true, "dtype": "float32"}, "inbound_nodes": [[["batch_normalization_22", 0, 0, {}], ["lambda_1", 0, 0, {}]]]}, {"name": "eca16", "class_name": "EncDecAttention", "config": {"name": "eca16", "trainable": true, "dtype": "float32"}, "inbound_nodes": [[["batch_normalization_22", 0, 0, {}], ["lambda_1", 0, 0, {}]]]}, {"name": "eca17", "class_name": "EncDecAttention", "config": {"name": "eca17", "trainable": true, "dtype": "float32"}, "inbound_nodes": [[["batch_normalization_22", 0, 0, {}], ["lambda_1", 0, 0, {}]]]}, {"name": "batch_normalization_23", "class_name": "BatchNormalization", "config": {"name": "batch_normalization_23", "trainable": true, "dtype": "float32", "axis": -1, "momentum": 0.99, "epsilon": 0.001, "center": true, "scale": true, "beta_initializer": {"class_name": "Zeros", "config": {}}, "gamma_initializer": {"class_name": "Ones", "config": {}}, "moving_mean_initializer": {"class_name": "Zeros", "config": {}}, "moving_variance_initializer": {"class_name": "Ones", "config": {}}, "beta_regularizer": null, "gamma_regularizer": null, "beta_constraint": null, "gamma_constraint": null}, "inbound_nodes": [[["eca10", 0, 5, {}]]]}, {"name": "batch_normalization_24", "class_name": "BatchNormalization", "config": {"name": "batch_normalization_24", "trainable": true, "dtype": "float32", "axis": -1, "momentum": 0.99, "epsilon": 0.001, "center": true, "scale": true, "beta_initializer": {"class_name": "Zeros", "config": {}}, "gamma_initializer": {"class_name": "Ones", "config": {}}, "moving_mean_initializer": {"class_name": "Zeros", "config": {}}, "moving_variance_initializer": {"class_name": "Ones", "config": {}}, "beta_regularizer": null, "gamma_regularizer": null, "beta_constraint": null, "gamma_constraint": null}, "inbound_nodes": [[["eca11", 0, 5, {}]]]}, {"name": "batch_normalization_25", "class_name": "BatchNormalization", "config": {"name": "batch_normalization_25", "trainable": true, "dtype": "float32", "axis": -1, "momentum": 0.99, "epsilon": 0.001, "center": true, "scale": true, "beta_initializer": {"class_name": "Zeros", "config": {}}, "gamma_initializer": {"class_name": "Ones", "config": {}}, "moving_mean_initializer": {"class_name": "Zeros", "config": {}}, "moving_variance_initializer": {"class_name": "Ones", "config": {}}, "beta_regularizer": null, "gamma_regularizer": null, "beta_constraint": null, "gamma_constraint": null}, "inbound_nodes": [[["eca12", 0, 5, {}]]]}, {"name": "batch_normalization_26", "class_name": "BatchNormalization", "config": {"name": "batch_normalization_26", "trainable": true, "dtype": "float32", "axis": -1, "momentum": 0.99, "epsilon": 0.001, "center": true, "scale": true, "beta_initializer": {"class_name": "Zeros", "config": {}}, "gamma_initializer": {"class_name": "Ones", "config": {}}, "moving_mean_initializer": {"class_name": "Zeros", "config": {}}, "moving_variance_initializer": {"class_name": "Ones", "config": {}}, "beta_regularizer": null, "gamma_regularizer": null, "beta_constraint": null, "gamma_constraint": null}, "inbound_nodes": [[["eca13", 0, 5, {}]]]}, {"name": "batch_normalization_27", "class_name": "BatchNormalization", "config": {"name": "batch_normalization_27", "trainable": true, "dtype": "float32", "axis": -1, "momentum": 0.99, "epsilon": 0.001, "center": true, "scale": true, "beta_initializer": {"class_name": "Zeros", "config": {}}, "gamma_initializer": {"class_name": "Ones", "config": {}}, "moving_mean_initializer": {"class_name": "Zeros", "config": {}}, "moving_variance_initializer": {"class_name": "Ones", "config": {}}, "beta_regularizer": null, "gamma_regularizer": null, "beta_constraint": null, "gamma_constraint": null}, "inbound_nodes": [[["eca14", 0, 5, {}]]]}, {"name": "batch_normalization_28", "class_name": "BatchNormalization", "config": {"name": "batch_normalization_28", "trainable": true, "dtype": "float32", "axis": -1, "momentum": 0.99, "epsilon": 0.001, "center": true, "scale": true, "beta_initializer": {"class_name": "Zeros", "config": {}}, "gamma_initializer": {"class_name": "Ones", "config": {}}, "moving_mean_initializer": {"class_name": "Zeros", "config": {}}, "moving_variance_initializer": {"class_name": "Ones", "config": {}}, "beta_regularizer": null, "gamma_regularizer": null, "beta_constraint": null, "gamma_constraint": null}, "inbound_nodes": [[["eca15", 0, 5, {}]]]}, {"name": "batch_normalization_29", "class_name": "BatchNormalization", "config": {"name": "batch_normalization_29", "trainable": true, "dtype": "float32", "axis": -1, "momentum": 0.99, "epsilon": 0.001, "center": true, "scale": true, "beta_initializer": {"class_name": "Zeros", "config": {}}, "gamma_initializer": {"class_name": "Ones", "config": {}}, "moving_mean_initializer": {"class_name": "Zeros", "config": {}}, "moving_variance_initializer": {"class_name": "Ones", "config": {}}, "beta_regularizer": null, "gamma_regularizer": null, "beta_constraint": null, "gamma_constraint": null}, "inbound_nodes": [[["eca16", 0, 5, {}]]]}, {"name": "batch_normalization_30", "class_name": "BatchNormalization", "config": {"name": "batch_normalization_30", "trainable": true, "dtype": "float32", "axis": -1, "momentum": 0.99, "epsilon": 0.001, "center": true, "scale": true, "beta_initializer": {"class_name": "Zeros", "config": {}}, "gamma_initializer": {"class_name": "Ones", "config": {}}, "moving_mean_initializer": {"class_name": "Zeros", "config": {}}, "moving_variance_initializer": {"class_name": "Ones", "config": {}}, "beta_regularizer": null, "gamma_regularizer": null, "beta_constraint": null, "gamma_constraint": null}, "inbound_nodes": [[["eca17", 0, 5, {}]]]}, {"name": "concat_enc_1", "class_name": "Concatenate", "config": {"name": "concat_enc_1", "trainable": true, "dtype": "float32", "axis": -1}, "inbound_nodes": [[["batch_normalization_23", 0, 0, {}], ["batch_normalization_24", 0, 0, {}], ["batch_normalization_25", 0, 0, {}], ["batch_normalization_26", 0, 0, {}], ["batch_normalization_27", 0, 0, {}], ["batch_normalization_28", 0, 0, {}], ["batch_normalization_29", 0, 0, {}], ["batch_normalization_30", 0, 0, {}]]]}, {"name": "cond_enc_1", "class_name": "CondenseAttention1D", "config": {"name": "cond_enc_1", "trainable": true, "dtype": "float32"}, "inbound_nodes": [[["concat_enc_1", 0, 0, {}]]]}, {"name": "res_comb_enc_1", "class_name": "ResidualCombine", "config": {"name": "res_comb_enc_1", "trainable": true, "dtype": "float32"}, "inbound_nodes": [[["batch_normalization_22", 0, 0, {}], ["cond_enc_1", 0, 0, {}]]]}, {"name": "batch_normalization_31", "class_name": "BatchNormalization", "config": {"name": "batch_normalization_31", "trainable": true, "dtype": "float32", "axis": -1, "momentum": 0.99, "epsilon": 0.001, "center": true, "scale": true, "beta_initializer": {"class_name": "Zeros", "config": {}}, "gamma_initializer": {"class_name": "Ones", "config": {}}, "moving_mean_initializer": {"class_name": "Zeros", "config": {}}, "moving_variance_initializer": {"class_name": "Ones", "config": {}}, "beta_regularizer": null, "gamma_regularizer": null, "beta_constraint": null, "gamma_constraint": null}, "inbound_nodes": [[["res_comb_enc_1", 0, 0, {}]]]}, {"name": "time_distributed_1", "class_name": "TimeDistributed", "config": {"name": "time_distributed_1", "trainable": true, "dtype": "float32", "layer": {"class_name": "Dense", "config": {"name": "dense_83", "trainable": true, "dtype": "float32", "units": 512, "activation": "relu", "use_bias": true, "kernel_initializer": {"class_name": "VarianceScaling", "config": {"scale": 1.0, "mode": "fan_avg", "distribution": "uniform", "seed": null}}, "bias_initializer": {"class_name": "Zeros", "config": {}}, "kernel_regularizer": null, "bias_regularizer": null, "activity_regularizer": null, "kernel_constraint": null, "bias_constraint": null}}}, "inbound_nodes": [[["batch_normalization_31", 0, 0, {}]]]}, {"name": "res_comb_NA_1", "class_name": "ResidualCombine", "config": {"name": "res_comb_NA_1", "trainable": true, "dtype": "float32"}, "inbound_nodes": [[["batch_normalization_31", 0, 0, {}], ["time_distributed_1", 0, 0, {}]]]}, {"name": "batch_normalization_32", "class_name": "BatchNormalization", "config": {"name": "batch_normalization_32", "trainable": true, "dtype": "float32", "axis": -1, "momentum": 0.99, "epsilon": 0.001, "center": true, "scale": true, "beta_initializer": {"class_name": "Zeros", "config": {}}, "gamma_initializer": {"class_name": "Ones", "config": {}}, "moving_mean_initializer": {"class_name": "Zeros", "config": {}}, "moving_variance_initializer": {"class_name": "Ones", "config": {}}, "beta_regularizer": null, "gamma_regularizer": null, "beta_constraint": null, "gamma_constraint": null}, "inbound_nodes": [[["res_comb_NA_1", 0, 0, {}]]]}, {"name": "sa20", "class_name": "SelfAttention", "config": {"name": "sa20", "trainable": true, "dtype": "float32"}, "inbound_nodes": [[["batch_normalization_32", 0, 0, {}]]]}, {"name": "sa21", "class_name": "SelfAttention", "config": {"name": "sa21", "trainable": true, "dtype": "float32"}, "inbound_nodes": [[["batch_normalization_32", 0, 0, {}]]]}, {"name": "sa22", "class_name": "SelfAttention", "config": {"name": "sa22", "trainable": true, "dtype": "float32"}, "inbound_nodes": [[["batch_normalization_32", 0, 0, {}]]]}, {"name": "sa23", "class_name": "SelfAttention", "config": {"name": "sa23", "trainable": true, "dtype": "float32"}, "inbound_nodes": [[["batch_normalization_32", 0, 0, {}]]]}, {"name": "sa24", "class_name": "SelfAttention", "config": {"name": "sa24", "trainable": true, "dtype": "float32"}, "inbound_nodes": [[["batch_normalization_32", 0, 0, {}]]]}, {"name": "sa25", "class_name": "SelfAttention", "config": {"name": "sa25", "trainable": true, "dtype": "float32"}, "inbound_nodes": [[["batch_normalization_32", 0, 0, {}]]]}, {"name": "sa26", "class_name": "SelfAttention", "config": {"name": "sa26", "trainable": true, "dtype": "float32"}, "inbound_nodes": [[["batch_normalization_32", 0, 0, {}]]]}, {"name": "sa27", "class_name": "SelfAttention", "config": {"name": "sa27", "trainable": true, "dtype": "float32"}, "inbound_nodes": [[["batch_normalization_32", 0, 0, {}]]]}, {"name": "concat_sa_2", "class_name": "Concatenate", "config": {"name": "concat_sa_2", "trainable": true, "dtype": "float32", "axis": -1}, "inbound_nodes": [[["sa20", 0, 7, {}], ["sa21", 0, 7, {}], ["sa22", 0, 7, {}], ["sa23", 0, 7, {}], ["sa24", 0, 7, {}], ["sa25", 0, 7, {}], ["sa26", 0, 7, {}], ["sa27", 0, 7, {}]]]}, {"name": "cond_sa_2", "class_name": "CondenseAttention1D", "config": {"name": "cond_sa_2", "trainable": true, "dtype": "float32"}, "inbound_nodes": [[["concat_sa_2", 0, 0, {}]]]}, {"name": "res_comb_sa_2", "class_name": "ResidualCombine", "config": {"name": "res_comb_sa_2", "trainable": true, "dtype": "float32"}, "inbound_nodes": [[["batch_normalization_32", 0, 0, {}], ["cond_sa_2", 0, 0, {}]]]}, {"name": "batch_normalization_41", "class_name": "BatchNormalization", "config": {"name": "batch_normalization_41", "trainable": true, "dtype": "float32", "axis": -1, "momentum": 0.99, "epsilon": 0.001, "center": true, "scale": true, "beta_initializer": {"class_name": "Zeros", "config": {}}, "gamma_initializer": {"class_name": "Ones", "config": {}}, "moving_mean_initializer": {"class_name": "Zeros", "config": {}}, "moving_variance_initializer": {"class_name": "Ones", "config": {}}, "beta_regularizer": null, "gamma_regularizer": null, "beta_constraint": null, "gamma_constraint": null}, "inbound_nodes": [[["res_comb_sa_2", 0, 0, {}]]]}, {"name": "eca20", "class_name": "EncDecAttention", "config": {"name": "eca20", "trainable": true, "dtype": "float32"}, "inbound_nodes": [[["batch_normalization_41", 0, 0, {}], ["lambda_1", 0, 0, {}]]]}, {"name": "eca21", "class_name": "EncDecAttention", "config": {"name": "eca21", "trainable": true, "dtype": "float32"}, "inbound_nodes": [[["batch_normalization_41", 0, 0, {}], ["lambda_1", 0, 0, {}]]]}, {"name": "eca22", "class_name": "EncDecAttention", "config": {"name": "eca22", "trainable": true, "dtype": "float32"}, "inbound_nodes": [[["batch_normalization_41", 0, 0, {}], ["lambda_1", 0, 0, {}]]]}, {"name": "eca23", "class_name": "EncDecAttention", "config": {"name": "eca23", "trainable": true, "dtype": "float32"}, "inbound_nodes": [[["batch_normalization_41", 0, 0, {}], ["lambda_1", 0, 0, {}]]]}, {"name": "eca24", "class_name": "EncDecAttention", "config": {"name": "eca24", "trainable": true, "dtype": "float32"}, "inbound_nodes": [[["batch_normalization_41", 0, 0, {}], ["lambda_1", 0, 0, {}]]]}, {"name": "eca25", "class_name": "EncDecAttention", "config": {"name": "eca25", "trainable": true, "dtype": "float32"}, "inbound_nodes": [[["batch_normalization_41", 0, 0, {}], ["lambda_1", 0, 0, {}]]]}, {"name": "eca26", "class_name": "EncDecAttention", "config": {"name": "eca26", "trainable": true, "dtype": "float32"}, "inbound_nodes": [[["batch_normalization_41", 0, 0, {}], ["lambda_1", 0, 0, {}]]]}, {"name": "eca27", "class_name": "EncDecAttention", "config": {"name": "eca27", "trainable": true, "dtype": "float32"}, "inbound_nodes": [[["batch_normalization_41", 0, 0, {}], ["lambda_1", 0, 0, {}]]]}, {"name": "batch_normalization_42", "class_name": "BatchNormalization", "config": {"name": "batch_normalization_42", "trainable": true, "dtype": "float32", "axis": -1, "momentum": 0.99, "epsilon": 0.001, "center": true, "scale": true, "beta_initializer": {"class_name": "Zeros", "config": {}}, "gamma_initializer": {"class_name": "Ones", "config": {}}, "moving_mean_initializer": {"class_name": "Zeros", "config": {}}, "moving_variance_initializer": {"class_name": "Ones", "config": {}}, "beta_regularizer": null, "gamma_regularizer": null, "beta_constraint": null, "gamma_constraint": null}, "inbound_nodes": [[["eca20", 0, 5, {}]]]}, {"name": "batch_normalization_43", "class_name": "BatchNormalization", "config": {"name": "batch_normalization_43", "trainable": true, "dtype": "float32", "axis": -1, "momentum": 0.99, "epsilon": 0.001, "center": true, "scale": true, "beta_initializer": {"class_name": "Zeros", "config": {}}, "gamma_initializer": {"class_name": "Ones", "config": {}}, "moving_mean_initializer": {"class_name": "Zeros", "config": {}}, "moving_variance_initializer": {"class_name": "Ones", "config": {}}, "beta_regularizer": null, "gamma_regularizer": null, "beta_constraint": null, "gamma_constraint": null}, "inbound_nodes": [[["eca21", 0, 5, {}]]]}, {"name": "batch_normalization_44", "class_name": "BatchNormalization", "config": {"name": "batch_normalization_44", "trainable": true, "dtype": "float32", "axis": -1, "momentum": 0.99, "epsilon": 0.001, "center": true, "scale": true, "beta_initializer": {"class_name": "Zeros", "config": {}}, "gamma_initializer": {"class_name": "Ones", "config": {}}, "moving_mean_initializer": {"class_name": "Zeros", "config": {}}, "moving_variance_initializer": {"class_name": "Ones", "config": {}}, "beta_regularizer": null, "gamma_regularizer": null, "beta_constraint": null, "gamma_constraint": null}, "inbound_nodes": [[["eca22", 0, 5, {}]]]}, {"name": "batch_normalization_45", "class_name": "BatchNormalization", "config": {"name": "batch_normalization_45", "trainable": true, "dtype": "float32", "axis": -1, "momentum": 0.99, "epsilon": 0.001, "center": true, "scale": true, "beta_initializer": {"class_name": "Zeros", "config": {}}, "gamma_initializer": {"class_name": "Ones", "config": {}}, "moving_mean_initializer": {"class_name": "Zeros", "config": {}}, "moving_variance_initializer": {"class_name": "Ones", "config": {}}, "beta_regularizer": null, "gamma_regularizer": null, "beta_constraint": null, "gamma_constraint": null}, "inbound_nodes": [[["eca23", 0, 5, {}]]]}, {"name": "batch_normalization_46", "class_name": "BatchNormalization", "config": {"name": "batch_normalization_46", "trainable": true, "dtype": "float32", "axis": -1, "momentum": 0.99, "epsilon": 0.001, "center": true, "scale": true, "beta_initializer": {"class_name": "Zeros", "config": {}}, "gamma_initializer": {"class_name": "Ones", "config": {}}, "moving_mean_initializer": {"class_name": "Zeros", "config": {}}, "moving_variance_initializer": {"class_name": "Ones", "config": {}}, "beta_regularizer": null, "gamma_regularizer": null, "beta_constraint": null, "gamma_constraint": null}, "inbound_nodes": [[["eca24", 0, 5, {}]]]}, {"name": "batch_normalization_47", "class_name": "BatchNormalization", "config": {"name": "batch_normalization_47", "trainable": true, "dtype": "float32", "axis": -1, "momentum": 0.99, "epsilon": 0.001, "center": true, "scale": true, "beta_initializer": {"class_name": "Zeros", "config": {}}, "gamma_initializer": {"class_name": "Ones", "config": {}}, "moving_mean_initializer": {"class_name": "Zeros", "config": {}}, "moving_variance_initializer": {"class_name": "Ones", "config": {}}, "beta_regularizer": null, "gamma_regularizer": null, "beta_constraint": null, "gamma_constraint": null}, "inbound_nodes": [[["eca25", 0, 5, {}]]]}, {"name": "batch_normalization_48", "class_name": "BatchNormalization", "config": {"name": "batch_normalization_48", "trainable": true, "dtype": "float32", "axis": -1, "momentum": 0.99, "epsilon": 0.001, "center": true, "scale": true, "beta_initializer": {"class_name": "Zeros", "config": {}}, "gamma_initializer": {"class_name": "Ones", "config": {}}, "moving_mean_initializer": {"class_name": "Zeros", "config": {}}, "moving_variance_initializer": {"class_name": "Ones", "config": {}}, "beta_regularizer": null, "gamma_regularizer": null, "beta_constraint": null, "gamma_constraint": null}, "inbound_nodes": [[["eca26", 0, 5, {}]]]}, {"name": "batch_normalization_49", "class_name": "BatchNormalization", "config": {"name": "batch_normalization_49", "trainable": true, "dtype": "float32", "axis": -1, "momentum": 0.99, "epsilon": 0.001, "center": true, "scale": true, "beta_initializer": {"class_name": "Zeros", "config": {}}, "gamma_initializer": {"class_name": "Ones", "config": {}}, "moving_mean_initializer": {"class_name": "Zeros", "config": {}}, "moving_variance_initializer": {"class_name": "Ones", "config": {}}, "beta_regularizer": null, "gamma_regularizer": null, "beta_constraint": null, "gamma_constraint": null}, "inbound_nodes": [[["eca27", 0, 5, {}]]]}, {"name": "concat_enc_2", "class_name": "Concatenate", "config": {"name": "concat_enc_2", "trainable": true, "dtype": "float32", "axis": -1}, "inbound_nodes": [[["batch_normalization_42", 0, 0, {}], ["batch_normalization_43", 0, 0, {}], ["batch_normalization_44", 0, 0, {}], ["batch_normalization_45", 0, 0, {}], ["batch_normalization_46", 0, 0, {}], ["batch_normalization_47", 0, 0, {}], ["batch_normalization_48", 0, 0, {}], ["batch_normalization_49", 0, 0, {}]]]}, {"name": "cond_enc_2", "class_name": "CondenseAttention1D", "config": {"name": "cond_enc_2", "trainable": true, "dtype": "float32"}, "inbound_nodes": [[["concat_enc_2", 0, 0, {}]]]}, {"name": "res_comb_enc_2", "class_name": "ResidualCombine", "config": {"name": "res_comb_enc_2", "trainable": true, "dtype": "float32"}, "inbound_nodes": [[["batch_normalization_41", 0, 0, {}], ["cond_enc_2", 0, 0, {}]]]}, {"name": "batch_normalization_50", "class_name": "BatchNormalization", "config": {"name": "batch_normalization_50", "trainable": true, "dtype": "float32", "axis": -1, "momentum": 0.99, "epsilon": 0.001, "center": true, "scale": true, "beta_initializer": {"class_name": "Zeros", "config": {}}, "gamma_initializer": {"class_name": "Ones", "config": {}}, "moving_mean_initializer": {"class_name": "Zeros", "config": {}}, "moving_variance_initializer": {"class_name": "Ones", "config": {}}, "beta_regularizer": null, "gamma_regularizer": null, "beta_constraint": null, "gamma_constraint": null}, "inbound_nodes": [[["res_comb_enc_2", 0, 0, {}]]]}, {"name": "time_distributed_2", "class_name": "TimeDistributed", "config": {"name": "time_distributed_2", "trainable": true, "dtype": "float32", "layer": {"class_name": "Dense", "config": {"name": "dense_140", "trainable": true, "dtype": "float32", "units": 512, "activation": "relu", "use_bias": true, "kernel_initializer": {"class_name": "VarianceScaling", "config": {"scale": 1.0, "mode": "fan_avg", "distribution": "uniform", "seed": null}}, "bias_initializer": {"class_name": "Zeros", "config": {}}, "kernel_regularizer": null, "bias_regularizer": null, "activity_regularizer": null, "kernel_constraint": null, "bias_constraint": null}}}, "inbound_nodes": [[["batch_normalization_50", 0, 0, {}]]]}, {"name": "res_comb_NA_2", "class_name": "ResidualCombine", "config": {"name": "res_comb_NA_2", "trainable": true, "dtype": "float32"}, "inbound_nodes": [[["batch_normalization_50", 0, 0, {}], ["time_distributed_2", 0, 0, {}]]]}, {"name": "batch_normalization_51", "class_name": "BatchNormalization", "config": {"name": "batch_normalization_51", "trainable": true, "dtype": "float32", "axis": -1, "momentum": 0.99, "epsilon": 0.001, "center": true, "scale": true, "beta_initializer": {"class_name": "Zeros", "config": {}}, "gamma_initializer": {"class_name": "Ones", "config": {}}, "moving_mean_initializer": {"class_name": "Zeros", "config": {}}, "moving_variance_initializer": {"class_name": "Ones", "config": {}}, "beta_regularizer": null, "gamma_regularizer": null, "beta_constraint": null, "gamma_constraint": null}, "inbound_nodes": [[["res_comb_NA_2", 0, 0, {}]]]}, {"name": "dense_143", "class_name": "Dense", "config": {"name": "dense_143", "trainable": true, "dtype": "float32", "units": 20795, "activation": "linear", "use_bias": true, "kernel_initializer": {"class_name": "VarianceScaling", "config": {"scale": 1.0, "mode": "fan_avg", "distribution": "uniform", "seed": null}}, "bias_initializer": {"class_name": "Zeros", "config": {}}, "kernel_regularizer": null, "bias_regularizer": null, "activity_regularizer": null, "kernel_constraint": null, "bias_constraint": null}, "inbound_nodes": [[["batch_normalization_51", 0, 0, {}]]]}, {"name": "activation_157", "class_name": "Activation", "config": {"name": "activation_157", "trainable": true, "dtype": "float32", "activation": "tanh"}, "inbound_nodes": [[["dense_143", 0, 0, {}]]]}], "input_layers": [["image_input", 0, 0], ["positional_encoding", 0, 0]], "output_layers": [["activation_157", 0, 0]]}, "keras_version": "2.3.1", "backend": "tensorflow"}