{"class_name": "Model", "backend": "tensorflow", "keras_version": "2.2.2", "config": {"layers": [{"class_name": "InputLayer", "inbound_nodes": [], "name": "image_input", "config": {"batch_input_shape": [null, 256, 256, 3], "name": "image_input", "dtype": "float32", "sparse": false}}, {"class_name": "InputLayer", "inbound_nodes": [], "name": "words_input", "config": {"batch_input_shape": [null, 60], "name": "words_input", "dtype": "float32", "sparse": false}}, {"class_name": "InputLayer", "inbound_nodes": [], "name": "padding_masks", "config": {"batch_input_shape": [null, 60, 1], "name": "padding_masks", "dtype": "float32", "sparse": false}}, {"class_name": "Model", "inbound_nodes": [[["image_input", 0, 0, {}]]], "name": "inception_resnet_v2", "config": {"layers": [{"class_name": "InputLayer", "inbound_nodes": [], "name": "input_1", "config": {"name": "input_1", "dtype": "float32", "batch_input_shape": [null, 256, 256, 3], "sparse": false}}, {"class_name": "Conv2D", "inbound_nodes": [[["input_1", 0, 0, {}]]], "name": "conv2d_1", "config": {"padding": "valid", "activation": "linear", "bias_regularizer": null, "name": "conv2d_1", "data_format": "channels_last", "use_bias": false, "kernel_constraint": null, "activity_regularizer": null, "trainable": true, "kernel_initializer": {"class_name": "VarianceScaling", "config": {"seed": null, "mode": "fan_avg", "scale": 1.0, "distribution": "uniform"}}, "filters": 32, "kernel_size": [3, 3], "bias_constraint": null, "strides": [2, 2], "dilation_rate": [1, 1], "bias_initializer": {"class_name": "Zeros", "config": {}}, "kernel_regularizer": null}}, {"class_name": "BatchNormalization", "inbound_nodes": [[["conv2d_1", 0, 0, {}]]], "name": "batch_normalization_1", "config": {"gamma_constraint": null, "name": "batch_normalization_1", "moving_variance_initializer": {"class_name": "Ones", "config": {}}, "axis": 3, "center": true, "epsilon": 0.001, "beta_constraint": null, "beta_regularizer": null, "scale": false, "beta_initializer": {"class_name": "Zeros", "config": {}}, "trainable": true, "gamma_initializer": {"class_name": "Ones", "config": {}}, "gamma_regularizer": null, "momentum": 0.99, "moving_mean_initializer": {"class_name": "Zeros", "config": {}}}}, {"class_name": "Activation", "inbound_nodes": [[["batch_normalization_1", 0, 0, {}]]], "name": "activation_1", "config": {"activation": "relu", "trainable": true, "name": "activation_1"}}, {"class_name": "Conv2D", "inbound_nodes": [[["activation_1", 0, 0, {}]]], "name": "conv2d_2", "config": {"padding": "valid", "activation": "linear", "bias_regularizer": null, "name": "conv2d_2", "data_format": "channels_last", "use_bias": false, "kernel_constraint": null, "activity_regularizer": null, "trainable": true, "kernel_initializer": {"class_name": "VarianceScaling", "config": {"seed": null, "mode": "fan_avg", "scale": 1.0, "distribution": "uniform"}}, "filters": 32, "kernel_size": [3, 3], "bias_constraint": null, "strides": [1, 1], "dilation_rate": [1, 1], "bias_initializer": {"class_name": "Zeros", "config": {}}, "kernel_regularizer": null}}, {"class_name": "BatchNormalization", "inbound_nodes": [[["conv2d_2", 0, 0, {}]]], "name": "batch_normalization_2", "config": {"gamma_constraint": null, "name": "batch_normalization_2", "moving_variance_initializer": {"class_name": "Ones", "config": {}}, "axis": 3, "center": true, "epsilon": 0.001, "beta_constraint": null, "beta_regularizer": null, "scale": false, "beta_initializer": {"class_name": "Zeros", "config": {}}, "trainable": true, "gamma_initializer": {"class_name": "Ones", "config": {}}, "gamma_regularizer": null, "momentum": 0.99, "moving_mean_initializer": {"class_name": "Zeros", "config": {}}}}, {"class_name": "Activation", "inbound_nodes": [[["batch_normalization_2", 0, 0, {}]]], "name": "activation_2", "config": {"activation": "relu", "trainable": true, "name": "activation_2"}}, {"class_name": "Conv2D", "inbound_nodes": [[["activation_2", 0, 0, {}]]], "name": "conv2d_3", "config": {"padding": "same", "activation": "linear", "bias_regularizer": null, "name": "conv2d_3", "data_format": "channels_last", "use_bias": false, "kernel_constraint": null, "activity_regularizer": null, "trainable": true, "kernel_initializer": {"class_name": "VarianceScaling", "config": {"seed": null, "mode": "fan_avg", "scale": 1.0, "distribution": "uniform"}}, "filters": 64, "kernel_size": [3, 3], "bias_constraint": null, "strides": [1, 1], "dilation_rate": [1, 1], "bias_initializer": {"class_name": "Zeros", "config": {}}, "kernel_regularizer": null}}, {"class_name": "BatchNormalization", "inbound_nodes": [[["conv2d_3", 0, 0, {}]]], "name": "batch_normalization_3", "config": {"gamma_constraint": null, "name": "batch_normalization_3", "moving_variance_initializer": {"class_name": "Ones", "config": {}}, "axis": 3, "center": true, "epsilon": 0.001, "beta_constraint": null, "beta_regularizer": null, "scale": false, "beta_initializer": {"class_name": "Zeros", "config": {}}, "trainable": true, "gamma_initializer": {"class_name": "Ones", "config": {}}, "gamma_regularizer": null, "momentum": 0.99, "moving_mean_initializer": {"class_name": "Zeros", "config": {}}}}, {"class_name": "Activation", "inbound_nodes": [[["batch_normalization_3", 0, 0, {}]]], "name": "activation_3", "config": {"activation": "relu", "trainable": true, "name": "activation_3"}}, {"class_name": "MaxPooling2D", "inbound_nodes": [[["activation_3", 0, 0, {}]]], "name": "max_pooling2d_1", "config": {"padding": "valid", "trainable": true, "name": "max_pooling2d_1", "data_format": "channels_last", "strides": [2, 2], "pool_size": [3, 3]}}, {"class_name": "Conv2D", "inbound_nodes": [[["max_pooling2d_1", 0, 0, {}]]], "name": "conv2d_4", "config": {"padding": "valid", "activation": "linear", "bias_regularizer": null, "name": "conv2d_4", "data_format": "channels_last", "use_bias": false, "kernel_constraint": null, "activity_regularizer": null, "trainable": true, "kernel_initializer": {"class_name": "VarianceScaling", "config": {"seed": null, "mode": "fan_avg", "scale": 1.0, "distribution": "uniform"}}, "filters": 80, "kernel_size": [1, 1], "bias_constraint": null, "strides": [1, 1], "dilation_rate": [1, 1], "bias_initializer": {"class_name": "Zeros", "config": {}}, "kernel_regularizer": null}}, {"class_name": "BatchNormalization", "inbound_nodes": [[["conv2d_4", 0, 0, {}]]], "name": "batch_normalization_4", "config": {"gamma_constraint": null, "name": "batch_normalization_4", "moving_variance_initializer": {"class_name": "Ones", "config": {}}, "axis": 3, "center": true, "epsilon": 0.001, "beta_constraint": null, "beta_regularizer": null, "scale": false, "beta_initializer": {"class_name": "Zeros", "config": {}}, "trainable": true, "gamma_initializer": {"class_name": "Ones", "config": {}}, "gamma_regularizer": null, "momentum": 0.99, "moving_mean_initializer": {"class_name": "Zeros", "config": {}}}}, {"class_name": "Activation", "inbound_nodes": [[["batch_normalization_4", 0, 0, {}]]], "name": "activation_4", "config": {"activation": "relu", "trainable": true, "name": "activation_4"}}, {"class_name": "Conv2D", "inbound_nodes": [[["activation_4", 0, 0, {}]]], "name": "conv2d_5", "config": {"padding": "valid", "activation": "linear", "bias_regularizer": null, "name": "conv2d_5", "data_format": "channels_last", "use_bias": false, "kernel_constraint": null, "activity_regularizer": null, "trainable": true, "kernel_initializer": {"class_name": "VarianceScaling", "config": {"seed": null, "mode": "fan_avg", "scale": 1.0, "distribution": "uniform"}}, "filters": 192, "kernel_size": [3, 3], "bias_constraint": null, "strides": [1, 1], "dilation_rate": [1, 1], "bias_initializer": {"class_name": "Zeros", "config": {}}, "kernel_regularizer": null}}, {"class_name": "BatchNormalization", "inbound_nodes": [[["conv2d_5", 0, 0, {}]]], "name": "batch_normalization_5", "config": {"gamma_constraint": null, "name": "batch_normalization_5", "moving_variance_initializer": {"class_name": "Ones", "config": {}}, "axis": 3, "center": true, "epsilon": 0.001, "beta_constraint": null, "beta_regularizer": null, "scale": false, "beta_initializer": {"class_name": "Zeros", "config": {}}, "trainable": true, "gamma_initializer": {"class_name": "Ones", "config": {}}, "gamma_regularizer": null, "momentum": 0.99, "moving_mean_initializer": {"class_name": "Zeros", "config": {}}}}, {"class_name": "Activation", "inbound_nodes": [[["batch_normalization_5", 0, 0, {}]]], "name": "activation_5", "config": {"activation": "relu", "trainable": true, "name": "activation_5"}}, {"class_name": "MaxPooling2D", "inbound_nodes": [[["activation_5", 0, 0, {}]]], "name": "max_pooling2d_2", "config": {"padding": "valid", "trainable": true, "name": "max_pooling2d_2", "data_format": "channels_last", "strides": [2, 2], "pool_size": [3, 3]}}, {"class_name": "Conv2D", "inbound_nodes": [[["max_pooling2d_2", 0, 0, {}]]], "name": "conv2d_9", "config": {"padding": "same", "activation": "linear", "bias_regularizer": null, "name": "conv2d_9", "data_format": "channels_last", "use_bias": false, "kernel_constraint": null, "activity_regularizer": null, "trainable": true, "kernel_initializer": {"class_name": "VarianceScaling", "config": {"seed": null, "mode": "fan_avg", "scale": 1.0, "distribution": "uniform"}}, "filters": 64, "kernel_size": [1, 1], "bias_constraint": null, "strides": [1, 1], "dilation_rate": [1, 1], "bias_initializer": {"class_name": "Zeros", "config": {}}, "kernel_regularizer": null}}, {"class_name": "BatchNormalization", "inbound_nodes": [[["conv2d_9", 0, 0, {}]]], "name": "batch_normalization_9", "config": {"gamma_constraint": null, "name": "batch_normalization_9", "moving_variance_initializer": {"class_name": "Ones", "config": {}}, "axis": 3, "center": true, "epsilon": 0.001, "beta_constraint": null, "beta_regularizer": null, "scale": false, "beta_initializer": {"class_name": "Zeros", "config": {}}, "trainable": true, "gamma_initializer": {"class_name": "Ones", "config": {}}, "gamma_regularizer": null, "momentum": 0.99, "moving_mean_initializer": {"class_name": "Zeros", "config": {}}}}, {"class_name": "Activation", "inbound_nodes": [[["batch_normalization_9", 0, 0, {}]]], "name": "activation_9", "config": {"activation": "relu", "trainable": true, "name": "activation_9"}}, {"class_name": "Conv2D", "inbound_nodes": [[["max_pooling2d_2", 0, 0, {}]]], "name": "conv2d_7", "config": {"padding": "same", "activation": "linear", "bias_regularizer": null, "name": "conv2d_7", "data_format": "channels_last", "use_bias": false, "kernel_constraint": null, "activity_regularizer": null, "trainable": true, "kernel_initializer": {"class_name": "VarianceScaling", "config": {"seed": null, "mode": "fan_avg", "scale": 1.0, "distribution": "uniform"}}, "filters": 48, "kernel_size": [1, 1], "bias_constraint": null, "strides": [1, 1], "dilation_rate": [1, 1], "bias_initializer": {"class_name": "Zeros", "config": {}}, "kernel_regularizer": null}}, {"class_name": "Conv2D", "inbound_nodes": [[["activation_9", 0, 0, {}]]], "name": "conv2d_10", "config": {"padding": "same", "activation": "linear", "bias_regularizer": null, "name": "conv2d_10", "data_format": "channels_last", "use_bias": false, "kernel_constraint": null, "activity_regularizer": null, "trainable": true, "kernel_initializer": {"class_name": "VarianceScaling", "config": {"seed": null, "mode": "fan_avg", "scale": 1.0, "distribution": "uniform"}}, "filters": 96, "kernel_size": [3, 3], "bias_constraint": null, "strides": [1, 1], "dilation_rate": [1, 1], "bias_initializer": {"class_name": "Zeros", "config": {}}, "kernel_regularizer": null}}, {"class_name": "BatchNormalization", "inbound_nodes": [[["conv2d_7", 0, 0, {}]]], "name": "batch_normalization_7", "config": {"gamma_constraint": null, "name": "batch_normalization_7", "moving_variance_initializer": {"class_name": "Ones", "config": {}}, "axis": 3, "center": true, "epsilon": 0.001, "beta_constraint": null, "beta_regularizer": null, "scale": false, "beta_initializer": {"class_name": "Zeros", "config": {}}, "trainable": true, "gamma_initializer": {"class_name": "Ones", "config": {}}, "gamma_regularizer": null, "momentum": 0.99, "moving_mean_initializer": {"class_name": "Zeros", "config": {}}}}, {"class_name": "BatchNormalization", "inbound_nodes": [[["conv2d_10", 0, 0, {}]]], "name": "batch_normalization_10", "config": {"gamma_constraint": null, "name": "batch_normalization_10", "moving_variance_initializer": {"class_name": "Ones", "config": {}}, "axis": 3, "center": true, "epsilon": 0.001, "beta_constraint": null, "beta_regularizer": null, "scale": false, "beta_initializer": {"class_name": "Zeros", "config": {}}, "trainable": true, "gamma_initializer": {"class_name": "Ones", "config": {}}, "gamma_regularizer": null, "momentum": 0.99, "moving_mean_initializer": {"class_name": "Zeros", "config": {}}}}, {"class_name": "Activation", "inbound_nodes": [[["batch_normalization_7", 0, 0, {}]]], "name": "activation_7", "config": {"activation": "relu", "trainable": true, "name": "activation_7"}}, {"class_name": "Activation", "inbound_nodes": [[["batch_normalization_10", 0, 0, {}]]], "name": "activation_10", "config": {"activation": "relu", "trainable": true, "name": "activation_10"}}, {"class_name": "AveragePooling2D", "inbound_nodes": [[["max_pooling2d_2", 0, 0, {}]]], "name": "average_pooling2d_1", "config": {"padding": "same", "trainable": true, "name": "average_pooling2d_1", "data_format": "channels_last", "strides": [1, 1], "pool_size": [3, 3]}}, {"class_name": "Conv2D", "inbound_nodes": [[["max_pooling2d_2", 0, 0, {}]]], "name": "conv2d_6", "config": {"padding": "same", "activation": "linear", "bias_regularizer": null, "name": "conv2d_6", "data_format": "channels_last", "use_bias": false, "kernel_constraint": null, "activity_regularizer": null, "trainable": true, "kernel_initializer": {"class_name": "VarianceScaling", "config": {"seed": null, "mode": "fan_avg", "scale": 1.0, "distribution": "uniform"}}, "filters": 96, "kernel_size": [1, 1], "bias_constraint": null, "strides": [1, 1], "dilation_rate": [1, 1], "bias_initializer": {"class_name": "Zeros", "config": {}}, "kernel_regularizer": null}}, {"class_name": "Conv2D", "inbound_nodes": [[["activation_7", 0, 0, {}]]], "name": "conv2d_8", "config": {"padding": "same", "activation": "linear", "bias_regularizer": null, "name": "conv2d_8", "data_format": "channels_last", "use_bias": false, "kernel_constraint": null, "activity_regularizer": null, "trainable": true, "kernel_initializer": {"class_name": "VarianceScaling", "config": {"seed": null, "mode": "fan_avg", "scale": 1.0, "distribution": "uniform"}}, "filters": 64, "kernel_size": [5, 5], "bias_constraint": null, "strides": [1, 1], "dilation_rate": [1, 1], "bias_initializer": {"class_name": "Zeros", "config": {}}, "kernel_regularizer": null}}, {"class_name": "Conv2D", "inbound_nodes": [[["activation_10", 0, 0, {}]]], "name": "conv2d_11", "config": {"padding": "same", "activation": "linear", "bias_regularizer": null, "name": "conv2d_11", "data_format": "channels_last", "use_bias": false, "kernel_constraint": null, "activity_regularizer": null, "trainable": true, "kernel_initializer": {"class_name": "VarianceScaling", "config": {"seed": null, "mode": "fan_avg", "scale": 1.0, "distribution": "uniform"}}, "filters": 96, "kernel_size": [3, 3], "bias_constraint": null, "strides": [1, 1], "dilation_rate": [1, 1], "bias_initializer": {"class_name": "Zeros", "config": {}}, "kernel_regularizer": null}}, {"class_name": "Conv2D", "inbound_nodes": [[["average_pooling2d_1", 0, 0, {}]]], "name": "conv2d_12", "config": {"padding": "same", "activation": "linear", "bias_regularizer": null, "name": "conv2d_12", "data_format": "channels_last", "use_bias": false, "kernel_constraint": null, "activity_regularizer": null, "trainable": true, "kernel_initializer": {"class_name": "VarianceScaling", "config": {"seed": null, "mode": "fan_avg", "scale": 1.0, "distribution": "uniform"}}, "filters": 64, "kernel_size": [1, 1], "bias_constraint": null, "strides": [1, 1], "dilation_rate": [1, 1], "bias_initializer": {"class_name": "Zeros", "config": {}}, "kernel_regularizer": null}}, {"class_name": "BatchNormalization", "inbound_nodes": [[["conv2d_6", 0, 0, {}]]], "name": "batch_normalization_6", "config": {"gamma_constraint": null, "name": "batch_normalization_6", "moving_variance_initializer": {"class_name": "Ones", "config": {}}, "axis": 3, "center": true, "epsilon": 0.001, "beta_constraint": null, "beta_regularizer": null, "scale": false, "beta_initializer": {"class_name": "Zeros", "config": {}}, "trainable": true, "gamma_initializer": {"class_name": "Ones", "config": {}}, "gamma_regularizer": null, "momentum": 0.99, "moving_mean_initializer": {"class_name": "Zeros", "config": {}}}}, {"class_name": "BatchNormalization", "inbound_nodes": [[["conv2d_8", 0, 0, {}]]], "name": "batch_normalization_8", "config": {"gamma_constraint": null, "name": "batch_normalization_8", "moving_variance_initializer": {"class_name": "Ones", "config": {}}, "axis": 3, "center": true, "epsilon": 0.001, "beta_constraint": null, "beta_regularizer": null, "scale": false, "beta_initializer": {"class_name": "Zeros", "config": {}}, "trainable": true, "gamma_initializer": {"class_name": "Ones", "config": {}}, "gamma_regularizer": null, "momentum": 0.99, "moving_mean_initializer": {"class_name": "Zeros", "config": {}}}}, {"class_name": "BatchNormalization", "inbound_nodes": [[["conv2d_11", 0, 0, {}]]], "name": "batch_normalization_11", "config": {"gamma_constraint": null, "name": "batch_normalization_11", "moving_variance_initializer": {"class_name": "Ones", "config": {}}, "axis": 3, "center": true, "epsilon": 0.001, "beta_constraint": null, "beta_regularizer": null, "scale": false, "beta_initializer": {"class_name": "Zeros", "config": {}}, "trainable": true, "gamma_initializer": {"class_name": "Ones", "config": {}}, "gamma_regularizer": null, "momentum": 0.99, "moving_mean_initializer": {"class_name": "Zeros", "config": {}}}}, {"class_name": "BatchNormalization", "inbound_nodes": [[["conv2d_12", 0, 0, {}]]], "name": "batch_normalization_12", "config": {"gamma_constraint": null, "name": "batch_normalization_12", "moving_variance_initializer": {"class_name": "Ones", "config": {}}, "axis": 3, "center": true, "epsilon": 0.001, "beta_constraint": null, "beta_regularizer": null, "scale": false, "beta_initializer": {"class_name": "Zeros", "config": {}}, "trainable": true, "gamma_initializer": {"class_name": "Ones", "config": {}}, "gamma_regularizer": null, "momentum": 0.99, "moving_mean_initializer": {"class_name": "Zeros", "config": {}}}}, {"class_name": "Activation", "inbound_nodes": [[["batch_normalization_6", 0, 0, {}]]], "name": "activation_6", "config": {"activation": "relu", "trainable": true, "name": "activation_6"}}, {"class_name": "Activation", "inbound_nodes": [[["batch_normalization_8", 0, 0, {}]]], "name": "activation_8", "config": {"activation": "relu", "trainable": true, "name": "activation_8"}}, {"class_name": "Activation", "inbound_nodes": [[["batch_normalization_11", 0, 0, {}]]], "name": "activation_11", "config": {"activation": "relu", "trainable": true, "name": "activation_11"}}, {"class_name": "Activation", "inbound_nodes": [[["batch_normalization_12", 0, 0, {}]]], "name": "activation_12", "config": {"activation": "relu", "trainable": true, "name": "activation_12"}}, {"class_name": "Concatenate", "inbound_nodes": [[["activation_6", 0, 0, {}], ["activation_8", 0, 0, {}], ["activation_11", 0, 0, {}], ["activation_12", 0, 0, {}]]], "name": "mixed_5b", "config": {"trainable": true, "axis": 3, "name": "mixed_5b"}}, {"class_name": "Conv2D", "inbound_nodes": [[["mixed_5b", 0, 0, {}]]], "name": "conv2d_16", "config": {"padding": "same", "activation": "linear", "bias_regularizer": null, "name": "conv2d_16", "data_format": "channels_last", "use_bias": false, "kernel_constraint": null, "activity_regularizer": null, "trainable": true, "kernel_initializer": {"class_name": "VarianceScaling", "config": {"seed": null, "mode": "fan_avg", "scale": 1.0, "distribution": "uniform"}}, "filters": 32, "kernel_size": [1, 1], "bias_constraint": null, "strides": [1, 1], "dilation_rate": [1, 1], "bias_initializer": {"class_name": "Zeros", "config": {}}, "kernel_regularizer": null}}, {"class_name": "BatchNormalization", "inbound_nodes": [[["conv2d_16", 0, 0, {}]]], "name": "batch_normalization_16", "config": {"gamma_constraint": null, "name": "batch_normalization_16", "moving_variance_initializer": {"class_name": "Ones", "config": {}}, "axis": 3, "center": true, "epsilon": 0.001, "beta_constraint": null, "beta_regularizer": null, "scale": false, "beta_initializer": {"class_name": "Zeros", "config": {}}, "trainable": true, "gamma_initializer": {"class_name": "Ones", "config": {}}, "gamma_regularizer": null, "momentum": 0.99, "moving_mean_initializer": {"class_name": "Zeros", "config": {}}}}, {"class_name": "Activation", "inbound_nodes": [[["batch_normalization_16", 0, 0, {}]]], "name": "activation_16", "config": {"activation": "relu", "trainable": true, "name": "activation_16"}}, {"class_name": "Conv2D", "inbound_nodes": [[["mixed_5b", 0, 0, {}]]], "name": "conv2d_14", "config": {"padding": "same", "activation": "linear", "bias_regularizer": null, "name": "conv2d_14", "data_format": "channels_last", "use_bias": false, "kernel_constraint": null, "activity_regularizer": null, "trainable": true, "kernel_initializer": {"class_name": "VarianceScaling", "config": {"seed": null, "mode": "fan_avg", "scale": 1.0, "distribution": "uniform"}}, "filters": 32, "kernel_size": [1, 1], "bias_constraint": null, "strides": [1, 1], "dilation_rate": [1, 1], "bias_initializer": {"class_name": "Zeros", "config": {}}, "kernel_regularizer": null}}, {"class_name": "Conv2D", "inbound_nodes": [[["activation_16", 0, 0, {}]]], "name": "conv2d_17", "config": {"padding": "same", "activation": "linear", "bias_regularizer": null, "name": "conv2d_17", "data_format": "channels_last", "use_bias": false, "kernel_constraint": null, "activity_regularizer": null, "trainable": true, "kernel_initializer": {"class_name": "VarianceScaling", "config": {"seed": null, "mode": "fan_avg", "scale": 1.0, "distribution": "uniform"}}, "filters": 48, "kernel_size": [3, 3], "bias_constraint": null, "strides": [1, 1], "dilation_rate": [1, 1], "bias_initializer": {"class_name": "Zeros", "config": {}}, "kernel_regularizer": null}}, {"class_name": "BatchNormalization", "inbound_nodes": [[["conv2d_14", 0, 0, {}]]], "name": "batch_normalization_14", "config": {"gamma_constraint": null, "name": "batch_normalization_14", "moving_variance_initializer": {"class_name": "Ones", "config": {}}, "axis": 3, "center": true, "epsilon": 0.001, "beta_constraint": null, "beta_regularizer": null, "scale": false, "beta_initializer": {"class_name": "Zeros", "config": {}}, "trainable": true, "gamma_initializer": {"class_name": "Ones", "config": {}}, "gamma_regularizer": null, "momentum": 0.99, "moving_mean_initializer": {"class_name": "Zeros", "config": {}}}}, {"class_name": "BatchNormalization", "inbound_nodes": [[["conv2d_17", 0, 0, {}]]], "name": "batch_normalization_17", "config": {"gamma_constraint": null, "name": "batch_normalization_17", "moving_variance_initializer": {"class_name": "Ones", "config": {}}, "axis": 3, "center": true, "epsilon": 0.001, "beta_constraint": null, "beta_regularizer": null, "scale": false, "beta_initializer": {"class_name": "Zeros", "config": {}}, "trainable": true, "gamma_initializer": {"class_name": "Ones", "config": {}}, "gamma_regularizer": null, "momentum": 0.99, "moving_mean_initializer": {"class_name": "Zeros", "config": {}}}}, {"class_name": "Activation", "inbound_nodes": [[["batch_normalization_14", 0, 0, {}]]], "name": "activation_14", "config": {"activation": "relu", "trainable": true, "name": "activation_14"}}, {"class_name": "Activation", "inbound_nodes": [[["batch_normalization_17", 0, 0, {}]]], "name": "activation_17", "config": {"activation": "relu", "trainable": true, "name": "activation_17"}}, {"class_name": "Conv2D", "inbound_nodes": [[["mixed_5b", 0, 0, {}]]], "name": "conv2d_13", "config": {"padding": "same", "activation": "linear", "bias_regularizer": null, "name": "conv2d_13", "data_format": "channels_last", "use_bias": false, "kernel_constraint": null, "activity_regularizer": null, "trainable": true, "kernel_initializer": {"class_name": "VarianceScaling", "config": {"seed": null, "mode": "fan_avg", "scale": 1.0, "distribution": "uniform"}}, "filters": 32, "kernel_size": [1, 1], "bias_constraint": null, "strides": [1, 1], "dilation_rate": [1, 1], "bias_initializer": {"class_name": "Zeros", "config": {}}, "kernel_regularizer": null}}, {"class_name": "Conv2D", "inbound_nodes": [[["activation_14", 0, 0, {}]]], "name": "conv2d_15", "config": {"padding": "same", "activation": "linear", "bias_regularizer": null, "name": "conv2d_15", "data_format": "channels_last", "use_bias": false, "kernel_constraint": null, "activity_regularizer": null, "trainable": true, "kernel_initializer": {"class_name": "VarianceScaling", "config": {"seed": null, "mode": "fan_avg", "scale": 1.0, "distribution": "uniform"}}, "filters": 32, "kernel_size": [3, 3], "bias_constraint": null, "strides": [1, 1], "dilation_rate": [1, 1], "bias_initializer": {"class_name": "Zeros", "config": {}}, "kernel_regularizer": null}}, {"class_name": "Conv2D", "inbound_nodes": [[["activation_17", 0, 0, {}]]], "name": "conv2d_18", "config": {"padding": "same", "activation": "linear", "bias_regularizer": null, "name": "conv2d_18", "data_format": "channels_last", "use_bias": false, "kernel_constraint": null, "activity_regularizer": null, "trainable": true, "kernel_initializer": {"class_name": "VarianceScaling", "config": {"seed": null, "mode": "fan_avg", "scale": 1.0, "distribution": "uniform"}}, "filters": 64, "kernel_size": [3, 3], "bias_constraint": null, "strides": [1, 1], "dilation_rate": [1, 1], "bias_initializer": {"class_name": "Zeros", "config": {}}, "kernel_regularizer": null}}, {"class_name": "BatchNormalization", "inbound_nodes": [[["conv2d_13", 0, 0, {}]]], "name": "batch_normalization_13", "config": {"gamma_constraint": null, "name": "batch_normalization_13", "moving_variance_initializer": {"class_name": "Ones", "config": {}}, "axis": 3, "center": true, "epsilon": 0.001, "beta_constraint": null, "beta_regularizer": null, "scale": false, "beta_initializer": {"class_name": "Zeros", "config": {}}, "trainable": true, "gamma_initializer": {"class_name": "Ones", "config": {}}, "gamma_regularizer": null, "momentum": 0.99, "moving_mean_initializer": {"class_name": "Zeros", "config": {}}}}, {"class_name": "BatchNormalization", "inbound_nodes": [[["conv2d_15", 0, 0, {}]]], "name": "batch_normalization_15", "config": {"gamma_constraint": null, "name": "batch_normalization_15", "moving_variance_initializer": {"class_name": "Ones", "config": {}}, "axis": 3, "center": true, "epsilon": 0.001, "beta_constraint": null, "beta_regularizer": null, "scale": false, "beta_initializer": {"class_name": "Zeros", "config": {}}, "trainable": true, "gamma_initializer": {"class_name": "Ones", "config": {}}, "gamma_regularizer": null, "momentum": 0.99, "moving_mean_initializer": {"class_name": "Zeros", "config": {}}}}, {"class_name": "BatchNormalization", "inbound_nodes": [[["conv2d_18", 0, 0, {}]]], "name": "batch_normalization_18", "config": {"gamma_constraint": null, "name": "batch_normalization_18", "moving_variance_initializer": {"class_name": "Ones", "config": {}}, "axis": 3, "center": true, "epsilon": 0.001, "beta_constraint": null, "beta_regularizer": null, "scale": false, "beta_initializer": {"class_name": "Zeros", "config": {}}, "trainable": true, "gamma_initializer": {"class_name": "Ones", "config": {}}, "gamma_regularizer": null, "momentum": 0.99, "moving_mean_initializer": {"class_name": "Zeros", "config": {}}}}, {"class_name": "Activation", "inbound_nodes": [[["batch_normalization_13", 0, 0, {}]]], "name": "activation_13", "config": {"activation": "relu", "trainable": true, "name": "activation_13"}}, {"class_name": "Activation", "inbound_nodes": [[["batch_normalization_15", 0, 0, {}]]], "name": "activation_15", "config": {"activation": "relu", "trainable": true, "name": "activation_15"}}, {"class_name": "Activation", "inbound_nodes": [[["batch_normalization_18", 0, 0, {}]]], "name": "activation_18", "config": {"activation": "relu", "trainable": true, "name": "activation_18"}}, {"class_name": "Concatenate", "inbound_nodes": [[["activation_13", 0, 0, {}], ["activation_15", 0, 0, {}], ["activation_18", 0, 0, {}]]], "name": "block35_1_mixed", "config": {"trainable": true, "axis": 3, "name": "block35_1_mixed"}}, {"class_name": "Conv2D", "inbound_nodes": [[["block35_1_mixed", 0, 0, {}]]], "name": "block35_1_conv", "config": {"padding": "same", "activation": "linear", "bias_regularizer": null, "name": "block35_1_conv", "data_format": "channels_last", "use_bias": true, "kernel_constraint": null, "activity_regularizer": null, "trainable": true, "kernel_initializer": {"class_name": "VarianceScaling", "config": {"seed": null, "mode": "fan_avg", "scale": 1.0, "distribution": "uniform"}}, "filters": 320, "kernel_size": [1, 1], "bias_constraint": null, "strides": [1, 1], "dilation_rate": [1, 1], "bias_initializer": {"class_name": "Zeros", "config": {}}, "kernel_regularizer": null}}, {"class_name": "Lambda", "inbound_nodes": [[["mixed_5b", 0, 0, {}], ["block35_1_conv", 0, 0, {}]]], "name": "block35_1", "config": {"trainable": true, "arguments": {"scale": 0.17}, "name": "block35_1", "output_shape_type": "raw", "function": ["4wIAAAAAAAAAAgAAAAMAAABTAAAAcxQAAAB8AABkAQAZfAAAZAIAGXwBABQXUykDTukAAAAA6QEA\nAACpACkC2gZpbnB1dHPaBXNjYWxlcgMAAAByAwAAAPpqL2hvbWUvbXNoYWlraDIvYW5hY29uZGEz\nL2VudnMvdGYtZ3B1L2xpYi9weXRob24zLjUvc2l0ZS1wYWNrYWdlcy9rZXJhc19hcHBsaWNhdGlv\nbnMvaW5jZXB0aW9uX3Jlc25ldF92Mi5wedoIPGxhbWJkYT6qAAAA8wAAAAA=\n", null, null], "function_type": "lambda", "output_shape": [29, 29, 320]}}, {"class_name": "Activation", "inbound_nodes": [[["block35_1", 0, 0, {}]]], "name": "block35_1_ac", "config": {"activation": "relu", "trainable": true, "name": "block35_1_ac"}}, {"class_name": "Conv2D", "inbound_nodes": [[["block35_1_ac", 0, 0, {}]]], "name": "conv2d_22", "config": {"padding": "same", "activation": "linear", "bias_regularizer": null, "name": "conv2d_22", "data_format": "channels_last", "use_bias": false, "kernel_constraint": null, "activity_regularizer": null, "trainable": true, "kernel_initializer": {"class_name": "VarianceScaling", "config": {"seed": null, "mode": "fan_avg", "scale": 1.0, "distribution": "uniform"}}, "filters": 32, "kernel_size": [1, 1], "bias_constraint": null, "strides": [1, 1], "dilation_rate": [1, 1], "bias_initializer": {"class_name": "Zeros", "config": {}}, "kernel_regularizer": null}}, {"class_name": "BatchNormalization", "inbound_nodes": [[["conv2d_22", 0, 0, {}]]], "name": "batch_normalization_22", "config": {"gamma_constraint": null, "name": "batch_normalization_22", "moving_variance_initializer": {"class_name": "Ones", "config": {}}, "axis": 3, "center": true, "epsilon": 0.001, "beta_constraint": null, "beta_regularizer": null, "scale": false, "beta_initializer": {"class_name": "Zeros", "config": {}}, "trainable": true, "gamma_initializer": {"class_name": "Ones", "config": {}}, "gamma_regularizer": null, "momentum": 0.99, "moving_mean_initializer": {"class_name": "Zeros", "config": {}}}}, {"class_name": "Activation", "inbound_nodes": [[["batch_normalization_22", 0, 0, {}]]], "name": "activation_22", "config": {"activation": "relu", "trainable": true, "name": "activation_22"}}, {"class_name": "Conv2D", "inbound_nodes": [[["block35_1_ac", 0, 0, {}]]], "name": "conv2d_20", "config": {"padding": "same", "activation": "linear", "bias_regularizer": null, "name": "conv2d_20", "data_format": "channels_last", "use_bias": false, "kernel_constraint": null, "activity_regularizer": null, "trainable": true, "kernel_initializer": {"class_name": "VarianceScaling", "config": {"seed": null, "mode": "fan_avg", "scale": 1.0, "distribution": "uniform"}}, "filters": 32, "kernel_size": [1, 1], "bias_constraint": null, "strides": [1, 1], "dilation_rate": [1, 1], "bias_initializer": {"class_name": "Zeros", "config": {}}, "kernel_regularizer": null}}, {"class_name": "Conv2D", "inbound_nodes": [[["activation_22", 0, 0, {}]]], "name": "conv2d_23", "config": {"padding": "same", "activation": "linear", "bias_regularizer": null, "name": "conv2d_23", "data_format": "channels_last", "use_bias": false, "kernel_constraint": null, "activity_regularizer": null, "trainable": true, "kernel_initializer": {"class_name": "VarianceScaling", "config": {"seed": null, "mode": "fan_avg", "scale": 1.0, "distribution": "uniform"}}, "filters": 48, "kernel_size": [3, 3], "bias_constraint": null, "strides": [1, 1], "dilation_rate": [1, 1], "bias_initializer": {"class_name": "Zeros", "config": {}}, "kernel_regularizer": null}}, {"class_name": "BatchNormalization", "inbound_nodes": [[["conv2d_20", 0, 0, {}]]], "name": "batch_normalization_20", "config": {"gamma_constraint": null, "name": "batch_normalization_20", "moving_variance_initializer": {"class_name": "Ones", "config": {}}, "axis": 3, "center": true, "epsilon": 0.001, "beta_constraint": null, "beta_regularizer": null, "scale": false, "beta_initializer": {"class_name": "Zeros", "config": {}}, "trainable": true, "gamma_initializer": {"class_name": "Ones", "config": {}}, "gamma_regularizer": null, "momentum": 0.99, "moving_mean_initializer": {"class_name": "Zeros", "config": {}}}}, {"class_name": "BatchNormalization", "inbound_nodes": [[["conv2d_23", 0, 0, {}]]], "name": "batch_normalization_23", "config": {"gamma_constraint": null, "name": "batch_normalization_23", "moving_variance_initializer": {"class_name": "Ones", "config": {}}, "axis": 3, "center": true, "epsilon": 0.001, "beta_constraint": null, "beta_regularizer": null, "scale": false, "beta_initializer": {"class_name": "Zeros", "config": {}}, "trainable": true, "gamma_initializer": {"class_name": "Ones", "config": {}}, "gamma_regularizer": null, "momentum": 0.99, "moving_mean_initializer": {"class_name": "Zeros", "config": {}}}}, {"class_name": "Activation", "inbound_nodes": [[["batch_normalization_20", 0, 0, {}]]], "name": "activation_20", "config": {"activation": "relu", "trainable": true, "name": "activation_20"}}, {"class_name": "Activation", "inbound_nodes": [[["batch_normalization_23", 0, 0, {}]]], "name": "activation_23", "config": {"activation": "relu", "trainable": true, "name": "activation_23"}}, {"class_name": "Conv2D", "inbound_nodes": [[["block35_1_ac", 0, 0, {}]]], "name": "conv2d_19", "config": {"padding": "same", "activation": "linear", "bias_regularizer": null, "name": "conv2d_19", "data_format": "channels_last", "use_bias": false, "kernel_constraint": null, "activity_regularizer": null, "trainable": true, "kernel_initializer": {"class_name": "VarianceScaling", "config": {"seed": null, "mode": "fan_avg", "scale": 1.0, "distribution": "uniform"}}, "filters": 32, "kernel_size": [1, 1], "bias_constraint": null, "strides": [1, 1], "dilation_rate": [1, 1], "bias_initializer": {"class_name": "Zeros", "config": {}}, "kernel_regularizer": null}}, {"class_name": "Conv2D", "inbound_nodes": [[["activation_20", 0, 0, {}]]], "name": "conv2d_21", "config": {"padding": "same", "activation": "linear", "bias_regularizer": null, "name": "conv2d_21", "data_format": "channels_last", "use_bias": false, "kernel_constraint": null, "activity_regularizer": null, "trainable": true, "kernel_initializer": {"class_name": "VarianceScaling", "config": {"seed": null, "mode": "fan_avg", "scale": 1.0, "distribution": "uniform"}}, "filters": 32, "kernel_size": [3, 3], "bias_constraint": null, "strides": [1, 1], "dilation_rate": [1, 1], "bias_initializer": {"class_name": "Zeros", "config": {}}, "kernel_regularizer": null}}, {"class_name": "Conv2D", "inbound_nodes": [[["activation_23", 0, 0, {}]]], "name": "conv2d_24", "config": {"padding": "same", "activation": "linear", "bias_regularizer": null, "name": "conv2d_24", "data_format": "channels_last", "use_bias": false, "kernel_constraint": null, "activity_regularizer": null, "trainable": true, "kernel_initializer": {"class_name": "VarianceScaling", "config": {"seed": null, "mode": "fan_avg", "scale": 1.0, "distribution": "uniform"}}, "filters": 64, "kernel_size": [3, 3], "bias_constraint": null, "strides": [1, 1], "dilation_rate": [1, 1], "bias_initializer": {"class_name": "Zeros", "config": {}}, "kernel_regularizer": null}}, {"class_name": "BatchNormalization", "inbound_nodes": [[["conv2d_19", 0, 0, {}]]], "name": "batch_normalization_19", "config": {"gamma_constraint": null, "name": "batch_normalization_19", "moving_variance_initializer": {"class_name": "Ones", "config": {}}, "axis": 3, "center": true, "epsilon": 0.001, "beta_constraint": null, "beta_regularizer": null, "scale": false, "beta_initializer": {"class_name": "Zeros", "config": {}}, "trainable": true, "gamma_initializer": {"class_name": "Ones", "config": {}}, "gamma_regularizer": null, "momentum": 0.99, "moving_mean_initializer": {"class_name": "Zeros", "config": {}}}}, {"class_name": "BatchNormalization", "inbound_nodes": [[["conv2d_21", 0, 0, {}]]], "name": "batch_normalization_21", "config": {"gamma_constraint": null, "name": "batch_normalization_21", "moving_variance_initializer": {"class_name": "Ones", "config": {}}, "axis": 3, "center": true, "epsilon": 0.001, "beta_constraint": null, "beta_regularizer": null, "scale": false, "beta_initializer": {"class_name": "Zeros", "config": {}}, "trainable": true, "gamma_initializer": {"class_name": "Ones", "config": {}}, "gamma_regularizer": null, "momentum": 0.99, "moving_mean_initializer": {"class_name": "Zeros", "config": {}}}}, {"class_name": "BatchNormalization", "inbound_nodes": [[["conv2d_24", 0, 0, {}]]], "name": "batch_normalization_24", "config": {"gamma_constraint": null, "name": "batch_normalization_24", "moving_variance_initializer": {"class_name": "Ones", "config": {}}, "axis": 3, "center": true, "epsilon": 0.001, "beta_constraint": null, "beta_regularizer": null, "scale": false, "beta_initializer": {"class_name": "Zeros", "config": {}}, "trainable": true, "gamma_initializer": {"class_name": "Ones", "config": {}}, "gamma_regularizer": null, "momentum": 0.99, "moving_mean_initializer": {"class_name": "Zeros", "config": {}}}}, {"class_name": "Activation", "inbound_nodes": [[["batch_normalization_19", 0, 0, {}]]], "name": "activation_19", "config": {"activation": "relu", "trainable": true, "name": "activation_19"}}, {"class_name": "Activation", "inbound_nodes": [[["batch_normalization_21", 0, 0, {}]]], "name": "activation_21", "config": {"activation": "relu", "trainable": true, "name": "activation_21"}}, {"class_name": "Activation", "inbound_nodes": [[["batch_normalization_24", 0, 0, {}]]], "name": "activation_24", "config": {"activation": "relu", "trainable": true, "name": "activation_24"}}, {"class_name": "Concatenate", "inbound_nodes": [[["activation_19", 0, 0, {}], ["activation_21", 0, 0, {}], ["activation_24", 0, 0, {}]]], "name": "block35_2_mixed", "config": {"trainable": true, "axis": 3, "name": "block35_2_mixed"}}, {"class_name": "Conv2D", "inbound_nodes": [[["block35_2_mixed", 0, 0, {}]]], "name": "block35_2_conv", "config": {"padding": "same", "activation": "linear", "bias_regularizer": null, "name": "block35_2_conv", "data_format": "channels_last", "use_bias": true, "kernel_constraint": null, "activity_regularizer": null, "trainable": true, "kernel_initializer": {"class_name": "VarianceScaling", "config": {"seed": null, "mode": "fan_avg", "scale": 1.0, "distribution": "uniform"}}, "filters": 320, "kernel_size": [1, 1], "bias_constraint": null, "strides": [1, 1], "dilation_rate": [1, 1], "bias_initializer": {"class_name": "Zeros", "config": {}}, "kernel_regularizer": null}}, {"class_name": "Lambda", "inbound_nodes": [[["block35_1_ac", 0, 0, {}], ["block35_2_conv", 0, 0, {}]]], "name": "block35_2", "config": {"trainable": true, "arguments": {"scale": 0.17}, "name": "block35_2", "output_shape_type": "raw", "function": ["4wIAAAAAAAAAAgAAAAMAAABTAAAAcxQAAAB8AABkAQAZfAAAZAIAGXwBABQXUykDTukAAAAA6QEA\nAACpACkC2gZpbnB1dHPaBXNjYWxlcgMAAAByAwAAAPpqL2hvbWUvbXNoYWlraDIvYW5hY29uZGEz\nL2VudnMvdGYtZ3B1L2xpYi9weXRob24zLjUvc2l0ZS1wYWNrYWdlcy9rZXJhc19hcHBsaWNhdGlv\nbnMvaW5jZXB0aW9uX3Jlc25ldF92Mi5wedoIPGxhbWJkYT6qAAAA8wAAAAA=\n", null, null], "function_type": "lambda", "output_shape": [29, 29, 320]}}, {"class_name": "Activation", "inbound_nodes": [[["block35_2", 0, 0, {}]]], "name": "block35_2_ac", "config": {"activation": "relu", "trainable": true, "name": "block35_2_ac"}}, {"class_name": "Conv2D", "inbound_nodes": [[["block35_2_ac", 0, 0, {}]]], "name": "conv2d_28", "config": {"padding": "same", "activation": "linear", "bias_regularizer": null, "name": "conv2d_28", "data_format": "channels_last", "use_bias": false, "kernel_constraint": null, "activity_regularizer": null, "trainable": true, "kernel_initializer": {"class_name": "VarianceScaling", "config": {"seed": null, "mode": "fan_avg", "scale": 1.0, "distribution": "uniform"}}, "filters": 32, "kernel_size": [1, 1], "bias_constraint": null, "strides": [1, 1], "dilation_rate": [1, 1], "bias_initializer": {"class_name": "Zeros", "config": {}}, "kernel_regularizer": null}}, {"class_name": "BatchNormalization", "inbound_nodes": [[["conv2d_28", 0, 0, {}]]], "name": "batch_normalization_28", "config": {"gamma_constraint": null, "name": "batch_normalization_28", "moving_variance_initializer": {"class_name": "Ones", "config": {}}, "axis": 3, "center": true, "epsilon": 0.001, "beta_constraint": null, "beta_regularizer": null, "scale": false, "beta_initializer": {"class_name": "Zeros", "config": {}}, "trainable": true, "gamma_initializer": {"class_name": "Ones", "config": {}}, "gamma_regularizer": null, "momentum": 0.99, "moving_mean_initializer": {"class_name": "Zeros", "config": {}}}}, {"class_name": "Activation", "inbound_nodes": [[["batch_normalization_28", 0, 0, {}]]], "name": "activation_28", "config": {"activation": "relu", "trainable": true, "name": "activation_28"}}, {"class_name": "Conv2D", "inbound_nodes": [[["block35_2_ac", 0, 0, {}]]], "name": "conv2d_26", "config": {"padding": "same", "activation": "linear", "bias_regularizer": null, "name": "conv2d_26", "data_format": "channels_last", "use_bias": false, "kernel_constraint": null, "activity_regularizer": null, "trainable": true, "kernel_initializer": {"class_name": "VarianceScaling", "config": {"seed": null, "mode": "fan_avg", "scale": 1.0, "distribution": "uniform"}}, "filters": 32, "kernel_size": [1, 1], "bias_constraint": null, "strides": [1, 1], "dilation_rate": [1, 1], "bias_initializer": {"class_name": "Zeros", "config": {}}, "kernel_regularizer": null}}, {"class_name": "Conv2D", "inbound_nodes": [[["activation_28", 0, 0, {}]]], "name": "conv2d_29", "config": {"padding": "same", "activation": "linear", "bias_regularizer": null, "name": "conv2d_29", "data_format": "channels_last", "use_bias": false, "kernel_constraint": null, "activity_regularizer": null, "trainable": true, "kernel_initializer": {"class_name": "VarianceScaling", "config": {"seed": null, "mode": "fan_avg", "scale": 1.0, "distribution": "uniform"}}, "filters": 48, "kernel_size": [3, 3], "bias_constraint": null, "strides": [1, 1], "dilation_rate": [1, 1], "bias_initializer": {"class_name": "Zeros", "config": {}}, "kernel_regularizer": null}}, {"class_name": "BatchNormalization", "inbound_nodes": [[["conv2d_26", 0, 0, {}]]], "name": "batch_normalization_26", "config": {"gamma_constraint": null, "name": "batch_normalization_26", "moving_variance_initializer": {"class_name": "Ones", "config": {}}, "axis": 3, "center": true, "epsilon": 0.001, "beta_constraint": null, "beta_regularizer": null, "scale": false, "beta_initializer": {"class_name": "Zeros", "config": {}}, "trainable": true, "gamma_initializer": {"class_name": "Ones", "config": {}}, "gamma_regularizer": null, "momentum": 0.99, "moving_mean_initializer": {"class_name": "Zeros", "config": {}}}}, {"class_name": "BatchNormalization", "inbound_nodes": [[["conv2d_29", 0, 0, {}]]], "name": "batch_normalization_29", "config": {"gamma_constraint": null, "name": "batch_normalization_29", "moving_variance_initializer": {"class_name": "Ones", "config": {}}, "axis": 3, "center": true, "epsilon": 0.001, "beta_constraint": null, "beta_regularizer": null, "scale": false, "beta_initializer": {"class_name": "Zeros", "config": {}}, "trainable": true, "gamma_initializer": {"class_name": "Ones", "config": {}}, "gamma_regularizer": null, "momentum": 0.99, "moving_mean_initializer": {"class_name": "Zeros", "config": {}}}}, {"class_name": "Activation", "inbound_nodes": [[["batch_normalization_26", 0, 0, {}]]], "name": "activation_26", "config": {"activation": "relu", "trainable": true, "name": "activation_26"}}, {"class_name": "Activation", "inbound_nodes": [[["batch_normalization_29", 0, 0, {}]]], "name": "activation_29", "config": {"activation": "relu", "trainable": true, "name": "activation_29"}}, {"class_name": "Conv2D", "inbound_nodes": [[["block35_2_ac", 0, 0, {}]]], "name": "conv2d_25", "config": {"padding": "same", "activation": "linear", "bias_regularizer": null, "name": "conv2d_25", "data_format": "channels_last", "use_bias": false, "kernel_constraint": null, "activity_regularizer": null, "trainable": true, "kernel_initializer": {"class_name": "VarianceScaling", "config": {"seed": null, "mode": "fan_avg", "scale": 1.0, "distribution": "uniform"}}, "filters": 32, "kernel_size": [1, 1], "bias_constraint": null, "strides": [1, 1], "dilation_rate": [1, 1], "bias_initializer": {"class_name": "Zeros", "config": {}}, "kernel_regularizer": null}}, {"class_name": "Conv2D", "inbound_nodes": [[["activation_26", 0, 0, {}]]], "name": "conv2d_27", "config": {"padding": "same", "activation": "linear", "bias_regularizer": null, "name": "conv2d_27", "data_format": "channels_last", "use_bias": false, "kernel_constraint": null, "activity_regularizer": null, "trainable": true, "kernel_initializer": {"class_name": "VarianceScaling", "config": {"seed": null, "mode": "fan_avg", "scale": 1.0, "distribution": "uniform"}}, "filters": 32, "kernel_size": [3, 3], "bias_constraint": null, "strides": [1, 1], "dilation_rate": [1, 1], "bias_initializer": {"class_name": "Zeros", "config": {}}, "kernel_regularizer": null}}, {"class_name": "Conv2D", "inbound_nodes": [[["activation_29", 0, 0, {}]]], "name": "conv2d_30", "config": {"padding": "same", "activation": "linear", "bias_regularizer": null, "name": "conv2d_30", "data_format": "channels_last", "use_bias": false, "kernel_constraint": null, "activity_regularizer": null, "trainable": true, "kernel_initializer": {"class_name": "VarianceScaling", "config": {"seed": null, "mode": "fan_avg", "scale": 1.0, "distribution": "uniform"}}, "filters": 64, "kernel_size": [3, 3], "bias_constraint": null, "strides": [1, 1], "dilation_rate": [1, 1], "bias_initializer": {"class_name": "Zeros", "config": {}}, "kernel_regularizer": null}}, {"class_name": "BatchNormalization", "inbound_nodes": [[["conv2d_25", 0, 0, {}]]], "name": "batch_normalization_25", "config": {"gamma_constraint": null, "name": "batch_normalization_25", "moving_variance_initializer": {"class_name": "Ones", "config": {}}, "axis": 3, "center": true, "epsilon": 0.001, "beta_constraint": null, "beta_regularizer": null, "scale": false, "beta_initializer": {"class_name": "Zeros", "config": {}}, "trainable": true, "gamma_initializer": {"class_name": "Ones", "config": {}}, "gamma_regularizer": null, "momentum": 0.99, "moving_mean_initializer": {"class_name": "Zeros", "config": {}}}}, {"class_name": "BatchNormalization", "inbound_nodes": [[["conv2d_27", 0, 0, {}]]], "name": "batch_normalization_27", "config": {"gamma_constraint": null, "name": "batch_normalization_27", "moving_variance_initializer": {"class_name": "Ones", "config": {}}, "axis": 3, "center": true, "epsilon": 0.001, "beta_constraint": null, "beta_regularizer": null, "scale": false, "beta_initializer": {"class_name": "Zeros", "config": {}}, "trainable": true, "gamma_initializer": {"class_name": "Ones", "config": {}}, "gamma_regularizer": null, "momentum": 0.99, "moving_mean_initializer": {"class_name": "Zeros", "config": {}}}}, {"class_name": "BatchNormalization", "inbound_nodes": [[["conv2d_30", 0, 0, {}]]], "name": "batch_normalization_30", "config": {"gamma_constraint": null, "name": "batch_normalization_30", "moving_variance_initializer": {"class_name": "Ones", "config": {}}, "axis": 3, "center": true, "epsilon": 0.001, "beta_constraint": null, "beta_regularizer": null, "scale": false, "beta_initializer": {"class_name": "Zeros", "config": {}}, "trainable": true, "gamma_initializer": {"class_name": "Ones", "config": {}}, "gamma_regularizer": null, "momentum": 0.99, "moving_mean_initializer": {"class_name": "Zeros", "config": {}}}}, {"class_name": "Activation", "inbound_nodes": [[["batch_normalization_25", 0, 0, {}]]], "name": "activation_25", "config": {"activation": "relu", "trainable": true, "name": "activation_25"}}, {"class_name": "Activation", "inbound_nodes": [[["batch_normalization_27", 0, 0, {}]]], "name": "activation_27", "config": {"activation": "relu", "trainable": true, "name": "activation_27"}}, {"class_name": "Activation", "inbound_nodes": [[["batch_normalization_30", 0, 0, {}]]], "name": "activation_30", "config": {"activation": "relu", "trainable": true, "name": "activation_30"}}, {"class_name": "Concatenate", "inbound_nodes": [[["activation_25", 0, 0, {}], ["activation_27", 0, 0, {}], ["activation_30", 0, 0, {}]]], "name": "block35_3_mixed", "config": {"trainable": true, "axis": 3, "name": "block35_3_mixed"}}, {"class_name": "Conv2D", "inbound_nodes": [[["block35_3_mixed", 0, 0, {}]]], "name": "block35_3_conv", "config": {"padding": "same", "activation": "linear", "bias_regularizer": null, "name": "block35_3_conv", "data_format": "channels_last", "use_bias": true, "kernel_constraint": null, "activity_regularizer": null, "trainable": true, "kernel_initializer": {"class_name": "VarianceScaling", "config": {"seed": null, "mode": "fan_avg", "scale": 1.0, "distribution": "uniform"}}, "filters": 320, "kernel_size": [1, 1], "bias_constraint": null, "strides": [1, 1], "dilation_rate": [1, 1], "bias_initializer": {"class_name": "Zeros", "config": {}}, "kernel_regularizer": null}}, {"class_name": "Lambda", "inbound_nodes": [[["block35_2_ac", 0, 0, {}], ["block35_3_conv", 0, 0, {}]]], "name": "block35_3", "config": {"trainable": true, "arguments": {"scale": 0.17}, "name": "block35_3", "output_shape_type": "raw", "function": ["4wIAAAAAAAAAAgAAAAMAAABTAAAAcxQAAAB8AABkAQAZfAAAZAIAGXwBABQXUykDTukAAAAA6QEA\nAACpACkC2gZpbnB1dHPaBXNjYWxlcgMAAAByAwAAAPpqL2hvbWUvbXNoYWlraDIvYW5hY29uZGEz\nL2VudnMvdGYtZ3B1L2xpYi9weXRob24zLjUvc2l0ZS1wYWNrYWdlcy9rZXJhc19hcHBsaWNhdGlv\nbnMvaW5jZXB0aW9uX3Jlc25ldF92Mi5wedoIPGxhbWJkYT6qAAAA8wAAAAA=\n", null, null], "function_type": "lambda", "output_shape": [29, 29, 320]}}, {"class_name": "Activation", "inbound_nodes": [[["block35_3", 0, 0, {}]]], "name": "block35_3_ac", "config": {"activation": "relu", "trainable": true, "name": "block35_3_ac"}}, {"class_name": "Conv2D", "inbound_nodes": [[["block35_3_ac", 0, 0, {}]]], "name": "conv2d_34", "config": {"padding": "same", "activation": "linear", "bias_regularizer": null, "name": "conv2d_34", "data_format": "channels_last", "use_bias": false, "kernel_constraint": null, "activity_regularizer": null, "trainable": true, "kernel_initializer": {"class_name": "VarianceScaling", "config": {"seed": null, "mode": "fan_avg", "scale": 1.0, "distribution": "uniform"}}, "filters": 32, "kernel_size": [1, 1], "bias_constraint": null, "strides": [1, 1], "dilation_rate": [1, 1], "bias_initializer": {"class_name": "Zeros", "config": {}}, "kernel_regularizer": null}}, {"class_name": "BatchNormalization", "inbound_nodes": [[["conv2d_34", 0, 0, {}]]], "name": "batch_normalization_34", "config": {"gamma_constraint": null, "name": "batch_normalization_34", "moving_variance_initializer": {"class_name": "Ones", "config": {}}, "axis": 3, "center": true, "epsilon": 0.001, "beta_constraint": null, "beta_regularizer": null, "scale": false, "beta_initializer": {"class_name": "Zeros", "config": {}}, "trainable": true, "gamma_initializer": {"class_name": "Ones", "config": {}}, "gamma_regularizer": null, "momentum": 0.99, "moving_mean_initializer": {"class_name": "Zeros", "config": {}}}}, {"class_name": "Activation", "inbound_nodes": [[["batch_normalization_34", 0, 0, {}]]], "name": "activation_34", "config": {"activation": "relu", "trainable": true, "name": "activation_34"}}, {"class_name": "Conv2D", "inbound_nodes": [[["block35_3_ac", 0, 0, {}]]], "name": "conv2d_32", "config": {"padding": "same", "activation": "linear", "bias_regularizer": null, "name": "conv2d_32", "data_format": "channels_last", "use_bias": false, "kernel_constraint": null, "activity_regularizer": null, "trainable": true, "kernel_initializer": {"class_name": "VarianceScaling", "config": {"seed": null, "mode": "fan_avg", "scale": 1.0, "distribution": "uniform"}}, "filters": 32, "kernel_size": [1, 1], "bias_constraint": null, "strides": [1, 1], "dilation_rate": [1, 1], "bias_initializer": {"class_name": "Zeros", "config": {}}, "kernel_regularizer": null}}, {"class_name": "Conv2D", "inbound_nodes": [[["activation_34", 0, 0, {}]]], "name": "conv2d_35", "config": {"padding": "same", "activation": "linear", "bias_regularizer": null, "name": "conv2d_35", "data_format": "channels_last", "use_bias": false, "kernel_constraint": null, "activity_regularizer": null, "trainable": true, "kernel_initializer": {"class_name": "VarianceScaling", "config": {"seed": null, "mode": "fan_avg", "scale": 1.0, "distribution": "uniform"}}, "filters": 48, "kernel_size": [3, 3], "bias_constraint": null, "strides": [1, 1], "dilation_rate": [1, 1], "bias_initializer": {"class_name": "Zeros", "config": {}}, "kernel_regularizer": null}}, {"class_name": "BatchNormalization", "inbound_nodes": [[["conv2d_32", 0, 0, {}]]], "name": "batch_normalization_32", "config": {"gamma_constraint": null, "name": "batch_normalization_32", "moving_variance_initializer": {"class_name": "Ones", "config": {}}, "axis": 3, "center": true, "epsilon": 0.001, "beta_constraint": null, "beta_regularizer": null, "scale": false, "beta_initializer": {"class_name": "Zeros", "config": {}}, "trainable": true, "gamma_initializer": {"class_name": "Ones", "config": {}}, "gamma_regularizer": null, "momentum": 0.99, "moving_mean_initializer": {"class_name": "Zeros", "config": {}}}}, {"class_name": "BatchNormalization", "inbound_nodes": [[["conv2d_35", 0, 0, {}]]], "name": "batch_normalization_35", "config": {"gamma_constraint": null, "name": "batch_normalization_35", "moving_variance_initializer": {"class_name": "Ones", "config": {}}, "axis": 3, "center": true, "epsilon": 0.001, "beta_constraint": null, "beta_regularizer": null, "scale": false, "beta_initializer": {"class_name": "Zeros", "config": {}}, "trainable": true, "gamma_initializer": {"class_name": "Ones", "config": {}}, "gamma_regularizer": null, "momentum": 0.99, "moving_mean_initializer": {"class_name": "Zeros", "config": {}}}}, {"class_name": "Activation", "inbound_nodes": [[["batch_normalization_32", 0, 0, {}]]], "name": "activation_32", "config": {"activation": "relu", "trainable": true, "name": "activation_32"}}, {"class_name": "Activation", "inbound_nodes": [[["batch_normalization_35", 0, 0, {}]]], "name": "activation_35", "config": {"activation": "relu", "trainable": true, "name": "activation_35"}}, {"class_name": "Conv2D", "inbound_nodes": [[["block35_3_ac", 0, 0, {}]]], "name": "conv2d_31", "config": {"padding": "same", "activation": "linear", "bias_regularizer": null, "name": "conv2d_31", "data_format": "channels_last", "use_bias": false, "kernel_constraint": null, "activity_regularizer": null, "trainable": true, "kernel_initializer": {"class_name": "VarianceScaling", "config": {"seed": null, "mode": "fan_avg", "scale": 1.0, "distribution": "uniform"}}, "filters": 32, "kernel_size": [1, 1], "bias_constraint": null, "strides": [1, 1], "dilation_rate": [1, 1], "bias_initializer": {"class_name": "Zeros", "config": {}}, "kernel_regularizer": null}}, {"class_name": "Conv2D", "inbound_nodes": [[["activation_32", 0, 0, {}]]], "name": "conv2d_33", "config": {"padding": "same", "activation": "linear", "bias_regularizer": null, "name": "conv2d_33", "data_format": "channels_last", "use_bias": false, "kernel_constraint": null, "activity_regularizer": null, "trainable": true, "kernel_initializer": {"class_name": "VarianceScaling", "config": {"seed": null, "mode": "fan_avg", "scale": 1.0, "distribution": "uniform"}}, "filters": 32, "kernel_size": [3, 3], "bias_constraint": null, "strides": [1, 1], "dilation_rate": [1, 1], "bias_initializer": {"class_name": "Zeros", "config": {}}, "kernel_regularizer": null}}, {"class_name": "Conv2D", "inbound_nodes": [[["activation_35", 0, 0, {}]]], "name": "conv2d_36", "config": {"padding": "same", "activation": "linear", "bias_regularizer": null, "name": "conv2d_36", "data_format": "channels_last", "use_bias": false, "kernel_constraint": null, "activity_regularizer": null, "trainable": true, "kernel_initializer": {"class_name": "VarianceScaling", "config": {"seed": null, "mode": "fan_avg", "scale": 1.0, "distribution": "uniform"}}, "filters": 64, "kernel_size": [3, 3], "bias_constraint": null, "strides": [1, 1], "dilation_rate": [1, 1], "bias_initializer": {"class_name": "Zeros", "config": {}}, "kernel_regularizer": null}}, {"class_name": "BatchNormalization", "inbound_nodes": [[["conv2d_31", 0, 0, {}]]], "name": "batch_normalization_31", "config": {"gamma_constraint": null, "name": "batch_normalization_31", "moving_variance_initializer": {"class_name": "Ones", "config": {}}, "axis": 3, "center": true, "epsilon": 0.001, "beta_constraint": null, "beta_regularizer": null, "scale": false, "beta_initializer": {"class_name": "Zeros", "config": {}}, "trainable": true, "gamma_initializer": {"class_name": "Ones", "config": {}}, "gamma_regularizer": null, "momentum": 0.99, "moving_mean_initializer": {"class_name": "Zeros", "config": {}}}}, {"class_name": "BatchNormalization", "inbound_nodes": [[["conv2d_33", 0, 0, {}]]], "name": "batch_normalization_33", "config": {"gamma_constraint": null, "name": "batch_normalization_33", "moving_variance_initializer": {"class_name": "Ones", "config": {}}, "axis": 3, "center": true, "epsilon": 0.001, "beta_constraint": null, "beta_regularizer": null, "scale": false, "beta_initializer": {"class_name": "Zeros", "config": {}}, "trainable": true, "gamma_initializer": {"class_name": "Ones", "config": {}}, "gamma_regularizer": null, "momentum": 0.99, "moving_mean_initializer": {"class_name": "Zeros", "config": {}}}}, {"class_name": "BatchNormalization", "inbound_nodes": [[["conv2d_36", 0, 0, {}]]], "name": "batch_normalization_36", "config": {"gamma_constraint": null, "name": "batch_normalization_36", "moving_variance_initializer": {"class_name": "Ones", "config": {}}, "axis": 3, "center": true, "epsilon": 0.001, "beta_constraint": null, "beta_regularizer": null, "scale": false, "beta_initializer": {"class_name": "Zeros", "config": {}}, "trainable": true, "gamma_initializer": {"class_name": "Ones", "config": {}}, "gamma_regularizer": null, "momentum": 0.99, "moving_mean_initializer": {"class_name": "Zeros", "config": {}}}}, {"class_name": "Activation", "inbound_nodes": [[["batch_normalization_31", 0, 0, {}]]], "name": "activation_31", "config": {"activation": "relu", "trainable": true, "name": "activation_31"}}, {"class_name": "Activation", "inbound_nodes": [[["batch_normalization_33", 0, 0, {}]]], "name": "activation_33", "config": {"activation": "relu", "trainable": true, "name": "activation_33"}}, {"class_name": "Activation", "inbound_nodes": [[["batch_normalization_36", 0, 0, {}]]], "name": "activation_36", "config": {"activation": "relu", "trainable": true, "name": "activation_36"}}, {"class_name": "Concatenate", "inbound_nodes": [[["activation_31", 0, 0, {}], ["activation_33", 0, 0, {}], ["activation_36", 0, 0, {}]]], "name": "block35_4_mixed", "config": {"trainable": true, "axis": 3, "name": "block35_4_mixed"}}, {"class_name": "Conv2D", "inbound_nodes": [[["block35_4_mixed", 0, 0, {}]]], "name": "block35_4_conv", "config": {"padding": "same", "activation": "linear", "bias_regularizer": null, "name": "block35_4_conv", "data_format": "channels_last", "use_bias": true, "kernel_constraint": null, "activity_regularizer": null, "trainable": true, "kernel_initializer": {"class_name": "VarianceScaling", "config": {"seed": null, "mode": "fan_avg", "scale": 1.0, "distribution": "uniform"}}, "filters": 320, "kernel_size": [1, 1], "bias_constraint": null, "strides": [1, 1], "dilation_rate": [1, 1], "bias_initializer": {"class_name": "Zeros", "config": {}}, "kernel_regularizer": null}}, {"class_name": "Lambda", "inbound_nodes": [[["block35_3_ac", 0, 0, {}], ["block35_4_conv", 0, 0, {}]]], "name": "block35_4", "config": {"trainable": true, "arguments": {"scale": 0.17}, "name": "block35_4", "output_shape_type": "raw", "function": ["4wIAAAAAAAAAAgAAAAMAAABTAAAAcxQAAAB8AABkAQAZfAAAZAIAGXwBABQXUykDTukAAAAA6QEA\nAACpACkC2gZpbnB1dHPaBXNjYWxlcgMAAAByAwAAAPpqL2hvbWUvbXNoYWlraDIvYW5hY29uZGEz\nL2VudnMvdGYtZ3B1L2xpYi9weXRob24zLjUvc2l0ZS1wYWNrYWdlcy9rZXJhc19hcHBsaWNhdGlv\nbnMvaW5jZXB0aW9uX3Jlc25ldF92Mi5wedoIPGxhbWJkYT6qAAAA8wAAAAA=\n", null, null], "function_type": "lambda", "output_shape": [29, 29, 320]}}, {"class_name": "Activation", "inbound_nodes": [[["block35_4", 0, 0, {}]]], "name": "block35_4_ac", "config": {"activation": "relu", "trainable": true, "name": "block35_4_ac"}}, {"class_name": "Conv2D", "inbound_nodes": [[["block35_4_ac", 0, 0, {}]]], "name": "conv2d_40", "config": {"padding": "same", "activation": "linear", "bias_regularizer": null, "name": "conv2d_40", "data_format": "channels_last", "use_bias": false, "kernel_constraint": null, "activity_regularizer": null, "trainable": true, "kernel_initializer": {"class_name": "VarianceScaling", "config": {"seed": null, "mode": "fan_avg", "scale": 1.0, "distribution": "uniform"}}, "filters": 32, "kernel_size": [1, 1], "bias_constraint": null, "strides": [1, 1], "dilation_rate": [1, 1], "bias_initializer": {"class_name": "Zeros", "config": {}}, "kernel_regularizer": null}}, {"class_name": "BatchNormalization", "inbound_nodes": [[["conv2d_40", 0, 0, {}]]], "name": "batch_normalization_40", "config": {"gamma_constraint": null, "name": "batch_normalization_40", "moving_variance_initializer": {"class_name": "Ones", "config": {}}, "axis": 3, "center": true, "epsilon": 0.001, "beta_constraint": null, "beta_regularizer": null, "scale": false, "beta_initializer": {"class_name": "Zeros", "config": {}}, "trainable": true, "gamma_initializer": {"class_name": "Ones", "config": {}}, "gamma_regularizer": null, "momentum": 0.99, "moving_mean_initializer": {"class_name": "Zeros", "config": {}}}}, {"class_name": "Activation", "inbound_nodes": [[["batch_normalization_40", 0, 0, {}]]], "name": "activation_40", "config": {"activation": "relu", "trainable": true, "name": "activation_40"}}, {"class_name": "Conv2D", "inbound_nodes": [[["block35_4_ac", 0, 0, {}]]], "name": "conv2d_38", "config": {"padding": "same", "activation": "linear", "bias_regularizer": null, "name": "conv2d_38", "data_format": "channels_last", "use_bias": false, "kernel_constraint": null, "activity_regularizer": null, "trainable": true, "kernel_initializer": {"class_name": "VarianceScaling", "config": {"seed": null, "mode": "fan_avg", "scale": 1.0, "distribution": "uniform"}}, "filters": 32, "kernel_size": [1, 1], "bias_constraint": null, "strides": [1, 1], "dilation_rate": [1, 1], "bias_initializer": {"class_name": "Zeros", "config": {}}, "kernel_regularizer": null}}, {"class_name": "Conv2D", "inbound_nodes": [[["activation_40", 0, 0, {}]]], "name": "conv2d_41", "config": {"padding": "same", "activation": "linear", "bias_regularizer": null, "name": "conv2d_41", "data_format": "channels_last", "use_bias": false, "kernel_constraint": null, "activity_regularizer": null, "trainable": true, "kernel_initializer": {"class_name": "VarianceScaling", "config": {"seed": null, "mode": "fan_avg", "scale": 1.0, "distribution": "uniform"}}, "filters": 48, "kernel_size": [3, 3], "bias_constraint": null, "strides": [1, 1], "dilation_rate": [1, 1], "bias_initializer": {"class_name": "Zeros", "config": {}}, "kernel_regularizer": null}}, {"class_name": "BatchNormalization", "inbound_nodes": [[["conv2d_38", 0, 0, {}]]], "name": "batch_normalization_38", "config": {"gamma_constraint": null, "name": "batch_normalization_38", "moving_variance_initializer": {"class_name": "Ones", "config": {}}, "axis": 3, "center": true, "epsilon": 0.001, "beta_constraint": null, "beta_regularizer": null, "scale": false, "beta_initializer": {"class_name": "Zeros", "config": {}}, "trainable": true, "gamma_initializer": {"class_name": "Ones", "config": {}}, "gamma_regularizer": null, "momentum": 0.99, "moving_mean_initializer": {"class_name": "Zeros", "config": {}}}}, {"class_name": "BatchNormalization", "inbound_nodes": [[["conv2d_41", 0, 0, {}]]], "name": "batch_normalization_41", "config": {"gamma_constraint": null, "name": "batch_normalization_41", "moving_variance_initializer": {"class_name": "Ones", "config": {}}, "axis": 3, "center": true, "epsilon": 0.001, "beta_constraint": null, "beta_regularizer": null, "scale": false, "beta_initializer": {"class_name": "Zeros", "config": {}}, "trainable": true, "gamma_initializer": {"class_name": "Ones", "config": {}}, "gamma_regularizer": null, "momentum": 0.99, "moving_mean_initializer": {"class_name": "Zeros", "config": {}}}}, {"class_name": "Activation", "inbound_nodes": [[["batch_normalization_38", 0, 0, {}]]], "name": "activation_38", "config": {"activation": "relu", "trainable": true, "name": "activation_38"}}, {"class_name": "Activation", "inbound_nodes": [[["batch_normalization_41", 0, 0, {}]]], "name": "activation_41", "config": {"activation": "relu", "trainable": true, "name": "activation_41"}}, {"class_name": "Conv2D", "inbound_nodes": [[["block35_4_ac", 0, 0, {}]]], "name": "conv2d_37", "config": {"padding": "same", "activation": "linear", "bias_regularizer": null, "name": "conv2d_37", "data_format": "channels_last", "use_bias": false, "kernel_constraint": null, "activity_regularizer": null, "trainable": true, "kernel_initializer": {"class_name": "VarianceScaling", "config": {"seed": null, "mode": "fan_avg", "scale": 1.0, "distribution": "uniform"}}, "filters": 32, "kernel_size": [1, 1], "bias_constraint": null, "strides": [1, 1], "dilation_rate": [1, 1], "bias_initializer": {"class_name": "Zeros", "config": {}}, "kernel_regularizer": null}}, {"class_name": "Conv2D", "inbound_nodes": [[["activation_38", 0, 0, {}]]], "name": "conv2d_39", "config": {"padding": "same", "activation": "linear", "bias_regularizer": null, "name": "conv2d_39", "data_format": "channels_last", "use_bias": false, "kernel_constraint": null, "activity_regularizer": null, "trainable": true, "kernel_initializer": {"class_name": "VarianceScaling", "config": {"seed": null, "mode": "fan_avg", "scale": 1.0, "distribution": "uniform"}}, "filters": 32, "kernel_size": [3, 3], "bias_constraint": null, "strides": [1, 1], "dilation_rate": [1, 1], "bias_initializer": {"class_name": "Zeros", "config": {}}, "kernel_regularizer": null}}, {"class_name": "Conv2D", "inbound_nodes": [[["activation_41", 0, 0, {}]]], "name": "conv2d_42", "config": {"padding": "same", "activation": "linear", "bias_regularizer": null, "name": "conv2d_42", "data_format": "channels_last", "use_bias": false, "kernel_constraint": null, "activity_regularizer": null, "trainable": true, "kernel_initializer": {"class_name": "VarianceScaling", "config": {"seed": null, "mode": "fan_avg", "scale": 1.0, "distribution": "uniform"}}, "filters": 64, "kernel_size": [3, 3], "bias_constraint": null, "strides": [1, 1], "dilation_rate": [1, 1], "bias_initializer": {"class_name": "Zeros", "config": {}}, "kernel_regularizer": null}}, {"class_name": "BatchNormalization", "inbound_nodes": [[["conv2d_37", 0, 0, {}]]], "name": "batch_normalization_37", "config": {"gamma_constraint": null, "name": "batch_normalization_37", "moving_variance_initializer": {"class_name": "Ones", "config": {}}, "axis": 3, "center": true, "epsilon": 0.001, "beta_constraint": null, "beta_regularizer": null, "scale": false, "beta_initializer": {"class_name": "Zeros", "config": {}}, "trainable": true, "gamma_initializer": {"class_name": "Ones", "config": {}}, "gamma_regularizer": null, "momentum": 0.99, "moving_mean_initializer": {"class_name": "Zeros", "config": {}}}}, {"class_name": "BatchNormalization", "inbound_nodes": [[["conv2d_39", 0, 0, {}]]], "name": "batch_normalization_39", "config": {"gamma_constraint": null, "name": "batch_normalization_39", "moving_variance_initializer": {"class_name": "Ones", "config": {}}, "axis": 3, "center": true, "epsilon": 0.001, "beta_constraint": null, "beta_regularizer": null, "scale": false, "beta_initializer": {"class_name": "Zeros", "config": {}}, "trainable": true, "gamma_initializer": {"class_name": "Ones", "config": {}}, "gamma_regularizer": null, "momentum": 0.99, "moving_mean_initializer": {"class_name": "Zeros", "config": {}}}}, {"class_name": "BatchNormalization", "inbound_nodes": [[["conv2d_42", 0, 0, {}]]], "name": "batch_normalization_42", "config": {"gamma_constraint": null, "name": "batch_normalization_42", "moving_variance_initializer": {"class_name": "Ones", "config": {}}, "axis": 3, "center": true, "epsilon": 0.001, "beta_constraint": null, "beta_regularizer": null, "scale": false, "beta_initializer": {"class_name": "Zeros", "config": {}}, "trainable": true, "gamma_initializer": {"class_name": "Ones", "config": {}}, "gamma_regularizer": null, "momentum": 0.99, "moving_mean_initializer": {"class_name": "Zeros", "config": {}}}}, {"class_name": "Activation", "inbound_nodes": [[["batch_normalization_37", 0, 0, {}]]], "name": "activation_37", "config": {"activation": "relu", "trainable": true, "name": "activation_37"}}, {"class_name": "Activation", "inbound_nodes": [[["batch_normalization_39", 0, 0, {}]]], "name": "activation_39", "config": {"activation": "relu", "trainable": true, "name": "activation_39"}}, {"class_name": "Activation", "inbound_nodes": [[["batch_normalization_42", 0, 0, {}]]], "name": "activation_42", "config": {"activation": "relu", "trainable": true, "name": "activation_42"}}, {"class_name": "Concatenate", "inbound_nodes": [[["activation_37", 0, 0, {}], ["activation_39", 0, 0, {}], ["activation_42", 0, 0, {}]]], "name": "block35_5_mixed", "config": {"trainable": true, "axis": 3, "name": "block35_5_mixed"}}, {"class_name": "Conv2D", "inbound_nodes": [[["block35_5_mixed", 0, 0, {}]]], "name": "block35_5_conv", "config": {"padding": "same", "activation": "linear", "bias_regularizer": null, "name": "block35_5_conv", "data_format": "channels_last", "use_bias": true, "kernel_constraint": null, "activity_regularizer": null, "trainable": true, "kernel_initializer": {"class_name": "VarianceScaling", "config": {"seed": null, "mode": "fan_avg", "scale": 1.0, "distribution": "uniform"}}, "filters": 320, "kernel_size": [1, 1], "bias_constraint": null, "strides": [1, 1], "dilation_rate": [1, 1], "bias_initializer": {"class_name": "Zeros", "config": {}}, "kernel_regularizer": null}}, {"class_name": "Lambda", "inbound_nodes": [[["block35_4_ac", 0, 0, {}], ["block35_5_conv", 0, 0, {}]]], "name": "block35_5", "config": {"trainable": true, "arguments": {"scale": 0.17}, "name": "block35_5", "output_shape_type": "raw", "function": ["4wIAAAAAAAAAAgAAAAMAAABTAAAAcxQAAAB8AABkAQAZfAAAZAIAGXwBABQXUykDTukAAAAA6QEA\nAACpACkC2gZpbnB1dHPaBXNjYWxlcgMAAAByAwAAAPpqL2hvbWUvbXNoYWlraDIvYW5hY29uZGEz\nL2VudnMvdGYtZ3B1L2xpYi9weXRob24zLjUvc2l0ZS1wYWNrYWdlcy9rZXJhc19hcHBsaWNhdGlv\nbnMvaW5jZXB0aW9uX3Jlc25ldF92Mi5wedoIPGxhbWJkYT6qAAAA8wAAAAA=\n", null, null], "function_type": "lambda", "output_shape": [29, 29, 320]}}, {"class_name": "Activation", "inbound_nodes": [[["block35_5", 0, 0, {}]]], "name": "block35_5_ac", "config": {"activation": "relu", "trainable": true, "name": "block35_5_ac"}}, {"class_name": "Conv2D", "inbound_nodes": [[["block35_5_ac", 0, 0, {}]]], "name": "conv2d_46", "config": {"padding": "same", "activation": "linear", "bias_regularizer": null, "name": "conv2d_46", "data_format": "channels_last", "use_bias": false, "kernel_constraint": null, "activity_regularizer": null, "trainable": true, "kernel_initializer": {"class_name": "VarianceScaling", "config": {"seed": null, "mode": "fan_avg", "scale": 1.0, "distribution": "uniform"}}, "filters": 32, "kernel_size": [1, 1], "bias_constraint": null, "strides": [1, 1], "dilation_rate": [1, 1], "bias_initializer": {"class_name": "Zeros", "config": {}}, "kernel_regularizer": null}}, {"class_name": "BatchNormalization", "inbound_nodes": [[["conv2d_46", 0, 0, {}]]], "name": "batch_normalization_46", "config": {"gamma_constraint": null, "name": "batch_normalization_46", "moving_variance_initializer": {"class_name": "Ones", "config": {}}, "axis": 3, "center": true, "epsilon": 0.001, "beta_constraint": null, "beta_regularizer": null, "scale": false, "beta_initializer": {"class_name": "Zeros", "config": {}}, "trainable": true, "gamma_initializer": {"class_name": "Ones", "config": {}}, "gamma_regularizer": null, "momentum": 0.99, "moving_mean_initializer": {"class_name": "Zeros", "config": {}}}}, {"class_name": "Activation", "inbound_nodes": [[["batch_normalization_46", 0, 0, {}]]], "name": "activation_46", "config": {"activation": "relu", "trainable": true, "name": "activation_46"}}, {"class_name": "Conv2D", "inbound_nodes": [[["block35_5_ac", 0, 0, {}]]], "name": "conv2d_44", "config": {"padding": "same", "activation": "linear", "bias_regularizer": null, "name": "conv2d_44", "data_format": "channels_last", "use_bias": false, "kernel_constraint": null, "activity_regularizer": null, "trainable": true, "kernel_initializer": {"class_name": "VarianceScaling", "config": {"seed": null, "mode": "fan_avg", "scale": 1.0, "distribution": "uniform"}}, "filters": 32, "kernel_size": [1, 1], "bias_constraint": null, "strides": [1, 1], "dilation_rate": [1, 1], "bias_initializer": {"class_name": "Zeros", "config": {}}, "kernel_regularizer": null}}, {"class_name": "Conv2D", "inbound_nodes": [[["activation_46", 0, 0, {}]]], "name": "conv2d_47", "config": {"padding": "same", "activation": "linear", "bias_regularizer": null, "name": "conv2d_47", "data_format": "channels_last", "use_bias": false, "kernel_constraint": null, "activity_regularizer": null, "trainable": true, "kernel_initializer": {"class_name": "VarianceScaling", "config": {"seed": null, "mode": "fan_avg", "scale": 1.0, "distribution": "uniform"}}, "filters": 48, "kernel_size": [3, 3], "bias_constraint": null, "strides": [1, 1], "dilation_rate": [1, 1], "bias_initializer": {"class_name": "Zeros", "config": {}}, "kernel_regularizer": null}}, {"class_name": "BatchNormalization", "inbound_nodes": [[["conv2d_44", 0, 0, {}]]], "name": "batch_normalization_44", "config": {"gamma_constraint": null, "name": "batch_normalization_44", "moving_variance_initializer": {"class_name": "Ones", "config": {}}, "axis": 3, "center": true, "epsilon": 0.001, "beta_constraint": null, "beta_regularizer": null, "scale": false, "beta_initializer": {"class_name": "Zeros", "config": {}}, "trainable": true, "gamma_initializer": {"class_name": "Ones", "config": {}}, "gamma_regularizer": null, "momentum": 0.99, "moving_mean_initializer": {"class_name": "Zeros", "config": {}}}}, {"class_name": "BatchNormalization", "inbound_nodes": [[["conv2d_47", 0, 0, {}]]], "name": "batch_normalization_47", "config": {"gamma_constraint": null, "name": "batch_normalization_47", "moving_variance_initializer": {"class_name": "Ones", "config": {}}, "axis": 3, "center": true, "epsilon": 0.001, "beta_constraint": null, "beta_regularizer": null, "scale": false, "beta_initializer": {"class_name": "Zeros", "config": {}}, "trainable": true, "gamma_initializer": {"class_name": "Ones", "config": {}}, "gamma_regularizer": null, "momentum": 0.99, "moving_mean_initializer": {"class_name": "Zeros", "config": {}}}}, {"class_name": "Activation", "inbound_nodes": [[["batch_normalization_44", 0, 0, {}]]], "name": "activation_44", "config": {"activation": "relu", "trainable": true, "name": "activation_44"}}, {"class_name": "Activation", "inbound_nodes": [[["batch_normalization_47", 0, 0, {}]]], "name": "activation_47", "config": {"activation": "relu", "trainable": true, "name": "activation_47"}}, {"class_name": "Conv2D", "inbound_nodes": [[["block35_5_ac", 0, 0, {}]]], "name": "conv2d_43", "config": {"padding": "same", "activation": "linear", "bias_regularizer": null, "name": "conv2d_43", "data_format": "channels_last", "use_bias": false, "kernel_constraint": null, "activity_regularizer": null, "trainable": true, "kernel_initializer": {"class_name": "VarianceScaling", "config": {"seed": null, "mode": "fan_avg", "scale": 1.0, "distribution": "uniform"}}, "filters": 32, "kernel_size": [1, 1], "bias_constraint": null, "strides": [1, 1], "dilation_rate": [1, 1], "bias_initializer": {"class_name": "Zeros", "config": {}}, "kernel_regularizer": null}}, {"class_name": "Conv2D", "inbound_nodes": [[["activation_44", 0, 0, {}]]], "name": "conv2d_45", "config": {"padding": "same", "activation": "linear", "bias_regularizer": null, "name": "conv2d_45", "data_format": "channels_last", "use_bias": false, "kernel_constraint": null, "activity_regularizer": null, "trainable": true, "kernel_initializer": {"class_name": "VarianceScaling", "config": {"seed": null, "mode": "fan_avg", "scale": 1.0, "distribution": "uniform"}}, "filters": 32, "kernel_size": [3, 3], "bias_constraint": null, "strides": [1, 1], "dilation_rate": [1, 1], "bias_initializer": {"class_name": "Zeros", "config": {}}, "kernel_regularizer": null}}, {"class_name": "Conv2D", "inbound_nodes": [[["activation_47", 0, 0, {}]]], "name": "conv2d_48", "config": {"padding": "same", "activation": "linear", "bias_regularizer": null, "name": "conv2d_48", "data_format": "channels_last", "use_bias": false, "kernel_constraint": null, "activity_regularizer": null, "trainable": true, "kernel_initializer": {"class_name": "VarianceScaling", "config": {"seed": null, "mode": "fan_avg", "scale": 1.0, "distribution": "uniform"}}, "filters": 64, "kernel_size": [3, 3], "bias_constraint": null, "strides": [1, 1], "dilation_rate": [1, 1], "bias_initializer": {"class_name": "Zeros", "config": {}}, "kernel_regularizer": null}}, {"class_name": "BatchNormalization", "inbound_nodes": [[["conv2d_43", 0, 0, {}]]], "name": "batch_normalization_43", "config": {"gamma_constraint": null, "name": "batch_normalization_43", "moving_variance_initializer": {"class_name": "Ones", "config": {}}, "axis": 3, "center": true, "epsilon": 0.001, "beta_constraint": null, "beta_regularizer": null, "scale": false, "beta_initializer": {"class_name": "Zeros", "config": {}}, "trainable": true, "gamma_initializer": {"class_name": "Ones", "config": {}}, "gamma_regularizer": null, "momentum": 0.99, "moving_mean_initializer": {"class_name": "Zeros", "config": {}}}}, {"class_name": "BatchNormalization", "inbound_nodes": [[["conv2d_45", 0, 0, {}]]], "name": "batch_normalization_45", "config": {"gamma_constraint": null, "name": "batch_normalization_45", "moving_variance_initializer": {"class_name": "Ones", "config": {}}, "axis": 3, "center": true, "epsilon": 0.001, "beta_constraint": null, "beta_regularizer": null, "scale": false, "beta_initializer": {"class_name": "Zeros", "config": {}}, "trainable": true, "gamma_initializer": {"class_name": "Ones", "config": {}}, "gamma_regularizer": null, "momentum": 0.99, "moving_mean_initializer": {"class_name": "Zeros", "config": {}}}}, {"class_name": "BatchNormalization", "inbound_nodes": [[["conv2d_48", 0, 0, {}]]], "name": "batch_normalization_48", "config": {"gamma_constraint": null, "name": "batch_normalization_48", "moving_variance_initializer": {"class_name": "Ones", "config": {}}, "axis": 3, "center": true, "epsilon": 0.001, "beta_constraint": null, "beta_regularizer": null, "scale": false, "beta_initializer": {"class_name": "Zeros", "config": {}}, "trainable": true, "gamma_initializer": {"class_name": "Ones", "config": {}}, "gamma_regularizer": null, "momentum": 0.99, "moving_mean_initializer": {"class_name": "Zeros", "config": {}}}}, {"class_name": "Activation", "inbound_nodes": [[["batch_normalization_43", 0, 0, {}]]], "name": "activation_43", "config": {"activation": "relu", "trainable": true, "name": "activation_43"}}, {"class_name": "Activation", "inbound_nodes": [[["batch_normalization_45", 0, 0, {}]]], "name": "activation_45", "config": {"activation": "relu", "trainable": true, "name": "activation_45"}}, {"class_name": "Activation", "inbound_nodes": [[["batch_normalization_48", 0, 0, {}]]], "name": "activation_48", "config": {"activation": "relu", "trainable": true, "name": "activation_48"}}, {"class_name": "Concatenate", "inbound_nodes": [[["activation_43", 0, 0, {}], ["activation_45", 0, 0, {}], ["activation_48", 0, 0, {}]]], "name": "block35_6_mixed", "config": {"trainable": true, "axis": 3, "name": "block35_6_mixed"}}, {"class_name": "Conv2D", "inbound_nodes": [[["block35_6_mixed", 0, 0, {}]]], "name": "block35_6_conv", "config": {"padding": "same", "activation": "linear", "bias_regularizer": null, "name": "block35_6_conv", "data_format": "channels_last", "use_bias": true, "kernel_constraint": null, "activity_regularizer": null, "trainable": true, "kernel_initializer": {"class_name": "VarianceScaling", "config": {"seed": null, "mode": "fan_avg", "scale": 1.0, "distribution": "uniform"}}, "filters": 320, "kernel_size": [1, 1], "bias_constraint": null, "strides": [1, 1], "dilation_rate": [1, 1], "bias_initializer": {"class_name": "Zeros", "config": {}}, "kernel_regularizer": null}}, {"class_name": "Lambda", "inbound_nodes": [[["block35_5_ac", 0, 0, {}], ["block35_6_conv", 0, 0, {}]]], "name": "block35_6", "config": {"trainable": true, "arguments": {"scale": 0.17}, "name": "block35_6", "output_shape_type": "raw", "function": ["4wIAAAAAAAAAAgAAAAMAAABTAAAAcxQAAAB8AABkAQAZfAAAZAIAGXwBABQXUykDTukAAAAA6QEA\nAACpACkC2gZpbnB1dHPaBXNjYWxlcgMAAAByAwAAAPpqL2hvbWUvbXNoYWlraDIvYW5hY29uZGEz\nL2VudnMvdGYtZ3B1L2xpYi9weXRob24zLjUvc2l0ZS1wYWNrYWdlcy9rZXJhc19hcHBsaWNhdGlv\nbnMvaW5jZXB0aW9uX3Jlc25ldF92Mi5wedoIPGxhbWJkYT6qAAAA8wAAAAA=\n", null, null], "function_type": "lambda", "output_shape": [29, 29, 320]}}, {"class_name": "Activation", "inbound_nodes": [[["block35_6", 0, 0, {}]]], "name": "block35_6_ac", "config": {"activation": "relu", "trainable": true, "name": "block35_6_ac"}}, {"class_name": "Conv2D", "inbound_nodes": [[["block35_6_ac", 0, 0, {}]]], "name": "conv2d_52", "config": {"padding": "same", "activation": "linear", "bias_regularizer": null, "name": "conv2d_52", "data_format": "channels_last", "use_bias": false, "kernel_constraint": null, "activity_regularizer": null, "trainable": true, "kernel_initializer": {"class_name": "VarianceScaling", "config": {"seed": null, "mode": "fan_avg", "scale": 1.0, "distribution": "uniform"}}, "filters": 32, "kernel_size": [1, 1], "bias_constraint": null, "strides": [1, 1], "dilation_rate": [1, 1], "bias_initializer": {"class_name": "Zeros", "config": {}}, "kernel_regularizer": null}}, {"class_name": "BatchNormalization", "inbound_nodes": [[["conv2d_52", 0, 0, {}]]], "name": "batch_normalization_52", "config": {"gamma_constraint": null, "name": "batch_normalization_52", "moving_variance_initializer": {"class_name": "Ones", "config": {}}, "axis": 3, "center": true, "epsilon": 0.001, "beta_constraint": null, "beta_regularizer": null, "scale": false, "beta_initializer": {"class_name": "Zeros", "config": {}}, "trainable": true, "gamma_initializer": {"class_name": "Ones", "config": {}}, "gamma_regularizer": null, "momentum": 0.99, "moving_mean_initializer": {"class_name": "Zeros", "config": {}}}}, {"class_name": "Activation", "inbound_nodes": [[["batch_normalization_52", 0, 0, {}]]], "name": "activation_52", "config": {"activation": "relu", "trainable": true, "name": "activation_52"}}, {"class_name": "Conv2D", "inbound_nodes": [[["block35_6_ac", 0, 0, {}]]], "name": "conv2d_50", "config": {"padding": "same", "activation": "linear", "bias_regularizer": null, "name": "conv2d_50", "data_format": "channels_last", "use_bias": false, "kernel_constraint": null, "activity_regularizer": null, "trainable": true, "kernel_initializer": {"class_name": "VarianceScaling", "config": {"seed": null, "mode": "fan_avg", "scale": 1.0, "distribution": "uniform"}}, "filters": 32, "kernel_size": [1, 1], "bias_constraint": null, "strides": [1, 1], "dilation_rate": [1, 1], "bias_initializer": {"class_name": "Zeros", "config": {}}, "kernel_regularizer": null}}, {"class_name": "Conv2D", "inbound_nodes": [[["activation_52", 0, 0, {}]]], "name": "conv2d_53", "config": {"padding": "same", "activation": "linear", "bias_regularizer": null, "name": "conv2d_53", "data_format": "channels_last", "use_bias": false, "kernel_constraint": null, "activity_regularizer": null, "trainable": true, "kernel_initializer": {"class_name": "VarianceScaling", "config": {"seed": null, "mode": "fan_avg", "scale": 1.0, "distribution": "uniform"}}, "filters": 48, "kernel_size": [3, 3], "bias_constraint": null, "strides": [1, 1], "dilation_rate": [1, 1], "bias_initializer": {"class_name": "Zeros", "config": {}}, "kernel_regularizer": null}}, {"class_name": "BatchNormalization", "inbound_nodes": [[["conv2d_50", 0, 0, {}]]], "name": "batch_normalization_50", "config": {"gamma_constraint": null, "name": "batch_normalization_50", "moving_variance_initializer": {"class_name": "Ones", "config": {}}, "axis": 3, "center": true, "epsilon": 0.001, "beta_constraint": null, "beta_regularizer": null, "scale": false, "beta_initializer": {"class_name": "Zeros", "config": {}}, "trainable": true, "gamma_initializer": {"class_name": "Ones", "config": {}}, "gamma_regularizer": null, "momentum": 0.99, "moving_mean_initializer": {"class_name": "Zeros", "config": {}}}}, {"class_name": "BatchNormalization", "inbound_nodes": [[["conv2d_53", 0, 0, {}]]], "name": "batch_normalization_53", "config": {"gamma_constraint": null, "name": "batch_normalization_53", "moving_variance_initializer": {"class_name": "Ones", "config": {}}, "axis": 3, "center": true, "epsilon": 0.001, "beta_constraint": null, "beta_regularizer": null, "scale": false, "beta_initializer": {"class_name": "Zeros", "config": {}}, "trainable": true, "gamma_initializer": {"class_name": "Ones", "config": {}}, "gamma_regularizer": null, "momentum": 0.99, "moving_mean_initializer": {"class_name": "Zeros", "config": {}}}}, {"class_name": "Activation", "inbound_nodes": [[["batch_normalization_50", 0, 0, {}]]], "name": "activation_50", "config": {"activation": "relu", "trainable": true, "name": "activation_50"}}, {"class_name": "Activation", "inbound_nodes": [[["batch_normalization_53", 0, 0, {}]]], "name": "activation_53", "config": {"activation": "relu", "trainable": true, "name": "activation_53"}}, {"class_name": "Conv2D", "inbound_nodes": [[["block35_6_ac", 0, 0, {}]]], "name": "conv2d_49", "config": {"padding": "same", "activation": "linear", "bias_regularizer": null, "name": "conv2d_49", "data_format": "channels_last", "use_bias": false, "kernel_constraint": null, "activity_regularizer": null, "trainable": true, "kernel_initializer": {"class_name": "VarianceScaling", "config": {"seed": null, "mode": "fan_avg", "scale": 1.0, "distribution": "uniform"}}, "filters": 32, "kernel_size": [1, 1], "bias_constraint": null, "strides": [1, 1], "dilation_rate": [1, 1], "bias_initializer": {"class_name": "Zeros", "config": {}}, "kernel_regularizer": null}}, {"class_name": "Conv2D", "inbound_nodes": [[["activation_50", 0, 0, {}]]], "name": "conv2d_51", "config": {"padding": "same", "activation": "linear", "bias_regularizer": null, "name": "conv2d_51", "data_format": "channels_last", "use_bias": false, "kernel_constraint": null, "activity_regularizer": null, "trainable": true, "kernel_initializer": {"class_name": "VarianceScaling", "config": {"seed": null, "mode": "fan_avg", "scale": 1.0, "distribution": "uniform"}}, "filters": 32, "kernel_size": [3, 3], "bias_constraint": null, "strides": [1, 1], "dilation_rate": [1, 1], "bias_initializer": {"class_name": "Zeros", "config": {}}, "kernel_regularizer": null}}, {"class_name": "Conv2D", "inbound_nodes": [[["activation_53", 0, 0, {}]]], "name": "conv2d_54", "config": {"padding": "same", "activation": "linear", "bias_regularizer": null, "name": "conv2d_54", "data_format": "channels_last", "use_bias": false, "kernel_constraint": null, "activity_regularizer": null, "trainable": true, "kernel_initializer": {"class_name": "VarianceScaling", "config": {"seed": null, "mode": "fan_avg", "scale": 1.0, "distribution": "uniform"}}, "filters": 64, "kernel_size": [3, 3], "bias_constraint": null, "strides": [1, 1], "dilation_rate": [1, 1], "bias_initializer": {"class_name": "Zeros", "config": {}}, "kernel_regularizer": null}}, {"class_name": "BatchNormalization", "inbound_nodes": [[["conv2d_49", 0, 0, {}]]], "name": "batch_normalization_49", "config": {"gamma_constraint": null, "name": "batch_normalization_49", "moving_variance_initializer": {"class_name": "Ones", "config": {}}, "axis": 3, "center": true, "epsilon": 0.001, "beta_constraint": null, "beta_regularizer": null, "scale": false, "beta_initializer": {"class_name": "Zeros", "config": {}}, "trainable": true, "gamma_initializer": {"class_name": "Ones", "config": {}}, "gamma_regularizer": null, "momentum": 0.99, "moving_mean_initializer": {"class_name": "Zeros", "config": {}}}}, {"class_name": "BatchNormalization", "inbound_nodes": [[["conv2d_51", 0, 0, {}]]], "name": "batch_normalization_51", "config": {"gamma_constraint": null, "name": "batch_normalization_51", "moving_variance_initializer": {"class_name": "Ones", "config": {}}, "axis": 3, "center": true, "epsilon": 0.001, "beta_constraint": null, "beta_regularizer": null, "scale": false, "beta_initializer": {"class_name": "Zeros", "config": {}}, "trainable": true, "gamma_initializer": {"class_name": "Ones", "config": {}}, "gamma_regularizer": null, "momentum": 0.99, "moving_mean_initializer": {"class_name": "Zeros", "config": {}}}}, {"class_name": "BatchNormalization", "inbound_nodes": [[["conv2d_54", 0, 0, {}]]], "name": "batch_normalization_54", "config": {"gamma_constraint": null, "name": "batch_normalization_54", "moving_variance_initializer": {"class_name": "Ones", "config": {}}, "axis": 3, "center": true, "epsilon": 0.001, "beta_constraint": null, "beta_regularizer": null, "scale": false, "beta_initializer": {"class_name": "Zeros", "config": {}}, "trainable": true, "gamma_initializer": {"class_name": "Ones", "config": {}}, "gamma_regularizer": null, "momentum": 0.99, "moving_mean_initializer": {"class_name": "Zeros", "config": {}}}}, {"class_name": "Activation", "inbound_nodes": [[["batch_normalization_49", 0, 0, {}]]], "name": "activation_49", "config": {"activation": "relu", "trainable": true, "name": "activation_49"}}, {"class_name": "Activation", "inbound_nodes": [[["batch_normalization_51", 0, 0, {}]]], "name": "activation_51", "config": {"activation": "relu", "trainable": true, "name": "activation_51"}}, {"class_name": "Activation", "inbound_nodes": [[["batch_normalization_54", 0, 0, {}]]], "name": "activation_54", "config": {"activation": "relu", "trainable": true, "name": "activation_54"}}, {"class_name": "Concatenate", "inbound_nodes": [[["activation_49", 0, 0, {}], ["activation_51", 0, 0, {}], ["activation_54", 0, 0, {}]]], "name": "block35_7_mixed", "config": {"trainable": true, "axis": 3, "name": "block35_7_mixed"}}, {"class_name": "Conv2D", "inbound_nodes": [[["block35_7_mixed", 0, 0, {}]]], "name": "block35_7_conv", "config": {"padding": "same", "activation": "linear", "bias_regularizer": null, "name": "block35_7_conv", "data_format": "channels_last", "use_bias": true, "kernel_constraint": null, "activity_regularizer": null, "trainable": true, "kernel_initializer": {"class_name": "VarianceScaling", "config": {"seed": null, "mode": "fan_avg", "scale": 1.0, "distribution": "uniform"}}, "filters": 320, "kernel_size": [1, 1], "bias_constraint": null, "strides": [1, 1], "dilation_rate": [1, 1], "bias_initializer": {"class_name": "Zeros", "config": {}}, "kernel_regularizer": null}}, {"class_name": "Lambda", "inbound_nodes": [[["block35_6_ac", 0, 0, {}], ["block35_7_conv", 0, 0, {}]]], "name": "block35_7", "config": {"trainable": true, "arguments": {"scale": 0.17}, "name": "block35_7", "output_shape_type": "raw", "function": ["4wIAAAAAAAAAAgAAAAMAAABTAAAAcxQAAAB8AABkAQAZfAAAZAIAGXwBABQXUykDTukAAAAA6QEA\nAACpACkC2gZpbnB1dHPaBXNjYWxlcgMAAAByAwAAAPpqL2hvbWUvbXNoYWlraDIvYW5hY29uZGEz\nL2VudnMvdGYtZ3B1L2xpYi9weXRob24zLjUvc2l0ZS1wYWNrYWdlcy9rZXJhc19hcHBsaWNhdGlv\nbnMvaW5jZXB0aW9uX3Jlc25ldF92Mi5wedoIPGxhbWJkYT6qAAAA8wAAAAA=\n", null, null], "function_type": "lambda", "output_shape": [29, 29, 320]}}, {"class_name": "Activation", "inbound_nodes": [[["block35_7", 0, 0, {}]]], "name": "block35_7_ac", "config": {"activation": "relu", "trainable": true, "name": "block35_7_ac"}}, {"class_name": "Conv2D", "inbound_nodes": [[["block35_7_ac", 0, 0, {}]]], "name": "conv2d_58", "config": {"padding": "same", "activation": "linear", "bias_regularizer": null, "name": "conv2d_58", "data_format": "channels_last", "use_bias": false, "kernel_constraint": null, "activity_regularizer": null, "trainable": true, "kernel_initializer": {"class_name": "VarianceScaling", "config": {"seed": null, "mode": "fan_avg", "scale": 1.0, "distribution": "uniform"}}, "filters": 32, "kernel_size": [1, 1], "bias_constraint": null, "strides": [1, 1], "dilation_rate": [1, 1], "bias_initializer": {"class_name": "Zeros", "config": {}}, "kernel_regularizer": null}}, {"class_name": "BatchNormalization", "inbound_nodes": [[["conv2d_58", 0, 0, {}]]], "name": "batch_normalization_58", "config": {"gamma_constraint": null, "name": "batch_normalization_58", "moving_variance_initializer": {"class_name": "Ones", "config": {}}, "axis": 3, "center": true, "epsilon": 0.001, "beta_constraint": null, "beta_regularizer": null, "scale": false, "beta_initializer": {"class_name": "Zeros", "config": {}}, "trainable": true, "gamma_initializer": {"class_name": "Ones", "config": {}}, "gamma_regularizer": null, "momentum": 0.99, "moving_mean_initializer": {"class_name": "Zeros", "config": {}}}}, {"class_name": "Activation", "inbound_nodes": [[["batch_normalization_58", 0, 0, {}]]], "name": "activation_58", "config": {"activation": "relu", "trainable": true, "name": "activation_58"}}, {"class_name": "Conv2D", "inbound_nodes": [[["block35_7_ac", 0, 0, {}]]], "name": "conv2d_56", "config": {"padding": "same", "activation": "linear", "bias_regularizer": null, "name": "conv2d_56", "data_format": "channels_last", "use_bias": false, "kernel_constraint": null, "activity_regularizer": null, "trainable": true, "kernel_initializer": {"class_name": "VarianceScaling", "config": {"seed": null, "mode": "fan_avg", "scale": 1.0, "distribution": "uniform"}}, "filters": 32, "kernel_size": [1, 1], "bias_constraint": null, "strides": [1, 1], "dilation_rate": [1, 1], "bias_initializer": {"class_name": "Zeros", "config": {}}, "kernel_regularizer": null}}, {"class_name": "Conv2D", "inbound_nodes": [[["activation_58", 0, 0, {}]]], "name": "conv2d_59", "config": {"padding": "same", "activation": "linear", "bias_regularizer": null, "name": "conv2d_59", "data_format": "channels_last", "use_bias": false, "kernel_constraint": null, "activity_regularizer": null, "trainable": true, "kernel_initializer": {"class_name": "VarianceScaling", "config": {"seed": null, "mode": "fan_avg", "scale": 1.0, "distribution": "uniform"}}, "filters": 48, "kernel_size": [3, 3], "bias_constraint": null, "strides": [1, 1], "dilation_rate": [1, 1], "bias_initializer": {"class_name": "Zeros", "config": {}}, "kernel_regularizer": null}}, {"class_name": "BatchNormalization", "inbound_nodes": [[["conv2d_56", 0, 0, {}]]], "name": "batch_normalization_56", "config": {"gamma_constraint": null, "name": "batch_normalization_56", "moving_variance_initializer": {"class_name": "Ones", "config": {}}, "axis": 3, "center": true, "epsilon": 0.001, "beta_constraint": null, "beta_regularizer": null, "scale": false, "beta_initializer": {"class_name": "Zeros", "config": {}}, "trainable": true, "gamma_initializer": {"class_name": "Ones", "config": {}}, "gamma_regularizer": null, "momentum": 0.99, "moving_mean_initializer": {"class_name": "Zeros", "config": {}}}}, {"class_name": "BatchNormalization", "inbound_nodes": [[["conv2d_59", 0, 0, {}]]], "name": "batch_normalization_59", "config": {"gamma_constraint": null, "name": "batch_normalization_59", "moving_variance_initializer": {"class_name": "Ones", "config": {}}, "axis": 3, "center": true, "epsilon": 0.001, "beta_constraint": null, "beta_regularizer": null, "scale": false, "beta_initializer": {"class_name": "Zeros", "config": {}}, "trainable": true, "gamma_initializer": {"class_name": "Ones", "config": {}}, "gamma_regularizer": null, "momentum": 0.99, "moving_mean_initializer": {"class_name": "Zeros", "config": {}}}}, {"class_name": "Activation", "inbound_nodes": [[["batch_normalization_56", 0, 0, {}]]], "name": "activation_56", "config": {"activation": "relu", "trainable": true, "name": "activation_56"}}, {"class_name": "Activation", "inbound_nodes": [[["batch_normalization_59", 0, 0, {}]]], "name": "activation_59", "config": {"activation": "relu", "trainable": true, "name": "activation_59"}}, {"class_name": "Conv2D", "inbound_nodes": [[["block35_7_ac", 0, 0, {}]]], "name": "conv2d_55", "config": {"padding": "same", "activation": "linear", "bias_regularizer": null, "name": "conv2d_55", "data_format": "channels_last", "use_bias": false, "kernel_constraint": null, "activity_regularizer": null, "trainable": true, "kernel_initializer": {"class_name": "VarianceScaling", "config": {"seed": null, "mode": "fan_avg", "scale": 1.0, "distribution": "uniform"}}, "filters": 32, "kernel_size": [1, 1], "bias_constraint": null, "strides": [1, 1], "dilation_rate": [1, 1], "bias_initializer": {"class_name": "Zeros", "config": {}}, "kernel_regularizer": null}}, {"class_name": "Conv2D", "inbound_nodes": [[["activation_56", 0, 0, {}]]], "name": "conv2d_57", "config": {"padding": "same", "activation": "linear", "bias_regularizer": null, "name": "conv2d_57", "data_format": "channels_last", "use_bias": false, "kernel_constraint": null, "activity_regularizer": null, "trainable": true, "kernel_initializer": {"class_name": "VarianceScaling", "config": {"seed": null, "mode": "fan_avg", "scale": 1.0, "distribution": "uniform"}}, "filters": 32, "kernel_size": [3, 3], "bias_constraint": null, "strides": [1, 1], "dilation_rate": [1, 1], "bias_initializer": {"class_name": "Zeros", "config": {}}, "kernel_regularizer": null}}, {"class_name": "Conv2D", "inbound_nodes": [[["activation_59", 0, 0, {}]]], "name": "conv2d_60", "config": {"padding": "same", "activation": "linear", "bias_regularizer": null, "name": "conv2d_60", "data_format": "channels_last", "use_bias": false, "kernel_constraint": null, "activity_regularizer": null, "trainable": true, "kernel_initializer": {"class_name": "VarianceScaling", "config": {"seed": null, "mode": "fan_avg", "scale": 1.0, "distribution": "uniform"}}, "filters": 64, "kernel_size": [3, 3], "bias_constraint": null, "strides": [1, 1], "dilation_rate": [1, 1], "bias_initializer": {"class_name": "Zeros", "config": {}}, "kernel_regularizer": null}}, {"class_name": "BatchNormalization", "inbound_nodes": [[["conv2d_55", 0, 0, {}]]], "name": "batch_normalization_55", "config": {"gamma_constraint": null, "name": "batch_normalization_55", "moving_variance_initializer": {"class_name": "Ones", "config": {}}, "axis": 3, "center": true, "epsilon": 0.001, "beta_constraint": null, "beta_regularizer": null, "scale": false, "beta_initializer": {"class_name": "Zeros", "config": {}}, "trainable": true, "gamma_initializer": {"class_name": "Ones", "config": {}}, "gamma_regularizer": null, "momentum": 0.99, "moving_mean_initializer": {"class_name": "Zeros", "config": {}}}}, {"class_name": "BatchNormalization", "inbound_nodes": [[["conv2d_57", 0, 0, {}]]], "name": "batch_normalization_57", "config": {"gamma_constraint": null, "name": "batch_normalization_57", "moving_variance_initializer": {"class_name": "Ones", "config": {}}, "axis": 3, "center": true, "epsilon": 0.001, "beta_constraint": null, "beta_regularizer": null, "scale": false, "beta_initializer": {"class_name": "Zeros", "config": {}}, "trainable": true, "gamma_initializer": {"class_name": "Ones", "config": {}}, "gamma_regularizer": null, "momentum": 0.99, "moving_mean_initializer": {"class_name": "Zeros", "config": {}}}}, {"class_name": "BatchNormalization", "inbound_nodes": [[["conv2d_60", 0, 0, {}]]], "name": "batch_normalization_60", "config": {"gamma_constraint": null, "name": "batch_normalization_60", "moving_variance_initializer": {"class_name": "Ones", "config": {}}, "axis": 3, "center": true, "epsilon": 0.001, "beta_constraint": null, "beta_regularizer": null, "scale": false, "beta_initializer": {"class_name": "Zeros", "config": {}}, "trainable": true, "gamma_initializer": {"class_name": "Ones", "config": {}}, "gamma_regularizer": null, "momentum": 0.99, "moving_mean_initializer": {"class_name": "Zeros", "config": {}}}}, {"class_name": "Activation", "inbound_nodes": [[["batch_normalization_55", 0, 0, {}]]], "name": "activation_55", "config": {"activation": "relu", "trainable": true, "name": "activation_55"}}, {"class_name": "Activation", "inbound_nodes": [[["batch_normalization_57", 0, 0, {}]]], "name": "activation_57", "config": {"activation": "relu", "trainable": true, "name": "activation_57"}}, {"class_name": "Activation", "inbound_nodes": [[["batch_normalization_60", 0, 0, {}]]], "name": "activation_60", "config": {"activation": "relu", "trainable": true, "name": "activation_60"}}, {"class_name": "Concatenate", "inbound_nodes": [[["activation_55", 0, 0, {}], ["activation_57", 0, 0, {}], ["activation_60", 0, 0, {}]]], "name": "block35_8_mixed", "config": {"trainable": true, "axis": 3, "name": "block35_8_mixed"}}, {"class_name": "Conv2D", "inbound_nodes": [[["block35_8_mixed", 0, 0, {}]]], "name": "block35_8_conv", "config": {"padding": "same", "activation": "linear", "bias_regularizer": null, "name": "block35_8_conv", "data_format": "channels_last", "use_bias": true, "kernel_constraint": null, "activity_regularizer": null, "trainable": true, "kernel_initializer": {"class_name": "VarianceScaling", "config": {"seed": null, "mode": "fan_avg", "scale": 1.0, "distribution": "uniform"}}, "filters": 320, "kernel_size": [1, 1], "bias_constraint": null, "strides": [1, 1], "dilation_rate": [1, 1], "bias_initializer": {"class_name": "Zeros", "config": {}}, "kernel_regularizer": null}}, {"class_name": "Lambda", "inbound_nodes": [[["block35_7_ac", 0, 0, {}], ["block35_8_conv", 0, 0, {}]]], "name": "block35_8", "config": {"trainable": true, "arguments": {"scale": 0.17}, "name": "block35_8", "output_shape_type": "raw", "function": ["4wIAAAAAAAAAAgAAAAMAAABTAAAAcxQAAAB8AABkAQAZfAAAZAIAGXwBABQXUykDTukAAAAA6QEA\nAACpACkC2gZpbnB1dHPaBXNjYWxlcgMAAAByAwAAAPpqL2hvbWUvbXNoYWlraDIvYW5hY29uZGEz\nL2VudnMvdGYtZ3B1L2xpYi9weXRob24zLjUvc2l0ZS1wYWNrYWdlcy9rZXJhc19hcHBsaWNhdGlv\nbnMvaW5jZXB0aW9uX3Jlc25ldF92Mi5wedoIPGxhbWJkYT6qAAAA8wAAAAA=\n", null, null], "function_type": "lambda", "output_shape": [29, 29, 320]}}, {"class_name": "Activation", "inbound_nodes": [[["block35_8", 0, 0, {}]]], "name": "block35_8_ac", "config": {"activation": "relu", "trainable": true, "name": "block35_8_ac"}}, {"class_name": "Conv2D", "inbound_nodes": [[["block35_8_ac", 0, 0, {}]]], "name": "conv2d_64", "config": {"padding": "same", "activation": "linear", "bias_regularizer": null, "name": "conv2d_64", "data_format": "channels_last", "use_bias": false, "kernel_constraint": null, "activity_regularizer": null, "trainable": true, "kernel_initializer": {"class_name": "VarianceScaling", "config": {"seed": null, "mode": "fan_avg", "scale": 1.0, "distribution": "uniform"}}, "filters": 32, "kernel_size": [1, 1], "bias_constraint": null, "strides": [1, 1], "dilation_rate": [1, 1], "bias_initializer": {"class_name": "Zeros", "config": {}}, "kernel_regularizer": null}}, {"class_name": "BatchNormalization", "inbound_nodes": [[["conv2d_64", 0, 0, {}]]], "name": "batch_normalization_64", "config": {"gamma_constraint": null, "name": "batch_normalization_64", "moving_variance_initializer": {"class_name": "Ones", "config": {}}, "axis": 3, "center": true, "epsilon": 0.001, "beta_constraint": null, "beta_regularizer": null, "scale": false, "beta_initializer": {"class_name": "Zeros", "config": {}}, "trainable": true, "gamma_initializer": {"class_name": "Ones", "config": {}}, "gamma_regularizer": null, "momentum": 0.99, "moving_mean_initializer": {"class_name": "Zeros", "config": {}}}}, {"class_name": "Activation", "inbound_nodes": [[["batch_normalization_64", 0, 0, {}]]], "name": "activation_64", "config": {"activation": "relu", "trainable": true, "name": "activation_64"}}, {"class_name": "Conv2D", "inbound_nodes": [[["block35_8_ac", 0, 0, {}]]], "name": "conv2d_62", "config": {"padding": "same", "activation": "linear", "bias_regularizer": null, "name": "conv2d_62", "data_format": "channels_last", "use_bias": false, "kernel_constraint": null, "activity_regularizer": null, "trainable": true, "kernel_initializer": {"class_name": "VarianceScaling", "config": {"seed": null, "mode": "fan_avg", "scale": 1.0, "distribution": "uniform"}}, "filters": 32, "kernel_size": [1, 1], "bias_constraint": null, "strides": [1, 1], "dilation_rate": [1, 1], "bias_initializer": {"class_name": "Zeros", "config": {}}, "kernel_regularizer": null}}, {"class_name": "Conv2D", "inbound_nodes": [[["activation_64", 0, 0, {}]]], "name": "conv2d_65", "config": {"padding": "same", "activation": "linear", "bias_regularizer": null, "name": "conv2d_65", "data_format": "channels_last", "use_bias": false, "kernel_constraint": null, "activity_regularizer": null, "trainable": true, "kernel_initializer": {"class_name": "VarianceScaling", "config": {"seed": null, "mode": "fan_avg", "scale": 1.0, "distribution": "uniform"}}, "filters": 48, "kernel_size": [3, 3], "bias_constraint": null, "strides": [1, 1], "dilation_rate": [1, 1], "bias_initializer": {"class_name": "Zeros", "config": {}}, "kernel_regularizer": null}}, {"class_name": "BatchNormalization", "inbound_nodes": [[["conv2d_62", 0, 0, {}]]], "name": "batch_normalization_62", "config": {"gamma_constraint": null, "name": "batch_normalization_62", "moving_variance_initializer": {"class_name": "Ones", "config": {}}, "axis": 3, "center": true, "epsilon": 0.001, "beta_constraint": null, "beta_regularizer": null, "scale": false, "beta_initializer": {"class_name": "Zeros", "config": {}}, "trainable": true, "gamma_initializer": {"class_name": "Ones", "config": {}}, "gamma_regularizer": null, "momentum": 0.99, "moving_mean_initializer": {"class_name": "Zeros", "config": {}}}}, {"class_name": "BatchNormalization", "inbound_nodes": [[["conv2d_65", 0, 0, {}]]], "name": "batch_normalization_65", "config": {"gamma_constraint": null, "name": "batch_normalization_65", "moving_variance_initializer": {"class_name": "Ones", "config": {}}, "axis": 3, "center": true, "epsilon": 0.001, "beta_constraint": null, "beta_regularizer": null, "scale": false, "beta_initializer": {"class_name": "Zeros", "config": {}}, "trainable": true, "gamma_initializer": {"class_name": "Ones", "config": {}}, "gamma_regularizer": null, "momentum": 0.99, "moving_mean_initializer": {"class_name": "Zeros", "config": {}}}}, {"class_name": "Activation", "inbound_nodes": [[["batch_normalization_62", 0, 0, {}]]], "name": "activation_62", "config": {"activation": "relu", "trainable": true, "name": "activation_62"}}, {"class_name": "Activation", "inbound_nodes": [[["batch_normalization_65", 0, 0, {}]]], "name": "activation_65", "config": {"activation": "relu", "trainable": true, "name": "activation_65"}}, {"class_name": "Conv2D", "inbound_nodes": [[["block35_8_ac", 0, 0, {}]]], "name": "conv2d_61", "config": {"padding": "same", "activation": "linear", "bias_regularizer": null, "name": "conv2d_61", "data_format": "channels_last", "use_bias": false, "kernel_constraint": null, "activity_regularizer": null, "trainable": true, "kernel_initializer": {"class_name": "VarianceScaling", "config": {"seed": null, "mode": "fan_avg", "scale": 1.0, "distribution": "uniform"}}, "filters": 32, "kernel_size": [1, 1], "bias_constraint": null, "strides": [1, 1], "dilation_rate": [1, 1], "bias_initializer": {"class_name": "Zeros", "config": {}}, "kernel_regularizer": null}}, {"class_name": "Conv2D", "inbound_nodes": [[["activation_62", 0, 0, {}]]], "name": "conv2d_63", "config": {"padding": "same", "activation": "linear", "bias_regularizer": null, "name": "conv2d_63", "data_format": "channels_last", "use_bias": false, "kernel_constraint": null, "activity_regularizer": null, "trainable": true, "kernel_initializer": {"class_name": "VarianceScaling", "config": {"seed": null, "mode": "fan_avg", "scale": 1.0, "distribution": "uniform"}}, "filters": 32, "kernel_size": [3, 3], "bias_constraint": null, "strides": [1, 1], "dilation_rate": [1, 1], "bias_initializer": {"class_name": "Zeros", "config": {}}, "kernel_regularizer": null}}, {"class_name": "Conv2D", "inbound_nodes": [[["activation_65", 0, 0, {}]]], "name": "conv2d_66", "config": {"padding": "same", "activation": "linear", "bias_regularizer": null, "name": "conv2d_66", "data_format": "channels_last", "use_bias": false, "kernel_constraint": null, "activity_regularizer": null, "trainable": true, "kernel_initializer": {"class_name": "VarianceScaling", "config": {"seed": null, "mode": "fan_avg", "scale": 1.0, "distribution": "uniform"}}, "filters": 64, "kernel_size": [3, 3], "bias_constraint": null, "strides": [1, 1], "dilation_rate": [1, 1], "bias_initializer": {"class_name": "Zeros", "config": {}}, "kernel_regularizer": null}}, {"class_name": "BatchNormalization", "inbound_nodes": [[["conv2d_61", 0, 0, {}]]], "name": "batch_normalization_61", "config": {"gamma_constraint": null, "name": "batch_normalization_61", "moving_variance_initializer": {"class_name": "Ones", "config": {}}, "axis": 3, "center": true, "epsilon": 0.001, "beta_constraint": null, "beta_regularizer": null, "scale": false, "beta_initializer": {"class_name": "Zeros", "config": {}}, "trainable": true, "gamma_initializer": {"class_name": "Ones", "config": {}}, "gamma_regularizer": null, "momentum": 0.99, "moving_mean_initializer": {"class_name": "Zeros", "config": {}}}}, {"class_name": "BatchNormalization", "inbound_nodes": [[["conv2d_63", 0, 0, {}]]], "name": "batch_normalization_63", "config": {"gamma_constraint": null, "name": "batch_normalization_63", "moving_variance_initializer": {"class_name": "Ones", "config": {}}, "axis": 3, "center": true, "epsilon": 0.001, "beta_constraint": null, "beta_regularizer": null, "scale": false, "beta_initializer": {"class_name": "Zeros", "config": {}}, "trainable": true, "gamma_initializer": {"class_name": "Ones", "config": {}}, "gamma_regularizer": null, "momentum": 0.99, "moving_mean_initializer": {"class_name": "Zeros", "config": {}}}}, {"class_name": "BatchNormalization", "inbound_nodes": [[["conv2d_66", 0, 0, {}]]], "name": "batch_normalization_66", "config": {"gamma_constraint": null, "name": "batch_normalization_66", "moving_variance_initializer": {"class_name": "Ones", "config": {}}, "axis": 3, "center": true, "epsilon": 0.001, "beta_constraint": null, "beta_regularizer": null, "scale": false, "beta_initializer": {"class_name": "Zeros", "config": {}}, "trainable": true, "gamma_initializer": {"class_name": "Ones", "config": {}}, "gamma_regularizer": null, "momentum": 0.99, "moving_mean_initializer": {"class_name": "Zeros", "config": {}}}}, {"class_name": "Activation", "inbound_nodes": [[["batch_normalization_61", 0, 0, {}]]], "name": "activation_61", "config": {"activation": "relu", "trainable": true, "name": "activation_61"}}, {"class_name": "Activation", "inbound_nodes": [[["batch_normalization_63", 0, 0, {}]]], "name": "activation_63", "config": {"activation": "relu", "trainable": true, "name": "activation_63"}}, {"class_name": "Activation", "inbound_nodes": [[["batch_normalization_66", 0, 0, {}]]], "name": "activation_66", "config": {"activation": "relu", "trainable": true, "name": "activation_66"}}, {"class_name": "Concatenate", "inbound_nodes": [[["activation_61", 0, 0, {}], ["activation_63", 0, 0, {}], ["activation_66", 0, 0, {}]]], "name": "block35_9_mixed", "config": {"trainable": true, "axis": 3, "name": "block35_9_mixed"}}, {"class_name": "Conv2D", "inbound_nodes": [[["block35_9_mixed", 0, 0, {}]]], "name": "block35_9_conv", "config": {"padding": "same", "activation": "linear", "bias_regularizer": null, "name": "block35_9_conv", "data_format": "channels_last", "use_bias": true, "kernel_constraint": null, "activity_regularizer": null, "trainable": true, "kernel_initializer": {"class_name": "VarianceScaling", "config": {"seed": null, "mode": "fan_avg", "scale": 1.0, "distribution": "uniform"}}, "filters": 320, "kernel_size": [1, 1], "bias_constraint": null, "strides": [1, 1], "dilation_rate": [1, 1], "bias_initializer": {"class_name": "Zeros", "config": {}}, "kernel_regularizer": null}}, {"class_name": "Lambda", "inbound_nodes": [[["block35_8_ac", 0, 0, {}], ["block35_9_conv", 0, 0, {}]]], "name": "block35_9", "config": {"trainable": true, "arguments": {"scale": 0.17}, "name": "block35_9", "output_shape_type": "raw", "function": ["4wIAAAAAAAAAAgAAAAMAAABTAAAAcxQAAAB8AABkAQAZfAAAZAIAGXwBABQXUykDTukAAAAA6QEA\nAACpACkC2gZpbnB1dHPaBXNjYWxlcgMAAAByAwAAAPpqL2hvbWUvbXNoYWlraDIvYW5hY29uZGEz\nL2VudnMvdGYtZ3B1L2xpYi9weXRob24zLjUvc2l0ZS1wYWNrYWdlcy9rZXJhc19hcHBsaWNhdGlv\nbnMvaW5jZXB0aW9uX3Jlc25ldF92Mi5wedoIPGxhbWJkYT6qAAAA8wAAAAA=\n", null, null], "function_type": "lambda", "output_shape": [29, 29, 320]}}, {"class_name": "Activation", "inbound_nodes": [[["block35_9", 0, 0, {}]]], "name": "block35_9_ac", "config": {"activation": "relu", "trainable": true, "name": "block35_9_ac"}}, {"class_name": "Conv2D", "inbound_nodes": [[["block35_9_ac", 0, 0, {}]]], "name": "conv2d_70", "config": {"padding": "same", "activation": "linear", "bias_regularizer": null, "name": "conv2d_70", "data_format": "channels_last", "use_bias": false, "kernel_constraint": null, "activity_regularizer": null, "trainable": true, "kernel_initializer": {"class_name": "VarianceScaling", "config": {"seed": null, "mode": "fan_avg", "scale": 1.0, "distribution": "uniform"}}, "filters": 32, "kernel_size": [1, 1], "bias_constraint": null, "strides": [1, 1], "dilation_rate": [1, 1], "bias_initializer": {"class_name": "Zeros", "config": {}}, "kernel_regularizer": null}}, {"class_name": "BatchNormalization", "inbound_nodes": [[["conv2d_70", 0, 0, {}]]], "name": "batch_normalization_70", "config": {"gamma_constraint": null, "name": "batch_normalization_70", "moving_variance_initializer": {"class_name": "Ones", "config": {}}, "axis": 3, "center": true, "epsilon": 0.001, "beta_constraint": null, "beta_regularizer": null, "scale": false, "beta_initializer": {"class_name": "Zeros", "config": {}}, "trainable": true, "gamma_initializer": {"class_name": "Ones", "config": {}}, "gamma_regularizer": null, "momentum": 0.99, "moving_mean_initializer": {"class_name": "Zeros", "config": {}}}}, {"class_name": "Activation", "inbound_nodes": [[["batch_normalization_70", 0, 0, {}]]], "name": "activation_70", "config": {"activation": "relu", "trainable": true, "name": "activation_70"}}, {"class_name": "Conv2D", "inbound_nodes": [[["block35_9_ac", 0, 0, {}]]], "name": "conv2d_68", "config": {"padding": "same", "activation": "linear", "bias_regularizer": null, "name": "conv2d_68", "data_format": "channels_last", "use_bias": false, "kernel_constraint": null, "activity_regularizer": null, "trainable": true, "kernel_initializer": {"class_name": "VarianceScaling", "config": {"seed": null, "mode": "fan_avg", "scale": 1.0, "distribution": "uniform"}}, "filters": 32, "kernel_size": [1, 1], "bias_constraint": null, "strides": [1, 1], "dilation_rate": [1, 1], "bias_initializer": {"class_name": "Zeros", "config": {}}, "kernel_regularizer": null}}, {"class_name": "Conv2D", "inbound_nodes": [[["activation_70", 0, 0, {}]]], "name": "conv2d_71", "config": {"padding": "same", "activation": "linear", "bias_regularizer": null, "name": "conv2d_71", "data_format": "channels_last", "use_bias": false, "kernel_constraint": null, "activity_regularizer": null, "trainable": true, "kernel_initializer": {"class_name": "VarianceScaling", "config": {"seed": null, "mode": "fan_avg", "scale": 1.0, "distribution": "uniform"}}, "filters": 48, "kernel_size": [3, 3], "bias_constraint": null, "strides": [1, 1], "dilation_rate": [1, 1], "bias_initializer": {"class_name": "Zeros", "config": {}}, "kernel_regularizer": null}}, {"class_name": "BatchNormalization", "inbound_nodes": [[["conv2d_68", 0, 0, {}]]], "name": "batch_normalization_68", "config": {"gamma_constraint": null, "name": "batch_normalization_68", "moving_variance_initializer": {"class_name": "Ones", "config": {}}, "axis": 3, "center": true, "epsilon": 0.001, "beta_constraint": null, "beta_regularizer": null, "scale": false, "beta_initializer": {"class_name": "Zeros", "config": {}}, "trainable": true, "gamma_initializer": {"class_name": "Ones", "config": {}}, "gamma_regularizer": null, "momentum": 0.99, "moving_mean_initializer": {"class_name": "Zeros", "config": {}}}}, {"class_name": "BatchNormalization", "inbound_nodes": [[["conv2d_71", 0, 0, {}]]], "name": "batch_normalization_71", "config": {"gamma_constraint": null, "name": "batch_normalization_71", "moving_variance_initializer": {"class_name": "Ones", "config": {}}, "axis": 3, "center": true, "epsilon": 0.001, "beta_constraint": null, "beta_regularizer": null, "scale": false, "beta_initializer": {"class_name": "Zeros", "config": {}}, "trainable": true, "gamma_initializer": {"class_name": "Ones", "config": {}}, "gamma_regularizer": null, "momentum": 0.99, "moving_mean_initializer": {"class_name": "Zeros", "config": {}}}}, {"class_name": "Activation", "inbound_nodes": [[["batch_normalization_68", 0, 0, {}]]], "name": "activation_68", "config": {"activation": "relu", "trainable": true, "name": "activation_68"}}, {"class_name": "Activation", "inbound_nodes": [[["batch_normalization_71", 0, 0, {}]]], "name": "activation_71", "config": {"activation": "relu", "trainable": true, "name": "activation_71"}}, {"class_name": "Conv2D", "inbound_nodes": [[["block35_9_ac", 0, 0, {}]]], "name": "conv2d_67", "config": {"padding": "same", "activation": "linear", "bias_regularizer": null, "name": "conv2d_67", "data_format": "channels_last", "use_bias": false, "kernel_constraint": null, "activity_regularizer": null, "trainable": true, "kernel_initializer": {"class_name": "VarianceScaling", "config": {"seed": null, "mode": "fan_avg", "scale": 1.0, "distribution": "uniform"}}, "filters": 32, "kernel_size": [1, 1], "bias_constraint": null, "strides": [1, 1], "dilation_rate": [1, 1], "bias_initializer": {"class_name": "Zeros", "config": {}}, "kernel_regularizer": null}}, {"class_name": "Conv2D", "inbound_nodes": [[["activation_68", 0, 0, {}]]], "name": "conv2d_69", "config": {"padding": "same", "activation": "linear", "bias_regularizer": null, "name": "conv2d_69", "data_format": "channels_last", "use_bias": false, "kernel_constraint": null, "activity_regularizer": null, "trainable": true, "kernel_initializer": {"class_name": "VarianceScaling", "config": {"seed": null, "mode": "fan_avg", "scale": 1.0, "distribution": "uniform"}}, "filters": 32, "kernel_size": [3, 3], "bias_constraint": null, "strides": [1, 1], "dilation_rate": [1, 1], "bias_initializer": {"class_name": "Zeros", "config": {}}, "kernel_regularizer": null}}, {"class_name": "Conv2D", "inbound_nodes": [[["activation_71", 0, 0, {}]]], "name": "conv2d_72", "config": {"padding": "same", "activation": "linear", "bias_regularizer": null, "name": "conv2d_72", "data_format": "channels_last", "use_bias": false, "kernel_constraint": null, "activity_regularizer": null, "trainable": true, "kernel_initializer": {"class_name": "VarianceScaling", "config": {"seed": null, "mode": "fan_avg", "scale": 1.0, "distribution": "uniform"}}, "filters": 64, "kernel_size": [3, 3], "bias_constraint": null, "strides": [1, 1], "dilation_rate": [1, 1], "bias_initializer": {"class_name": "Zeros", "config": {}}, "kernel_regularizer": null}}, {"class_name": "BatchNormalization", "inbound_nodes": [[["conv2d_67", 0, 0, {}]]], "name": "batch_normalization_67", "config": {"gamma_constraint": null, "name": "batch_normalization_67", "moving_variance_initializer": {"class_name": "Ones", "config": {}}, "axis": 3, "center": true, "epsilon": 0.001, "beta_constraint": null, "beta_regularizer": null, "scale": false, "beta_initializer": {"class_name": "Zeros", "config": {}}, "trainable": true, "gamma_initializer": {"class_name": "Ones", "config": {}}, "gamma_regularizer": null, "momentum": 0.99, "moving_mean_initializer": {"class_name": "Zeros", "config": {}}}}, {"class_name": "BatchNormalization", "inbound_nodes": [[["conv2d_69", 0, 0, {}]]], "name": "batch_normalization_69", "config": {"gamma_constraint": null, "name": "batch_normalization_69", "moving_variance_initializer": {"class_name": "Ones", "config": {}}, "axis": 3, "center": true, "epsilon": 0.001, "beta_constraint": null, "beta_regularizer": null, "scale": false, "beta_initializer": {"class_name": "Zeros", "config": {}}, "trainable": true, "gamma_initializer": {"class_name": "Ones", "config": {}}, "gamma_regularizer": null, "momentum": 0.99, "moving_mean_initializer": {"class_name": "Zeros", "config": {}}}}, {"class_name": "BatchNormalization", "inbound_nodes": [[["conv2d_72", 0, 0, {}]]], "name": "batch_normalization_72", "config": {"gamma_constraint": null, "name": "batch_normalization_72", "moving_variance_initializer": {"class_name": "Ones", "config": {}}, "axis": 3, "center": true, "epsilon": 0.001, "beta_constraint": null, "beta_regularizer": null, "scale": false, "beta_initializer": {"class_name": "Zeros", "config": {}}, "trainable": true, "gamma_initializer": {"class_name": "Ones", "config": {}}, "gamma_regularizer": null, "momentum": 0.99, "moving_mean_initializer": {"class_name": "Zeros", "config": {}}}}, {"class_name": "Activation", "inbound_nodes": [[["batch_normalization_67", 0, 0, {}]]], "name": "activation_67", "config": {"activation": "relu", "trainable": true, "name": "activation_67"}}, {"class_name": "Activation", "inbound_nodes": [[["batch_normalization_69", 0, 0, {}]]], "name": "activation_69", "config": {"activation": "relu", "trainable": true, "name": "activation_69"}}, {"class_name": "Activation", "inbound_nodes": [[["batch_normalization_72", 0, 0, {}]]], "name": "activation_72", "config": {"activation": "relu", "trainable": true, "name": "activation_72"}}, {"class_name": "Concatenate", "inbound_nodes": [[["activation_67", 0, 0, {}], ["activation_69", 0, 0, {}], ["activation_72", 0, 0, {}]]], "name": "block35_10_mixed", "config": {"trainable": true, "axis": 3, "name": "block35_10_mixed"}}, {"class_name": "Conv2D", "inbound_nodes": [[["block35_10_mixed", 0, 0, {}]]], "name": "block35_10_conv", "config": {"padding": "same", "activation": "linear", "bias_regularizer": null, "name": "block35_10_conv", "data_format": "channels_last", "use_bias": true, "kernel_constraint": null, "activity_regularizer": null, "trainable": true, "kernel_initializer": {"class_name": "VarianceScaling", "config": {"seed": null, "mode": "fan_avg", "scale": 1.0, "distribution": "uniform"}}, "filters": 320, "kernel_size": [1, 1], "bias_constraint": null, "strides": [1, 1], "dilation_rate": [1, 1], "bias_initializer": {"class_name": "Zeros", "config": {}}, "kernel_regularizer": null}}, {"class_name": "Lambda", "inbound_nodes": [[["block35_9_ac", 0, 0, {}], ["block35_10_conv", 0, 0, {}]]], "name": "block35_10", "config": {"trainable": true, "arguments": {"scale": 0.17}, "name": "block35_10", "output_shape_type": "raw", "function": ["4wIAAAAAAAAAAgAAAAMAAABTAAAAcxQAAAB8AABkAQAZfAAAZAIAGXwBABQXUykDTukAAAAA6QEA\nAACpACkC2gZpbnB1dHPaBXNjYWxlcgMAAAByAwAAAPpqL2hvbWUvbXNoYWlraDIvYW5hY29uZGEz\nL2VudnMvdGYtZ3B1L2xpYi9weXRob24zLjUvc2l0ZS1wYWNrYWdlcy9rZXJhc19hcHBsaWNhdGlv\nbnMvaW5jZXB0aW9uX3Jlc25ldF92Mi5wedoIPGxhbWJkYT6qAAAA8wAAAAA=\n", null, null], "function_type": "lambda", "output_shape": [29, 29, 320]}}, {"class_name": "Activation", "inbound_nodes": [[["block35_10", 0, 0, {}]]], "name": "block35_10_ac", "config": {"activation": "relu", "trainable": true, "name": "block35_10_ac"}}, {"class_name": "Conv2D", "inbound_nodes": [[["block35_10_ac", 0, 0, {}]]], "name": "conv2d_74", "config": {"padding": "same", "activation": "linear", "bias_regularizer": null, "name": "conv2d_74", "data_format": "channels_last", "use_bias": false, "kernel_constraint": null, "activity_regularizer": null, "trainable": true, "kernel_initializer": {"class_name": "VarianceScaling", "config": {"seed": null, "mode": "fan_avg", "scale": 1.0, "distribution": "uniform"}}, "filters": 256, "kernel_size": [1, 1], "bias_constraint": null, "strides": [1, 1], "dilation_rate": [1, 1], "bias_initializer": {"class_name": "Zeros", "config": {}}, "kernel_regularizer": null}}, {"class_name": "BatchNormalization", "inbound_nodes": [[["conv2d_74", 0, 0, {}]]], "name": "batch_normalization_74", "config": {"gamma_constraint": null, "name": "batch_normalization_74", "moving_variance_initializer": {"class_name": "Ones", "config": {}}, "axis": 3, "center": true, "epsilon": 0.001, "beta_constraint": null, "beta_regularizer": null, "scale": false, "beta_initializer": {"class_name": "Zeros", "config": {}}, "trainable": true, "gamma_initializer": {"class_name": "Ones", "config": {}}, "gamma_regularizer": null, "momentum": 0.99, "moving_mean_initializer": {"class_name": "Zeros", "config": {}}}}, {"class_name": "Activation", "inbound_nodes": [[["batch_normalization_74", 0, 0, {}]]], "name": "activation_74", "config": {"activation": "relu", "trainable": true, "name": "activation_74"}}, {"class_name": "Conv2D", "inbound_nodes": [[["activation_74", 0, 0, {}]]], "name": "conv2d_75", "config": {"padding": "same", "activation": "linear", "bias_regularizer": null, "name": "conv2d_75", "data_format": "channels_last", "use_bias": false, "kernel_constraint": null, "activity_regularizer": null, "trainable": true, "kernel_initializer": {"class_name": "VarianceScaling", "config": {"seed": null, "mode": "fan_avg", "scale": 1.0, "distribution": "uniform"}}, "filters": 256, "kernel_size": [3, 3], "bias_constraint": null, "strides": [1, 1], "dilation_rate": [1, 1], "bias_initializer": {"class_name": "Zeros", "config": {}}, "kernel_regularizer": null}}, {"class_name": "BatchNormalization", "inbound_nodes": [[["conv2d_75", 0, 0, {}]]], "name": "batch_normalization_75", "config": {"gamma_constraint": null, "name": "batch_normalization_75", "moving_variance_initializer": {"class_name": "Ones", "config": {}}, "axis": 3, "center": true, "epsilon": 0.001, "beta_constraint": null, "beta_regularizer": null, "scale": false, "beta_initializer": {"class_name": "Zeros", "config": {}}, "trainable": true, "gamma_initializer": {"class_name": "Ones", "config": {}}, "gamma_regularizer": null, "momentum": 0.99, "moving_mean_initializer": {"class_name": "Zeros", "config": {}}}}, {"class_name": "Activation", "inbound_nodes": [[["batch_normalization_75", 0, 0, {}]]], "name": "activation_75", "config": {"activation": "relu", "trainable": true, "name": "activation_75"}}, {"class_name": "Conv2D", "inbound_nodes": [[["block35_10_ac", 0, 0, {}]]], "name": "conv2d_73", "config": {"padding": "valid", "activation": "linear", "bias_regularizer": null, "name": "conv2d_73", "data_format": "channels_last", "use_bias": false, "kernel_constraint": null, "activity_regularizer": null, "trainable": true, "kernel_initializer": {"class_name": "VarianceScaling", "config": {"seed": null, "mode": "fan_avg", "scale": 1.0, "distribution": "uniform"}}, "filters": 384, "kernel_size": [3, 3], "bias_constraint": null, "strides": [2, 2], "dilation_rate": [1, 1], "bias_initializer": {"class_name": "Zeros", "config": {}}, "kernel_regularizer": null}}, {"class_name": "Conv2D", "inbound_nodes": [[["activation_75", 0, 0, {}]]], "name": "conv2d_76", "config": {"padding": "valid", "activation": "linear", "bias_regularizer": null, "name": "conv2d_76", "data_format": "channels_last", "use_bias": false, "kernel_constraint": null, "activity_regularizer": null, "trainable": true, "kernel_initializer": {"class_name": "VarianceScaling", "config": {"seed": null, "mode": "fan_avg", "scale": 1.0, "distribution": "uniform"}}, "filters": 384, "kernel_size": [3, 3], "bias_constraint": null, "strides": [2, 2], "dilation_rate": [1, 1], "bias_initializer": {"class_name": "Zeros", "config": {}}, "kernel_regularizer": null}}, {"class_name": "BatchNormalization", "inbound_nodes": [[["conv2d_73", 0, 0, {}]]], "name": "batch_normalization_73", "config": {"gamma_constraint": null, "name": "batch_normalization_73", "moving_variance_initializer": {"class_name": "Ones", "config": {}}, "axis": 3, "center": true, "epsilon": 0.001, "beta_constraint": null, "beta_regularizer": null, "scale": false, "beta_initializer": {"class_name": "Zeros", "config": {}}, "trainable": true, "gamma_initializer": {"class_name": "Ones", "config": {}}, "gamma_regularizer": null, "momentum": 0.99, "moving_mean_initializer": {"class_name": "Zeros", "config": {}}}}, {"class_name": "BatchNormalization", "inbound_nodes": [[["conv2d_76", 0, 0, {}]]], "name": "batch_normalization_76", "config": {"gamma_constraint": null, "name": "batch_normalization_76", "moving_variance_initializer": {"class_name": "Ones", "config": {}}, "axis": 3, "center": true, "epsilon": 0.001, "beta_constraint": null, "beta_regularizer": null, "scale": false, "beta_initializer": {"class_name": "Zeros", "config": {}}, "trainable": true, "gamma_initializer": {"class_name": "Ones", "config": {}}, "gamma_regularizer": null, "momentum": 0.99, "moving_mean_initializer": {"class_name": "Zeros", "config": {}}}}, {"class_name": "Activation", "inbound_nodes": [[["batch_normalization_73", 0, 0, {}]]], "name": "activation_73", "config": {"activation": "relu", "trainable": true, "name": "activation_73"}}, {"class_name": "Activation", "inbound_nodes": [[["batch_normalization_76", 0, 0, {}]]], "name": "activation_76", "config": {"activation": "relu", "trainable": true, "name": "activation_76"}}, {"class_name": "MaxPooling2D", "inbound_nodes": [[["block35_10_ac", 0, 0, {}]]], "name": "max_pooling2d_3", "config": {"padding": "valid", "trainable": true, "name": "max_pooling2d_3", "data_format": "channels_last", "strides": [2, 2], "pool_size": [3, 3]}}, {"class_name": "Concatenate", "inbound_nodes": [[["activation_73", 0, 0, {}], ["activation_76", 0, 0, {}], ["max_pooling2d_3", 0, 0, {}]]], "name": "mixed_6a", "config": {"trainable": true, "axis": 3, "name": "mixed_6a"}}, {"class_name": "Conv2D", "inbound_nodes": [[["mixed_6a", 0, 0, {}]]], "name": "conv2d_78", "config": {"padding": "same", "activation": "linear", "bias_regularizer": null, "name": "conv2d_78", "data_format": "channels_last", "use_bias": false, "kernel_constraint": null, "activity_regularizer": null, "trainable": true, "kernel_initializer": {"class_name": "VarianceScaling", "config": {"seed": null, "mode": "fan_avg", "scale": 1.0, "distribution": "uniform"}}, "filters": 128, "kernel_size": [1, 1], "bias_constraint": null, "strides": [1, 1], "dilation_rate": [1, 1], "bias_initializer": {"class_name": "Zeros", "config": {}}, "kernel_regularizer": null}}, {"class_name": "BatchNormalization", "inbound_nodes": [[["conv2d_78", 0, 0, {}]]], "name": "batch_normalization_78", "config": {"gamma_constraint": null, "name": "batch_normalization_78", "moving_variance_initializer": {"class_name": "Ones", "config": {}}, "axis": 3, "center": true, "epsilon": 0.001, "beta_constraint": null, "beta_regularizer": null, "scale": false, "beta_initializer": {"class_name": "Zeros", "config": {}}, "trainable": true, "gamma_initializer": {"class_name": "Ones", "config": {}}, "gamma_regularizer": null, "momentum": 0.99, "moving_mean_initializer": {"class_name": "Zeros", "config": {}}}}, {"class_name": "Activation", "inbound_nodes": [[["batch_normalization_78", 0, 0, {}]]], "name": "activation_78", "config": {"activation": "relu", "trainable": true, "name": "activation_78"}}, {"class_name": "Conv2D", "inbound_nodes": [[["activation_78", 0, 0, {}]]], "name": "conv2d_79", "config": {"padding": "same", "activation": "linear", "bias_regularizer": null, "name": "conv2d_79", "data_format": "channels_last", "use_bias": false, "kernel_constraint": null, "activity_regularizer": null, "trainable": true, "kernel_initializer": {"class_name": "VarianceScaling", "config": {"seed": null, "mode": "fan_avg", "scale": 1.0, "distribution": "uniform"}}, "filters": 160, "kernel_size": [1, 7], "bias_constraint": null, "strides": [1, 1], "dilation_rate": [1, 1], "bias_initializer": {"class_name": "Zeros", "config": {}}, "kernel_regularizer": null}}, {"class_name": "BatchNormalization", "inbound_nodes": [[["conv2d_79", 0, 0, {}]]], "name": "batch_normalization_79", "config": {"gamma_constraint": null, "name": "batch_normalization_79", "moving_variance_initializer": {"class_name": "Ones", "config": {}}, "axis": 3, "center": true, "epsilon": 0.001, "beta_constraint": null, "beta_regularizer": null, "scale": false, "beta_initializer": {"class_name": "Zeros", "config": {}}, "trainable": true, "gamma_initializer": {"class_name": "Ones", "config": {}}, "gamma_regularizer": null, "momentum": 0.99, "moving_mean_initializer": {"class_name": "Zeros", "config": {}}}}, {"class_name": "Activation", "inbound_nodes": [[["batch_normalization_79", 0, 0, {}]]], "name": "activation_79", "config": {"activation": "relu", "trainable": true, "name": "activation_79"}}, {"class_name": "Conv2D", "inbound_nodes": [[["mixed_6a", 0, 0, {}]]], "name": "conv2d_77", "config": {"padding": "same", "activation": "linear", "bias_regularizer": null, "name": "conv2d_77", "data_format": "channels_last", "use_bias": false, "kernel_constraint": null, "activity_regularizer": null, "trainable": true, "kernel_initializer": {"class_name": "VarianceScaling", "config": {"seed": null, "mode": "fan_avg", "scale": 1.0, "distribution": "uniform"}}, "filters": 192, "kernel_size": [1, 1], "bias_constraint": null, "strides": [1, 1], "dilation_rate": [1, 1], "bias_initializer": {"class_name": "Zeros", "config": {}}, "kernel_regularizer": null}}, {"class_name": "Conv2D", "inbound_nodes": [[["activation_79", 0, 0, {}]]], "name": "conv2d_80", "config": {"padding": "same", "activation": "linear", "bias_regularizer": null, "name": "conv2d_80", "data_format": "channels_last", "use_bias": false, "kernel_constraint": null, "activity_regularizer": null, "trainable": true, "kernel_initializer": {"class_name": "VarianceScaling", "config": {"seed": null, "mode": "fan_avg", "scale": 1.0, "distribution": "uniform"}}, "filters": 192, "kernel_size": [7, 1], "bias_constraint": null, "strides": [1, 1], "dilation_rate": [1, 1], "bias_initializer": {"class_name": "Zeros", "config": {}}, "kernel_regularizer": null}}, {"class_name": "BatchNormalization", "inbound_nodes": [[["conv2d_77", 0, 0, {}]]], "name": "batch_normalization_77", "config": {"gamma_constraint": null, "name": "batch_normalization_77", "moving_variance_initializer": {"class_name": "Ones", "config": {}}, "axis": 3, "center": true, "epsilon": 0.001, "beta_constraint": null, "beta_regularizer": null, "scale": false, "beta_initializer": {"class_name": "Zeros", "config": {}}, "trainable": true, "gamma_initializer": {"class_name": "Ones", "config": {}}, "gamma_regularizer": null, "momentum": 0.99, "moving_mean_initializer": {"class_name": "Zeros", "config": {}}}}, {"class_name": "BatchNormalization", "inbound_nodes": [[["conv2d_80", 0, 0, {}]]], "name": "batch_normalization_80", "config": {"gamma_constraint": null, "name": "batch_normalization_80", "moving_variance_initializer": {"class_name": "Ones", "config": {}}, "axis": 3, "center": true, "epsilon": 0.001, "beta_constraint": null, "beta_regularizer": null, "scale": false, "beta_initializer": {"class_name": "Zeros", "config": {}}, "trainable": true, "gamma_initializer": {"class_name": "Ones", "config": {}}, "gamma_regularizer": null, "momentum": 0.99, "moving_mean_initializer": {"class_name": "Zeros", "config": {}}}}, {"class_name": "Activation", "inbound_nodes": [[["batch_normalization_77", 0, 0, {}]]], "name": "activation_77", "config": {"activation": "relu", "trainable": true, "name": "activation_77"}}, {"class_name": "Activation", "inbound_nodes": [[["batch_normalization_80", 0, 0, {}]]], "name": "activation_80", "config": {"activation": "relu", "trainable": true, "name": "activation_80"}}, {"class_name": "Concatenate", "inbound_nodes": [[["activation_77", 0, 0, {}], ["activation_80", 0, 0, {}]]], "name": "block17_1_mixed", "config": {"trainable": true, "axis": 3, "name": "block17_1_mixed"}}, {"class_name": "Conv2D", "inbound_nodes": [[["block17_1_mixed", 0, 0, {}]]], "name": "block17_1_conv", "config": {"padding": "same", "activation": "linear", "bias_regularizer": null, "name": "block17_1_conv", "data_format": "channels_last", "use_bias": true, "kernel_constraint": null, "activity_regularizer": null, "trainable": true, "kernel_initializer": {"class_name": "VarianceScaling", "config": {"seed": null, "mode": "fan_avg", "scale": 1.0, "distribution": "uniform"}}, "filters": 1088, "kernel_size": [1, 1], "bias_constraint": null, "strides": [1, 1], "dilation_rate": [1, 1], "bias_initializer": {"class_name": "Zeros", "config": {}}, "kernel_regularizer": null}}, {"class_name": "Lambda", "inbound_nodes": [[["mixed_6a", 0, 0, {}], ["block17_1_conv", 0, 0, {}]]], "name": "block17_1", "config": {"trainable": true, "arguments": {"scale": 0.1}, "name": "block17_1", "output_shape_type": "raw", "function": ["4wIAAAAAAAAAAgAAAAMAAABTAAAAcxQAAAB8AABkAQAZfAAAZAIAGXwBABQXUykDTukAAAAA6QEA\nAACpACkC2gZpbnB1dHPaBXNjYWxlcgMAAAByAwAAAPpqL2hvbWUvbXNoYWlraDIvYW5hY29uZGEz\nL2VudnMvdGYtZ3B1L2xpYi9weXRob24zLjUvc2l0ZS1wYWNrYWdlcy9rZXJhc19hcHBsaWNhdGlv\nbnMvaW5jZXB0aW9uX3Jlc25ldF92Mi5wedoIPGxhbWJkYT6qAAAA8wAAAAA=\n", null, null], "function_type": "lambda", "output_shape": [14, 14, 1088]}}, {"class_name": "Activation", "inbound_nodes": [[["block17_1", 0, 0, {}]]], "name": "block17_1_ac", "config": {"activation": "relu", "trainable": true, "name": "block17_1_ac"}}, {"class_name": "Conv2D", "inbound_nodes": [[["block17_1_ac", 0, 0, {}]]], "name": "conv2d_82", "config": {"padding": "same", "activation": "linear", "bias_regularizer": null, "name": "conv2d_82", "data_format": "channels_last", "use_bias": false, "kernel_constraint": null, "activity_regularizer": null, "trainable": true, "kernel_initializer": {"class_name": "VarianceScaling", "config": {"seed": null, "mode": "fan_avg", "scale": 1.0, "distribution": "uniform"}}, "filters": 128, "kernel_size": [1, 1], "bias_constraint": null, "strides": [1, 1], "dilation_rate": [1, 1], "bias_initializer": {"class_name": "Zeros", "config": {}}, "kernel_regularizer": null}}, {"class_name": "BatchNormalization", "inbound_nodes": [[["conv2d_82", 0, 0, {}]]], "name": "batch_normalization_82", "config": {"gamma_constraint": null, "name": "batch_normalization_82", "moving_variance_initializer": {"class_name": "Ones", "config": {}}, "axis": 3, "center": true, "epsilon": 0.001, "beta_constraint": null, "beta_regularizer": null, "scale": false, "beta_initializer": {"class_name": "Zeros", "config": {}}, "trainable": true, "gamma_initializer": {"class_name": "Ones", "config": {}}, "gamma_regularizer": null, "momentum": 0.99, "moving_mean_initializer": {"class_name": "Zeros", "config": {}}}}, {"class_name": "Activation", "inbound_nodes": [[["batch_normalization_82", 0, 0, {}]]], "name": "activation_82", "config": {"activation": "relu", "trainable": true, "name": "activation_82"}}, {"class_name": "Conv2D", "inbound_nodes": [[["activation_82", 0, 0, {}]]], "name": "conv2d_83", "config": {"padding": "same", "activation": "linear", "bias_regularizer": null, "name": "conv2d_83", "data_format": "channels_last", "use_bias": false, "kernel_constraint": null, "activity_regularizer": null, "trainable": true, "kernel_initializer": {"class_name": "VarianceScaling", "config": {"seed": null, "mode": "fan_avg", "scale": 1.0, "distribution": "uniform"}}, "filters": 160, "kernel_size": [1, 7], "bias_constraint": null, "strides": [1, 1], "dilation_rate": [1, 1], "bias_initializer": {"class_name": "Zeros", "config": {}}, "kernel_regularizer": null}}, {"class_name": "BatchNormalization", "inbound_nodes": [[["conv2d_83", 0, 0, {}]]], "name": "batch_normalization_83", "config": {"gamma_constraint": null, "name": "batch_normalization_83", "moving_variance_initializer": {"class_name": "Ones", "config": {}}, "axis": 3, "center": true, "epsilon": 0.001, "beta_constraint": null, "beta_regularizer": null, "scale": false, "beta_initializer": {"class_name": "Zeros", "config": {}}, "trainable": true, "gamma_initializer": {"class_name": "Ones", "config": {}}, "gamma_regularizer": null, "momentum": 0.99, "moving_mean_initializer": {"class_name": "Zeros", "config": {}}}}, {"class_name": "Activation", "inbound_nodes": [[["batch_normalization_83", 0, 0, {}]]], "name": "activation_83", "config": {"activation": "relu", "trainable": true, "name": "activation_83"}}, {"class_name": "Conv2D", "inbound_nodes": [[["block17_1_ac", 0, 0, {}]]], "name": "conv2d_81", "config": {"padding": "same", "activation": "linear", "bias_regularizer": null, "name": "conv2d_81", "data_format": "channels_last", "use_bias": false, "kernel_constraint": null, "activity_regularizer": null, "trainable": true, "kernel_initializer": {"class_name": "VarianceScaling", "config": {"seed": null, "mode": "fan_avg", "scale": 1.0, "distribution": "uniform"}}, "filters": 192, "kernel_size": [1, 1], "bias_constraint": null, "strides": [1, 1], "dilation_rate": [1, 1], "bias_initializer": {"class_name": "Zeros", "config": {}}, "kernel_regularizer": null}}, {"class_name": "Conv2D", "inbound_nodes": [[["activation_83", 0, 0, {}]]], "name": "conv2d_84", "config": {"padding": "same", "activation": "linear", "bias_regularizer": null, "name": "conv2d_84", "data_format": "channels_last", "use_bias": false, "kernel_constraint": null, "activity_regularizer": null, "trainable": true, "kernel_initializer": {"class_name": "VarianceScaling", "config": {"seed": null, "mode": "fan_avg", "scale": 1.0, "distribution": "uniform"}}, "filters": 192, "kernel_size": [7, 1], "bias_constraint": null, "strides": [1, 1], "dilation_rate": [1, 1], "bias_initializer": {"class_name": "Zeros", "config": {}}, "kernel_regularizer": null}}, {"class_name": "BatchNormalization", "inbound_nodes": [[["conv2d_81", 0, 0, {}]]], "name": "batch_normalization_81", "config": {"gamma_constraint": null, "name": "batch_normalization_81", "moving_variance_initializer": {"class_name": "Ones", "config": {}}, "axis": 3, "center": true, "epsilon": 0.001, "beta_constraint": null, "beta_regularizer": null, "scale": false, "beta_initializer": {"class_name": "Zeros", "config": {}}, "trainable": true, "gamma_initializer": {"class_name": "Ones", "config": {}}, "gamma_regularizer": null, "momentum": 0.99, "moving_mean_initializer": {"class_name": "Zeros", "config": {}}}}, {"class_name": "BatchNormalization", "inbound_nodes": [[["conv2d_84", 0, 0, {}]]], "name": "batch_normalization_84", "config": {"gamma_constraint": null, "name": "batch_normalization_84", "moving_variance_initializer": {"class_name": "Ones", "config": {}}, "axis": 3, "center": true, "epsilon": 0.001, "beta_constraint": null, "beta_regularizer": null, "scale": false, "beta_initializer": {"class_name": "Zeros", "config": {}}, "trainable": true, "gamma_initializer": {"class_name": "Ones", "config": {}}, "gamma_regularizer": null, "momentum": 0.99, "moving_mean_initializer": {"class_name": "Zeros", "config": {}}}}, {"class_name": "Activation", "inbound_nodes": [[["batch_normalization_81", 0, 0, {}]]], "name": "activation_81", "config": {"activation": "relu", "trainable": true, "name": "activation_81"}}, {"class_name": "Activation", "inbound_nodes": [[["batch_normalization_84", 0, 0, {}]]], "name": "activation_84", "config": {"activation": "relu", "trainable": true, "name": "activation_84"}}, {"class_name": "Concatenate", "inbound_nodes": [[["activation_81", 0, 0, {}], ["activation_84", 0, 0, {}]]], "name": "block17_2_mixed", "config": {"trainable": true, "axis": 3, "name": "block17_2_mixed"}}, {"class_name": "Conv2D", "inbound_nodes": [[["block17_2_mixed", 0, 0, {}]]], "name": "block17_2_conv", "config": {"padding": "same", "activation": "linear", "bias_regularizer": null, "name": "block17_2_conv", "data_format": "channels_last", "use_bias": true, "kernel_constraint": null, "activity_regularizer": null, "trainable": true, "kernel_initializer": {"class_name": "VarianceScaling", "config": {"seed": null, "mode": "fan_avg", "scale": 1.0, "distribution": "uniform"}}, "filters": 1088, "kernel_size": [1, 1], "bias_constraint": null, "strides": [1, 1], "dilation_rate": [1, 1], "bias_initializer": {"class_name": "Zeros", "config": {}}, "kernel_regularizer": null}}, {"class_name": "Lambda", "inbound_nodes": [[["block17_1_ac", 0, 0, {}], ["block17_2_conv", 0, 0, {}]]], "name": "block17_2", "config": {"trainable": true, "arguments": {"scale": 0.1}, "name": "block17_2", "output_shape_type": "raw", "function": ["4wIAAAAAAAAAAgAAAAMAAABTAAAAcxQAAAB8AABkAQAZfAAAZAIAGXwBABQXUykDTukAAAAA6QEA\nAACpACkC2gZpbnB1dHPaBXNjYWxlcgMAAAByAwAAAPpqL2hvbWUvbXNoYWlraDIvYW5hY29uZGEz\nL2VudnMvdGYtZ3B1L2xpYi9weXRob24zLjUvc2l0ZS1wYWNrYWdlcy9rZXJhc19hcHBsaWNhdGlv\nbnMvaW5jZXB0aW9uX3Jlc25ldF92Mi5wedoIPGxhbWJkYT6qAAAA8wAAAAA=\n", null, null], "function_type": "lambda", "output_shape": [14, 14, 1088]}}, {"class_name": "Activation", "inbound_nodes": [[["block17_2", 0, 0, {}]]], "name": "block17_2_ac", "config": {"activation": "relu", "trainable": true, "name": "block17_2_ac"}}, {"class_name": "Conv2D", "inbound_nodes": [[["block17_2_ac", 0, 0, {}]]], "name": "conv2d_86", "config": {"padding": "same", "activation": "linear", "bias_regularizer": null, "name": "conv2d_86", "data_format": "channels_last", "use_bias": false, "kernel_constraint": null, "activity_regularizer": null, "trainable": true, "kernel_initializer": {"class_name": "VarianceScaling", "config": {"seed": null, "mode": "fan_avg", "scale": 1.0, "distribution": "uniform"}}, "filters": 128, "kernel_size": [1, 1], "bias_constraint": null, "strides": [1, 1], "dilation_rate": [1, 1], "bias_initializer": {"class_name": "Zeros", "config": {}}, "kernel_regularizer": null}}, {"class_name": "BatchNormalization", "inbound_nodes": [[["conv2d_86", 0, 0, {}]]], "name": "batch_normalization_86", "config": {"gamma_constraint": null, "name": "batch_normalization_86", "moving_variance_initializer": {"class_name": "Ones", "config": {}}, "axis": 3, "center": true, "epsilon": 0.001, "beta_constraint": null, "beta_regularizer": null, "scale": false, "beta_initializer": {"class_name": "Zeros", "config": {}}, "trainable": true, "gamma_initializer": {"class_name": "Ones", "config": {}}, "gamma_regularizer": null, "momentum": 0.99, "moving_mean_initializer": {"class_name": "Zeros", "config": {}}}}, {"class_name": "Activation", "inbound_nodes": [[["batch_normalization_86", 0, 0, {}]]], "name": "activation_86", "config": {"activation": "relu", "trainable": true, "name": "activation_86"}}, {"class_name": "Conv2D", "inbound_nodes": [[["activation_86", 0, 0, {}]]], "name": "conv2d_87", "config": {"padding": "same", "activation": "linear", "bias_regularizer": null, "name": "conv2d_87", "data_format": "channels_last", "use_bias": false, "kernel_constraint": null, "activity_regularizer": null, "trainable": true, "kernel_initializer": {"class_name": "VarianceScaling", "config": {"seed": null, "mode": "fan_avg", "scale": 1.0, "distribution": "uniform"}}, "filters": 160, "kernel_size": [1, 7], "bias_constraint": null, "strides": [1, 1], "dilation_rate": [1, 1], "bias_initializer": {"class_name": "Zeros", "config": {}}, "kernel_regularizer": null}}, {"class_name": "BatchNormalization", "inbound_nodes": [[["conv2d_87", 0, 0, {}]]], "name": "batch_normalization_87", "config": {"gamma_constraint": null, "name": "batch_normalization_87", "moving_variance_initializer": {"class_name": "Ones", "config": {}}, "axis": 3, "center": true, "epsilon": 0.001, "beta_constraint": null, "beta_regularizer": null, "scale": false, "beta_initializer": {"class_name": "Zeros", "config": {}}, "trainable": true, "gamma_initializer": {"class_name": "Ones", "config": {}}, "gamma_regularizer": null, "momentum": 0.99, "moving_mean_initializer": {"class_name": "Zeros", "config": {}}}}, {"class_name": "Activation", "inbound_nodes": [[["batch_normalization_87", 0, 0, {}]]], "name": "activation_87", "config": {"activation": "relu", "trainable": true, "name": "activation_87"}}, {"class_name": "Conv2D", "inbound_nodes": [[["block17_2_ac", 0, 0, {}]]], "name": "conv2d_85", "config": {"padding": "same", "activation": "linear", "bias_regularizer": null, "name": "conv2d_85", "data_format": "channels_last", "use_bias": false, "kernel_constraint": null, "activity_regularizer": null, "trainable": true, "kernel_initializer": {"class_name": "VarianceScaling", "config": {"seed": null, "mode": "fan_avg", "scale": 1.0…
an_avg", "scale": 1.0, "distribution": "uniform"}}, "filters": 192, "kernel_size": [1, 1], "bias_constraint": null, "strides": [1, 1], "dilation_rate": [1, 1], "bias_initializer": {"class_name": "Zeros", "config": {}}, "kernel_regularizer": null}}, {"class_name": "Conv2D", "inbound_nodes": [[["activation_190", 0, 0, {}]]], "name": "conv2d_191", "config": {"padding": "same", "activation": "linear", "bias_regularizer": null, "name": "conv2d_191", "data_format": "channels_last", "use_bias": false, "kernel_constraint": null, "activity_regularizer": null, "trainable": true, "kernel_initializer": {"class_name": "VarianceScaling", "config": {"seed": null, "mode": "fan_avg", "scale": 1.0, "distribution": "uniform"}}, "filters": 256, "kernel_size": [3, 1], "bias_constraint": null, "strides": [1, 1], "dilation_rate": [1, 1], "bias_initializer": {"class_name": "Zeros", "config": {}}, "kernel_regularizer": null}}, {"class_name": "BatchNormalization", "inbound_nodes": [[["conv2d_188", 0, 0, {}]]], "name": "batch_normalization_188", "config": {"gamma_constraint": null, "name": "batch_normalization_188", "moving_variance_initializer": {"class_name": "Ones", "config": {}}, "axis": 3, "center": true, "epsilon": 0.001, "beta_constraint": null, "beta_regularizer": null, "scale": false, "beta_initializer": {"class_name": "Zeros", "config": {}}, "trainable": true, "gamma_initializer": {"class_name": "Ones", "config": {}}, "gamma_regularizer": null, "momentum": 0.99, "moving_mean_initializer": {"class_name": "Zeros", "config": {}}}}, {"class_name": "BatchNormalization", "inbound_nodes": [[["conv2d_191", 0, 0, {}]]], "name": "batch_normalization_191", "config": {"gamma_constraint": null, "name": "batch_normalization_191", "moving_variance_initializer": {"class_name": "Ones", "config": {}}, "axis": 3, "center": true, "epsilon": 0.001, "beta_constraint": null, "beta_regularizer": null, "scale": false, "beta_initializer": {"class_name": "Zeros", "config": {}}, "trainable": true, "gamma_initializer": {"class_name": "Ones", "config": {}}, "gamma_regularizer": null, "momentum": 0.99, "moving_mean_initializer": {"class_name": "Zeros", "config": {}}}}, {"class_name": "Activation", "inbound_nodes": [[["batch_normalization_188", 0, 0, {}]]], "name": "activation_188", "config": {"activation": "relu", "trainable": true, "name": "activation_188"}}, {"class_name": "Activation", "inbound_nodes": [[["batch_normalization_191", 0, 0, {}]]], "name": "activation_191", "config": {"activation": "relu", "trainable": true, "name": "activation_191"}}, {"class_name": "Concatenate", "inbound_nodes": [[["activation_188", 0, 0, {}], ["activation_191", 0, 0, {}]]], "name": "block8_7_mixed", "config": {"trainable": true, "axis": 3, "name": "block8_7_mixed"}}, {"class_name": "Conv2D", "inbound_nodes": [[["block8_7_mixed", 0, 0, {}]]], "name": "block8_7_conv", "config": {"padding": "same", "activation": "linear", "bias_regularizer": null, "name": "block8_7_conv", "data_format": "channels_last", "use_bias": true, "kernel_constraint": null, "activity_regularizer": null, "trainable": true, "kernel_initializer": {"class_name": "VarianceScaling", "config": {"seed": null, "mode": "fan_avg", "scale": 1.0, "distribution": "uniform"}}, "filters": 2080, "kernel_size": [1, 1], "bias_constraint": null, "strides": [1, 1], "dilation_rate": [1, 1], "bias_initializer": {"class_name": "Zeros", "config": {}}, "kernel_regularizer": null}}, {"class_name": "Lambda", "inbound_nodes": [[["block8_6_ac", 0, 0, {}], ["block8_7_conv", 0, 0, {}]]], "name": "block8_7", "config": {"trainable": true, "arguments": {"scale": 0.2}, "name": "block8_7", "output_shape_type": "raw", "function": ["4wIAAAAAAAAAAgAAAAMAAABTAAAAcxQAAAB8AABkAQAZfAAAZAIAGXwBABQXUykDTukAAAAA6QEA\nAACpACkC2gZpbnB1dHPaBXNjYWxlcgMAAAByAwAAAPpqL2hvbWUvbXNoYWlraDIvYW5hY29uZGEz\nL2VudnMvdGYtZ3B1L2xpYi9weXRob24zLjUvc2l0ZS1wYWNrYWdlcy9rZXJhc19hcHBsaWNhdGlv\nbnMvaW5jZXB0aW9uX3Jlc25ldF92Mi5wedoIPGxhbWJkYT6qAAAA8wAAAAA=\n", null, null], "function_type": "lambda", "output_shape": [6, 6, 2080]}}, {"class_name": "Activation", "inbound_nodes": [[["block8_7", 0, 0, {}]]], "name": "block8_7_ac", "config": {"activation": "relu", "trainable": true, "name": "block8_7_ac"}}, {"class_name": "Conv2D", "inbound_nodes": [[["block8_7_ac", 0, 0, {}]]], "name": "conv2d_193", "config": {"padding": "same", "activation": "linear", "bias_regularizer": null, "name": "conv2d_193", "data_format": "channels_last", "use_bias": false, "kernel_constraint": null, "activity_regularizer": null, "trainable": true, "kernel_initializer": {"class_name": "VarianceScaling", "config": {"seed": null, "mode": "fan_avg", "scale": 1.0, "distribution": "uniform"}}, "filters": 192, "kernel_size": [1, 1], "bias_constraint": null, "strides": [1, 1], "dilation_rate": [1, 1], "bias_initializer": {"class_name": "Zeros", "config": {}}, "kernel_regularizer": null}}, {"class_name": "BatchNormalization", "inbound_nodes": [[["conv2d_193", 0, 0, {}]]], "name": "batch_normalization_193", "config": {"gamma_constraint": null, "name": "batch_normalization_193", "moving_variance_initializer": {"class_name": "Ones", "config": {}}, "axis": 3, "center": true, "epsilon": 0.001, "beta_constraint": null, "beta_regularizer": null, "scale": false, "beta_initializer": {"class_name": "Zeros", "config": {}}, "trainable": true, "gamma_initializer": {"class_name": "Ones", "config": {}}, "gamma_regularizer": null, "momentum": 0.99, "moving_mean_initializer": {"class_name": "Zeros", "config": {}}}}, {"class_name": "Activation", "inbound_nodes": [[["batch_normalization_193", 0, 0, {}]]], "name": "activation_193", "config": {"activation": "relu", "trainable": true, "name": "activation_193"}}, {"class_name": "Conv2D", "inbound_nodes": [[["activation_193", 0, 0, {}]]], "name": "conv2d_194", "config": {"padding": "same", "activation": "linear", "bias_regularizer": null, "name": "conv2d_194", "data_format": "channels_last", "use_bias": false, "kernel_constraint": null, "activity_regularizer": null, "trainable": true, "kernel_initializer": {"class_name": "VarianceScaling", "config": {"seed": null, "mode": "fan_avg", "scale": 1.0, "distribution": "uniform"}}, "filters": 224, "kernel_size": [1, 3], "bias_constraint": null, "strides": [1, 1], "dilation_rate": [1, 1], "bias_initializer": {"class_name": "Zeros", "config": {}}, "kernel_regularizer": null}}, {"class_name": "BatchNormalization", "inbound_nodes": [[["conv2d_194", 0, 0, {}]]], "name": "batch_normalization_194", "config": {"gamma_constraint": null, "name": "batch_normalization_194", "moving_variance_initializer": {"class_name": "Ones", "config": {}}, "axis": 3, "center": true, "epsilon": 0.001, "beta_constraint": null, "beta_regularizer": null, "scale": false, "beta_initializer": {"class_name": "Zeros", "config": {}}, "trainable": true, "gamma_initializer": {"class_name": "Ones", "config": {}}, "gamma_regularizer": null, "momentum": 0.99, "moving_mean_initializer": {"class_name": "Zeros", "config": {}}}}, {"class_name": "Activation", "inbound_nodes": [[["batch_normalization_194", 0, 0, {}]]], "name": "activation_194", "config": {"activation": "relu", "trainable": true, "name": "activation_194"}}, {"class_name": "Conv2D", "inbound_nodes": [[["block8_7_ac", 0, 0, {}]]], "name": "conv2d_192", "config": {"padding": "same", "activation": "linear", "bias_regularizer": null, "name": "conv2d_192", "data_format": "channels_last", "use_bias": false, "kernel_constraint": null, "activity_regularizer": null, "trainable": true, "kernel_initializer": {"class_name": "VarianceScaling", "config": {"seed": null, "mode": "fan_avg", "scale": 1.0, "distribution": "uniform"}}, "filters": 192, "kernel_size": [1, 1], "bias_constraint": null, "strides": [1, 1], "dilation_rate": [1, 1], "bias_initializer": {"class_name": "Zeros", "config": {}}, "kernel_regularizer": null}}, {"class_name": "Conv2D", "inbound_nodes": [[["activation_194", 0, 0, {}]]], "name": "conv2d_195", "config": {"padding": "same", "activation": "linear", "bias_regularizer": null, "name": "conv2d_195", "data_format": "channels_last", "use_bias": false, "kernel_constraint": null, "activity_regularizer": null, "trainable": true, "kernel_initializer": {"class_name": "VarianceScaling", "config": {"seed": null, "mode": "fan_avg", "scale": 1.0, "distribution": "uniform"}}, "filters": 256, "kernel_size": [3, 1], "bias_constraint": null, "strides": [1, 1], "dilation_rate": [1, 1], "bias_initializer": {"class_name": "Zeros", "config": {}}, "kernel_regularizer": null}}, {"class_name": "BatchNormalization", "inbound_nodes": [[["conv2d_192", 0, 0, {}]]], "name": "batch_normalization_192", "config": {"gamma_constraint": null, "name": "batch_normalization_192", "moving_variance_initializer": {"class_name": "Ones", "config": {}}, "axis": 3, "center": true, "epsilon": 0.001, "beta_constraint": null, "beta_regularizer": null, "scale": false, "beta_initializer": {"class_name": "Zeros", "config": {}}, "trainable": true, "gamma_initializer": {"class_name": "Ones", "config": {}}, "gamma_regularizer": null, "momentum": 0.99, "moving_mean_initializer": {"class_name": "Zeros", "config": {}}}}, {"class_name": "BatchNormalization", "inbound_nodes": [[["conv2d_195", 0, 0, {}]]], "name": "batch_normalization_195", "config": {"gamma_constraint": null, "name": "batch_normalization_195", "moving_variance_initializer": {"class_name": "Ones", "config": {}}, "axis": 3, "center": true, "epsilon": 0.001, "beta_constraint": null, "beta_regularizer": null, "scale": false, "beta_initializer": {"class_name": "Zeros", "config": {}}, "trainable": true, "gamma_initializer": {"class_name": "Ones", "config": {}}, "gamma_regularizer": null, "momentum": 0.99, "moving_mean_initializer": {"class_name": "Zeros", "config": {}}}}, {"class_name": "Activation", "inbound_nodes": [[["batch_normalization_192", 0, 0, {}]]], "name": "activation_192", "config": {"activation": "relu", "trainable": true, "name": "activation_192"}}, {"class_name": "Activation", "inbound_nodes": [[["batch_normalization_195", 0, 0, {}]]], "name": "activation_195", "config": {"activation": "relu", "trainable": true, "name": "activation_195"}}, {"class_name": "Concatenate", "inbound_nodes": [[["activation_192", 0, 0, {}], ["activation_195", 0, 0, {}]]], "name": "block8_8_mixed", "config": {"trainable": true, "axis": 3, "name": "block8_8_mixed"}}, {"class_name": "Conv2D", "inbound_nodes": [[["block8_8_mixed", 0, 0, {}]]], "name": "block8_8_conv", "config": {"padding": "same", "activation": "linear", "bias_regularizer": null, "name": "block8_8_conv", "data_format": "channels_last", "use_bias": true, "kernel_constraint": null, "activity_regularizer": null, "trainable": true, "kernel_initializer": {"class_name": "VarianceScaling", "config": {"seed": null, "mode": "fan_avg", "scale": 1.0, "distribution": "uniform"}}, "filters": 2080, "kernel_size": [1, 1], "bias_constraint": null, "strides": [1, 1], "dilation_rate": [1, 1], "bias_initializer": {"class_name": "Zeros", "config": {}}, "kernel_regularizer": null}}, {"class_name": "Lambda", "inbound_nodes": [[["block8_7_ac", 0, 0, {}], ["block8_8_conv", 0, 0, {}]]], "name": "block8_8", "config": {"trainable": true, "arguments": {"scale": 0.2}, "name": "block8_8", "output_shape_type": "raw", "function": ["4wIAAAAAAAAAAgAAAAMAAABTAAAAcxQAAAB8AABkAQAZfAAAZAIAGXwBABQXUykDTukAAAAA6QEA\nAACpACkC2gZpbnB1dHPaBXNjYWxlcgMAAAByAwAAAPpqL2hvbWUvbXNoYWlraDIvYW5hY29uZGEz\nL2VudnMvdGYtZ3B1L2xpYi9weXRob24zLjUvc2l0ZS1wYWNrYWdlcy9rZXJhc19hcHBsaWNhdGlv\nbnMvaW5jZXB0aW9uX3Jlc25ldF92Mi5wedoIPGxhbWJkYT6qAAAA8wAAAAA=\n", null, null], "function_type": "lambda", "output_shape": [6, 6, 2080]}}, {"class_name": "Activation", "inbound_nodes": [[["block8_8", 0, 0, {}]]], "name": "block8_8_ac", "config": {"activation": "relu", "trainable": true, "name": "block8_8_ac"}}, {"class_name": "Conv2D", "inbound_nodes": [[["block8_8_ac", 0, 0, {}]]], "name": "conv2d_197", "config": {"padding": "same", "activation": "linear", "bias_regularizer": null, "name": "conv2d_197", "data_format": "channels_last", "use_bias": false, "kernel_constraint": null, "activity_regularizer": null, "trainable": true, "kernel_initializer": {"class_name": "VarianceScaling", "config": {"seed": null, "mode": "fan_avg", "scale": 1.0, "distribution": "uniform"}}, "filters": 192, "kernel_size": [1, 1], "bias_constraint": null, "strides": [1, 1], "dilation_rate": [1, 1], "bias_initializer": {"class_name": "Zeros", "config": {}}, "kernel_regularizer": null}}, {"class_name": "BatchNormalization", "inbound_nodes": [[["conv2d_197", 0, 0, {}]]], "name": "batch_normalization_197", "config": {"gamma_constraint": null, "name": "batch_normalization_197", "moving_variance_initializer": {"class_name": "Ones", "config": {}}, "axis": 3, "center": true, "epsilon": 0.001, "beta_constraint": null, "beta_regularizer": null, "scale": false, "beta_initializer": {"class_name": "Zeros", "config": {}}, "trainable": true, "gamma_initializer": {"class_name": "Ones", "config": {}}, "gamma_regularizer": null, "momentum": 0.99, "moving_mean_initializer": {"class_name": "Zeros", "config": {}}}}, {"class_name": "Activation", "inbound_nodes": [[["batch_normalization_197", 0, 0, {}]]], "name": "activation_197", "config": {"activation": "relu", "trainable": true, "name": "activation_197"}}, {"class_name": "Conv2D", "inbound_nodes": [[["activation_197", 0, 0, {}]]], "name": "conv2d_198", "config": {"padding": "same", "activation": "linear", "bias_regularizer": null, "name": "conv2d_198", "data_format": "channels_last", "use_bias": false, "kernel_constraint": null, "activity_regularizer": null, "trainable": true, "kernel_initializer": {"class_name": "VarianceScaling", "config": {"seed": null, "mode": "fan_avg", "scale": 1.0, "distribution": "uniform"}}, "filters": 224, "kernel_size": [1, 3], "bias_constraint": null, "strides": [1, 1], "dilation_rate": [1, 1], "bias_initializer": {"class_name": "Zeros", "config": {}}, "kernel_regularizer": null}}, {"class_name": "BatchNormalization", "inbound_nodes": [[["conv2d_198", 0, 0, {}]]], "name": "batch_normalization_198", "config": {"gamma_constraint": null, "name": "batch_normalization_198", "moving_variance_initializer": {"class_name": "Ones", "config": {}}, "axis": 3, "center": true, "epsilon": 0.001, "beta_constraint": null, "beta_regularizer": null, "scale": false, "beta_initializer": {"class_name": "Zeros", "config": {}}, "trainable": true, "gamma_initializer": {"class_name": "Ones", "config": {}}, "gamma_regularizer": null, "momentum": 0.99, "moving_mean_initializer": {"class_name": "Zeros", "config": {}}}}, {"class_name": "Activation", "inbound_nodes": [[["batch_normalization_198", 0, 0, {}]]], "name": "activation_198", "config": {"activation": "relu", "trainable": true, "name": "activation_198"}}, {"class_name": "Conv2D", "inbound_nodes": [[["block8_8_ac", 0, 0, {}]]], "name": "conv2d_196", "config": {"padding": "same", "activation": "linear", "bias_regularizer": null, "name": "conv2d_196", "data_format": "channels_last", "use_bias": false, "kernel_constraint": null, "activity_regularizer": null, "trainable": true, "kernel_initializer": {"class_name": "VarianceScaling", "config": {"seed": null, "mode": "fan_avg", "scale": 1.0, "distribution": "uniform"}}, "filters": 192, "kernel_size": [1, 1], "bias_constraint": null, "strides": [1, 1], "dilation_rate": [1, 1], "bias_initializer": {"class_name": "Zeros", "config": {}}, "kernel_regularizer": null}}, {"class_name": "Conv2D", "inbound_nodes": [[["activation_198", 0, 0, {}]]], "name": "conv2d_199", "config": {"padding": "same", "activation": "linear", "bias_regularizer": null, "name": "conv2d_199", "data_format": "channels_last", "use_bias": false, "kernel_constraint": null, "activity_regularizer": null, "trainable": true, "kernel_initializer": {"class_name": "VarianceScaling", "config": {"seed": null, "mode": "fan_avg", "scale": 1.0, "distribution": "uniform"}}, "filters": 256, "kernel_size": [3, 1], "bias_constraint": null, "strides": [1, 1], "dilation_rate": [1, 1], "bias_initializer": {"class_name": "Zeros", "config": {}}, "kernel_regularizer": null}}, {"class_name": "BatchNormalization", "inbound_nodes": [[["conv2d_196", 0, 0, {}]]], "name": "batch_normalization_196", "config": {"gamma_constraint": null, "name": "batch_normalization_196", "moving_variance_initializer": {"class_name": "Ones", "config": {}}, "axis": 3, "center": true, "epsilon": 0.001, "beta_constraint": null, "beta_regularizer": null, "scale": false, "beta_initializer": {"class_name": "Zeros", "config": {}}, "trainable": true, "gamma_initializer": {"class_name": "Ones", "config": {}}, "gamma_regularizer": null, "momentum": 0.99, "moving_mean_initializer": {"class_name": "Zeros", "config": {}}}}, {"class_name": "BatchNormalization", "inbound_nodes": [[["conv2d_199", 0, 0, {}]]], "name": "batch_normalization_199", "config": {"gamma_constraint": null, "name": "batch_normalization_199", "moving_variance_initializer": {"class_name": "Ones", "config": {}}, "axis": 3, "center": true, "epsilon": 0.001, "beta_constraint": null, "beta_regularizer": null, "scale": false, "beta_initializer": {"class_name": "Zeros", "config": {}}, "trainable": true, "gamma_initializer": {"class_name": "Ones", "config": {}}, "gamma_regularizer": null, "momentum": 0.99, "moving_mean_initializer": {"class_name": "Zeros", "config": {}}}}, {"class_name": "Activation", "inbound_nodes": [[["batch_normalization_196", 0, 0, {}]]], "name": "activation_196", "config": {"activation": "relu", "trainable": true, "name": "activation_196"}}, {"class_name": "Activation", "inbound_nodes": [[["batch_normalization_199", 0, 0, {}]]], "name": "activation_199", "config": {"activation": "relu", "trainable": true, "name": "activation_199"}}, {"class_name": "Concatenate", "inbound_nodes": [[["activation_196", 0, 0, {}], ["activation_199", 0, 0, {}]]], "name": "block8_9_mixed", "config": {"trainable": true, "axis": 3, "name": "block8_9_mixed"}}, {"class_name": "Conv2D", "inbound_nodes": [[["block8_9_mixed", 0, 0, {}]]], "name": "block8_9_conv", "config": {"padding": "same", "activation": "linear", "bias_regularizer": null, "name": "block8_9_conv", "data_format": "channels_last", "use_bias": true, "kernel_constraint": null, "activity_regularizer": null, "trainable": true, "kernel_initializer": {"class_name": "VarianceScaling", "config": {"seed": null, "mode": "fan_avg", "scale": 1.0, "distribution": "uniform"}}, "filters": 2080, "kernel_size": [1, 1], "bias_constraint": null, "strides": [1, 1], "dilation_rate": [1, 1], "bias_initializer": {"class_name": "Zeros", "config": {}}, "kernel_regularizer": null}}, {"class_name": "Lambda", "inbound_nodes": [[["block8_8_ac", 0, 0, {}], ["block8_9_conv", 0, 0, {}]]], "name": "block8_9", "config": {"trainable": true, "arguments": {"scale": 0.2}, "name": "block8_9", "output_shape_type": "raw", "function": ["4wIAAAAAAAAAAgAAAAMAAABTAAAAcxQAAAB8AABkAQAZfAAAZAIAGXwBABQXUykDTukAAAAA6QEA\nAACpACkC2gZpbnB1dHPaBXNjYWxlcgMAAAByAwAAAPpqL2hvbWUvbXNoYWlraDIvYW5hY29uZGEz\nL2VudnMvdGYtZ3B1L2xpYi9weXRob24zLjUvc2l0ZS1wYWNrYWdlcy9rZXJhc19hcHBsaWNhdGlv\nbnMvaW5jZXB0aW9uX3Jlc25ldF92Mi5wedoIPGxhbWJkYT6qAAAA8wAAAAA=\n", null, null], "function_type": "lambda", "output_shape": [6, 6, 2080]}}, {"class_name": "Activation", "inbound_nodes": [[["block8_9", 0, 0, {}]]], "name": "block8_9_ac", "config": {"activation": "relu", "trainable": true, "name": "block8_9_ac"}}, {"class_name": "Conv2D", "inbound_nodes": [[["block8_9_ac", 0, 0, {}]]], "name": "conv2d_201", "config": {"padding": "same", "activation": "linear", "bias_regularizer": null, "name": "conv2d_201", "data_format": "channels_last", "use_bias": false, "kernel_constraint": null, "activity_regularizer": null, "trainable": true, "kernel_initializer": {"class_name": "VarianceScaling", "config": {"seed": null, "mode": "fan_avg", "scale": 1.0, "distribution": "uniform"}}, "filters": 192, "kernel_size": [1, 1], "bias_constraint": null, "strides": [1, 1], "dilation_rate": [1, 1], "bias_initializer": {"class_name": "Zeros", "config": {}}, "kernel_regularizer": null}}, {"class_name": "BatchNormalization", "inbound_nodes": [[["conv2d_201", 0, 0, {}]]], "name": "batch_normalization_201", "config": {"gamma_constraint": null, "name": "batch_normalization_201", "moving_variance_initializer": {"class_name": "Ones", "config": {}}, "axis": 3, "center": true, "epsilon": 0.001, "beta_constraint": null, "beta_regularizer": null, "scale": false, "beta_initializer": {"class_name": "Zeros", "config": {}}, "trainable": true, "gamma_initializer": {"class_name": "Ones", "config": {}}, "gamma_regularizer": null, "momentum": 0.99, "moving_mean_initializer": {"class_name": "Zeros", "config": {}}}}, {"class_name": "Activation", "inbound_nodes": [[["batch_normalization_201", 0, 0, {}]]], "name": "activation_201", "config": {"activation": "relu", "trainable": true, "name": "activation_201"}}, {"class_name": "Conv2D", "inbound_nodes": [[["activation_201", 0, 0, {}]]], "name": "conv2d_202", "config": {"padding": "same", "activation": "linear", "bias_regularizer": null, "name": "conv2d_202", "data_format": "channels_last", "use_bias": false, "kernel_constraint": null, "activity_regularizer": null, "trainable": true, "kernel_initializer": {"class_name": "VarianceScaling", "config": {"seed": null, "mode": "fan_avg", "scale": 1.0, "distribution": "uniform"}}, "filters": 224, "kernel_size": [1, 3], "bias_constraint": null, "strides": [1, 1], "dilation_rate": [1, 1], "bias_initializer": {"class_name": "Zeros", "config": {}}, "kernel_regularizer": null}}, {"class_name": "BatchNormalization", "inbound_nodes": [[["conv2d_202", 0, 0, {}]]], "name": "batch_normalization_202", "config": {"gamma_constraint": null, "name": "batch_normalization_202", "moving_variance_initializer": {"class_name": "Ones", "config": {}}, "axis": 3, "center": true, "epsilon": 0.001, "beta_constraint": null, "beta_regularizer": null, "scale": false, "beta_initializer": {"class_name": "Zeros", "config": {}}, "trainable": true, "gamma_initializer": {"class_name": "Ones", "config": {}}, "gamma_regularizer": null, "momentum": 0.99, "moving_mean_initializer": {"class_name": "Zeros", "config": {}}}}, {"class_name": "Activation", "inbound_nodes": [[["batch_normalization_202", 0, 0, {}]]], "name": "activation_202", "config": {"activation": "relu", "trainable": true, "name": "activation_202"}}, {"class_name": "Conv2D", "inbound_nodes": [[["block8_9_ac", 0, 0, {}]]], "name": "conv2d_200", "config": {"padding": "same", "activation": "linear", "bias_regularizer": null, "name": "conv2d_200", "data_format": "channels_last", "use_bias": false, "kernel_constraint": null, "activity_regularizer": null, "trainable": true, "kernel_initializer": {"class_name": "VarianceScaling", "config": {"seed": null, "mode": "fan_avg", "scale": 1.0, "distribution": "uniform"}}, "filters": 192, "kernel_size": [1, 1], "bias_constraint": null, "strides": [1, 1], "dilation_rate": [1, 1], "bias_initializer": {"class_name": "Zeros", "config": {}}, "kernel_regularizer": null}}, {"class_name": "Conv2D", "inbound_nodes": [[["activation_202", 0, 0, {}]]], "name": "conv2d_203", "config": {"padding": "same", "activation": "linear", "bias_regularizer": null, "name": "conv2d_203", "data_format": "channels_last", "use_bias": false, "kernel_constraint": null, "activity_regularizer": null, "trainable": true, "kernel_initializer": {"class_name": "VarianceScaling", "config": {"seed": null, "mode": "fan_avg", "scale": 1.0, "distribution": "uniform"}}, "filters": 256, "kernel_size": [3, 1], "bias_constraint": null, "strides": [1, 1], "dilation_rate": [1, 1], "bias_initializer": {"class_name": "Zeros", "config": {}}, "kernel_regularizer": null}}, {"class_name": "BatchNormalization", "inbound_nodes": [[["conv2d_200", 0, 0, {}]]], "name": "batch_normalization_200", "config": {"gamma_constraint": null, "name": "batch_normalization_200", "moving_variance_initializer": {"class_name": "Ones", "config": {}}, "axis": 3, "center": true, "epsilon": 0.001, "beta_constraint": null, "beta_regularizer": null, "scale": false, "beta_initializer": {"class_name": "Zeros", "config": {}}, "trainable": true, "gamma_initializer": {"class_name": "Ones", "config": {}}, "gamma_regularizer": null, "momentum": 0.99, "moving_mean_initializer": {"class_name": "Zeros", "config": {}}}}, {"class_name": "BatchNormalization", "inbound_nodes": [[["conv2d_203", 0, 0, {}]]], "name": "batch_normalization_203", "config": {"gamma_constraint": null, "name": "batch_normalization_203", "moving_variance_initializer": {"class_name": "Ones", "config": {}}, "axis": 3, "center": true, "epsilon": 0.001, "beta_constraint": null, "beta_regularizer": null, "scale": false, "beta_initializer": {"class_name": "Zeros", "config": {}}, "trainable": true, "gamma_initializer": {"class_name": "Ones", "config": {}}, "gamma_regularizer": null, "momentum": 0.99, "moving_mean_initializer": {"class_name": "Zeros", "config": {}}}}, {"class_name": "Activation", "inbound_nodes": [[["batch_normalization_200", 0, 0, {}]]], "name": "activation_200", "config": {"activation": "relu", "trainable": true, "name": "activation_200"}}, {"class_name": "Activation", "inbound_nodes": [[["batch_normalization_203", 0, 0, {}]]], "name": "activation_203", "config": {"activation": "relu", "trainable": true, "name": "activation_203"}}, {"class_name": "Concatenate", "inbound_nodes": [[["activation_200", 0, 0, {}], ["activation_203", 0, 0, {}]]], "name": "block8_10_mixed", "config": {"trainable": true, "axis": 3, "name": "block8_10_mixed"}}, {"class_name": "Conv2D", "inbound_nodes": [[["block8_10_mixed", 0, 0, {}]]], "name": "block8_10_conv", "config": {"padding": "same", "activation": "linear", "bias_regularizer": null, "name": "block8_10_conv", "data_format": "channels_last", "use_bias": true, "kernel_constraint": null, "activity_regularizer": null, "trainable": true, "kernel_initializer": {"class_name": "VarianceScaling", "config": {"seed": null, "mode": "fan_avg", "scale": 1.0, "distribution": "uniform"}}, "filters": 2080, "kernel_size": [1, 1], "bias_constraint": null, "strides": [1, 1], "dilation_rate": [1, 1], "bias_initializer": {"class_name": "Zeros", "config": {}}, "kernel_regularizer": null}}, {"class_name": "Lambda", "inbound_nodes": [[["block8_9_ac", 0, 0, {}], ["block8_10_conv", 0, 0, {}]]], "name": "block8_10", "config": {"trainable": true, "arguments": {"scale": 1.0}, "name": "block8_10", "output_shape_type": "raw", "function": ["4wIAAAAAAAAAAgAAAAMAAABTAAAAcxQAAAB8AABkAQAZfAAAZAIAGXwBABQXUykDTukAAAAA6QEA\nAACpACkC2gZpbnB1dHPaBXNjYWxlcgMAAAByAwAAAPpqL2hvbWUvbXNoYWlraDIvYW5hY29uZGEz\nL2VudnMvdGYtZ3B1L2xpYi9weXRob24zLjUvc2l0ZS1wYWNrYWdlcy9rZXJhc19hcHBsaWNhdGlv\nbnMvaW5jZXB0aW9uX3Jlc25ldF92Mi5wedoIPGxhbWJkYT6qAAAA8wAAAAA=\n", null, null], "function_type": "lambda", "output_shape": [6, 6, 2080]}}, {"class_name": "Conv2D", "inbound_nodes": [[["block8_10", 0, 0, {}]]], "name": "conv_7b", "config": {"padding": "same", "activation": "linear", "bias_regularizer": null, "name": "conv_7b", "data_format": "channels_last", "use_bias": false, "kernel_constraint": null, "activity_regularizer": null, "trainable": true, "kernel_initializer": {"class_name": "VarianceScaling", "config": {"seed": null, "mode": "fan_avg", "scale": 1.0, "distribution": "uniform"}}, "filters": 1536, "kernel_size": [1, 1], "bias_constraint": null, "strides": [1, 1], "dilation_rate": [1, 1], "bias_initializer": {"class_name": "Zeros", "config": {}}, "kernel_regularizer": null}}, {"class_name": "BatchNormalization", "inbound_nodes": [[["conv_7b", 0, 0, {}]]], "name": "conv_7b_bn", "config": {"gamma_constraint": null, "name": "conv_7b_bn", "moving_variance_initializer": {"class_name": "Ones", "config": {}}, "axis": 3, "center": true, "epsilon": 0.001, "beta_constraint": null, "beta_regularizer": null, "scale": false, "beta_initializer": {"class_name": "Zeros", "config": {}}, "trainable": true, "gamma_initializer": {"class_name": "Ones", "config": {}}, "gamma_regularizer": null, "momentum": 0.99, "moving_mean_initializer": {"class_name": "Zeros", "config": {}}}}, {"class_name": "Activation", "inbound_nodes": [[["conv_7b_bn", 0, 0, {}]]], "name": "conv_7b_ac", "config": {"activation": "relu", "trainable": true, "name": "conv_7b_ac"}}], "name": "inception_resnet_v2", "output_layers": [["conv_7b_ac", 0, 0]], "input_layers": [["input_1", 0, 0]]}}, {"class_name": "Model", "inbound_nodes": [[["words_input", 0, 0, {}], ["padding_masks", 0, 0, {}]]], "name": "textModel", "config": {"layers": [{"class_name": "InputLayer", "inbound_nodes": [], "name": "words_input", "config": {"name": "words_input", "dtype": "float32", "batch_input_shape": [null, 60], "sparse": false}}, {"class_name": "Embedding", "inbound_nodes": [[["words_input", 0, 0, {}]]], "name": "w2v_emb", "config": {"name": "w2v_emb", "batch_input_shape": [null, null], "input_length": null, "embeddings_constraint": null, "activity_regularizer": null, "embeddings_initializer": {"class_name": "RandomUniform", "config": {"maxval": 0.05, "seed": null, "minval": -0.05}}, "embeddings_regularizer": null, "trainable": false, "mask_zero": false, "dtype": "float32", "output_dim": 300, "input_dim": 1943}}, {"class_name": "Conv1D", "inbound_nodes": [[["w2v_emb", 0, 0, {}]]], "name": "conv1d_1", "config": {"padding": "same", "activation": "linear", "bias_regularizer": null, "name": "conv1d_1", "data_format": "channels_last", "use_bias": true, "kernel_constraint": null, "activity_regularizer": null, "trainable": true, "kernel_initializer": {"class_name": "VarianceScaling", "config": {"seed": null, "mode": "fan_avg", "scale": 1.0, "distribution": "uniform"}}, "filters": 324, "kernel_size": [3], "bias_constraint": null, "strides": [1], "dilation_rate": [1], "bias_initializer": {"class_name": "Zeros", "config": {}}, "kernel_regularizer": null}}, {"class_name": "Conv1D", "inbound_nodes": [[["w2v_emb", 0, 0, {}]]], "name": "conv1d_2", "config": {"padding": "same", "activation": "linear", "bias_regularizer": null, "name": "conv1d_2", "data_format": "channels_last", "use_bias": true, "kernel_constraint": null, "activity_regularizer": null, "trainable": true, "kernel_initializer": {"class_name": "VarianceScaling", "config": {"seed": null, "mode": "fan_avg", "scale": 1.0, "distribution": "uniform"}}, "filters": 324, "kernel_size": [5], "bias_constraint": null, "strides": [1], "dilation_rate": [1], "bias_initializer": {"class_name": "Zeros", "config": {}}, "kernel_regularizer": null}}, {"class_name": "Conv1D", "inbound_nodes": [[["w2v_emb", 0, 0, {}]]], "name": "conv1d_3", "config": {"padding": "same", "activation": "linear", "bias_regularizer": null, "name": "conv1d_3", "data_format": "channels_last", "use_bias": true, "kernel_constraint": null, "activity_regularizer": null, "trainable": true, "kernel_initializer": {"class_name": "VarianceScaling", "config": {"seed": null, "mode": "fan_avg", "scale": 1.0, "distribution": "uniform"}}, "filters": 324, "kernel_size": [7], "bias_constraint": null, "strides": [1], "dilation_rate": [1], "bias_initializer": {"class_name": "Zeros", "config": {}}, "kernel_regularizer": null}}, {"class_name": "Conv1D", "inbound_nodes": [[["w2v_emb", 0, 0, {}]]], "name": "conv1d_4", "config": {"padding": "same", "activation": "linear", "bias_regularizer": null, "name": "conv1d_4", "data_format": "channels_last", "use_bias": true, "kernel_constraint": null, "activity_regularizer": null, "trainable": true, "kernel_initializer": {"class_name": "VarianceScaling", "config": {"seed": null, "mode": "fan_avg", "scale": 1.0, "distribution": "uniform"}}, "filters": 324, "kernel_size": [3], "bias_constraint": null, "strides": [1], "dilation_rate": [2], "bias_initializer": {"class_name": "Zeros", "config": {}}, "kernel_regularizer": null}}, {"class_name": "Conv1D", "inbound_nodes": [[["w2v_emb", 0, 0, {}]]], "name": "conv1d_5", "config": {"padding": "same", "activation": "linear", "bias_regularizer": null, "name": "conv1d_5", "data_format": "channels_last", "use_bias": true, "kernel_constraint": null, "activity_regularizer": null, "trainable": true, "kernel_initializer": {"class_name": "VarianceScaling", "config": {"seed": null, "mode": "fan_avg", "scale": 1.0, "distribution": "uniform"}}, "filters": 324, "kernel_size": [5], "bias_constraint": null, "strides": [1], "dilation_rate": [2], "bias_initializer": {"class_name": "Zeros", "config": {}}, "kernel_regularizer": null}}, {"class_name": "Conv1D", "inbound_nodes": [[["w2v_emb", 0, 0, {}]]], "name": "conv1d_6", "config": {"padding": "same", "activation": "linear", "bias_regularizer": null, "name": "conv1d_6", "data_format": "channels_last", "use_bias": true, "kernel_constraint": null, "activity_regularizer": null, "trainable": true, "kernel_initializer": {"class_name": "VarianceScaling", "config": {"seed": null, "mode": "fan_avg", "scale": 1.0, "distribution": "uniform"}}, "filters": 324, "kernel_size": [7], "bias_constraint": null, "strides": [1], "dilation_rate": [2], "bias_initializer": {"class_name": "Zeros", "config": {}}, "kernel_regularizer": null}}, {"class_name": "ELU", "inbound_nodes": [[["conv1d_1", 0, 0, {}]]], "name": "elu_1", "config": {"trainable": true, "name": "elu_1", "alpha": 1.0}}, {"class_name": "ELU", "inbound_nodes": [[["conv1d_2", 0, 0, {}]]], "name": "elu_2", "config": {"trainable": true, "name": "elu_2", "alpha": 1.0}}, {"class_name": "ELU", "inbound_nodes": [[["conv1d_3", 0, 0, {}]]], "name": "elu_3", "config": {"trainable": true, "name": "elu_3", "alpha": 1.0}}, {"class_name": "ELU", "inbound_nodes": [[["conv1d_4", 0, 0, {}]]], "name": "elu_4", "config": {"trainable": true, "name": "elu_4", "alpha": 1.0}}, {"class_name": "ELU", "inbound_nodes": [[["conv1d_5", 0, 0, {}]]], "name": "elu_5", "config": {"trainable": true, "name": "elu_5", "alpha": 1.0}}, {"class_name": "ELU", "inbound_nodes": [[["conv1d_6", 0, 0, {}]]], "name": "elu_6", "config": {"trainable": true, "name": "elu_6", "alpha": 1.0}}, {"class_name": "Concatenate", "inbound_nodes": [[["elu_1", 0, 0, {}], ["elu_2", 0, 0, {}], ["elu_3", 0, 0, {}], ["elu_4", 0, 0, {}], ["elu_5", 0, 0, {}], ["elu_6", 0, 0, {}]]], "name": "concatenate_1", "config": {"trainable": true, "axis": -1, "name": "concatenate_1"}}, {"class_name": "Conv1D", "inbound_nodes": [[["concatenate_1", 0, 0, {}]]], "name": "conv1d_7", "config": {"padding": "same", "activation": "linear", "bias_regularizer": null, "name": "conv1d_7", "data_format": "channels_last", "use_bias": true, "kernel_constraint": null, "activity_regularizer": null, "trainable": true, "kernel_initializer": {"class_name": "VarianceScaling", "config": {"seed": null, "mode": "fan_avg", "scale": 1.0, "distribution": "uniform"}}, "filters": 100, "kernel_size": [1], "bias_constraint": null, "strides": [1], "dilation_rate": [1], "bias_initializer": {"class_name": "Zeros", "config": {}}, "kernel_regularizer": null}}, {"class_name": "BatchNormalization", "inbound_nodes": [[["conv1d_7", 0, 0, {}]]], "name": "batch_normalization_204", "config": {"gamma_constraint": null, "name": "batch_normalization_204", "moving_variance_initializer": {"class_name": "Ones", "config": {}}, "axis": -1, "center": true, "epsilon": 0.001, "beta_constraint": null, "beta_regularizer": null, "scale": true, "beta_initializer": {"class_name": "Zeros", "config": {}}, "trainable": true, "gamma_initializer": {"class_name": "Ones", "config": {}}, "gamma_regularizer": null, "momentum": 0.99, "moving_mean_initializer": {"class_name": "Zeros", "config": {}}}}, {"class_name": "ELU", "inbound_nodes": [[["batch_normalization_204", 0, 0, {}]]], "name": "elu_7", "config": {"trainable": true, "name": "elu_7", "alpha": 1.0}}, {"class_name": "Dropout", "inbound_nodes": [[["elu_7", 0, 0, {}]]], "name": "dropout_1", "config": {"trainable": true, "seed": null, "name": "dropout_1", "noise_shape": null, "rate": 0.8}}, {"class_name": "InputLayer", "inbound_nodes": [], "name": "padding_masks", "config": {"name": "padding_masks", "dtype": "float32", "batch_input_shape": [null, 60, 1], "sparse": false}}, {"class_name": "SelfAttention", "inbound_nodes": [[["dropout_1", 0, 0, {}], ["padding_masks", 0, 0, {}]]], "name": "sa_2_1", "config": {"trainable": true, "name": "sa_2_1"}}, {"class_name": "SelfAttention", "inbound_nodes": [[["dropout_1", 0, 0, {}], ["padding_masks", 0, 0, {}]]], "name": "sa_2_2", "config": {"trainable": true, "name": "sa_2_2"}}, {"class_name": "SelfAttention", "inbound_nodes": [[["dropout_1", 0, 0, {}], ["padding_masks", 0, 0, {}]]], "name": "sa_2_3", "config": {"trainable": true, "name": "sa_2_3"}}, {"class_name": "SelfAttention", "inbound_nodes": [[["dropout_1", 0, 0, {}], ["padding_masks", 0, 0, {}]]], "name": "sa_2_4", "config": {"trainable": true, "name": "sa_2_4"}}, {"class_name": "Concatenate", "inbound_nodes": [[["sa_2_1", 0, 0, {}], ["sa_2_2", 0, 0, {}], ["sa_2_3", 0, 0, {}], ["sa_2_4", 0, 0, {}]]], "name": "concat_sa_2", "config": {"trainable": true, "axis": -1, "name": "concat_sa_2"}}, {"class_name": "ResidualCombine1D", "inbound_nodes": [[["dropout_1", 0, 0, {}], ["concat_sa_2", 0, 0, {}]]], "name": "residual_combine1d_1", "config": {"trainable": true, "name": "residual_combine1d_1"}}, {"class_name": "BatchNormalization", "inbound_nodes": [[["residual_combine1d_1", 0, 0, {}]]], "name": "batch_normalization_205", "config": {"gamma_constraint": null, "name": "batch_normalization_205", "moving_variance_initializer": {"class_name": "Ones", "config": {}}, "axis": -1, "center": true, "epsilon": 0.001, "beta_constraint": null, "beta_regularizer": null, "scale": true, "beta_initializer": {"class_name": "Zeros", "config": {}}, "trainable": true, "gamma_initializer": {"class_name": "Ones", "config": {}}, "gamma_regularizer": null, "momentum": 0.99, "moving_mean_initializer": {"class_name": "Zeros", "config": {}}}}, {"class_name": "Conv1D", "inbound_nodes": [[["batch_normalization_205", 0, 0, {}]]], "name": "conv1d_8", "config": {"padding": "same", "activation": "linear", "bias_regularizer": null, "name": "conv1d_8", "data_format": "channels_last", "use_bias": true, "kernel_constraint": null, "activity_regularizer": null, "trainable": true, "kernel_initializer": {"class_name": "VarianceScaling", "config": {"seed": null, "mode": "fan_avg", "scale": 1.0, "distribution": "uniform"}}, "filters": 100, "kernel_size": [1], "bias_constraint": null, "strides": [1], "dilation_rate": [1], "bias_initializer": {"class_name": "Zeros", "config": {}}, "kernel_regularizer": null}}, {"class_name": "BatchNormalization", "inbound_nodes": [[["conv1d_8", 0, 0, {}]]], "name": "batch_normalization_206", "config": {"gamma_constraint": null, "name": "batch_normalization_206", "moving_variance_initializer": {"class_name": "Ones", "config": {}}, "axis": -1, "center": true, "epsilon": 0.001, "beta_constraint": null, "beta_regularizer": null, "scale": true, "beta_initializer": {"class_name": "Zeros", "config": {}}, "trainable": true, "gamma_initializer": {"class_name": "Ones", "config": {}}, "gamma_regularizer": null, "momentum": 0.99, "moving_mean_initializer": {"class_name": "Zeros", "config": {}}}}, {"class_name": "ELU", "inbound_nodes": [[["batch_normalization_206", 0, 0, {}]]], "name": "elu_25", "config": {"trainable": true, "name": "elu_25", "alpha": 1.0}}, {"class_name": "Dropout", "inbound_nodes": [[["elu_25", 0, 0, {}]]], "name": "dropout_2", "config": {"trainable": true, "seed": null, "name": "dropout_2", "noise_shape": null, "rate": 0.8}}, {"class_name": "SelfAttention", "inbound_nodes": [[["dropout_2", 0, 0, {}], ["padding_masks", 0, 0, {}]]], "name": "sa_3_1", "config": {"trainable": true, "name": "sa_3_1"}}, {"class_name": "SelfAttention", "inbound_nodes": [[["dropout_2", 0, 0, {}], ["padding_masks", 0, 0, {}]]], "name": "sa_3_2", "config": {"trainable": true, "name": "sa_3_2"}}, {"class_name": "SelfAttention", "inbound_nodes": [[["dropout_2", 0, 0, {}], ["padding_masks", 0, 0, {}]]], "name": "sa_3_3", "config": {"trainable": true, "name": "sa_3_3"}}, {"class_name": "SelfAttention", "inbound_nodes": [[["dropout_2", 0, 0, {}], ["padding_masks", 0, 0, {}]]], "name": "sa_3_4", "config": {"trainable": true, "name": "sa_3_4"}}, {"class_name": "Concatenate", "inbound_nodes": [[["sa_3_1", 0, 0, {}], ["sa_3_2", 0, 0, {}], ["sa_3_3", 0, 0, {}], ["sa_3_4", 0, 0, {}]]], "name": "concat_sa_3", "config": {"trainable": true, "axis": -1, "name": "concat_sa_3"}}, {"class_name": "ResidualCombine1D", "inbound_nodes": [[["dropout_2", 0, 0, {}], ["concat_sa_3", 0, 0, {}]]], "name": "residual_combine1d_2", "config": {"trainable": true, "name": "residual_combine1d_2"}}, {"class_name": "BatchNormalization", "inbound_nodes": [[["residual_combine1d_2", 0, 0, {}]]], "name": "batch_normalization_207", "config": {"gamma_constraint": null, "name": "batch_normalization_207", "moving_variance_initializer": {"class_name": "Ones", "config": {}}, "axis": -1, "center": true, "epsilon": 0.001, "beta_constraint": null, "beta_regularizer": null, "scale": true, "beta_initializer": {"class_name": "Zeros", "config": {}}, "trainable": true, "gamma_initializer": {"class_name": "Ones", "config": {}}, "gamma_regularizer": null, "momentum": 0.99, "moving_mean_initializer": {"class_name": "Zeros", "config": {}}}}, {"class_name": "Conv1D", "inbound_nodes": [[["batch_normalization_207", 0, 0, {}]]], "name": "conv1d_9", "config": {"padding": "same", "activation": "linear", "bias_regularizer": null, "name": "conv1d_9", "data_format": "channels_last", "use_bias": true, "kernel_constraint": null, "activity_regularizer": null, "trainable": true, "kernel_initializer": {"class_name": "VarianceScaling", "config": {"seed": null, "mode": "fan_avg", "scale": 1.0, "distribution": "uniform"}}, "filters": 100, "kernel_size": [1], "bias_constraint": null, "strides": [1], "dilation_rate": [1], "bias_initializer": {"class_name": "Zeros", "config": {}}, "kernel_regularizer": null}}, {"class_name": "BatchNormalization", "inbound_nodes": [[["conv1d_9", 0, 0, {}]]], "name": "batch_normalization_208", "config": {"gamma_constraint": null, "name": "batch_normalization_208", "moving_variance_initializer": {"class_name": "Ones", "config": {}}, "axis": -1, "center": true, "epsilon": 0.001, "beta_constraint": null, "beta_regularizer": null, "scale": true, "beta_initializer": {"class_name": "Zeros", "config": {}}, "trainable": true, "gamma_initializer": {"class_name": "Ones", "config": {}}, "gamma_regularizer": null, "momentum": 0.99, "moving_mean_initializer": {"class_name": "Zeros", "config": {}}}}, {"class_name": "ELU", "inbound_nodes": [[["batch_normalization_208", 0, 0, {}]]], "name": "elu_43", "config": {"trainable": true, "name": "elu_43", "alpha": 1.0}}], "name": "textModel", "output_layers": [["elu_43", 0, 0]], "input_layers": [["words_input", 0, 0], ["padding_masks", 0, 0]]}}, {"class_name": "Dropout", "inbound_nodes": [[["inception_resnet_v2", 1, 0, {}]]], "name": "dropout_3", "config": {"trainable": true, "seed": null, "name": "dropout_3", "noise_shape": null, "rate": 0.8}}, {"class_name": "Dropout", "inbound_nodes": [[["textModel", 1, 0, {}]]], "name": "dropout_4", "config": {"trainable": true, "seed": null, "name": "dropout_4", "noise_shape": null, "rate": 0.8}}, {"class_name": "Img2TextCA", "inbound_nodes": [[["dropout_3", 0, 0, {}], ["dropout_4", 0, 0, {}], ["padding_masks", 0, 0, {}]]], "name": "img2_text_ca_1", "config": {"trainable": true, "name": "img2_text_ca_1"}}, {"class_name": "Img2TextCA", "inbound_nodes": [[["dropout_3", 0, 0, {}], ["dropout_4", 0, 0, {}], ["padding_masks", 0, 0, {}]]], "name": "img2_text_ca_2", "config": {"trainable": true, "name": "img2_text_ca_2"}}, {"class_name": "Img2TextCA", "inbound_nodes": [[["dropout_3", 0, 0, {}], ["dropout_4", 0, 0, {}], ["padding_masks", 0, 0, {}]]], "name": "img2_text_ca_3", "config": {"trainable": true, "name": "img2_text_ca_3"}}, {"class_name": "Img2TextCA", "inbound_nodes": [[["dropout_3", 0, 0, {}], ["dropout_4", 0, 0, {}], ["padding_masks", 0, 0, {}]]], "name": "img2_text_ca_4", "config": {"trainable": true, "name": "img2_text_ca_4"}}, {"class_name": "Text2ImgCA", "inbound_nodes": [[["dropout_4", 0, 0, {}], ["dropout_3", 0, 0, {}], ["padding_masks", 0, 0, {}]]], "name": "text2_img_ca_1", "config": {"trainable": true, "name": "text2_img_ca_1"}}, {"class_name": "Text2ImgCA", "inbound_nodes": [[["dropout_4", 0, 0, {}], ["dropout_3", 0, 0, {}], ["padding_masks", 0, 0, {}]]], "name": "text2_img_ca_2", "config": {"trainable": true, "name": "text2_img_ca_2"}}, {"class_name": "Text2ImgCA", "inbound_nodes": [[["dropout_4", 0, 0, {}], ["dropout_3", 0, 0, {}], ["padding_masks", 0, 0, {}]]], "name": "text2_img_ca_3", "config": {"trainable": true, "name": "text2_img_ca_3"}}, {"class_name": "Text2ImgCA", "inbound_nodes": [[["dropout_4", 0, 0, {}], ["dropout_3", 0, 0, {}], ["padding_masks", 0, 0, {}]]], "name": "text2_img_ca_4", "config": {"trainable": true, "name": "text2_img_ca_4"}}, {"class_name": "Concatenate", "inbound_nodes": [[["img2_text_ca_1", 0, 0, {}], ["img2_text_ca_2", 0, 0, {}], ["img2_text_ca_3", 0, 0, {}], ["img2_text_ca_4", 0, 0, {}]]], "name": "img2text_concat", "config": {"trainable": true, "axis": -1, "name": "img2text_concat"}}, {"class_name": "Concatenate", "inbound_nodes": [[["text2_img_ca_1", 0, 0, {}], ["text2_img_ca_2", 0, 0, {}], ["text2_img_ca_3", 0, 0, {}], ["text2_img_ca_4", 0, 0, {}]]], "name": "text2img_concat", "config": {"trainable": true, "axis": -1, "name": "text2img_concat"}}, {"class_name": "ResidualCombine2D", "inbound_nodes": [[["dropout_3", 0, 0, {}], ["img2text_concat", 0, 0, {}]]], "name": "residual_combine2d_1", "config": {"trainable": true, "name": "residual_combine2d_1"}}, {"class_name": "ResidualCombine1D", "inbound_nodes": [[["dropout_4", 0, 0, {}], ["text2img_concat", 0, 0, {}]]], "name": "residual_combine1d_3", "config": {"trainable": true, "name": "residual_combine1d_3"}}, {"class_name": "BatchNormalization", "inbound_nodes": [[["residual_combine2d_1", 0, 0, {}]]], "name": "img2text_comb_batchnorm", "config": {"gamma_constraint": null, "name": "img2text_comb_batchnorm", "moving_variance_initializer": {"class_name": "Ones", "config": {}}, "center": true, "epsilon": 0.001, "gamma_initializer": {"class_name": "Ones", "config": {}}, "beta_constraint": null, "beta_regularizer": null, "scale": true, "beta_initializer": {"class_name": "Zeros", "config": {}}, "trainable": true, "axis": -1, "gamma_regularizer": null, "momentum": 0.99, "moving_mean_initializer": {"class_name": "Zeros", "config": {}}}}, {"class_name": "BatchNormalization", "inbound_nodes": [[["residual_combine1d_3", 0, 0, {}]]], "name": "text2img_comb_batchnorm", "config": {"gamma_constraint": null, "name": "text2img_comb_batchnorm", "moving_variance_initializer": {"class_name": "Ones", "config": {}}, "center": true, "epsilon": 0.001, "gamma_initializer": {"class_name": "Ones", "config": {}}, "beta_constraint": null, "beta_regularizer": null, "scale": true, "beta_initializer": {"class_name": "Zeros", "config": {}}, "trainable": true, "axis": -1, "gamma_regularizer": null, "momentum": 0.99, "moving_mean_initializer": {"class_name": "Zeros", "config": {}}}}, {"class_name": "ELU", "inbound_nodes": [[["img2text_comb_batchnorm", 0, 0, {}]]], "name": "elu_95", "config": {"trainable": true, "name": "elu_95", "alpha": 1.0}}, {"class_name": "ELU", "inbound_nodes": [[["text2img_comb_batchnorm", 0, 0, {}]]], "name": "elu_113", "config": {"trainable": true, "name": "elu_113", "alpha": 1.0}}, {"class_name": "Dropout", "inbound_nodes": [[["elu_95", 0, 0, {}]]], "name": "dropout_5", "config": {"trainable": true, "seed": null, "name": "dropout_5", "noise_shape": null, "rate": 0.8}}, {"class_name": "Dropout", "inbound_nodes": [[["elu_113", 0, 0, {}]]], "name": "dropout_6", "config": {"trainable": true, "seed": null, "name": "dropout_6", "noise_shape": null, "rate": 0.8}}, {"class_name": "GlobalAveragePooling2D", "inbound_nodes": [[["dropout_5", 0, 0, {}]]], "name": "img2text_global_pool", "config": {"trainable": true, "name": "img2text_global_pool", "data_format": "channels_last"}}, {"class_name": "GlobalAveragePooling1D", "inbound_nodes": [[["dropout_6", 0, 0, {}]]], "name": "text2img_global_pool", "config": {"trainable": true, "name": "text2img_global_pool"}}, {"class_name": "Concatenate", "inbound_nodes": [[["img2text_global_pool", 0, 0, {}], ["text2img_global_pool", 0, 0, {}]]], "name": "concatenate_2", "config": {"trainable": true, "axis": -1, "name": "concatenate_2"}}, {"class_name": "Dense", "inbound_nodes": [[["concatenate_2", 0, 0, {}]]], "name": "dense_1", "config": {"activation": "linear", "bias_regularizer": null, "activity_regularizer": null, "name": "dense_1", "use_bias": true, "units": 512, "kernel_constraint": null, "bias_constraint": null, "trainable": true, "kernel_initializer": {"class_name": "VarianceScaling", "config": {"seed": null, "scale": 1.0, "mode": "fan_avg", "distribution": "uniform"}}, "bias_initializer": {"class_name": "Zeros", "config": {}}, "kernel_regularizer": null}}, {"class_name": "ELU", "inbound_nodes": [[["dense_1", 0, 0, {}]]], "name": "elu_114", "config": {"trainable": true, "name": "elu_114", "alpha": 1.0}}, {"class_name": "Dropout", "inbound_nodes": [[["elu_114", 0, 0, {}]]], "name": "dropout_7", "config": {"trainable": true, "seed": null, "name": "dropout_7", "noise_shape": null, "rate": 0.8}}, {"class_name": "Dense", "inbound_nodes": [[["dropout_7", 0, 0, {}]]], "name": "target_word", "config": {"activation": "softmax", "bias_regularizer": null, "activity_regularizer": null, "name": "target_word", "use_bias": true, "units": 1943, "kernel_constraint": null, "bias_constraint": null, "trainable": true, "kernel_initializer": {"class_name": "VarianceScaling", "config": {"seed": null, "scale": 1.0, "mode": "fan_avg", "distribution": "uniform"}}, "bias_initializer": {"class_name": "Zeros", "config": {}}, "kernel_regularizer": null}}], "name": "model_1", "input_layers": [["image_input", 0, 0], ["words_input", 0, 0], ["padding_masks", 0, 0]], "output_layers": [["target_word", 0, 0]]}}