{"class_name": "Model", "backend": "tensorflow", "keras_version": "2.2.2", "config": {"output_layers": [["target_word", 0, 0]], "name": "model_1", "layers": [{"inbound_nodes": [], "name": "image_input", "class_name": "InputLayer", "config": {"batch_input_shape": [null, 256, 256, 3], "dtype": "float32", "sparse": false, "name": "image_input"}}, {"inbound_nodes": [[["image_input", 0, 0, {}]]], "name": "inception_resnet_v2", "class_name": "Model", "config": {"output_layers": [["conv_7b_ac", 0, 0]], "name": "inception_resnet_v2", "layers": [{"inbound_nodes": [], "name": "input_1", "class_name": "InputLayer", "config": {"batch_input_shape": [null, 256, 256, 3], "dtype": "float32", "sparse": false, "name": "input_1"}}, {"inbound_nodes": [[["input_1", 0, 0, {}]]], "name": "conv2d_1", "class_name": "Conv2D", "config": {"trainable": true, "name": "conv2d_1", "padding": "valid", "data_format": "channels_last", "kernel_size": [3, 3], "bias_initializer": {"class_name": "Zeros", "config": {}}, "filters": 32, "strides": [2, 2], "use_bias": false, "activity_regularizer": null, "bias_regularizer": null, "kernel_initializer": {"class_name": "VarianceScaling", "config": {"mode": "fan_avg", "distribution": "uniform", "scale": 1.0, "seed": null}}, "kernel_regularizer": null, "bias_constraint": null, "activation": "linear", "kernel_constraint": null, "dilation_rate": [1, 1]}}, {"inbound_nodes": [[["conv2d_1", 0, 0, {}]]], "name": "batch_normalization_1", "class_name": "BatchNormalization", "config": {"trainable": true, "name": "batch_normalization_1", "center": true, "moving_variance_initializer": {"class_name": "Ones", "config": {}}, "gamma_initializer": {"class_name": "Ones", "config": {}}, "beta_regularizer": null, "moving_mean_initializer": {"class_name": "Zeros", "config": {}}, "epsilon": 0.001, "scale": false, "axis": 3, "beta_initializer": {"class_name": "Zeros", "config": {}}, "momentum": 0.99, "gamma_regularizer": null, "gamma_constraint": null, "beta_constraint": null}}, {"inbound_nodes": [[["batch_normalization_1", 0, 0, {}]]], "name": "activation_1", "class_name": "Activation", "config": {"trainable": true, "name": "activation_1", "activation": "relu"}}, {"inbound_nodes": [[["activation_1", 0, 0, {}]]], "name": "conv2d_2", "class_name": "Conv2D", "config": {"trainable": true, "name": "conv2d_2", "padding": "valid", "data_format": "channels_last", "kernel_size": [3, 3], "bias_initializer": {"class_name": "Zeros", "config": {}}, "filters": 32, "strides": [1, 1], "use_bias": false, "activity_regularizer": null, "bias_regularizer": null, "kernel_initializer": {"class_name": "VarianceScaling", "config": {"mode": "fan_avg", "distribution": "uniform", "scale": 1.0, "seed": null}}, "kernel_regularizer": null, "bias_constraint": null, "activation": "linear", "kernel_constraint": null, "dilation_rate": [1, 1]}}, {"inbound_nodes": [[["conv2d_2", 0, 0, {}]]], "name": "batch_normalization_2", "class_name": "BatchNormalization", "config": {"trainable": true, "name": "batch_normalization_2", "center": true, "moving_variance_initializer": {"class_name": "Ones", "config": {}}, "gamma_initializer": {"class_name": "Ones", "config": {}}, "beta_regularizer": null, "moving_mean_initializer": {"class_name": "Zeros", "config": {}}, "epsilon": 0.001, "scale": false, "axis": 3, "beta_initializer": {"class_name": "Zeros", "config": {}}, "momentum": 0.99, "gamma_regularizer": null, "gamma_constraint": null, "beta_constraint": null}}, {"inbound_nodes": [[["batch_normalization_2", 0, 0, {}]]], "name": "activation_2", "class_name": "Activation", "config": {"trainable": true, "name": "activation_2", "activation": "relu"}}, {"inbound_nodes": [[["activation_2", 0, 0, {}]]], "name": "conv2d_3", "class_name": "Conv2D", "config": {"trainable": true, "name": "conv2d_3", "padding": "same", "data_format": "channels_last", "kernel_size": [3, 3], "bias_initializer": {"class_name": "Zeros", "config": {}}, "filters": 64, "strides": [1, 1], "use_bias": false, "activity_regularizer": null, "bias_regularizer": null, "kernel_initializer": {"class_name": "VarianceScaling", "config": {"mode": "fan_avg", "distribution": "uniform", "scale": 1.0, "seed": null}}, "kernel_regularizer": null, "bias_constraint": null, "activation": "linear", "kernel_constraint": null, "dilation_rate": [1, 1]}}, {"inbound_nodes": [[["conv2d_3", 0, 0, {}]]], "name": "batch_normalization_3", "class_name": "BatchNormalization", "config": {"trainable": true, "name": "batch_normalization_3", "center": true, "moving_variance_initializer": {"class_name": "Ones", "config": {}}, "gamma_initializer": {"class_name": "Ones", "config": {}}, "beta_regularizer": null, "moving_mean_initializer": {"class_name": "Zeros", "config": {}}, "epsilon": 0.001, "scale": false, "axis": 3, "beta_initializer": {"class_name": "Zeros", "config": {}}, "momentum": 0.99, "gamma_regularizer": null, "gamma_constraint": null, "beta_constraint": null}}, {"inbound_nodes": [[["batch_normalization_3", 0, 0, {}]]], "name": "activation_3", "class_name": "Activation", "config": {"trainable": true, "name": "activation_3", "activation": "relu"}}, {"inbound_nodes": [[["activation_3", 0, 0, {}]]], "name": "max_pooling2d_1", "class_name": "MaxPooling2D", "config": {"trainable": true, "name": "max_pooling2d_1", "padding": "valid", "data_format": "channels_last", "pool_size": [3, 3], "strides": [2, 2]}}, {"inbound_nodes": [[["max_pooling2d_1", 0, 0, {}]]], "name": "conv2d_4", "class_name": "Conv2D", "config": {"trainable": true, "name": "conv2d_4", "padding": "valid", "data_format": "channels_last", "kernel_size": [1, 1], "bias_initializer": {"class_name": "Zeros", "config": {}}, "filters": 80, "strides": [1, 1], "use_bias": false, "activity_regularizer": null, "bias_regularizer": null, "kernel_initializer": {"class_name": "VarianceScaling", "config": {"mode": "fan_avg", "distribution": "uniform", "scale": 1.0, "seed": null}}, "kernel_regularizer": null, "bias_constraint": null, "activation": "linear", "kernel_constraint": null, "dilation_rate": [1, 1]}}, {"inbound_nodes": [[["conv2d_4", 0, 0, {}]]], "name": "batch_normalization_4", "class_name": "BatchNormalization", "config": {"trainable": true, "name": "batch_normalization_4", "center": true, "moving_variance_initializer": {"class_name": "Ones", "config": {}}, "gamma_initializer": {"class_name": "Ones", "config": {}}, "beta_regularizer": null, "moving_mean_initializer": {"class_name": "Zeros", "config": {}}, "epsilon": 0.001, "scale": false, "axis": 3, "beta_initializer": {"class_name": "Zeros", "config": {}}, "momentum": 0.99, "gamma_regularizer": null, "gamma_constraint": null, "beta_constraint": null}}, {"inbound_nodes": [[["batch_normalization_4", 0, 0, {}]]], "name": "activation_4", "class_name": "Activation", "config": {"trainable": true, "name": "activation_4", "activation": "relu"}}, {"inbound_nodes": [[["activation_4", 0, 0, {}]]], "name": "conv2d_5", "class_name": "Conv2D", "config": {"trainable": true, "name": "conv2d_5", "padding": "valid", "data_format": "channels_last", "kernel_size": [3, 3], "bias_initializer": {"class_name": "Zeros", "config": {}}, "filters": 192, "strides": [1, 1], "use_bias": false, "activity_regularizer": null, "bias_regularizer": null, "kernel_initializer": {"class_name": "VarianceScaling", "config": {"mode": "fan_avg", "distribution": "uniform", "scale": 1.0, "seed": null}}, "kernel_regularizer": null, "bias_constraint": null, "activation": "linear", "kernel_constraint": null, "dilation_rate": [1, 1]}}, {"inbound_nodes": [[["conv2d_5", 0, 0, {}]]], "name": "batch_normalization_5", "class_name": "BatchNormalization", "config": {"trainable": true, "name": "batch_normalization_5", "center": true, "moving_variance_initializer": {"class_name": "Ones", "config": {}}, "gamma_initializer": {"class_name": "Ones", "config": {}}, "beta_regularizer": null, "moving_mean_initializer": {"class_name": "Zeros", "config": {}}, "epsilon": 0.001, "scale": false, "axis": 3, "beta_initializer": {"class_name": "Zeros", "config": {}}, "momentum": 0.99, "gamma_regularizer": null, "gamma_constraint": null, "beta_constraint": null}}, {"inbound_nodes": [[["batch_normalization_5", 0, 0, {}]]], "name": "activation_5", "class_name": "Activation", "config": {"trainable": true, "name": "activation_5", "activation": "relu"}}, {"inbound_nodes": [[["activation_5", 0, 0, {}]]], "name": "max_pooling2d_2", "class_name": "MaxPooling2D", "config": {"trainable": true, "name": "max_pooling2d_2", "padding": "valid", "data_format": "channels_last", "pool_size": [3, 3], "strides": [2, 2]}}, {"inbound_nodes": [[["max_pooling2d_2", 0, 0, {}]]], "name": "conv2d_9", "class_name": "Conv2D", "config": {"trainable": true, "name": "conv2d_9", "padding": "same", "data_format": "channels_last", "kernel_size": [1, 1], "bias_initializer": {"class_name": "Zeros", "config": {}}, "filters": 64, "strides": [1, 1], "use_bias": false, "activity_regularizer": null, "bias_regularizer": null, "kernel_initializer": {"class_name": "VarianceScaling", "config": {"mode": "fan_avg", "distribution": "uniform", "scale": 1.0, "seed": null}}, "kernel_regularizer": null, "bias_constraint": null, "activation": "linear", "kernel_constraint": null, "dilation_rate": [1, 1]}}, {"inbound_nodes": [[["conv2d_9", 0, 0, {}]]], "name": "batch_normalization_9", "class_name": "BatchNormalization", "config": {"trainable": true, "name": "batch_normalization_9", "center": true, "moving_variance_initializer": {"class_name": "Ones", "config": {}}, "gamma_initializer": {"class_name": "Ones", "config": {}}, "beta_regularizer": null, "moving_mean_initializer": {"class_name": "Zeros", "config": {}}, "epsilon": 0.001, "scale": false, "axis": 3, "beta_initializer": {"class_name": "Zeros", "config": {}}, "momentum": 0.99, "gamma_regularizer": null, "gamma_constraint": null, "beta_constraint": null}}, {"inbound_nodes": [[["batch_normalization_9", 0, 0, {}]]], "name": "activation_9", "class_name": "Activation", "config": {"trainable": true, "name": "activation_9", "activation": "relu"}}, {"inbound_nodes": [[["max_pooling2d_2", 0, 0, {}]]], "name": "conv2d_7", "class_name": "Conv2D", "config": {"trainable": true, "name": "conv2d_7", "padding": "same", "data_format": "channels_last", "kernel_size": [1, 1], "bias_initializer": {"class_name": "Zeros", "config": {}}, "filters": 48, "strides": [1, 1], "use_bias": false, "activity_regularizer": null, "bias_regularizer": null, "kernel_initializer": {"class_name": "VarianceScaling", "config": {"mode": "fan_avg", "distribution": "uniform", "scale": 1.0, "seed": null}}, "kernel_regularizer": null, "bias_constraint": null, "activation": "linear", "kernel_constraint": null, "dilation_rate": [1, 1]}}, {"inbound_nodes": [[["activation_9", 0, 0, {}]]], "name": "conv2d_10", "class_name": "Conv2D", "config": {"trainable": true, "name": "conv2d_10", "padding": "same", "data_format": "channels_last", "kernel_size": [3, 3], "bias_initializer": {"class_name": "Zeros", "config": {}}, "filters": 96, "strides": [1, 1], "use_bias": false, "activity_regularizer": null, "bias_regularizer": null, "kernel_initializer": {"class_name": "VarianceScaling", "config": {"mode": "fan_avg", "distribution": "uniform", "scale": 1.0, "seed": null}}, "kernel_regularizer": null, "bias_constraint": null, "activation": "linear", "kernel_constraint": null, "dilation_rate": [1, 1]}}, {"inbound_nodes": [[["conv2d_7", 0, 0, {}]]], "name": "batch_normalization_7", "class_name": "BatchNormalization", "config": {"trainable": true, "name": "batch_normalization_7", "center": true, "moving_variance_initializer": {"class_name": "Ones", "config": {}}, "gamma_initializer": {"class_name": "Ones", "config": {}}, "beta_regularizer": null, "moving_mean_initializer": {"class_name": "Zeros", "config": {}}, "epsilon": 0.001, "scale": false, "axis": 3, "beta_initializer": {"class_name": "Zeros", "config": {}}, "momentum": 0.99, "gamma_regularizer": null, "gamma_constraint": null, "beta_constraint": null}}, {"inbound_nodes": [[["conv2d_10", 0, 0, {}]]], "name": "batch_normalization_10", "class_name": "BatchNormalization", "config": {"trainable": true, "name": "batch_normalization_10", "center": true, "moving_variance_initializer": {"class_name": "Ones", "config": {}}, "gamma_initializer": {"class_name": "Ones", "config": {}}, "beta_regularizer": null, "moving_mean_initializer": {"class_name": "Zeros", "config": {}}, "epsilon": 0.001, "scale": false, "axis": 3, "beta_initializer": {"class_name": "Zeros", "config": {}}, "momentum": 0.99, "gamma_regularizer": null, "gamma_constraint": null, "beta_constraint": null}}, {"inbound_nodes": [[["batch_normalization_7", 0, 0, {}]]], "name": "activation_7", "class_name": "Activation", "config": {"trainable": true, "name": "activation_7", "activation": "relu"}}, {"inbound_nodes": [[["batch_normalization_10", 0, 0, {}]]], "name": "activation_10", "class_name": "Activation", "config": {"trainable": true, "name": "activation_10", "activation": "relu"}}, {"inbound_nodes": [[["max_pooling2d_2", 0, 0, {}]]], "name": "average_pooling2d_1", "class_name": "AveragePooling2D", "config": {"trainable": true, "name": "average_pooling2d_1", "padding": "same", "data_format": "channels_last", "pool_size": [3, 3], "strides": [1, 1]}}, {"inbound_nodes": [[["max_pooling2d_2", 0, 0, {}]]], "name": "conv2d_6", "class_name": "Conv2D", "config": {"trainable": true, "name": "conv2d_6", "padding": "same", "data_format": "channels_last", "kernel_size": [1, 1], "bias_initializer": {"class_name": "Zeros", "config": {}}, "filters": 96, "strides": [1, 1], "use_bias": false, "activity_regularizer": null, "bias_regularizer": null, "kernel_initializer": {"class_name": "VarianceScaling", "config": {"mode": "fan_avg", "distribution": "uniform", "scale": 1.0, "seed": null}}, "kernel_regularizer": null, "bias_constraint": null, "activation": "linear", "kernel_constraint": null, "dilation_rate": [1, 1]}}, {"inbound_nodes": [[["activation_7", 0, 0, {}]]], "name": "conv2d_8", "class_name": "Conv2D", "config": {"trainable": true, "name": "conv2d_8", "padding": "same", "data_format": "channels_last", "kernel_size": [5, 5], "bias_initializer": {"class_name": "Zeros", "config": {}}, "filters": 64, "strides": [1, 1], "use_bias": false, "activity_regularizer": null, "bias_regularizer": null, "kernel_initializer": {"class_name": "VarianceScaling", "config": {"mode": "fan_avg", "distribution": "uniform", "scale": 1.0, "seed": null}}, "kernel_regularizer": null, "bias_constraint": null, "activation": "linear", "kernel_constraint": null, "dilation_rate": [1, 1]}}, {"inbound_nodes": [[["activation_10", 0, 0, {}]]], "name": "conv2d_11", "class_name": "Conv2D", "config": {"trainable": true, "name": "conv2d_11", "padding": "same", "data_format": "channels_last", "kernel_size": [3, 3], "bias_initializer": {"class_name": "Zeros", "config": {}}, "filters": 96, "strides": [1, 1], "use_bias": false, "activity_regularizer": null, "bias_regularizer": null, "kernel_initializer": {"class_name": "VarianceScaling", "config": {"mode": "fan_avg", "distribution": "uniform", "scale": 1.0, "seed": null}}, "kernel_regularizer": null, "bias_constraint": null, "activation": "linear", "kernel_constraint": null, "dilation_rate": [1, 1]}}, {"inbound_nodes": [[["average_pooling2d_1", 0, 0, {}]]], "name": "conv2d_12", "class_name": "Conv2D", "config": {"trainable": true, "name": "conv2d_12", "padding": "same", "data_format": "channels_last", "kernel_size": [1, 1], "bias_initializer": {"class_name": "Zeros", "config": {}}, "filters": 64, "strides": [1, 1], "use_bias": false, "activity_regularizer": null, "bias_regularizer": null, "kernel_initializer": {"class_name": "VarianceScaling", "config": {"mode": "fan_avg", "distribution": "uniform", "scale": 1.0, "seed": null}}, "kernel_regularizer": null, "bias_constraint": null, "activation": "linear", "kernel_constraint": null, "dilation_rate": [1, 1]}}, {"inbound_nodes": [[["conv2d_6", 0, 0, {}]]], "name": "batch_normalization_6", "class_name": "BatchNormalization", "config": {"trainable": true, "name": "batch_normalization_6", "center": true, "moving_variance_initializer": {"class_name": "Ones", "config": {}}, "gamma_initializer": {"class_name": "Ones", "config": {}}, "beta_regularizer": null, "moving_mean_initializer": {"class_name": "Zeros", "config": {}}, "epsilon": 0.001, "scale": false, "axis": 3, "beta_initializer": {"class_name": "Zeros", "config": {}}, "momentum": 0.99, "gamma_regularizer": null, "gamma_constraint": null, "beta_constraint": null}}, {"inbound_nodes": [[["conv2d_8", 0, 0, {}]]], "name": "batch_normalization_8", "class_name": "BatchNormalization", "config": {"trainable": true, "name": "batch_normalization_8", "center": true, "moving_variance_initializer": {"class_name": "Ones", "config": {}}, "gamma_initializer": {"class_name": "Ones", "config": {}}, "beta_regularizer": null, "moving_mean_initializer": {"class_name": "Zeros", "config": {}}, "epsilon": 0.001, "scale": false, "axis": 3, "beta_initializer": {"class_name": "Zeros", "config": {}}, "momentum": 0.99, "gamma_regularizer": null, "gamma_constraint": null, "beta_constraint": null}}, {"inbound_nodes": [[["conv2d_11", 0, 0, {}]]], "name": "batch_normalization_11", "class_name": "BatchNormalization", "config": {"trainable": true, "name": "batch_normalization_11", "center": true, "moving_variance_initializer": {"class_name": "Ones", "config": {}}, "gamma_initializer": {"class_name": "Ones", "config": {}}, "beta_regularizer": null, "moving_mean_initializer": {"class_name": "Zeros", "config": {}}, "epsilon": 0.001, "scale": false, "axis": 3, "beta_initializer": {"class_name": "Zeros", "config": {}}, "momentum": 0.99, "gamma_regularizer": null, "gamma_constraint": null, "beta_constraint": null}}, {"inbound_nodes": [[["conv2d_12", 0, 0, {}]]], "name": "batch_normalization_12", "class_name": "BatchNormalization", "config": {"trainable": true, "name": "batch_normalization_12", "center": true, "moving_variance_initializer": {"class_name": "Ones", "config": {}}, "gamma_initializer": {"class_name": "Ones", "config": {}}, "beta_regularizer": null, "moving_mean_initializer": {"class_name": "Zeros", "config": {}}, "epsilon": 0.001, "scale": false, "axis": 3, "beta_initializer": {"class_name": "Zeros", "config": {}}, "momentum": 0.99, "gamma_regularizer": null, "gamma_constraint": null, "beta_constraint": null}}, {"inbound_nodes": [[["batch_normalization_6", 0, 0, {}]]], "name": "activation_6", "class_name": "Activation", "config": {"trainable": true, "name": "activation_6", "activation": "relu"}}, {"inbound_nodes": [[["batch_normalization_8", 0, 0, {}]]], "name": "activation_8", "class_name": "Activation", "config": {"trainable": true, "name": "activation_8", "activation": "relu"}}, {"inbound_nodes": [[["batch_normalization_11", 0, 0, {}]]], "name": "activation_11", "class_name": "Activation", "config": {"trainable": true, "name": "activation_11", "activation": "relu"}}, {"inbound_nodes": [[["batch_normalization_12", 0, 0, {}]]], "name": "activation_12", "class_name": "Activation", "config": {"trainable": true, "name": "activation_12", "activation": "relu"}}, {"inbound_nodes": [[["activation_6", 0, 0, {}], ["activation_8", 0, 0, {}], ["activation_11", 0, 0, {}], ["activation_12", 0, 0, {}]]], "name": "mixed_5b", "class_name": "Concatenate", "config": {"trainable": true, "axis": 3, "name": "mixed_5b"}}, {"inbound_nodes": [[["mixed_5b", 0, 0, {}]]], "name": "conv2d_16", "class_name": "Conv2D", "config": {"trainable": true, "name": "conv2d_16", "padding": "same", "data_format": "channels_last", "kernel_size": [1, 1], "bias_initializer": {"class_name": "Zeros", "config": {}}, "filters": 32, "strides": [1, 1], "use_bias": false, "activity_regularizer": null, "bias_regularizer": null, "kernel_initializer": {"class_name": "VarianceScaling", "config": {"mode": "fan_avg", "distribution": "uniform", "scale": 1.0, "seed": null}}, "kernel_regularizer": null, "bias_constraint": null, "activation": "linear", "kernel_constraint": null, "dilation_rate": [1, 1]}}, {"inbound_nodes": [[["conv2d_16", 0, 0, {}]]], "name": "batch_normalization_16", "class_name": "BatchNormalization", "config": {"trainable": true, "name": "batch_normalization_16", "center": true, "moving_variance_initializer": {"class_name": "Ones", "config": {}}, "gamma_initializer": {"class_name": "Ones", "config": {}}, "beta_regularizer": null, "moving_mean_initializer": {"class_name": "Zeros", "config": {}}, "epsilon": 0.001, "scale": false, "axis": 3, "beta_initializer": {"class_name": "Zeros", "config": {}}, "momentum": 0.99, "gamma_regularizer": null, "gamma_constraint": null, "beta_constraint": null}}, {"inbound_nodes": [[["batch_normalization_16", 0, 0, {}]]], "name": "activation_16", "class_name": "Activation", "config": {"trainable": true, "name": "activation_16", "activation": "relu"}}, {"inbound_nodes": [[["mixed_5b", 0, 0, {}]]], "name": "conv2d_14", "class_name": "Conv2D", "config": {"trainable": true, "name": "conv2d_14", "padding": "same", "data_format": "channels_last", "kernel_size": [1, 1], "bias_initializer": {"class_name": "Zeros", "config": {}}, "filters": 32, "strides": [1, 1], "use_bias": false, "activity_regularizer": null, "bias_regularizer": null, "kernel_initializer": {"class_name": "VarianceScaling", "config": {"mode": "fan_avg", "distribution": "uniform", "scale": 1.0, "seed": null}}, "kernel_regularizer": null, "bias_constraint": null, "activation": "linear", "kernel_constraint": null, "dilation_rate": [1, 1]}}, {"inbound_nodes": [[["activation_16", 0, 0, {}]]], "name": "conv2d_17", "class_name": "Conv2D", "config": {"trainable": true, "name": "conv2d_17", "padding": "same", "data_format": "channels_last", "kernel_size": [3, 3], "bias_initializer": {"class_name": "Zeros", "config": {}}, "filters": 48, "strides": [1, 1], "use_bias": false, "activity_regularizer": null, "bias_regularizer": null, "kernel_initializer": {"class_name": "VarianceScaling", "config": {"mode": "fan_avg", "distribution": "uniform", "scale": 1.0, "seed": null}}, "kernel_regularizer": null, "bias_constraint": null, "activation": "linear", "kernel_constraint": null, "dilation_rate": [1, 1]}}, {"inbound_nodes": [[["conv2d_14", 0, 0, {}]]], "name": "batch_normalization_14", "class_name": "BatchNormalization", "config": {"trainable": true, "name": "batch_normalization_14", "center": true, "moving_variance_initializer": {"class_name": "Ones", "config": {}}, "gamma_initializer": {"class_name": "Ones", "config": {}}, "beta_regularizer": null, "moving_mean_initializer": {"class_name": "Zeros", "config": {}}, "epsilon": 0.001, "scale": false, "axis": 3, "beta_initializer": {"class_name": "Zeros", "config": {}}, "momentum": 0.99, "gamma_regularizer": null, "gamma_constraint": null, "beta_constraint": null}}, {"inbound_nodes": [[["conv2d_17", 0, 0, {}]]], "name": "batch_normalization_17", "class_name": "BatchNormalization", "config": {"trainable": true, "name": "batch_normalization_17", "center": true, "moving_variance_initializer": {"class_name": "Ones", "config": {}}, "gamma_initializer": {"class_name": "Ones", "config": {}}, "beta_regularizer": null, "moving_mean_initializer": {"class_name": "Zeros", "config": {}}, "epsilon": 0.001, "scale": false, "axis": 3, "beta_initializer": {"class_name": "Zeros", "config": {}}, "momentum": 0.99, "gamma_regularizer": null, "gamma_constraint": null, "beta_constraint": null}}, {"inbound_nodes": [[["batch_normalization_14", 0, 0, {}]]], "name": "activation_14", "class_name": "Activation", "config": {"trainable": true, "name": "activation_14", "activation": "relu"}}, {"inbound_nodes": [[["batch_normalization_17", 0, 0, {}]]], "name": "activation_17", "class_name": "Activation", "config": {"trainable": true, "name": "activation_17", "activation": "relu"}}, {"inbound_nodes": [[["mixed_5b", 0, 0, {}]]], "name": "conv2d_13", "class_name": "Conv2D", "config": {"trainable": true, "name": "conv2d_13", "padding": "same", "data_format": "channels_last", "kernel_size": [1, 1], "bias_initializer": {"class_name": "Zeros", "config": {}}, "filters": 32, "strides": [1, 1], "use_bias": false, "activity_regularizer": null, "bias_regularizer": null, "kernel_initializer": {"class_name": "VarianceScaling", "config": {"mode": "fan_avg", "distribution": "uniform", "scale": 1.0, "seed": null}}, "kernel_regularizer": null, "bias_constraint": null, "activation": "linear", "kernel_constraint": null, "dilation_rate": [1, 1]}}, {"inbound_nodes": [[["activation_14", 0, 0, {}]]], "name": "conv2d_15", "class_name": "Conv2D", "config": {"trainable": true, "name": "conv2d_15", "padding": "same", "data_format": "channels_last", "kernel_size": [3, 3], "bias_initializer": {"class_name": "Zeros", "config": {}}, "filters": 32, "strides": [1, 1], "use_bias": false, "activity_regularizer": null, "bias_regularizer": null, "kernel_initializer": {"class_name": "VarianceScaling", "config": {"mode": "fan_avg", "distribution": "uniform", "scale": 1.0, "seed": null}}, "kernel_regularizer": null, "bias_constraint": null, "activation": "linear", "kernel_constraint": null, "dilation_rate": [1, 1]}}, {"inbound_nodes": [[["activation_17", 0, 0, {}]]], "name": "conv2d_18", "class_name": "Conv2D", "config": {"trainable": true, "name": "conv2d_18", "padding": "same", "data_format": "channels_last", "kernel_size": [3, 3], "bias_initializer": {"class_name": "Zeros", "config": {}}, "filters": 64, "strides": [1, 1], "use_bias": false, "activity_regularizer": null, "bias_regularizer": null, "kernel_initializer": {"class_name": "VarianceScaling", "config": {"mode": "fan_avg", "distribution": "uniform", "scale": 1.0, "seed": null}}, "kernel_regularizer": null, "bias_constraint": null, "activation": "linear", "kernel_constraint": null, "dilation_rate": [1, 1]}}, {"inbound_nodes": [[["conv2d_13", 0, 0, {}]]], "name": "batch_normalization_13", "class_name": "BatchNormalization", "config": {"trainable": true, "name": "batch_normalization_13", "center": true, "moving_variance_initializer": {"class_name": "Ones", "config": {}}, "gamma_initializer": {"class_name": "Ones", "config": {}}, "beta_regularizer": null, "moving_mean_initializer": {"class_name": "Zeros", "config": {}}, "epsilon": 0.001, "scale": false, "axis": 3, "beta_initializer": {"class_name": "Zeros", "config": {}}, "momentum": 0.99, "gamma_regularizer": null, "gamma_constraint": null, "beta_constraint": null}}, {"inbound_nodes": [[["conv2d_15", 0, 0, {}]]], "name": "batch_normalization_15", "class_name": "BatchNormalization", "config": {"trainable": true, "name": "batch_normalization_15", "center": true, "moving_variance_initializer": {"class_name": "Ones", "config": {}}, "gamma_initializer": {"class_name": "Ones", "config": {}}, "beta_regularizer": null, "moving_mean_initializer": {"class_name": "Zeros", "config": {}}, "epsilon": 0.001, "scale": false, "axis": 3, "beta_initializer": {"class_name": "Zeros", "config": {}}, "momentum": 0.99, "gamma_regularizer": null, "gamma_constraint": null, "beta_constraint": null}}, {"inbound_nodes": [[["conv2d_18", 0, 0, {}]]], "name": "batch_normalization_18", "class_name": "BatchNormalization", "config": {"trainable": true, "name": "batch_normalization_18", "center": true, "moving_variance_initializer": {"class_name": "Ones", "config": {}}, "gamma_initializer": {"class_name": "Ones", "config": {}}, "beta_regularizer": null, "moving_mean_initializer": {"class_name": "Zeros", "config": {}}, "epsilon": 0.001, "scale": false, "axis": 3, "beta_initializer": {"class_name": "Zeros", "config": {}}, "momentum": 0.99, "gamma_regularizer": null, "gamma_constraint": null, "beta_constraint": null}}, {"inbound_nodes": [[["batch_normalization_13", 0, 0, {}]]], "name": "activation_13", "class_name": "Activation", "config": {"trainable": true, "name": "activation_13", "activation": "relu"}}, {"inbound_nodes": [[["batch_normalization_15", 0, 0, {}]]], "name": "activation_15", "class_name": "Activation", "config": {"trainable": true, "name": "activation_15", "activation": "relu"}}, {"inbound_nodes": [[["batch_normalization_18", 0, 0, {}]]], "name": "activation_18", "class_name": "Activation", "config": {"trainable": true, "name": "activation_18", "activation": "relu"}}, {"inbound_nodes": [[["activation_13", 0, 0, {}], ["activation_15", 0, 0, {}], ["activation_18", 0, 0, {}]]], "name": "block35_1_mixed", "class_name": "Concatenate", "config": {"trainable": true, "axis": 3, "name": "block35_1_mixed"}}, {"inbound_nodes": [[["block35_1_mixed", 0, 0, {}]]], "name": "block35_1_conv", "class_name": "Conv2D", "config": {"trainable": true, "name": "block35_1_conv", "padding": "same", "data_format": "channels_last", "kernel_size": [1, 1], "bias_initializer": {"class_name": "Zeros", "config": {}}, "filters": 320, "strides": [1, 1], "use_bias": true, "activity_regularizer": null, "bias_regularizer": null, "kernel_initializer": {"class_name": "VarianceScaling", "config": {"mode": "fan_avg", "distribution": "uniform", "scale": 1.0, "seed": null}}, "kernel_regularizer": null, "bias_constraint": null, "activation": "linear", "kernel_constraint": null, "dilation_rate": [1, 1]}}, {"inbound_nodes": [[["mixed_5b", 0, 0, {}], ["block35_1_conv", 0, 0, {}]]], "name": "block35_1", "class_name": "Lambda", "config": {"trainable": true, "output_shape_type": "raw", "name": "block35_1", "output_shape": [29, 29, 320], "function_type": "lambda", "function": ["4wIAAAAAAAAAAgAAAAMAAABTAAAAcxQAAAB8AABkAQAZfAAAZAIAGXwBABQXUykDTukAAAAA6QEA\nAACpACkC2gZpbnB1dHPaBXNjYWxlcgMAAAByAwAAAPpqL2hvbWUvbXNoYWlraDIvYW5hY29uZGEz\nL2VudnMvdGYtZ3B1L2xpYi9weXRob24zLjUvc2l0ZS1wYWNrYWdlcy9rZXJhc19hcHBsaWNhdGlv\nbnMvaW5jZXB0aW9uX3Jlc25ldF92Mi5wedoIPGxhbWJkYT6qAAAA8wAAAAA=\n", null, null], "arguments": {"scale": 0.17}}}, {"inbound_nodes": [[["block35_1", 0, 0, {}]]], "name": "block35_1_ac", "class_name": "Activation", "config": {"trainable": true, "name": "block35_1_ac", "activation": "relu"}}, {"inbound_nodes": [[["block35_1_ac", 0, 0, {}]]], "name": "conv2d_22", "class_name": "Conv2D", "config": {"trainable": true, "name": "conv2d_22", "padding": "same", "data_format": "channels_last", "kernel_size": [1, 1], "bias_initializer": {"class_name": "Zeros", "config": {}}, "filters": 32, "strides": [1, 1], "use_bias": false, "activity_regularizer": null, "bias_regularizer": null, "kernel_initializer": {"class_name": "VarianceScaling", "config": {"mode": "fan_avg", "distribution": "uniform", "scale": 1.0, "seed": null}}, "kernel_regularizer": null, "bias_constraint": null, "activation": "linear", "kernel_constraint": null, "dilation_rate": [1, 1]}}, {"inbound_nodes": [[["conv2d_22", 0, 0, {}]]], "name": "batch_normalization_22", "class_name": "BatchNormalization", "config": {"trainable": true, "name": "batch_normalization_22", "center": true, "moving_variance_initializer": {"class_name": "Ones", "config": {}}, "gamma_initializer": {"class_name": "Ones", "config": {}}, "beta_regularizer": null, "moving_mean_initializer": {"class_name": "Zeros", "config": {}}, "epsilon": 0.001, "scale": false, "axis": 3, "beta_initializer": {"class_name": "Zeros", "config": {}}, "momentum": 0.99, "gamma_regularizer": null, "gamma_constraint": null, "beta_constraint": null}}, {"inbound_nodes": [[["batch_normalization_22", 0, 0, {}]]], "name": "activation_22", "class_name": "Activation", "config": {"trainable": true, "name": "activation_22", "activation": "relu"}}, {"inbound_nodes": [[["block35_1_ac", 0, 0, {}]]], "name": "conv2d_20", "class_name": "Conv2D", "config": {"trainable": true, "name": "conv2d_20", "padding": "same", "data_format": "channels_last", "kernel_size": [1, 1], "bias_initializer": {"class_name": "Zeros", "config": {}}, "filters": 32, "strides": [1, 1], "use_bias": false, "activity_regularizer": null, "bias_regularizer": null, "kernel_initializer": {"class_name": "VarianceScaling", "config": {"mode": "fan_avg", "distribution": "uniform", "scale": 1.0, "seed": null}}, "kernel_regularizer": null, "bias_constraint": null, "activation": "linear", "kernel_constraint": null, "dilation_rate": [1, 1]}}, {"inbound_nodes": [[["activation_22", 0, 0, {}]]], "name": "conv2d_23", "class_name": "Conv2D", "config": {"trainable": true, "name": "conv2d_23", "padding": "same", "data_format": "channels_last", "kernel_size": [3, 3], "bias_initializer": {"class_name": "Zeros", "config": {}}, "filters": 48, "strides": [1, 1], "use_bias": false, "activity_regularizer": null, "bias_regularizer": null, "kernel_initializer": {"class_name": "VarianceScaling", "config": {"mode": "fan_avg", "distribution": "uniform", "scale": 1.0, "seed": null}}, "kernel_regularizer": null, "bias_constraint": null, "activation": "linear", "kernel_constraint": null, "dilation_rate": [1, 1]}}, {"inbound_nodes": [[["conv2d_20", 0, 0, {}]]], "name": "batch_normalization_20", "class_name": "BatchNormalization", "config": {"trainable": true, "name": "batch_normalization_20", "center": true, "moving_variance_initializer": {"class_name": "Ones", "config": {}}, "gamma_initializer": {"class_name": "Ones", "config": {}}, "beta_regularizer": null, "moving_mean_initializer": {"class_name": "Zeros", "config": {}}, "epsilon": 0.001, "scale": false, "axis": 3, "beta_initializer": {"class_name": "Zeros", "config": {}}, "momentum": 0.99, "gamma_regularizer": null, "gamma_constraint": null, "beta_constraint": null}}, {"inbound_nodes": [[["conv2d_23", 0, 0, {}]]], "name": "batch_normalization_23", "class_name": "BatchNormalization", "config": {"trainable": true, "name": "batch_normalization_23", "center": true, "moving_variance_initializer": {"class_name": "Ones", "config": {}}, "gamma_initializer": {"class_name": "Ones", "config": {}}, "beta_regularizer": null, "moving_mean_initializer": {"class_name": "Zeros", "config": {}}, "epsilon": 0.001, "scale": false, "axis": 3, "beta_initializer": {"class_name": "Zeros", "config": {}}, "momentum": 0.99, "gamma_regularizer": null, "gamma_constraint": null, "beta_constraint": null}}, {"inbound_nodes": [[["batch_normalization_20", 0, 0, {}]]], "name": "activation_20", "class_name": "Activation", "config": {"trainable": true, "name": "activation_20", "activation": "relu"}}, {"inbound_nodes": [[["batch_normalization_23", 0, 0, {}]]], "name": "activation_23", "class_name": "Activation", "config": {"trainable": true, "name": "activation_23", "activation": "relu"}}, {"inbound_nodes": [[["block35_1_ac", 0, 0, {}]]], "name": "conv2d_19", "class_name": "Conv2D", "config": {"trainable": true, "name": "conv2d_19", "padding": "same", "data_format": "channels_last", "kernel_size": [1, 1], "bias_initializer": {"class_name": "Zeros", "config": {}}, "filters": 32, "strides": [1, 1], "use_bias": false, "activity_regularizer": null, "bias_regularizer": null, "kernel_initializer": {"class_name": "VarianceScaling", "config": {"mode": "fan_avg", "distribution": "uniform", "scale": 1.0, "seed": null}}, "kernel_regularizer": null, "bias_constraint": null, "activation": "linear", "kernel_constraint": null, "dilation_rate": [1, 1]}}, {"inbound_nodes": [[["activation_20", 0, 0, {}]]], "name": "conv2d_21", "class_name": "Conv2D", "config": {"trainable": true, "name": "conv2d_21", "padding": "same", "data_format": "channels_last", "kernel_size": [3, 3], "bias_initializer": {"class_name": "Zeros", "config": {}}, "filters": 32, "strides": [1, 1], "use_bias": false, "activity_regularizer": null, "bias_regularizer": null, "kernel_initializer": {"class_name": "VarianceScaling", "config": {"mode": "fan_avg", "distribution": "uniform", "scale": 1.0, "seed": null}}, "kernel_regularizer": null, "bias_constraint": null, "activation": "linear", "kernel_constraint": null, "dilation_rate": [1, 1]}}, {"inbound_nodes": [[["activation_23", 0, 0, {}]]], "name": "conv2d_24", "class_name": "Conv2D", "config": {"trainable": true, "name": "conv2d_24", "padding": "same", "data_format": "channels_last", "kernel_size": [3, 3], "bias_initializer": {"class_name": "Zeros", "config": {}}, "filters": 64, "strides": [1, 1], "use_bias": false, "activity_regularizer": null, "bias_regularizer": null, "kernel_initializer": {"class_name": "VarianceScaling", "config": {"mode": "fan_avg", "distribution": "uniform", "scale": 1.0, "seed": null}}, "kernel_regularizer": null, "bias_constraint": null, "activation": "linear", "kernel_constraint": null, "dilation_rate": [1, 1]}}, {"inbound_nodes": [[["conv2d_19", 0, 0, {}]]], "name": "batch_normalization_19", "class_name": "BatchNormalization", "config": {"trainable": true, "name": "batch_normalization_19", "center": true, "moving_variance_initializer": {"class_name": "Ones", "config": {}}, "gamma_initializer": {"class_name": "Ones", "config": {}}, "beta_regularizer": null, "moving_mean_initializer": {"class_name": "Zeros", "config": {}}, "epsilon": 0.001, "scale": false, "axis": 3, "beta_initializer": {"class_name": "Zeros", "config": {}}, "momentum": 0.99, "gamma_regularizer": null, "gamma_constraint": null, "beta_constraint": null}}, {"inbound_nodes": [[["conv2d_21", 0, 0, {}]]], "name": "batch_normalization_21", "class_name": "BatchNormalization", "config": {"trainable": true, "name": "batch_normalization_21", "center": true, "moving_variance_initializer": {"class_name": "Ones", "config": {}}, "gamma_initializer": {"class_name": "Ones", "config": {}}, "beta_regularizer": null, "moving_mean_initializer": {"class_name": "Zeros", "config": {}}, "epsilon": 0.001, "scale": false, "axis": 3, "beta_initializer": {"class_name": "Zeros", "config": {}}, "momentum": 0.99, "gamma_regularizer": null, "gamma_constraint": null, "beta_constraint": null}}, {"inbound_nodes": [[["conv2d_24", 0, 0, {}]]], "name": "batch_normalization_24", "class_name": "BatchNormalization", "config": {"trainable": true, "name": "batch_normalization_24", "center": true, "moving_variance_initializer": {"class_name": "Ones", "config": {}}, "gamma_initializer": {"class_name": "Ones", "config": {}}, "beta_regularizer": null, "moving_mean_initializer": {"class_name": "Zeros", "config": {}}, "epsilon": 0.001, "scale": false, "axis": 3, "beta_initializer": {"class_name": "Zeros", "config": {}}, "momentum": 0.99, "gamma_regularizer": null, "gamma_constraint": null, "beta_constraint": null}}, {"inbound_nodes": [[["batch_normalization_19", 0, 0, {}]]], "name": "activation_19", "class_name": "Activation", "config": {"trainable": true, "name": "activation_19", "activation": "relu"}}, {"inbound_nodes": [[["batch_normalization_21", 0, 0, {}]]], "name": "activation_21", "class_name": "Activation", "config": {"trainable": true, "name": "activation_21", "activation": "relu"}}, {"inbound_nodes": [[["batch_normalization_24", 0, 0, {}]]], "name": "activation_24", "class_name": "Activation", "config": {"trainable": true, "name": "activation_24", "activation": "relu"}}, {"inbound_nodes": [[["activation_19", 0, 0, {}], ["activation_21", 0, 0, {}], ["activation_24", 0, 0, {}]]], "name": "block35_2_mixed", "class_name": "Concatenate", "config": {"trainable": true, "axis": 3, "name": "block35_2_mixed"}}, {"inbound_nodes": [[["block35_2_mixed", 0, 0, {}]]], "name": "block35_2_conv", "class_name": "Conv2D", "config": {"trainable": true, "name": "block35_2_conv", "padding": "same", "data_format": "channels_last", "kernel_size": [1, 1], "bias_initializer": {"class_name": "Zeros", "config": {}}, "filters": 320, "strides": [1, 1], "use_bias": true, "activity_regularizer": null, "bias_regularizer": null, "kernel_initializer": {"class_name": "VarianceScaling", "config": {"mode": "fan_avg", "distribution": "uniform", "scale": 1.0, "seed": null}}, "kernel_regularizer": null, "bias_constraint": null, "activation": "linear", "kernel_constraint": null, "dilation_rate": [1, 1]}}, {"inbound_nodes": [[["block35_1_ac", 0, 0, {}], ["block35_2_conv", 0, 0, {}]]], "name": "block35_2", "class_name": "Lambda", "config": {"trainable": true, "output_shape_type": "raw", "name": "block35_2", "output_shape": [29, 29, 320], "function_type": "lambda", "function": ["4wIAAAAAAAAAAgAAAAMAAABTAAAAcxQAAAB8AABkAQAZfAAAZAIAGXwBABQXUykDTukAAAAA6QEA\nAACpACkC2gZpbnB1dHPaBXNjYWxlcgMAAAByAwAAAPpqL2hvbWUvbXNoYWlraDIvYW5hY29uZGEz\nL2VudnMvdGYtZ3B1L2xpYi9weXRob24zLjUvc2l0ZS1wYWNrYWdlcy9rZXJhc19hcHBsaWNhdGlv\nbnMvaW5jZXB0aW9uX3Jlc25ldF92Mi5wedoIPGxhbWJkYT6qAAAA8wAAAAA=\n", null, null], "arguments": {"scale": 0.17}}}, {"inbound_nodes": [[["block35_2", 0, 0, {}]]], "name": "block35_2_ac", "class_name": "Activation", "config": {"trainable": true, "name": "block35_2_ac", "activation": "relu"}}, {"inbound_nodes": [[["block35_2_ac", 0, 0, {}]]], "name": "conv2d_28", "class_name": "Conv2D", "config": {"trainable": true, "name": "conv2d_28", "padding": "same", "data_format": "channels_last", "kernel_size": [1, 1], "bias_initializer": {"class_name": "Zeros", "config": {}}, "filters": 32, "strides": [1, 1], "use_bias": false, "activity_regularizer": null, "bias_regularizer": null, "kernel_initializer": {"class_name": "VarianceScaling", "config": {"mode": "fan_avg", "distribution": "uniform", "scale": 1.0, "seed": null}}, "kernel_regularizer": null, "bias_constraint": null, "activation": "linear", "kernel_constraint": null, "dilation_rate": [1, 1]}}, {"inbound_nodes": [[["conv2d_28", 0, 0, {}]]], "name": "batch_normalization_28", "class_name": "BatchNormalization", "config": {"trainable": true, "name": "batch_normalization_28", "center": true, "moving_variance_initializer": {"class_name": "Ones", "config": {}}, "gamma_initializer": {"class_name": "Ones", "config": {}}, "beta_regularizer": null, "moving_mean_initializer": {"class_name": "Zeros", "config": {}}, "epsilon": 0.001, "scale": false, "axis": 3, "beta_initializer": {"class_name": "Zeros", "config": {}}, "momentum": 0.99, "gamma_regularizer": null, "gamma_constraint": null, "beta_constraint": null}}, {"inbound_nodes": [[["batch_normalization_28", 0, 0, {}]]], "name": "activation_28", "class_name": "Activation", "config": {"trainable": true, "name": "activation_28", "activation": "relu"}}, {"inbound_nodes": [[["block35_2_ac", 0, 0, {}]]], "name": "conv2d_26", "class_name": "Conv2D", "config": {"trainable": true, "name": "conv2d_26", "padding": "same", "data_format": "channels_last", "kernel_size": [1, 1], "bias_initializer": {"class_name": "Zeros", "config": {}}, "filters": 32, "strides": [1, 1], "use_bias": false, "activity_regularizer": null, "bias_regularizer": null, "kernel_initializer": {"class_name": "VarianceScaling", "config": {"mode": "fan_avg", "distribution": "uniform", "scale": 1.0, "seed": null}}, "kernel_regularizer": null, "bias_constraint": null, "activation": "linear", "kernel_constraint": null, "dilation_rate": [1, 1]}}, {"inbound_nodes": [[["activation_28", 0, 0, {}]]], "name": "conv2d_29", "class_name": "Conv2D", "config": {"trainable": true, "name": "conv2d_29", "padding": "same", "data_format": "channels_last", "kernel_size": [3, 3], "bias_initializer": {"class_name": "Zeros", "config": {}}, "filters": 48, "strides": [1, 1], "use_bias": false, "activity_regularizer": null, "bias_regularizer": null, "kernel_initializer": {"class_name": "VarianceScaling", "config": {"mode": "fan_avg", "distribution": "uniform", "scale": 1.0, "seed": null}}, "kernel_regularizer": null, "bias_constraint": null, "activation": "linear", "kernel_constraint": null, "dilation_rate": [1, 1]}}, {"inbound_nodes": [[["conv2d_26", 0, 0, {}]]], "name": "batch_normalization_26", "class_name": "BatchNormalization", "config": {"trainable": true, "name": "batch_normalization_26", "center": true, "moving_variance_initializer": {"class_name": "Ones", "config": {}}, "gamma_initializer": {"class_name": "Ones", "config": {}}, "beta_regularizer": null, "moving_mean_initializer": {"class_name": "Zeros", "config": {}}, "epsilon": 0.001, "scale": false, "axis": 3, "beta_initializer": {"class_name": "Zeros", "config": {}}, "momentum": 0.99, "gamma_regularizer": null, "gamma_constraint": null, "beta_constraint": null}}, {"inbound_nodes": [[["conv2d_29", 0, 0, {}]]], "name": "batch_normalization_29", "class_name": "BatchNormalization", "config": {"trainable": true, "name": "batch_normalization_29", "center": true, "moving_variance_initializer": {"class_name": "Ones", "config": {}}, "gamma_initializer": {"class_name": "Ones", "config": {}}, "beta_regularizer": null, "moving_mean_initializer": {"class_name": "Zeros", "config": {}}, "epsilon": 0.001, "scale": false, "axis": 3, "beta_initializer": {"class_name": "Zeros", "config": {}}, "momentum": 0.99, "gamma_regularizer": null, "gamma_constraint": null, "beta_constraint": null}}, {"inbound_nodes": [[["batch_normalization_26", 0, 0, {}]]], "name": "activation_26", "class_name": "Activation", "config": {"trainable": true, "name": "activation_26", "activation": "relu"}}, {"inbound_nodes": [[["batch_normalization_29", 0, 0, {}]]], "name": "activation_29", "class_name": "Activation", "config": {"trainable": true, "name": "activation_29", "activation": "relu"}}, {"inbound_nodes": [[["block35_2_ac", 0, 0, {}]]], "name": "conv2d_25", "class_name": "Conv2D", "config": {"trainable": true, "name": "conv2d_25", "padding": "same", "data_format": "channels_last", "kernel_size": [1, 1], "bias_initializer": {"class_name": "Zeros", "config": {}}, "filters": 32, "strides": [1, 1], "use_bias": false, "activity_regularizer": null, "bias_regularizer": null, "kernel_initializer": {"class_name": "VarianceScaling", "config": {"mode": "fan_avg", "distribution": "uniform", "scale": 1.0, "seed": null}}, "kernel_regularizer": null, "bias_constraint": null, "activation": "linear", "kernel_constraint": null, "dilation_rate": [1, 1]}}, {"inbound_nodes": [[["activation_26", 0, 0, {}]]], "name": "conv2d_27", "class_name": "Conv2D", "config": {"trainable": true, "name": "conv2d_27", "padding": "same", "data_format": "channels_last", "kernel_size": [3, 3], "bias_initializer": {"class_name": "Zeros", "config": {}}, "filters": 32, "strides": [1, 1], "use_bias": false, "activity_regularizer": null, "bias_regularizer": null, "kernel_initializer": {"class_name": "VarianceScaling", "config": {"mode": "fan_avg", "distribution": "uniform", "scale": 1.0, "seed": null}}, "kernel_regularizer": null, "bias_constraint": null, "activation": "linear", "kernel_constraint": null, "dilation_rate": [1, 1]}}, {"inbound_nodes": [[["activation_29", 0, 0, {}]]], "name": "conv2d_30", "class_name": "Conv2D", "config": {"trainable": true, "name": "conv2d_30", "padding": "same", "data_format": "channels_last", "kernel_size": [3, 3], "bias_initializer": {"class_name": "Zeros", "config": {}}, "filters": 64, "strides": [1, 1], "use_bias": false, "activity_regularizer": null, "bias_regularizer": null, "kernel_initializer": {"class_name": "VarianceScaling", "config": {"mode": "fan_avg", "distribution": "uniform", "scale": 1.0, "seed": null}}, "kernel_regularizer": null, "bias_constraint": null, "activation": "linear", "kernel_constraint": null, "dilation_rate": [1, 1]}}, {"inbound_nodes": [[["conv2d_25", 0, 0, {}]]], "name": "batch_normalization_25", "class_name": "BatchNormalization", "config": {"trainable": true, "name": "batch_normalization_25", "center": true, "moving_variance_initializer": {"class_name": "Ones", "config": {}}, "gamma_initializer": {"class_name": "Ones", "config": {}}, "beta_regularizer": null, "moving_mean_initializer": {"class_name": "Zeros", "config": {}}, "epsilon": 0.001, "scale": false, "axis": 3, "beta_initializer": {"class_name": "Zeros", "config": {}}, "momentum": 0.99, "gamma_regularizer": null, "gamma_constraint": null, "beta_constraint": null}}, {"inbound_nodes": [[["conv2d_27", 0, 0, {}]]], "name": "batch_normalization_27", "class_name": "BatchNormalization", "config": {"trainable": true, "name": "batch_normalization_27", "center": true, "moving_variance_initializer": {"class_name": "Ones", "config": {}}, "gamma_initializer": {"class_name": "Ones", "config": {}}, "beta_regularizer": null, "moving_mean_initializer": {"class_name": "Zeros", "config": {}}, "epsilon": 0.001, "scale": false, "axis": 3, "beta_initializer": {"class_name": "Zeros", "config": {}}, "momentum": 0.99, "gamma_regularizer": null, "gamma_constraint": null, "beta_constraint": null}}, {"inbound_nodes": [[["conv2d_30", 0, 0, {}]]], "name": "batch_normalization_30", "class_name": "BatchNormalization", "config": {"trainable": true, "name": "batch_normalization_30", "center": true, "moving_variance_initializer": {"class_name": "Ones", "config": {}}, "gamma_initializer": {"class_name": "Ones", "config": {}}, "beta_regularizer": null, "moving_mean_initializer": {"class_name": "Zeros", "config": {}}, "epsilon": 0.001, "scale": false, "axis": 3, "beta_initializer": {"class_name": "Zeros", "config": {}}, "momentum": 0.99, "gamma_regularizer": null, "gamma_constraint": null, "beta_constraint": null}}, {"inbound_nodes": [[["batch_normalization_25", 0, 0, {}]]], "name": "activation_25", "class_name": "Activation", "config": {"trainable": true, "name": "activation_25", "activation": "relu"}}, {"inbound_nodes": [[["batch_normalization_27", 0, 0, {}]]], "name": "activation_27", "class_name": "Activation", "config": {"trainable": true, "name": "activation_27", "activation": "relu"}}, {"inbound_nodes": [[["batch_normalization_30", 0, 0, {}]]], "name": "activation_30", "class_name": "Activation", "config": {"trainable": true, "name": "activation_30", "activation": "relu"}}, {"inbound_nodes": [[["activation_25", 0, 0, {}], ["activation_27", 0, 0, {}], ["activation_30", 0, 0, {}]]], "name": "block35_3_mixed", "class_name": "Concatenate", "config": {"trainable": true, "axis": 3, "name": "block35_3_mixed"}}, {"inbound_nodes": [[["block35_3_mixed", 0, 0, {}]]], "name": "block35_3_conv", "class_name": "Conv2D", "config": {"trainable": true, "name": "block35_3_conv", "padding": "same", "data_format": "channels_last", "kernel_size": [1, 1], "bias_initializer": {"class_name": "Zeros", "config": {}}, "filters": 320, "strides": [1, 1], "use_bias": true, "activity_regularizer": null, "bias_regularizer": null, "kernel_initializer": {"class_name": "VarianceScaling", "config": {"mode": "fan_avg", "distribution": "uniform", "scale": 1.0, "seed": null}}, "kernel_regularizer": null, "bias_constraint": null, "activation": "linear", "kernel_constraint": null, "dilation_rate": [1, 1]}}, {"inbound_nodes": [[["block35_2_ac", 0, 0, {}], ["block35_3_conv", 0, 0, {}]]], "name": "block35_3", "class_name": "Lambda", "config": {"trainable": true, "output_shape_type": "raw", "name": "block35_3", "output_shape": [29, 29, 320], "function_type": "lambda", "function": ["4wIAAAAAAAAAAgAAAAMAAABTAAAAcxQAAAB8AABkAQAZfAAAZAIAGXwBABQXUykDTukAAAAA6QEA\nAACpACkC2gZpbnB1dHPaBXNjYWxlcgMAAAByAwAAAPpqL2hvbWUvbXNoYWlraDIvYW5hY29uZGEz\nL2VudnMvdGYtZ3B1L2xpYi9weXRob24zLjUvc2l0ZS1wYWNrYWdlcy9rZXJhc19hcHBsaWNhdGlv\nbnMvaW5jZXB0aW9uX3Jlc25ldF92Mi5wedoIPGxhbWJkYT6qAAAA8wAAAAA=\n", null, null], "arguments": {"scale": 0.17}}}, {"inbound_nodes": [[["block35_3", 0, 0, {}]]], "name": "block35_3_ac", "class_name": "Activation", "config": {"trainable": true, "name": "block35_3_ac", "activation": "relu"}}, {"inbound_nodes": [[["block35_3_ac", 0, 0, {}]]], "name": "conv2d_34", "class_name": "Conv2D", "config": {"trainable": true, "name": "conv2d_34", "padding": "same", "data_format": "channels_last", "kernel_size": [1, 1], "bias_initializer": {"class_name": "Zeros", "config": {}}, "filters": 32, "strides": [1, 1], "use_bias": false, "activity_regularizer": null, "bias_regularizer": null, "kernel_initializer": {"class_name": "VarianceScaling", "config": {"mode": "fan_avg", "distribution": "uniform", "scale": 1.0, "seed": null}}, "kernel_regularizer": null, "bias_constraint": null, "activation": "linear", "kernel_constraint": null, "dilation_rate": [1, 1]}}, {"inbound_nodes": [[["conv2d_34", 0, 0, {}]]], "name": "batch_normalization_34", "class_name": "BatchNormalization", "config": {"trainable": true, "name": "batch_normalization_34", "center": true, "moving_variance_initializer": {"class_name": "Ones", "config": {}}, "gamma_initializer": {"class_name": "Ones", "config": {}}, "beta_regularizer": null, "moving_mean_initializer": {"class_name": "Zeros", "config": {}}, "epsilon": 0.001, "scale": false, "axis": 3, "beta_initializer": {"class_name": "Zeros", "config": {}}, "momentum": 0.99, "gamma_regularizer": null, "gamma_constraint": null, "beta_constraint": null}}, {"inbound_nodes": [[["batch_normalization_34", 0, 0, {}]]], "name": "activation_34", "class_name": "Activation", "config": {"trainable": true, "name": "activation_34", "activation": "relu"}}, {"inbound_nodes": [[["block35_3_ac", 0, 0, {}]]], "name": "conv2d_32", "class_name": "Conv2D", "config": {"trainable": true, "name": "conv2d_32", "padding": "same", "data_format": "channels_last", "kernel_size": [1, 1], "bias_initializer": {"class_name": "Zeros", "config": {}}, "filters": 32, "strides": [1, 1], "use_bias": false, "activity_regularizer": null, "bias_regularizer": null, "kernel_initializer": {"class_name": "VarianceScaling", "config": {"mode": "fan_avg", "distribution": "uniform", "scale": 1.0, "seed": null}}, "kernel_regularizer": null, "bias_constraint": null, "activation": "linear", "kernel_constraint": null, "dilation_rate": [1, 1]}}, {"inbound_nodes": [[["activation_34", 0, 0, {}]]], "name": "conv2d_35", "class_name": "Conv2D", "config": {"trainable": true, "name": "conv2d_35", "padding": "same", "data_format": "channels_last", "kernel_size": [3, 3], "bias_initializer": {"class_name": "Zeros", "config": {}}, "filters": 48, "strides": [1, 1], "use_bias": false, "activity_regularizer": null, "bias_regularizer": null, "kernel_initializer": {"class_name": "VarianceScaling", "config": {"mode": "fan_avg", "distribution": "uniform", "scale": 1.0, "seed": null}}, "kernel_regularizer": null, "bias_constraint": null, "activation": "linear", "kernel_constraint": null, "dilation_rate": [1, 1]}}, {"inbound_nodes": [[["conv2d_32", 0, 0, {}]]], "name": "batch_normalization_32", "class_name": "BatchNormalization", "config": {"trainable": true, "name": "batch_normalization_32", "center": true, "moving_variance_initializer": {"class_name": "Ones", "config": {}}, "gamma_initializer": {"class_name": "Ones", "config": {}}, "beta_regularizer": null, "moving_mean_initializer": {"class_name": "Zeros", "config": {}}, "epsilon": 0.001, "scale": false, "axis": 3, "beta_initializer": {"class_name": "Zeros", "config": {}}, "momentum": 0.99, "gamma_regularizer": null, "gamma_constraint": null, "beta_constraint": null}}, {"inbound_nodes": [[["conv2d_35", 0, 0, {}]]], "name": "batch_normalization_35", "class_name": "BatchNormalization", "config": {"trainable": true, "name": "batch_normalization_35", "center": true, "moving_variance_initializer": {"class_name": "Ones", "config": {}}, "gamma_initializer": {"class_name": "Ones", "config": {}}, "beta_regularizer": null, "moving_mean_initializer": {"class_name": "Zeros", "config": {}}, "epsilon": 0.001, "scale": false, "axis": 3, "beta_initializer": {"class_name": "Zeros", "config": {}}, "momentum": 0.99, "gamma_regularizer": null, "gamma_constraint": null, "beta_constraint": null}}, {"inbound_nodes": [[["batch_normalization_32", 0, 0, {}]]], "name": "activation_32", "class_name": "Activation", "config": {"trainable": true, "name": "activation_32", "activation": "relu"}}, {"inbound_nodes": [[["batch_normalization_35", 0, 0, {}]]], "name": "activation_35", "class_name": "Activation", "config": {"trainable": true, "name": "activation_35", "activation": "relu"}}, {"inbound_nodes": [[["block35_3_ac", 0, 0, {}]]], "name": "conv2d_31", "class_name": "Conv2D", "config": {"trainable": true, "name": "conv2d_31", "padding": "same", "data_format": "channels_last", "kernel_size": [1, 1], "bias_initializer": {"class_name": "Zeros", "config": {}}, "filters": 32, "strides": [1, 1], "use_bias": false, "activity_regularizer": null, "bias_regularizer": null, "kernel_initializer": {"class_name": "VarianceScaling", "config": {"mode": "fan_avg", "distribution": "uniform", "scale": 1.0, "seed": null}}, "kernel_regularizer": null, "bias_constraint": null, "activation": "linear", "kernel_constraint": null, "dilation_rate": [1, 1]}}, {"inbound_nodes": [[["activation_32", 0, 0, {}]]], "name": "conv2d_33", "class_name": "Conv2D", "config": {"trainable": true, "name": "conv2d_33", "padding": "same", "data_format": "channels_last", "kernel_size": [3, 3], "bias_initializer": {"class_name": "Zeros", "config": {}}, "filters": 32, "strides": [1, 1], "use_bias": false, "activity_regularizer": null, "bias_regularizer": null, "kernel_initializer": {"class_name": "VarianceScaling", "config": {"mode": "fan_avg", "distribution": "uniform", "scale": 1.0, "seed": null}}, "kernel_regularizer": null, "bias_constraint": null, "activation": "linear", "kernel_constraint": null, "dilation_rate": [1, 1]}}, {"inbound_nodes": [[["activation_35", 0, 0, {}]]], "name": "conv2d_36", "class_name": "Conv2D", "config": {"trainable": true, "name": "conv2d_36", "padding": "same", "data_format": "channels_last", "kernel_size": [3, 3], "bias_initializer": {"class_name": "Zeros", "config": {}}, "filters": 64, "strides": [1, 1], "use_bias": false, "activity_regularizer": null, "bias_regularizer": null, "kernel_initializer": {"class_name": "VarianceScaling", "config": {"mode": "fan_avg", "distribution": "uniform", "scale": 1.0, "seed": null}}, "kernel_regularizer": null, "bias_constraint": null, "activation": "linear", "kernel_constraint": null, "dilation_rate": [1, 1]}}, {"inbound_nodes": [[["conv2d_31", 0, 0, {}]]], "name": "batch_normalization_31", "class_name": "BatchNormalization", "config": {"trainable": true, "name": "batch_normalization_31", "center": true, "moving_variance_initializer": {"class_name": "Ones", "config": {}}, "gamma_initializer": {"class_name": "Ones", "config": {}}, "beta_regularizer": null, "moving_mean_initializer": {"class_name": "Zeros", "config": {}}, "epsilon": 0.001, "scale": false, "axis": 3, "beta_initializer": {"class_name": "Zeros", "config": {}}, "momentum": 0.99, "gamma_regularizer": null, "gamma_constraint": null, "beta_constraint": null}}, {"inbound_nodes": [[["conv2d_33", 0, 0, {}]]], "name": "batch_normalization_33", "class_name": "BatchNormalization", "config": {"trainable": true, "name": "batch_normalization_33", "center": true, "moving_variance_initializer": {"class_name": "Ones", "config": {}}, "gamma_initializer": {"class_name": "Ones", "config": {}}, "beta_regularizer": null, "moving_mean_initializer": {"class_name": "Zeros", "config": {}}, "epsilon": 0.001, "scale": false, "axis": 3, "beta_initializer": {"class_name": "Zeros", "config": {}}, "momentum": 0.99, "gamma_regularizer": null, "gamma_constraint": null, "beta_constraint": null}}, {"inbound_nodes": [[["conv2d_36", 0, 0, {}]]], "name": "batch_normalization_36", "class_name": "BatchNormalization", "config": {"trainable": true, "name": "batch_normalization_36", "center": true, "moving_variance_initializer": {"class_name": "Ones", "config": {}}, "gamma_initializer": {"class_name": "Ones", "config": {}}, "beta_regularizer": null, "moving_mean_initializer": {"class_name": "Zeros", "config": {}}, "epsilon": 0.001, "scale": false, "axis": 3, "beta_initializer": {"class_name": "Zeros", "config": {}}, "momentum": 0.99, "gamma_regularizer": null, "gamma_constraint": null, "beta_constraint": null}}, {"inbound_nodes": [[["batch_normalization_31", 0, 0, {}]]], "name": "activation_31", "class_name": "Activation", "config": {"trainable": true, "name": "activation_31", "activation": "relu"}}, {"inbound_nodes": [[["batch_normalization_33", 0, 0, {}]]], "name": "activation_33", "class_name": "Activation", "config": {"trainable": true, "name": "activation_33", "activation": "relu"}}, {"inbound_nodes": [[["batch_normalization_36", 0, 0, {}]]], "name": "activation_36", "class_name": "Activation", "config": {"trainable": true, "name": "activation_36", "activation": "relu"}}, {"inbound_nodes": [[["activation_31", 0, 0, {}], ["activation_33", 0, 0, {}], ["activation_36", 0, 0, {}]]], "name": "block35_4_mixed", "class_name": "Concatenate", "config": {"trainable": true, "axis": 3, "name": "block35_4_mixed"}}, {"inbound_nodes": [[["block35_4_mixed", 0, 0, {}]]], "name": "block35_4_conv", "class_name": "Conv2D", "config": {"trainable": true, "name": "block35_4_conv", "padding": "same", "data_format": "channels_last", "kernel_size": [1, 1], "bias_initializer": {"class_name": "Zeros", "config": {}}, "filters": 320, "strides": [1, 1], "use_bias": true, "activity_regularizer": null, "bias_regularizer": null, "kernel_initializer": {"class_name": "VarianceScaling", "config": {"mode": "fan_avg", "distribution": "uniform", "scale": 1.0, "seed": null}}, "kernel_regularizer": null, "bias_constraint": null, "activation": "linear", "kernel_constraint": null, "dilation_rate": [1, 1]}}, {"inbound_nodes": [[["block35_3_ac", 0, 0, {}], ["block35_4_conv", 0, 0, {}]]], "name": "block35_4", "class_name": "Lambda", "config": {"trainable": true, "output_shape_type": "raw", "name": "block35_4", "output_shape": [29, 29, 320], "function_type": "lambda", "function": ["4wIAAAAAAAAAAgAAAAMAAABTAAAAcxQAAAB8AABkAQAZfAAAZAIAGXwBABQXUykDTukAAAAA6QEA\nAACpACkC2gZpbnB1dHPaBXNjYWxlcgMAAAByAwAAAPpqL2hvbWUvbXNoYWlraDIvYW5hY29uZGEz\nL2VudnMvdGYtZ3B1L2xpYi9weXRob24zLjUvc2l0ZS1wYWNrYWdlcy9rZXJhc19hcHBsaWNhdGlv\nbnMvaW5jZXB0aW9uX3Jlc25ldF92Mi5wedoIPGxhbWJkYT6qAAAA8wAAAAA=\n", null, null], "arguments": {"scale": 0.17}}}, {"inbound_nodes": [[["block35_4", 0, 0, {}]]], "name": "block35_4_ac", "class_name": "Activation", "config": {"trainable": true, "name": "block35_4_ac", "activation": "relu"}}, {"inbound_nodes": [[["block35_4_ac", 0, 0, {}]]], "name": "conv2d_40", "class_name": "Conv2D", "config": {"trainable": true, "name": "conv2d_40", "padding": "same", "data_format": "channels_last", "kernel_size": [1, 1], "bias_initializer": {"class_name": "Zeros", "config": {}}, "filters": 32, "strides": [1, 1], "use_bias": false, "activity_regularizer": null, "bias_regularizer": null, "kernel_initializer": {"class_name": "VarianceScaling", "config": {"mode": "fan_avg", "distribution": "uniform", "scale": 1.0, "seed": null}}, "kernel_regularizer": null, "bias_constraint": null, "activation": "linear", "kernel_constraint": null, "dilation_rate": [1, 1]}}, {"inbound_nodes": [[["conv2d_40", 0, 0, {}]]], "name": "batch_normalization_40", "class_name": "BatchNormalization", "config": {"trainable": true, "name": "batch_normalization_40", "center": true, "moving_variance_initializer": {"class_name": "Ones", "config": {}}, "gamma_initializer": {"class_name": "Ones", "config": {}}, "beta_regularizer": null, "moving_mean_initializer": {"class_name": "Zeros", "config": {}}, "epsilon": 0.001, "scale": false, "axis": 3, "beta_initializer": {"class_name": "Zeros", "config": {}}, "momentum": 0.99, "gamma_regularizer": null, "gamma_constraint": null, "beta_constraint": null}}, {"inbound_nodes": [[["batch_normalization_40", 0, 0, {}]]], "name": "activation_40", "class_name": "Activation", "config": {"trainable": true, "name": "activation_40", "activation": "relu"}}, {"inbound_nodes": [[["block35_4_ac", 0, 0, {}]]], "name": "conv2d_38", "class_name": "Conv2D", "config": {"trainable": true, "name": "conv2d_38", "padding": "same", "data_format": "channels_last", "kernel_size": [1, 1], "bias_initializer": {"class_name": "Zeros", "config": {}}, "filters": 32, "strides": [1, 1], "use_bias": false, "activity_regularizer": null, "bias_regularizer": null, "kernel_initializer": {"class_name": "VarianceScaling", "config": {"mode": "fan_avg", "distribution": "uniform", "scale": 1.0, "seed": null}}, "kernel_regularizer": null, "bias_constraint": null, "activation": "linear", "kernel_constraint": null, "dilation_rate": [1, 1]}}, {"inbound_nodes": [[["activation_40", 0, 0, {}]]], "name": "conv2d_41", "class_name": "Conv2D", "config": {"trainable": true, "name": "conv2d_41", "padding": "same", "data_format": "channels_last", "kernel_size": [3, 3], "bias_initializer": {"class_name": "Zeros", "config": {}}, "filters": 48, "strides": [1, 1], "use_bias": false, "activity_regularizer": null, "bias_regularizer": null, "kernel_initializer": {"class_name": "VarianceScaling", "config": {"mode": "fan_avg", "distribution": "uniform", "scale": 1.0, "seed": null}}, "kernel_regularizer": null, "bias_constraint": null, "activation": "linear", "kernel_constraint": null, "dilation_rate": [1, 1]}}, {"inbound_nodes": [[["conv2d_38", 0, 0, {}]]], "name": "batch_normalization_38", "class_name": "BatchNormalization", "config": {"trainable": true, "name": "batch_normalization_38", "center": true, "moving_variance_initializer": {"class_name": "Ones", "config": {}}, "gamma_initializer": {"class_name": "Ones", "config": {}}, "beta_regularizer": null, "moving_mean_initializer": {"class_name": "Zeros", "config": {}}, "epsilon": 0.001, "scale": false, "axis": 3, "beta_initializer": {"class_name": "Zeros", "config": {}}, "momentum": 0.99, "gamma_regularizer": null, "gamma_constraint": null, "beta_constraint": null}}, {"inbound_nodes": [[["conv2d_41", 0, 0, {}]]], "name": "batch_normalization_41", "class_name": "BatchNormalization", "config": {"trainable": true, "name": "batch_normalization_41", "center": true, "moving_variance_initializer": {"class_name": "Ones", "config": {}}, "gamma_initializer": {"class_name": "Ones", "config": {}}, "beta_regularizer": null, "moving_mean_initializer": {"class_name": "Zeros", "config": {}}, "epsilon": 0.001, "scale": false, "axis": 3, "beta_initializer": {"class_name": "Zeros", "config": {}}, "momentum": 0.99, "gamma_regularizer": null, "gamma_constraint": null, "beta_constraint": null}}, {"inbound_nodes": [[["batch_normalization_38", 0, 0, {}]]], "name": "activation_38", "class_name": "Activation", "config": {"trainable": true, "name": "activation_38", "activation": "relu"}}, {"inbound_nodes": [[["batch_normalization_41", 0, 0, {}]]], "name": "activation_41", "class_name": "Activation", "config": {"trainable": true, "name": "activation_41", "activation": "relu"}}, {"inbound_nodes": [[["block35_4_ac", 0, 0, {}]]], "name": "conv2d_37", "class_name": "Conv2D", "config": {"trainable": true, "name": "conv2d_37", "padding": "same", "data_format": "channels_last", "kernel_size": [1, 1], "bias_initializer": {"class_name": "Zeros", "config": {}}, "filters": 32, "strides": [1, 1], "use_bias": false, "activity_regularizer": null, "bias_regularizer": null, "kernel_initializer": {"class_name": "VarianceScaling", "config": {"mode": "fan_avg", "distribution": "uniform", "scale": 1.0, "seed": null}}, "kernel_regularizer": null, "bias_constraint": null, "activation": "linear", "kernel_constraint": null, "dilation_rate": [1, 1]}}, {"inbound_nodes": [[["activation_38", 0, 0, {}]]], "name": "conv2d_39", "class_name": "Conv2D", "config": {"trainable": true, "name": "conv2d_39", "padding": "same", "data_format": "channels_last", "kernel_size": [3, 3], "bias_initializer": {"class_name": "Zeros", "config": {}}, "filters": 32, "strides": [1, 1], "use_bias": false, "activity_regularizer": null, "bias_regularizer": null, "kernel_initializer": {"class_name": "VarianceScaling", "config": {"mode": "fan_avg", "distribution": "uniform", "scale": 1.0, "seed": null}}, "kernel_regularizer": null, "bias_constraint": null, "activation": "linear", "kernel_constraint": null, "dilation_rate": [1, 1]}}, {"inbound_nodes": [[["activation_41", 0, 0, {}]]], "name": "conv2d_42", "class_name": "Conv2D", "config": {"trainable": true, "name": "conv2d_42", "padding": "same", "data_format": "channels_last", "kernel_size": [3, 3], "bias_initializer": {"class_name": "Zeros", "config": {}}, "filters": 64, "strides": [1, 1], "use_bias": false, "activity_regularizer": null, "bias_regularizer": null, "kernel_initializer": {"class_name": "VarianceScaling", "config": {"mode": "fan_avg", "distribution": "uniform", "scale": 1.0, "seed": null}}, "kernel_regularizer": null, "bias_constraint": null, "activation": "linear", "kernel_constraint": null, "dilation_rate": [1, 1]}}, {"inbound_nodes": [[["conv2d_37", 0, 0, {}]]], "name": "batch_normalization_37", "class_name": "BatchNormalization", "config": {"trainable": true, "name": "batch_normalization_37", "center": true, "moving_variance_initializer": {"class_name": "Ones", "config": {}}, "gamma_initializer": {"class_name": "Ones", "config": {}}, "beta_regularizer": null, "moving_mean_initializer": {"class_name": "Zeros", "config": {}}, "epsilon": 0.001, "scale": false, "axis": 3, "beta_initializer": {"class_name": "Zeros", "config": {}}, "momentum": 0.99, "gamma_regularizer": null, "gamma_constraint": null, "beta_constraint": null}}, {"inbound_nodes": [[["conv2d_39", 0, 0, {}]]], "name": "batch_normalization_39", "class_name": "BatchNormalization", "config": {"trainable": true, "name": "batch_normalization_39", "center": true, "moving_variance_initializer": {"class_name": "Ones", "config": {}}, "gamma_initializer": {"class_name": "Ones", "config": {}}, "beta_regularizer": null, "moving_mean_initializer": {"class_name": "Zeros", "config": {}}, "epsilon": 0.001, "scale": false, "axis": 3, "beta_initializer": {"class_name": "Zeros", "config": {}}, "momentum": 0.99, "gamma_regularizer": null, "gamma_constraint": null, "beta_constraint": null}}, {"inbound_nodes": [[["conv2d_42", 0, 0, {}]]], "name": "batch_normalization_42", "class_name": "BatchNormalization", "config": {"trainable": true, "name": "batch_normalization_42", "center": true, "moving_variance_initializer": {"class_name": "Ones", "config": {}}, "gamma_initializer": {"class_name": "Ones", "config": {}}, "beta_regularizer": null, "moving_mean_initializer": {"class_name": "Zeros", "config": {}}, "epsilon": 0.001, "scale": false, "axis": 3, "beta_initializer": {"class_name": "Zeros", "config": {}}, "momentum": 0.99, "gamma_regularizer": null, "gamma_constraint": null, "beta_constraint": null}}, {"inbound_nodes": [[["batch_normalization_37", 0, 0, {}]]], "name": "activation_37", "class_name": "Activation", "config": {"trainable": true, "name": "activation_37", "activation": "relu"}}, {"inbound_nodes": [[["batch_normalization_39", 0, 0, {}]]], "name": "activation_39", "class_name": "Activation", "config": {"trainable": true, "name": "activation_39", "activation": "relu"}}, {"inbound_nodes": [[["batch_normalization_42", 0, 0, {}]]], "name": "activation_42", "class_name": "Activation", "config": {"trainable": true, "name": "activation_42", "activation": "relu"}}, {"inbound_nodes": [[["activation_37", 0, 0, {}], ["activation_39", 0, 0, {}], ["activation_42", 0, 0, {}]]], "name": "block35_5_mixed", "class_name": "Concatenate", "config": {"trainable": true, "axis": 3, "name": "block35_5_mixed"}}, {"inbound_nodes": [[["block35_5_mixed", 0, 0, {}]]], "name": "block35_5_conv", "class_name": "Conv2D", "config": {"trainable": true, "name": "block35_5_conv", "padding": "same", "data_format": "channels_last", "kernel_size": [1, 1], "bias_initializer": {"class_name": "Zeros", "config": {}}, "filters": 320, "strides": [1, 1], "use_bias": true, "activity_regularizer": null, "bias_regularizer": null, "kernel_initializer": {"class_name": "VarianceScaling", "config": {"mode": "fan_avg", "distribution": "uniform", "scale": 1.0, "seed": null}}, "kernel_regularizer": null, "bias_constraint": null, "activation": "linear", "kernel_constraint": null, "dilation_rate": [1, 1]}}, {"inbound_nodes": [[["block35_4_ac", 0, 0, {}], ["block35_5_conv", 0, 0, {}]]], "name": "block35_5", "class_name": "Lambda", "config": {"trainable": true, "output_shape_type": "raw", "name": "block35_5", "output_shape": [29, 29, 320], "function_type": "lambda", "function": ["4wIAAAAAAAAAAgAAAAMAAABTAAAAcxQAAAB8AABkAQAZfAAAZAIAGXwBABQXUykDTukAAAAA6QEA\nAACpACkC2gZpbnB1dHPaBXNjYWxlcgMAAAByAwAAAPpqL2hvbWUvbXNoYWlraDIvYW5hY29uZGEz\nL2VudnMvdGYtZ3B1L2xpYi9weXRob24zLjUvc2l0ZS1wYWNrYWdlcy9rZXJhc19hcHBsaWNhdGlv\nbnMvaW5jZXB0aW9uX3Jlc25ldF92Mi5wedoIPGxhbWJkYT6qAAAA8wAAAAA=\n", null, null], "arguments": {"scale": 0.17}}}, {"inbound_nodes": [[["block35_5", 0, 0, {}]]], "name": "block35_5_ac", "class_name": "Activation", "config": {"trainable": true, "name": "block35_5_ac", "activation": "relu"}}, {"inbound_nodes": [[["block35_5_ac", 0, 0, {}]]], "name": "conv2d_46", "class_name": "Conv2D", "config": {"trainable": true, "name": "conv2d_46", "padding": "same", "data_format": "channels_last", "kernel_size": [1, 1], "bias_initializer": {"class_name": "Zeros", "config": {}}, "filters": 32, "strides": [1, 1], "use_bias": false, "activity_regularizer": null, "bias_regularizer": null, "kernel_initializer": {"class_name": "VarianceScaling", "config": {"mode": "fan_avg", "distribution": "uniform", "scale": 1.0, "seed": null}}, "kernel_regularizer": null, "bias_constraint": null, "activation": "linear", "kernel_constraint": null, "dilation_rate": [1, 1]}}, {"inbound_nodes": [[["conv2d_46", 0, 0, {}]]], "name": "batch_normalization_46", "class_name": "BatchNormalization", "config": {"trainable": true, "name": "batch_normalization_46", "center": true, "moving_variance_initializer": {"class_name": "Ones", "config": {}}, "gamma_initializer": {"class_name": "Ones", "config": {}}, "beta_regularizer": null, "moving_mean_initializer": {"class_name": "Zeros", "config": {}}, "epsilon": 0.001, "scale": false, "axis": 3, "beta_initializer": {"class_name": "Zeros", "config": {}}, "momentum": 0.99, "gamma_regularizer": null, "gamma_constraint": null, "beta_constraint": null}}, {"inbound_nodes": [[["batch_normalization_46", 0, 0, {}]]], "name": "activation_46", "class_name": "Activation", "config": {"trainable": true, "name": "activation_46", "activation": "relu"}}, {"inbound_nodes": [[["block35_5_ac", 0, 0, {}]]], "name": "conv2d_44", "class_name": "Conv2D", "config": {"trainable": true, "name": "conv2d_44", "padding": "same", "data_format": "channels_last", "kernel_size": [1, 1], "bias_initializer": {"class_name": "Zeros", "config": {}}, "filters": 32, "strides": [1, 1], "use_bias": false, "activity_regularizer": null, "bias_regularizer": null, "kernel_initializer": {"class_name": "VarianceScaling", "config": {"mode": "fan_avg", "distribution": "uniform", "scale": 1.0, "seed": null}}, "kernel_regularizer": null, "bias_constraint": null, "activation": "linear", "kernel_constraint": null, "dilation_rate": [1, 1]}}, {"inbound_nodes": [[["activation_46", 0, 0, {}]]], "name": "conv2d_47", "class_name": "Conv2D", "config": {"trainable": true, "name": "conv2d_47", "padding": "same", "data_format": "channels_last", "kernel_size": [3, 3], "bias_initializer": {"class_name": "Zeros", "config": {}}, "filters": 48, "strides": [1, 1], "use_bias": false, "activity_regularizer": null, "bias_regularizer": null, "kernel_initializer": {"class_name": "VarianceScaling", "config": {"mode": "fan_avg", "distribution": "uniform", "scale": 1.0, "seed": null}}, "kernel_regularizer": null, "bias_constraint": null, "activation": "linear", "kernel_constraint": null, "dilation_rate": [1, 1]}}, {"inbound_nodes": [[["conv2d_44", 0, 0, {}]]], "name": "batch_normalization_44", "class_name": "BatchNormalization", "config": {"trainable": true, "name": "batch_normalization_44", "center": true, "moving_variance_initializer": {"class_name": "Ones", "config": {}}, "gamma_initializer": {"class_name": "Ones", "config": {}}, "beta_regularizer": null, "moving_mean_initializer": {"class_name": "Zeros", "config": {}}, "epsilon": 0.001, "scale": false, "axis": 3, "beta_initializer": {"class_name": "Zeros", "config": {}}, "momentum": 0.99, "gamma_regularizer": null, "gamma_constraint": null, "beta_constraint": null}}, {"inbound_nodes": [[["conv2d_47", 0, 0, {}]]], "name": "batch_normalization_47", "class_name": "BatchNormalization", "config": {"trainable": true, "name": "batch_normalization_47", "center": true, "moving_variance_initializer": {"class_name": "Ones", "config": {}}, "gamma_initializer": {"class_name": "Ones", "config": {}}, "beta_regularizer": null, "moving_mean_initializer": {"class_name": "Zeros", "config": {}}, "epsilon": 0.001, "scale": false, "axis": 3, "beta_initializer": {"class_name": "Zeros", "config": {}}, "momentum": 0.99, "gamma_regularizer": null, "gamma_constraint": null, "beta_constraint": null}}, {"inbound_nodes": [[["batch_normalization_44", 0, 0, {}]]], "name": "activation_44", "class_name": "Activation", "config": {"trainable": true, "name": "activation_44", "activation": "relu"}}, {"inbound_nodes": [[["batch_normalization_47", 0, 0, {}]]], "name": "activation_47", "class_name": "Activation", "config": {"trainable": true, "name": "activation_47", "activation": "relu"}}, {"inbound_nodes": [[["block35_5_ac", 0, 0, {}]]], "name": "conv2d_43", "class_name": "Conv2D", "config": {"trainable": true, "name": "conv2d_43", "padding": "same", "data_format": "channels_last", "kernel_size": [1, 1], "bias_initializer": {"class_name": "Zeros", "config": {}}, "filters": 32, "strides": [1, 1], "use_bias": false, "activity_regularizer": null, "bias_regularizer": null, "kernel_initializer": {"class_name": "VarianceScaling", "config": {"mode": "fan_avg", "distribution": "uniform", "scale": 1.0, "seed": null}}, "kernel_regularizer": null, "bias_constraint": null, "activation": "linear", "kernel_constraint": null, "dilation_rate": [1, 1]}}, {"inbound_nodes": [[["activation_44", 0, 0, {}]]], "name": "conv2d_45", "class_name": "Conv2D", "config": {"trainable": true, "name": "conv2d_45", "padding": "same", "data_format": "channels_last", "kernel_size": [3, 3], "bias_initializer": {"class_name": "Zeros", "config": {}}, "filters": 32, "strides": [1, 1], "use_bias": false, "activity_regularizer": null, "bias_regularizer": null, "kernel_initializer": {"class_name": "VarianceScaling", "config": {"mode": "fan_avg", "distribution": "uniform", "scale": 1.0, "seed": null}}, "kernel_regularizer": null, "bias_constraint": null, "activation": "linear", "kernel_constraint": null, "dilation_rate": [1, 1]}}, {"inbound_nodes": [[["activation_47", 0, 0, {}]]], "name": "conv2d_48", "class_name": "Conv2D", "config": {"trainable": true, "name": "conv2d_48", "padding": "same", "data_format": "channels_last", "kernel_size": [3, 3], "bias_initializer": {"class_name": "Zeros", "config": {}}, "filters": 64, "strides": [1, 1], "use_bias": false, "activity_regularizer": null, "bias_regularizer": null, "kernel_initializer": {"class_name": "VarianceScaling", "config": {"mode": "fan_avg", "distribution": "uniform", "scale": 1.0, "seed": null}}, "kernel_regularizer": null, "bias_constraint": null, "activation": "linear", "kernel_constraint": null, "dilation_rate": [1, 1]}}, {"inbound_nodes": [[["conv2d_43", 0, 0, {}]]], "name": "batch_normalization_43", "class_name": "BatchNormalization", "config": {"trainable": true, "name": "batch_normalization_43", "center": true, "moving_variance_initializer": {"class_name": "Ones", "config": {}}, "gamma_initializer": {"class_name": "Ones", "config": {}}, "beta_regularizer": null, "moving_mean_initializer": {"class_name": "Zeros", "config": {}}, "epsilon": 0.001, "scale": false, "axis": 3, "beta_initializer": {"class_name": "Zeros", "config": {}}, "momentum": 0.99, "gamma_regularizer": null, "gamma_constraint": null, "beta_constraint": null}}, {"inbound_nodes": [[["conv2d_45", 0, 0, {}]]], "name": "batch_normalization_45", "class_name": "BatchNormalization", "config": {"trainable": true, "name": "batch_normalization_45", "center": true, "moving_variance_initializer": {"class_name": "Ones", "config": {}}, "gamma_initializer": {"class_name": "Ones", "config": {}}, "beta_regularizer": null, "moving_mean_initializer": {"class_name": "Zeros", "config": {}}, "epsilon": 0.001, "scale": false, "axis": 3, "beta_initializer": {"class_name": "Zeros", "config": {}}, "momentum": 0.99, "gamma_regularizer": null, "gamma_constraint": null, "beta_constraint": null}}, {"inbound_nodes": [[["conv2d_48", 0, 0, {}]]], "name": "batch_normalization_48", "class_name": "BatchNormalization", "config": {"trainable": true, "name": "batch_normalization_48", "center": true, "moving_variance_initializer": {"class_name": "Ones", "config": {}}, "gamma_initializer": {"class_name": "Ones", "config": {}}, "beta_regularizer": null, "moving_mean_initializer": {"class_name": "Zeros", "config": {}}, "epsilon": 0.001, "scale": false, "axis": 3, "beta_initializer": {"class_name": "Zeros", "config": {}}, "momentum": 0.99, "gamma_regularizer": null, "gamma_constraint": null, "beta_constraint": null}}, {"inbound_nodes": [[["batch_normalization_43", 0, 0, {}]]], "name": "activation_43", "class_name": "Activation", "config": {"trainable": true, "name": "activation_43", "activation": "relu"}}, {"inbound_nodes": [[["batch_normalization_45", 0, 0, {}]]], "name": "activation_45", "class_name": "Activation", "config": {"trainable": true, "name": "activation_45", "activation": "relu"}}, {"inbound_nodes": [[["batch_normalization_48", 0, 0, {}]]], "name": "activation_48", "class_name": "Activation", "config": {"trainable": true, "name": "activation_48", "activation": "relu"}}, {"inbound_nodes": [[["activation_43", 0, 0, {}], ["activation_45", 0, 0, {}], ["activation_48", 0, 0, {}]]], "name": "block35_6_mixed", "class_name": "Concatenate", "config": {"trainable": true, "axis": 3, "name": "block35_6_mixed"}}, {"inbound_nodes": [[["block35_6_mixed", 0, 0, {}]]], "name": "block35_6_conv", "class_name": "Conv2D", "config": {"trainable": true, "name": "block35_6_conv", "padding": "same", "data_format": "channels_last", "kernel_size": [1, 1], "bias_initializer": {"class_name": "Zeros", "config": {}}, "filters": 320, "strides": [1, 1], "use_bias": true, "activity_regularizer": null, "bias_regularizer": null, "kernel_initializer": {"class_name": "VarianceScaling", "config": {"mode": "fan_avg", "distribution": "uniform", "scale": 1.0, "seed": null}}, "kernel_regularizer": null, "bias_constraint": null, "activation": "linear", "kernel_constraint": null, "dilation_rate": [1, 1]}}, {"inbound_nodes": [[["block35_5_ac", 0, 0, {}], ["block35_6_conv", 0, 0, {}]]], "name": "block35_6", "class_name": "Lambda", "config": {"trainable": true, "output_shape_type": "raw", "name": "block35_6", "output_shape": [29, 29, 320], "function_type": "lambda", "function": ["4wIAAAAAAAAAAgAAAAMAAABTAAAAcxQAAAB8AABkAQAZfAAAZAIAGXwBABQXUykDTukAAAAA6QEA\nAACpACkC2gZpbnB1dHPaBXNjYWxlcgMAAAByAwAAAPpqL2hvbWUvbXNoYWlraDIvYW5hY29uZGEz\nL2VudnMvdGYtZ3B1L2xpYi9weXRob24zLjUvc2l0ZS1wYWNrYWdlcy9rZXJhc19hcHBsaWNhdGlv\nbnMvaW5jZXB0aW9uX3Jlc25ldF92Mi5wedoIPGxhbWJkYT6qAAAA8wAAAAA=\n", null, null], "arguments": {"scale": 0.17}}}, {"inbound_nodes": [[["block35_6", 0, 0, {}]]], "name": "block35_6_ac", "class_name": "Activation", "config": {"trainable": true, "name": "block35_6_ac", "activation": "relu"}}, {"inbound_nodes": [[["block35_6_ac", 0, 0, {}]]], "name": "conv2d_52", "class_name": "Conv2D", "config": {"trainable": true, "name": "conv2d_52", "padding": "same", "data_format": "channels_last", "kernel_size": [1, 1], "bias_initializer": {"class_name": "Zeros", "config": {}}, "filters": 32, "strides": [1, 1], "use_bias": false, "activity_regularizer": null, "bias_regularizer": null, "kernel_initializer": {"class_name": "VarianceScaling", "config": {"mode": "fan_avg", "distribution": "uniform", "scale": 1.0, "seed": null}}, "kernel_regularizer": null, "bias_constraint": null, "activation": "linear", "kernel_constraint": null, "dilation_rate": [1, 1]}}, {"inbound_nodes": [[["conv2d_52", 0, 0, {}]]], "name": "batch_normalization_52", "class_name": "BatchNormalization", "config": {"trainable": true, "name": "batch_normalization_52", "center": true, "moving_variance_initializer": {"class_name": "Ones", "config": {}}, "gamma_initializer": {"class_name": "Ones", "config": {}}, "beta_regularizer": null, "moving_mean_initializer": {"class_name": "Zeros", "config": {}}, "epsilon": 0.001, "scale": false, "axis": 3, "beta_initializer": {"class_name": "Zeros", "config": {}}, "momentum": 0.99, "gamma_regularizer": null, "gamma_constraint": null, "beta_constraint": null}}, {"inbound_nodes": [[["batch_normalization_52", 0, 0, {}]]], "name": "activation_52", "class_name": "Activation", "config": {"trainable": true, "name": "activation_52", "activation": "relu"}}, {"inbound_nodes": [[["block35_6_ac", 0, 0, {}]]], "name": "conv2d_50", "class_name": "Conv2D", "config": {"trainable": true, "name": "conv2d_50", "padding": "same", "data_format": "channels_last", "kernel_size": [1, 1], "bias_initializer": {"class_name": "Zeros", "config": {}}, "filters": 32, "strides": [1, 1], "use_bias": false, "activity_regularizer": null, "bias_regularizer": null, "kernel_initializer": {"class_name": "VarianceScaling", "config": {"mode": "fan_avg", "distribution": "uniform", "scale": 1.0, "seed": null}}, "kernel_regularizer": null, "bias_constraint": null, "activation": "linear", "kernel_constraint": null, "dilation_rate": [1, 1]}}, {"inbound_nodes": [[["activation_52", 0, 0, {}]]], "name": "conv2d_53", "class_name": "Conv2D", "config": {"trainable": true, "name": "conv2d_53", "padding": "same", "data_format": "channels_last", "kernel_size": [3, 3], "bias_initializer": {"class_name": "Zeros", "config": {}}, "filters": 48, "strides": [1, 1], "use_bias": false, "activity_regularizer": null, "bias_regularizer": null, "kernel_initializer": {"class_name": "VarianceScaling", "config": {"mode": "fan_avg", "distribution": "uniform", "scale": 1.0, "seed": null}}, "kernel_regularizer": null, "bias_constraint": null, "activation": "linear", "kernel_constraint": null, "dilation_rate": [1, 1]}}, {"inbound_nodes": [[["conv2d_50", 0, 0, {}]]], "name": "batch_normalization_50", "class_name": "BatchNormalization", "config": {"trainable": true, "name": "batch_normalization_50", "center": true, "moving_variance_initializer": {"class_name": "Ones", "config": {}}, "gamma_initializer": {"class_name": "Ones", "config": {}}, "beta_regularizer": null, "moving_mean_initializer": {"class_name": "Zeros", "config": {}}, "epsilon": 0.001, "scale": false, "axis": 3, "beta_initializer": {"class_name": "Zeros", "config": {}}, "momentum": 0.99, "gamma_regularizer": null, "gamma_constraint": null, "beta_constraint": null}}, {"inbound_nodes": [[["conv2d_53", 0, 0, {}]]], "name": "batch_normalization_53", "class_name": "BatchNormalization", "config": {"trainable": true, "name": "batch_normalization_53", "center": true, "moving_variance_initializer": {"class_name": "Ones", "config": {}}, "gamma_initializer": {"class_name": "Ones", "config": {}}, "beta_regularizer": null, "moving_mean_initializer": {"class_name": "Zeros", "config": {}}, "epsilon": 0.001, "scale": false, "axis": 3, "beta_initializer": {"class_name": "Zeros", "config": {}}, "momentum": 0.99, "gamma_regularizer": null, "gamma_constraint": null, "beta_constraint": null}}, {"inbound_nodes": [[["batch_normalization_50", 0, 0, {}]]], "name": "activation_50", "class_name": "Activation", "config": {"trainable": true, "name": "activation_50", "activation": "relu"}}, {"inbound_nodes": [[["batch_normalization_53", 0, 0, {}]]], "name": "activation_53", "class_name": "Activation", "config": {"trainable": true, "name": "activation_53", "activation": "relu"}}, {"inbound_nodes": [[["block35_6_ac", 0, 0, {}]]], "name": "conv2d_49", "class_name": "Conv2D", "config": {"trainable": true, "name": "conv2d_49", "padding": "same", "data_format": "channels_last", "kernel_size": [1, 1], "bias_initializer": {"class_name": "Zeros", "config": {}}, "filters": 32, "strides": [1, 1], "use_bias": false, "activity_regularizer": null, "bias_regularizer": null, "kernel_initializer": {"class_name": "VarianceScaling", "config": {"mode": "fan_avg", "distribution": "uniform", "scale": 1.0, "seed": null}}, "kernel_regularizer": null, "bias_constraint": null, "activation": "linear", "kernel_constraint": null, "dilation_rate": [1, 1]}}, {"inbound_nodes": [[["activation_50", 0, 0, {}]]], "name": "conv2d_51", "class_name": "Conv2D", "config": {"trainable": true, "name": "conv2d_51", "padding": "same", "data_format": "channels_last", "kernel_size": [3, 3], "bias_initializer": {"class_name": "Zeros", "config": {}}, "filters": 32, "strides": [1, 1], "use_bias": false, "activity_regularizer": null, "bias_regularizer": null, "kernel_initializer": {"class_name": "VarianceScaling", "config": {"mode": "fan_avg", "distribution": "uniform", "scale": 1.0, "seed": null}}, "kernel_regularizer": null, "bias_constraint": null, "activation": "linear", "kernel_constraint": null, "dilation_rate": [1, 1]}}, {"inbound_nodes": [[["activation_53", 0, 0, {}]]], "name": "conv2d_54", "class_name": "Conv2D", "config": {"trainable": true, "name": "conv2d_54", "padding": "same", "data_format": "channels_last", "kernel_size": [3, 3], "bias_initializer": {"class_name": "Zeros", "config": {}}, "filters": 64, "strides": [1, 1], "use_bias": false, "activity_regularizer": null, "bias_regularizer": null, "kernel_initializer": {"class_name": "VarianceScaling", "config": {"mode": "fan_avg", "distribution": "uniform", "scale": 1.0, "seed": null}}, "kernel_regularizer": null, "bias_constraint": null, "activation": "linear", "kernel_constraint": null, "dilation_rate": [1, 1]}}, {"inbound_nodes": [[["conv2d_49", 0, 0, {}]]], "name": "batch_normalization_49", "class_name": "BatchNormalization", "config": {"trainable": true, "name": "batch_normalization_49", "center": true, "moving_variance_initializer": {"class_name": "Ones", "config": {}}, "gamma_initializer": {"class_name": "Ones", "config": {}}, "beta_regularizer": null, "moving_mean_initializer": {"class_name": "Zeros", "config": {}}, "epsilon": 0.001, "scale": false, "axis": 3, "beta_initializer": {"class_name": "Zeros", "config": {}}, "momentum": 0.99, "gamma_regularizer": null, "gamma_constraint": null, "beta_constraint": null}}, {"inbound_nodes": [[["conv2d_51", 0, 0, {}]]], "name": "batch_normalization_51", "class_name": "BatchNormalization", "config": {"trainable": true, "name": "batch_normalization_51", "center": true, "moving_variance_initializer": {"class_name": "Ones", "config": {}}, "gamma_initializer": {"class_name": "Ones", "config": {}}, "beta_regularizer": null, "moving_mean_initializer": {"class_name": "Zeros", "config": {}}, "epsilon": 0.001, "scale": false, "axis": 3, "beta_initializer": {"class_name": "Zeros", "config": {}}, "momentum": 0.99, "gamma_regularizer": null, "gamma_constraint": null, "beta_constraint": null}}, {"inbound_nodes": [[["conv2d_54", 0, 0, {}]]], "name": "batch_normalization_54", "class_name": "BatchNormalization", "config": {"trainable": true, "name": "batch_normalization_54", "center": true, "moving_variance_initializer": {"class_name": "Ones", "config": {}}, "gamma_initializer": {"class_name": "Ones", "config": {}}, "beta_regularizer": null, "moving_mean_initializer": {"class_name": "Zeros", "config": {}}, "epsilon": 0.001, "scale": false, "axis": 3, "beta_initializer": {"class_name": "Zeros", "config": {}}, "momentum": 0.99, "gamma_regularizer": null, "gamma_constraint": null, "beta_constraint": null}}, {"inbound_nodes": [[["batch_normalization_49", 0, 0, {}]]], "name": "activation_49", "class_name": "Activation", "config": {"trainable": true, "name": "activation_49", "activation": "relu"}}, {"inbound_nodes": [[["batch_normalization_51", 0, 0, {}]]], "name": "activation_51", "class_name": "Activation", "config": {"trainable": true, "name": "activation_51", "activation": "relu"}}, {"inbound_nodes": [[["batch_normalization_54", 0, 0, {}]]], "name": "activation_54", "class_name": "Activation", "config": {"trainable": true, "name": "activation_54", "activation": "relu"}}, {"inbound_nodes": [[["activation_49", 0, 0, {}], ["activation_51", 0, 0, {}], ["activation_54", 0, 0, {}]]], "name": "block35_7_mixed", "class_name": "Concatenate", "config": {"trainable": true, "axis": 3, "name": "block35_7_mixed"}}, {"inbound_nodes": [[["block35_7_mixed", 0, 0, {}]]], "name": "block35_7_conv", "class_name": "Conv2D", "config": {"trainable": true, "name": "block35_7_conv", "padding": "same", "data_format": "channels_last", "kernel_size": [1, 1], "bias_initializer": {"class_name": "Zeros", "config": {}}, "filters": 320, "strides": [1, 1], "use_bias": true, "activity_regularizer": null, "bias_regularizer": null, "kernel_initializer": {"class_name": "VarianceScaling", "config": {"mode": "fan_avg", "distribution": "uniform", "scale": 1.0, "seed": null}}, "kernel_regularizer": null, "bias_constraint": null, "activation": "linear", "kernel_constraint": null, "dilation_rate": [1, 1]}}, {"inbound_nodes": [[["block35_6_ac", 0, 0, {}], ["block35_7_conv", 0, 0, {}]]], "name": "block35_7", "class_name": "Lambda", "config": {"trainable": true, "output_shape_type": "raw", "name": "block35_7", "output_shape": [29, 29, 320], "function_type": "lambda", "function": ["4wIAAAAAAAAAAgAAAAMAAABTAAAAcxQAAAB8AABkAQAZfAAAZAIAGXwBABQXUykDTukAAAAA6QEA\nAACpACkC2gZpbnB1dHPaBXNjYWxlcgMAAAByAwAAAPpqL2hvbWUvbXNoYWlraDIvYW5hY29uZGEz\nL2VudnMvdGYtZ3B1L2xpYi9weXRob24zLjUvc2l0ZS1wYWNrYWdlcy9rZXJhc19hcHBsaWNhdGlv\nbnMvaW5jZXB0aW9uX3Jlc25ldF92Mi5wedoIPGxhbWJkYT6qAAAA8wAAAAA=\n", null, null], "arguments": {"scale": 0.17}}}, {"inbound_nodes": [[["block35_7", 0, 0, {}]]], "name": "block35_7_ac", "class_name": "Activation", "config": {"trainable": true, "name": "block35_7_ac", "activation": "relu"}}, {"inbound_nodes": [[["block35_7_ac", 0, 0, {}]]], "name": "conv2d_58", "class_name": "Conv2D", "config": {"trainable": true, "name": "conv2d_58", "padding": "same", "data_format": "channels_last", "kernel_size": [1, 1], "bias_initializer": {"class_name": "Zeros", "config": {}}, "filters": 32, "strides": [1, 1], "use_bias": false, "activity_regularizer": null, "bias_regularizer": null, "kernel_initializer": {"class_name": "VarianceScaling", "config": {"mode": "fan_avg", "distribution": "uniform", "scale": 1.0, "seed": null}}, "kernel_regularizer": null, "bias_constraint": null, "activation": "linear", "kernel_constraint": null, "dilation_rate": [1, 1]}}, {"inbound_nodes": [[["conv2d_58", 0, 0, {}]]], "name": "batch_normalization_58", "class_name": "BatchNormalization", "config": {"trainable": true, "name": "batch_normalization_58", "center": true, "moving_variance_initializer": {"class_name": "Ones", "config": {}}, "gamma_initializer": {"class_name": "Ones", "config": {}}, "beta_regularizer": null, "moving_mean_initializer": {"class_name": "Zeros", "config": {}}, "epsilon": 0.001, "scale": false, "axis": 3, "beta_initializer": {"class_name": "Zeros", "config": {}}, "momentum": 0.99, "gamma_regularizer": null, "gamma_constraint": null, "beta_constraint": null}}, {"inbound_nodes": [[["batch_normalization_58", 0, 0, {}]]], "name": "activation_58", "class_name": "Activation", "config": {"trainable": true, "name": "activation_58", "activation": "relu"}}, {"inbound_nodes": [[["block35_7_ac", 0, 0, {}]]], "name": "conv2d_56", "class_name": "Conv2D", "config": {"trainable": true, "name": "conv2d_56", "padding": "same", "data_format": "channels_last", "kernel_size": [1, 1], "bias_initializer": {"class_name": "Zeros", "config": {}}, "filters": 32, "strides": [1, 1], "use_bias": false, "activity_regularizer": null, "bias_regularizer": null, "kernel_initializer": {"class_name": "VarianceScaling", "config": {"mode": "fan_avg", "distribution": "uniform", "scale": 1.0, "seed": null}}, "kernel_regularizer": null, "bias_constraint": null, "activation": "linear", "kernel_constraint": null, "dilation_rate": [1, 1]}}, {"inbound_nodes": [[["activation_58", 0, 0, {}]]], "name": "conv2d_59", "class_name": "Conv2D", "config": {"trainable": true, "name": "conv2d_59", "padding": "same", "data_format": "channels_last", "kernel_size": [3, 3], "bias_initializer": {"class_name": "Zeros", "config": {}}, "filters": 48, "strides": [1, 1], "use_bias": false, "activity_regularizer": null, "bias_regularizer": null, "kernel_initializer": {"class_name": "VarianceScaling", "config": {"mode": "fan_avg", "distribution": "uniform", "scale": 1.0, "seed": null}}, "kernel_regularizer": null, "bias_constraint": null, "activation": "linear", "kernel_constraint": null, "dilation_rate": [1, 1]}}, {"inbound_nodes": [[["conv2d_56", 0, 0, {}]]], "name": "batch_normalization_56", "class_name": "BatchNormalization", "config": {"trainable": true, "name": "batch_normalization_56", "center": true, "moving_variance_initializer": {"class_name": "Ones", "config": {}}, "gamma_initializer": {"class_name": "Ones", "config": {}}, "beta_regularizer": null, "moving_mean_initializer": {"class_name": "Zeros", "config": {}}, "epsilon": 0.001, "scale": false, "axis": 3, "beta_initializer": {"class_name": "Zeros", "config": {}}, "momentum": 0.99, "gamma_regularizer": null, "gamma_constraint": null, "beta_constraint": null}}, {"inbound_nodes": [[["conv2d_59", 0, 0, {}]]], "name": "batch_normalization_59", "class_name": "BatchNormalization", "config": {"trainable": true, "name": "batch_normalization_59", "center": true, "moving_variance_initializer": {"class_name": "Ones", "config": {}}, "gamma_initializer": {"class_name": "Ones", "config": {}}, "beta_regularizer": null, "moving_mean_initializer": {"class_name": "Zeros", "config": {}}, "epsilon": 0.001, "scale": false, "axis": 3, "beta_initializer": {"class_name": "Zeros", "config": {}}, "momentum": 0.99, "gamma_regularizer": null, "gamma_constraint": null, "beta_constraint": null}}, {"inbound_nodes": [[["batch_normalization_56", 0, 0, {}]]], "name": "activation_56", "class_name": "Activation", "config": {"trainable": true, "name": "activation_56", "activation": "relu"}}, {"inbound_nodes": [[["batch_normalization_59", 0, 0, {}]]], "name": "activation_59", "class_name": "Activation", "config": {"trainable": true, "name": "activation_59", "activation": "relu"}}, {"inbound_nodes": [[["block35_7_ac", 0, 0, {}]]], "name": "conv2d_55", "class_name": "Conv2D", "config": {"trainable": true, "name": "conv2d_55", "padding": "same", "data_format": "channels_last", "kernel_size": [1, 1], "bias_initializer": {"class_name": "Zeros", "config": {}}, "filters": 32, "strides": [1, 1], "use_bias": false, "activity_regularizer": null, "bias_regularizer": null, "kernel_initializer": {"class_name": "VarianceScaling", "config": {"mode": "fan_avg", "distribution": "uniform", "scale": 1.0, "seed": null}}, "kernel_regularizer": null, "bias_constraint": null, "activation": "linear", "kernel_constraint": null, "dilation_rate": [1, 1]}}, {"inbound_nodes": [[["activation_56", 0, 0, {}]]], "name": "conv2d_57", "class_name": "Conv2D", "config": {"trainable": true, "name": "conv2d_57", "padding": "same", "data_format": "channels_last", "kernel_size": [3, 3], "bias_initializer": {"class_name": "Zeros", "config": {}}, "filters": 32, "strides": [1, 1], "use_bias": false, "activity_regularizer": null, "bias_regularizer": null, "kernel_initializer": {"class_name": "VarianceScaling", "config": {"mode": "fan_avg", "distribution": "uniform", "scale": 1.0, "seed": null}}, "kernel_regularizer": null, "bias_constraint": null, "activation": "linear", "kernel_constraint": null, "dilation_rate": [1, 1]}}, {"inbound_nodes": [[["activation_59", 0, 0, {}]]], "name": "conv2d_60", "class_name": "Conv2D", "config": {"trainable": true, "name": "conv2d_60", "padding": "same", "data_format": "channels_last", "kernel_size": [3, 3], "bias_initializer": {"class_name": "Zeros", "config": {}}, "filters": 64, "strides": [1, 1], "use_bias": false, "activity_regularizer": null, "bias_regularizer": null, "kernel_initializer": {"class_name": "VarianceScaling", "config": {"mode": "fan_avg", "distribution": "uniform", "scale": 1.0, "seed": null}}, "kernel_regularizer": null, "bias_constraint": null, "activation": "linear", "kernel_constraint": null, "dilation_rate": [1, 1]}}, {"inbound_nodes": [[["conv2d_55", 0, 0, {}]]], "name": "batch_normalization_55", "class_name": "BatchNormalization", "config": {"trainable": true, "name": "batch_normalization_55", "center": true, "moving_variance_initializer": {"class_name": "Ones", "config": {}}, "gamma_initializer": {"class_name": "Ones", "config": {}}, "beta_regularizer": null, "moving_mean_initializer": {"class_name": "Zeros", "config": {}}, "epsilon": 0.001, "scale": false, "axis": 3, "beta_initializer": {"class_name": "Zeros", "config": {}}, "momentum": 0.99, "gamma_regularizer": null, "gamma_constraint": null, "beta_constraint": null}}, {"inbound_nodes": [[["conv2d_57", 0, 0, {}]]], "name": "batch_normalization_57", "class_name": "BatchNormalization", "config": {"trainable": true, "name": "batch_normalization_57", "center": true, "moving_variance_initializer": {"class_name": "Ones", "config": {}}, "gamma_initializer": {"class_name": "Ones", "config": {}}, "beta_regularizer": null, "moving_mean_initializer": {"class_name": "Zeros", "config": {}}, "epsilon": 0.001, "scale": false, "axis": 3, "beta_initializer": {"class_name": "Zeros", "config": {}}, "momentum": 0.99, "gamma_regularizer": null, "gamma_constraint": null, "beta_constraint": null}}, {"inbound_nodes": [[["conv2d_60", 0, 0, {}]]], "name": "batch_normalization_60", "class_name": "BatchNormalization", "config": {"trainable": true, "name": "batch_normalization_60", "center": true, "moving_variance_initializer": {"class_name": "Ones", "config": {}}, "gamma_initializer": {"class_name": "Ones", "config": {}}, "beta_regularizer": null, "moving_mean_initializer": {"class_name": "Zeros", "config": {}}, "epsilon": 0.001, "scale": false, "axis": 3, "beta_initializer": {"class_name": "Zeros", "config": {}}, "momentum": 0.99, "gamma_regularizer": null, "gamma_constraint": null, "beta_constraint": null}}, {"inbound_nodes": [[["batch_normalization_55", 0, 0, {}]]], "name": "activation_55", "class_name": "Activation", "config": {"trainable": true, "name": "activation_55", "activation": "relu"}}, {"inbound_nodes": [[["batch_normalization_57", 0, 0, {}]]], "name": "activation_57", "class_name": "Activation", "config": {"trainable": true, "name": "activation_57", "activation": "relu"}}, {"inbound_nodes": [[["batch_normalization_60", 0, 0, {}]]], "name": "activation_60", "class_name": "Activation", "config": {"trainable": true, "name": "activation_60", "activation": "relu"}}, {"inbound_nodes": [[["activation_55", 0, 0, {}], ["activation_57", 0, 0, {}], ["activation_60", 0, 0, {}]]], "name": "block35_8_mixed", "class_name": "Concatenate", "config": {"trainable": true, "axis": 3, "name": "block35_8_mixed"}}, {"inbound_nodes": [[["block35_8_mixed", 0, 0, {}]]], "name": "block35_8_conv", "class_name": "Conv2D", "config": {"trainable": true, "name": "block35_8_conv", "padding": "same", "data_format": "channels_last", "kernel_size": [1, 1], "bias_initializer": {"class_name": "Zeros", "config": {}}, "filters": 320, "strides": [1, 1], "use_bias": true, "activity_regularizer": null, "bias_regularizer": null, "kernel_initializer": {"class_name": "VarianceScaling", "config": {"mode": "fan_avg", "distribution": "uniform", "scale": 1.0, "seed": null}}, "kernel_regularizer": null, "bias_constraint": null, "activation": "linear", "kernel_constraint": null, "dilation_rate": [1, 1]}}, {"inbound_nodes": [[["block35_7_ac", 0, 0, {}], ["block35_8_conv", 0, 0, {}]]], "name": "block35_8", "class_name": "Lambda", "config": {"trainable": true, "output_shape_type": "raw", "name": "block35_8", "output_shape": [29, 29, 320], "function_type": "lambda", "function": ["4wIAAAAAAAAAAgAAAAMAAABTAAAAcxQAAAB8AABkAQAZfAAAZAIAGXwBABQXUykDTukAAAAA6QEA\nAACpACkC2gZpbnB1dHPaBXNjYWxlcgMAAAByAwAAAPpqL2hvbWUvbXNoYWlraDIvYW5hY29uZGEz\nL2VudnMvdGYtZ3B1L2xpYi9weXRob24zLjUvc2l0ZS1wYWNrYWdlcy9rZXJhc19hcHBsaWNhdGlv\nbnMvaW5jZXB0aW9uX3Jlc25ldF92Mi5wedoIPGxhbWJkYT6qAAAA8wAAAAA=\n", null, null], "arguments": {"scale": 0.17}}}, {"inbound_nodes": [[["block35_8", 0, 0, {}]]], "name": "block35_8_ac", "class_name": "Activation", "config": {"trainable": true, "name": "block35_8_ac", "activation": "relu"}}, {"inbound_nodes": [[["block35_8_ac", 0, 0, {}]]], "name": "conv2d_64", "class_name": "Conv2D", "config": {"trainable": true, "name": "conv2d_64", "padding": "same", "data_format": "channels_last", "kernel_size": [1, 1], "bias_initializer": {"class_name": "Zeros", "config": {}}, "filters": 32, "strides": [1, 1], "use_bias": false, "activity_regularizer": null, "bias_regularizer": null, "kernel_initializer": {"class_name": "VarianceScaling", "config": {"mode": "fan_avg", "distribution": "uniform", "scale": 1.0, "seed": null}}, "kernel_regularizer": null, "bias_constraint": null, "activation": "linear", "kernel_constraint": null, "dilation_rate": [1, 1]}}, {"inbound_nodes": [[["conv2d_64", 0, 0, {}]]], "name": "batch_normalization_64", "class_name": "BatchNormalization", "config": {"trainable": true, "name": "batch_normalization_64", "center": true, "moving_variance_initializer": {"class_name": "Ones", "config": {}}, "gamma_initializer": {"class_name": "Ones", "config": {}}, "beta_regularizer": null, "moving_mean_initializer": {"class_name": "Zeros", "config": {}}, "epsilon": 0.001, "scale": false, "axis": 3, "beta_initializer": {"class_name": "Zeros", "config": {}}, "momentum": 0.99, "gamma_regularizer": null, "gamma_constraint": null, "beta_constraint": null}}, {"inbound_nodes": [[["batch_normalization_64", 0, 0, {}]]], "name": "activation_64", "class_name": "Activation", "config": {"trainable": true, "name": "activation_64", "activation": "relu"}}, {"inbound_nodes": [[["block35_8_ac", 0, 0, {}]]], "name": "conv2d_62", "class_name": "Conv2D", "config": {"trainable": true, "name": "conv2d_62", "padding": "same", "data_format": "channels_last", "kernel_size": [1, 1], "bias_initializer": {"class_name": "Zeros", "config": {}}, "filters": 32, "strides": [1, 1], "use_bias": false, "activity_regularizer": null, "bias_regularizer": null, "kernel_initializer": {"class_name": "VarianceScaling", "config": {"mode": "fan_avg", "distribution": "uniform", "scale": 1.0, "seed": null}}, "kernel_regularizer": null, "bias_constraint": null, "activation": "linear", "kernel_constraint": null, "dilation_rate": [1, 1]}}, {"inbound_nodes": [[["activation_64", 0, 0, {}]]], "name": "conv2d_65", "class_name": "Conv2D", "config": {"trainable": true, "name": "conv2d_65", "padding": "same", "data_format": "channels_last", "kernel_size": [3, 3], "bias_initializer": {"class_name": "Zeros", "config": {}}, "filters": 48, "strides": [1, 1], "use_bias": false, "activity_regularizer": null, "bias_regularizer": null, "kernel_initializer": {"class_name": "VarianceScaling", "config": {"mode": "fan_avg", "distribution": "uniform", "scale": 1.0, "seed": null}}, "kernel_regularizer": null, "bias_constraint": null, "activation": "linear", "kernel_constraint": null, "dilation_rate": [1, 1]}}, {"inbound_nodes": [[["conv2d_62", 0, 0, {}]]], "name": "batch_normalization_62", "class_name": "BatchNormalization", "config": {"trainable": true, "name": "batch_normalization_62", "center": true, "moving_variance_initializer": {"class_name": "Ones", "config": {}}, "gamma_initializer": {"class_name": "Ones", "config": {}}, "beta_regularizer": null, "moving_mean_initializer": {"class_name": "Zeros", "config": {}}, "epsilon": 0.001, "scale": false, "axis": 3, "beta_initializer": {"class_name": "Zeros", "config": {}}, "momentum": 0.99, "gamma_regularizer": null, "gamma_constraint": null, "beta_constraint": null}}, {"inbound_nodes": [[["conv2d_65", 0, 0, {}]]], "name": "batch_normalization_65", "class_name": "BatchNormalization", "config": {"trainable": true, "name": "batch_normalization_65", "center": true, "moving_variance_initializer": {"class_name": "Ones", "config": {}}, "gamma_initializer": {"class_name": "Ones", "config": {}}, "beta_regularizer": null, "moving_mean_initializer": {"class_name": "Zeros", "config": {}}, "epsilon": 0.001, "scale": false, "axis": 3, "beta_initializer": {"class_name": "Zeros", "config": {}}, "momentum": 0.99, "gamma_regularizer": null, "gamma_constraint": null, "beta_constraint": null}}, {"inbound_nodes": [[["batch_normalization_62", 0, 0, {}]]], "name": "activation_62", "class_name": "Activation", "config": {"trainable": true, "name": "activation_62", "activation": "relu"}}, {"inbound_nodes": [[["batch_normalization_65", 0, 0, {}]]], "name": "activation_65", "class_name": "Activation", "config": {"trainable": true, "name": "activation_65", "activation": "relu"}}, {"inbound_nodes": [[["block35_8_ac", 0, 0, {}]]], "name": "conv2d_61", "class_name": "Conv2D", "config": {"trainable": true, "name": "conv2d_61", "padding": "same", "data_format": "channels_last", "kernel_size": [1, 1], "bias_initializer": {"class_name": "Zeros", "config": {}}, "filters": 32, "strides": [1, 1], "use_bias": false, "activity_regularizer": null, "bias_regularizer": null, "kernel_initializer": {"class_name": "VarianceScaling", "config": {"mode": "fan_avg", "distribution": "uniform", "scale": 1.0, "seed": null}}, "kernel_regularizer": null, "bias_constraint": null, "activation": "linear", "kernel_constraint": null, "dilation_rate": [1, 1]}}, {"inbound_nodes": [[["activation_62", 0, 0, {}]]], "name": "conv2d_63", "class_name": "Conv2D", "config": {"trainable": true, "name": "conv2d_63", "padding": "same", "data_format": "channels_last", "kernel_size": [3, 3], "bias_initializer": {"class_name": "Zeros", "config": {}}, "filters": 32, "strides": [1, 1], "use_bias": false, "activity_regularizer": null, "bias_regularizer": null, "kernel_initializer": {"class_name": "VarianceScaling", "config": {"mode": "fan_avg", "distribution": "uniform", "scale": 1.0, "seed": null}}, "kernel_regularizer": null, "bias_constraint": null, "activation": "linear", "kernel_constraint": null, "dilation_rate": [1, 1]}}, {"inbound_nodes": [[["activation_65", 0, 0, {}]]], "name": "conv2d_66", "class_name": "Conv2D", "config": {"trainable": true, "name": "conv2d_66", "padding": "same", "data_format": "channels_last", "kernel_size": [3, 3], "bias_initializer": {"class_name": "Zeros", "config": {}}, "filters": 64, "strides": [1, 1], "use_bias": false, "activity_regularizer": null, "bias_regularizer": null, "kernel_initializer": {"class_name": "VarianceScaling", "config": {"mode": "fan_avg", "distribution": "uniform", "scale": 1.0, "seed": null}}, "kernel_regularizer": null, "bias_constraint": null, "activation": "linear", "kernel_constraint": null, "dilation_rate": [1, 1]}}, {"inbound_nodes": [[["conv2d_61", 0, 0, {}]]], "name": "batch_normalization_61", "class_name": "BatchNormalization", "config": {"trainable": true, "name": "batch_normalization_61", "center": true, "moving_variance_initializer": {"class_name": "Ones", "config": {}}, "gamma_initializer": {"class_name": "Ones", "config": {}}, "beta_regularizer": null, "moving_mean_initializer": {"class_name": "Zeros", "config": {}}, "epsilon": 0.001, "scale": false, "axis": 3, "beta_initializer": {"class_name": "Zeros", "config": {}}, "momentum": 0.99, "gamma_regularizer": null, "gamma_constraint": null, "beta_constraint": null}}, {"inbound_nodes": [[["conv2d_63", 0, 0, {}]]], "name": "batch_normalization_63", "class_name": "BatchNormalization", "config": {"trainable": true, "name": "batch_normalization_63", "center": true, "moving_variance_initializer": {"class_name": "Ones", "config": {}}, "gamma_initializer": {"class_name": "Ones", "config": {}}, "beta_regularizer": null, "moving_mean_initializer": {"class_name": "Zeros", "config": {}}, "epsilon": 0.001, "scale": false, "axis": 3, "beta_initializer": {"class_name": "Zeros", "config": {}}, "momentum": 0.99, "gamma_regularizer": null, "gamma_constraint": null, "beta_constraint": null}}, {"inbound_nodes": [[["conv2d_66", 0, 0, {}]]], "name": "batch_normalization_66", "class_name": "BatchNormalization", "config": {"trainable": true, "name": "batch_normalization_66", "center": true, "moving_variance_initializer": {"class_name": "Ones", "config": {}}, "gamma_initializer": {"class_name": "Ones", "config": {}}, "beta_regularizer": null, "moving_mean_initializer": {"class_name": "Zeros", "config": {}}, "epsilon": 0.001, "scale": false, "axis": 3, "beta_initializer": {"class_name": "Zeros", "config": {}}, "momentum": 0.99, "gamma_regularizer": null, "gamma_constraint": null, "beta_constraint": null}}, {"inbound_nodes": [[["batch_normalization_61", 0, 0, {}]]], "name": "activation_61", "class_name": "Activation", "config": {"trainable": true, "name": "activation_61", "activation": "relu"}}, {"inbound_nodes": [[["batch_normalization_63", 0, 0, {}]]], "name": "activation_63", "class_name": "Activation", "config": {"trainable": true, "name": "activation_63", "activation": "relu"}}, {"inbound_nodes": [[["batch_normalization_66", 0, 0, {}]]], "name": "activation_66", "class_name": "Activation", "config": {"trainable": true, "name": "activation_66", "activation": "relu"}}, {"inbound_nodes": [[["activation_61", 0, 0, {}], ["activation_63", 0, 0, {}], ["activation_66", 0, 0, {}]]], "name": "block35_9_mixed", "class_name": "Concatenate", "config": {"trainable": true, "axis": 3, "name": "block35_9_mixed"}}, {"inbound_nodes": [[["block35_9_mixed", 0, 0, {}]]], "name": "block35_9_conv", "class_name": "Conv2D", "config": {"trainable": true, "name": "block35_9_conv", "padding": "same", "data_format": "channels_last", "kernel_size": [1, 1], "bias_initializer": {"class_name": "Zeros", "config": {}}, "filters": 320, "strides": [1, 1], "use_bias": true, "activity_regularizer": null, "bias_regularizer": null, "kernel_initializer": {"class_name": "VarianceScaling", "config": {"mode": "fan_avg", "distribution": "uniform", "scale": 1.0, "seed": null}}, "kernel_regularizer": null, "bias_constraint": null, "activation": "linear", "kernel_constraint": null, "dilation_rate": [1, 1]}}, {"inbound_nodes": [[["block35_8_ac", 0, 0, {}], ["block35_9_conv", 0, 0, {}]]], "name": "block35_9", "class_name": "Lambda", "config": {"trainable": true, "output_shape_type": "raw", "name": "block35_9", "output_shape": [29, 29, 320], "function_type": "lambda", "function": ["4wIAAAAAAAAAAgAAAAMAAABTAAAAcxQAAAB8AABkAQAZfAAAZAIAGXwBABQXUykDTukAAAAA6QEA\nAACpACkC2gZpbnB1dHPaBXNjYWxlcgMAAAByAwAAAPpqL2hvbWUvbXNoYWlraDIvYW5hY29uZGEz\nL2VudnMvdGYtZ3B1L2xpYi9weXRob24zLjUvc2l0ZS1wYWNrYWdlcy9rZXJhc19hcHBsaWNhdGlv\nbnMvaW5jZXB0aW9uX3Jlc25ldF92Mi5wedoIPGxhbWJkYT6qAAAA8wAAAAA=\n", null, null], "arguments": {"scale": 0.17}}}, {"inbound_nodes": [[["block35_9", 0, 0, {}]]], "name": "block35_9_ac", "class_name": "Activation", "config": {"trainable": true, "name": "block35_9_ac", "activation": "relu"}}, {"inbound_nodes": [[["block35_9_ac", 0, 0, {}]]], "name": "conv2d_70", "class_name": "Conv2D", "config": {"trainable": true, "name": "conv2d_70", "padding": "same", "data_format": "channels_last", "kernel_size": [1, 1], "bias_initializer": {"class_name": "Zeros", "config": {}}, "filters": 32, "strides": [1, 1], "use_bias": false, "activity_regularizer": null, "bias_regularizer": null, "kernel_initializer": {"class_name": "VarianceScaling", "config": {"mode": "fan_avg", "distribution": "uniform", "scale": 1.0, "seed": null}}, "kernel_regularizer": null, "bias_constraint": null, "activation": "linear", "kernel_constraint": null, "dilation_rate": [1, 1]}}, {"inbound_nodes": [[["conv2d_70", 0, 0, {}]]], "name": "batch_normalization_70", "class_name": "BatchNormalization", "config": {"trainable": true, "name": "batch_normalization_70", "center": true, "moving_variance_initializer": {"class_name": "Ones", "config": {}}, "gamma_initializer": {"class_name": "Ones", "config": {}}, "beta_regularizer": null, "moving_mean_initializer": {"class_name": "Zeros", "config": {}}, "epsilon": 0.001, "scale": false, "axis": 3, "beta_initializer": {"class_name": "Zeros", "config": {}}, "momentum": 0.99, "gamma_regularizer": null, "gamma_constraint": null, "beta_constraint": null}}, {"inbound_nodes": [[["batch_normalization_70", 0, 0, {}]]], "name": "activation_70", "class_name": "Activation", "config": {"trainable": true, "name": "activation_70", "activation": "relu"}}, {"inbound_nodes": [[["block35_9_ac", 0, 0, {}]]], "name": "conv2d_68", "class_name": "Conv2D", "config": {"trainable": true, "name": "conv2d_68", "padding": "same", "data_format": "channels_last", "kernel_size": [1, 1], "bias_initializer": {"class_name": "Zeros", "config": {}}, "filters": 32, "strides": [1, 1], "use_bias": false, "activity_regularizer": null, "bias_regularizer": null, "kernel_initializer": {"class_name": "VarianceScaling", "config": {"mode": "fan_avg", "distribution": "uniform", "scale": 1.0, "seed": null}}, "kernel_regularizer": null, "bias_constraint": null, "activation": "linear", "kernel_constraint": null, "dilation_rate": [1, 1]}}, {"inbound_nodes": [[["activation_70", 0, 0, {}]]], "name": "conv2d_71", "class_name": "Conv2D", "config": {"trainable": true, "name": "conv2d_71", "padding": "same", "data_format": "channels_last", "kernel_size": [3, 3], "bias_initializer": {"class_name": "Zeros", "config": {}}, "filters": 48, "strides": [1, 1], "use_bias": false, "activity_regularizer": null, "bias_regularizer": null, "kernel_initializer": {"class_name": "VarianceScaling", "config": {"mode": "fan_avg", "distribution": "uniform", "scale": 1.0, "seed": null}}, "kernel_regularizer": null, "bias_constraint": null, "activation": "linear", "kernel_constraint": null, "dilation_rate": [1, 1]}}, {"inbound_nodes": [[["conv2d_68", 0, 0, {}]]], "name": "batch_normalization_68", "class_name": "BatchNormalization", "config": {"trainable": true, "name": "batch_normalization_68", "center": true, "moving_variance_initializer": {"class_name": "Ones", "config": {}}, "gamma_initializer": {"class_name": "Ones", "config": {}}, "beta_regularizer": null, "moving_mean_initializer": {"class_name": "Zeros", "config": {}}, "epsilon": 0.001, "scale": false, "axis": 3, "beta_initializer": {"class_name": "Zeros", "config": {}}, "momentum": 0.99, "gamma_regularizer": null, "gamma_constraint": null, "beta_constraint": null}}, {"inbound_nodes": [[["conv2d_71", 0, 0, {}]]], "name": "batch_normalization_71", "class_name": "BatchNormalization", "config": {"trainable": true, "name": "batch_normalization_71", "center": true, "moving_variance_initializer": {"class_name": "Ones", "config": {}}, "gamma_initializer": {"class_name": "Ones", "config": {}}, "beta_regularizer": null, "moving_mean_initializer": {"class_name": "Zeros", "config": {}}, "epsilon": 0.001, "scale": false, "axis": 3, "beta_initializer": {"class_name": "Zeros", "config": {}}, "momentum": 0.99, "gamma_regularizer": null, "gamma_constraint": null, "beta_constraint": null}}, {"inbound_nodes": [[["batch_normalization_68", 0, 0, {}]]], "name": "activation_68", "class_name": "Activation", "config": {"trainable": true, "name": "activation_68", "activation": "relu"}}, {"inbound_nodes": [[["batch_normalization_71", 0, 0, {}]]], "name": "activation_71", "class_name": "Activation", "config": {"trainable": true, "name": "activation_71", "activation": "relu"}}, {"inbound_nodes": [[["block35_9_ac", 0, 0, {}]]], "name": "conv2d_67", "class_name": "Conv2D", "config": {"trainable": true, "name": "conv2d_67", "padding": "same", "data_format": "channels_last", "kernel_size": [1, 1], "bias_initializer": {"class_name": "Zeros", "config": {}}, "filters": 32, "strides": [1, 1], "use_bias": false, "activity_regularizer": null, "bias_regularizer": null, "kernel_initializer": {"class_name": "VarianceScaling", "config": {"mode": "fan_avg", "distribution": "uniform", "scale": 1.0, "seed": null}}, "kernel_regularizer": null, "bias_constraint": null, "activation": "linear", "kernel_constraint": null, "dilation_rate": [1, 1]}}, {"inbound_nodes": [[["activation_68", 0, 0, {}]]], "name": "conv2d_69", "class_name": "Conv2D", "config": {"trainable": true, "name": "conv2d_69", "padding": "same", "data_format": "channels_last", "kernel_size": [3, 3], "bias_initializer": {"class_name": "Zeros", "config": {}}, "filters": 32, "strides": [1, 1], "use_bias": false, "activity_regularizer": null, "bias_regularizer": null, "kernel_initializer": {"class_name": "VarianceScaling", "config": {"mode": "fan_avg", "distribution": "uniform", "scale": 1.0, "seed": null}}, "kernel_regularizer": null, "bias_constraint": null, "activation": "linear", "kernel_constraint": null, "dilation_rate": [1, 1]}}, {"inbound_nodes": [[["activation_71", 0, 0, {}]]], "name": "conv2d_72", "class_name": "Conv2D", "config": {"trainable": true, "name": "conv2d_72", "padding": "same", "data_format": "channels_last", "kernel_size": [3, 3], "bias_initializer": {"class_name": "Zeros", "config": {}}, "filters": 64, "strides": [1, 1], "use_bias": false, "activity_regularizer": null, "bias_regularizer": null, "kernel_initializer": {"class_name": "VarianceScaling", "config": {"mode": "fan_avg", "distribution": "uniform", "scale": 1.0, "seed": null}}, "kernel_regularizer": null, "bias_constraint": null, "activation": "linear", "kernel_constraint": null, "dilation_rate": [1, 1]}}, {"inbound_nodes": [[["conv2d_67", 0, 0, {}]]], "name": "batch_normalization_67", "class_name": "BatchNormalization", "config": {"trainable": true, "name": "batch_normalization_67", "center": true, "moving_variance_initializer": {"class_name": "Ones", "config": {}}, "gamma_initializer": {"class_name": "Ones", "config": {}}, "beta_regularizer": null, "moving_mean_initializer": {"class_name": "Zeros", "config": {}}, "epsilon": 0.001, "scale": false, "axis": 3, "beta_initializer": {"class_name": "Zeros", "config": {}}, "momentum": 0.99, "gamma_regularizer": null, "gamma_constraint": null, "beta_constraint": null}}, {"inbound_nodes": [[["conv2d_69", 0, 0, {}]]], "name": "batch_normalization_69", "class_name": "BatchNormalization", "config": {"trainable": true, "name": "batch_normalization_69", "center": true, "moving_variance_initializer": {"class_name": "Ones", "config": {}}, "gamma_initializer": {"class_name": "Ones", "config": {}}, "beta_regularizer": null, "moving_mean_initializer": {"class_name": "Zeros", "config": {}}, "epsilon": 0.001, "scale": false, "axis": 3, "beta_initializer": {"class_name": "Zeros", "config": {}}, "momentum": 0.99, "gamma_regularizer": null, "gamma_constraint": null, "beta_constraint": null}}, {"inbound_nodes": [[["conv2d_72", 0, 0, {}]]], "name": "batch_normalization_72", "class_name": "BatchNormalization", "config": {"trainable": true, "name": "batch_normalization_72", "center": true, "moving_variance_initializer": {"class_name": "Ones", "config": {}}, "gamma_initializer": {"class_name": "Ones", "config": {}}, "beta_regularizer": null, "moving_mean_initializer": {"class_name": "Zeros", "config": {}}, "epsilon": 0.001, "scale": false, "axis": 3, "beta_initializer": {"class_name": "Zeros", "config": {}}, "momentum": 0.99, "gamma_regularizer": null, "gamma_constraint": null, "beta_constraint": null}}, {"inbound_nodes": [[["batch_normalization_67", 0, 0, {}]]], "name": "activation_67", "class_name": "Activation", "config": {"trainable": true, "name": "activation_67", "activation": "relu"}}, {"inbound_nodes": [[["batch_normalization_69", 0, 0, {}]]], "name": "activation_69", "class_name": "Activation", "config": {"trainable": true, "name": "activation_69", "activation": "relu"}}, {"inbound_nodes": [[["batch_normalization_72", 0, 0, {}]]], "name": "activation_72", "class_name": "Activation", "config": {"trainable": true, "name": "activation_72", "activation": "relu"}}, {"inbound_nodes": [[["activation_67", 0, 0, {}], ["activation_69", 0, 0, {}], ["activation_72", 0, 0, {}]]], "name": "block35_10_mixed", "class_name": "Concatenate", "config": {"trainable": true, "axis": 3, "name": "block35_10_mixed"}}, {"inbound_nodes": [[["block35_10_mixed", 0, 0, {}]]], "name": "block35_10_conv", "class_name": "Conv2D", "config": {"trainable": true, "name": "block35_10_conv", "padding": "same", "data_format": "channels_last", "kernel_size": [1, 1], "bias_initializer": {"class_name": "Zeros", "config": {}}, "filters": 320, "strides": [1, 1], "use_bias": true, "activity_regularizer": null, "bias_regularizer": null, "kernel_initializer": {"class_name": "VarianceScaling", "config": {"mode": "fan_avg", "distribution": "uniform", "scale": 1.0, "seed": null}}, "kernel_regularizer": null, "bias_constraint": null, "activation": "linear", "kernel_constraint": null, "dilation_rate": [1, 1]}}, {"inbound_nodes": [[["block35_9_ac", 0, 0, {}], ["block35_10_conv", 0, 0, {}]]], "name": "block35_10", "class_name": "Lambda", "config": {"trainable": true, "output_shape_type": "raw", "name": "block35_10", "output_shape": [29, 29, 320], "function_type": "lambda", "function": ["4wIAAAAAAAAAAgAAAAMAAABTAAAAcxQAAAB8AABkAQAZfAAAZAIAGXwBABQXUykDTukAAAAA6QEA\nAACpACkC2gZpbnB1dHPaBXNjYWxlcgMAAAByAwAAAPpqL2hvbWUvbXNoYWlraDIvYW5hY29uZGEz\nL2VudnMvdGYtZ3B1L2xpYi9weXRob24zLjUvc2l0ZS1wYWNrYWdlcy9rZXJhc19hcHBsaWNhdGlv\nbnMvaW5jZXB0aW9uX3Jlc25ldF92Mi5wedoIPGxhbWJkYT6qAAAA8wAAAAA=\n", null, null], "arguments": {"scale": 0.17}}}, {"inbound_nodes": [[["block35_10", 0, 0, {}]]], "name": "block35_10_ac", "class_name": "Activation", "config": {"trainable": true, "name": "block35_10_ac", "activation": "relu"}}, {"inbound_nodes": [[["block35_10_ac", 0, 0, {}]]], "name": "conv2d_74", "class_name": "Conv2D", "config": {"trainable": true, "name": "conv2d_74", "padding": "same", "data_format": "channels_last", "kernel_size": [1, 1], "bias_initializer": {"class_name": "Zeros", "config": {}}, "filters": 256, "strides": [1, 1], "use_bias": false, "activity_regularizer": null, "bias_regularizer": null, "kernel_initializer": {"class_name": "VarianceScaling", "config": {"mode": "fan_avg", "distribution": "uniform", "scale": 1.0, "seed": null}}, "kernel_regularizer": null, "bias_constraint": null, "activation": "linear", "kernel_constraint": null, "dilation_rate": [1, 1]}}, {"inbound_nodes": [[["conv2d_74", 0, 0, {}]]], "name": "batch_normalization_74", "class_name": "BatchNormalization", "config": {"trainable": true, "name": "batch_normalization_74", "center": true, "moving_variance_initializer": {"class_name": "Ones", "config": {}}, "gamma_initializer": {"class_name": "Ones", "config": {}}, "beta_regularizer": null, "moving_mean_initializer": {"class_name": "Zeros", "config": {}}, "epsilon": 0.001, "scale": false, "axis": 3, "beta_initializer": {"class_name": "Zeros", "config": {}}, "momentum": 0.99, "gamma_regularizer": null, "gamma_constraint": null, "beta_constraint": null}}, {"inbound_nodes": [[["batch_normalization_74", 0, 0, {}]]], "name": "activation_74", "class_name": "Activation", "config": {"trainable": true, "name": "activation_74", "activation": "relu"}}, {"inbound_nodes": [[["activation_74", 0, 0, {}]]], "name": "conv2d_75", "class_name": "Conv2D", "config": {"trainable": true, "name": "conv2d_75", "padding": "same", "data_format": "channels_last", "kernel_size": [3, 3], "bias_initializer": {"class_name": "Zeros", "config": {}}, "filters": 256, "strides": [1, 1], "use_bias": false, "activity_regularizer": null, "bias_regularizer": null, "kernel_initializer": {"class_name": "VarianceScaling", "config": {"mode": "fan_avg", "distribution": "uniform", "scale": 1.0, "seed": null}}, "kernel_regularizer": null, "bias_constraint": null, "activation": "linear", "kernel_constraint": null, "dilation_rate": [1, 1]}}, {"inbound_nodes": [[["conv2d_75", 0, 0, {}]]], "name": "batch_normalization_75", "class_name": "BatchNormalization", "config": {"trainable": true, "name": "batch_normalization_75", "center": true, "moving_variance_initializer": {"class_name": "Ones", "config": {}}, "gamma_initializer": {"class_name": "Ones", "config": {}}, "beta_regularizer": null, "moving_mean_initializer": {"class_name": "Zeros", "config": {}}, "epsilon": 0.001, "scale": false, "axis": 3, "beta_initializer": {"class_name": "Zeros", "config": {}}, "momentum": 0.99, "gamma_regularizer": null, "gamma_constraint": null, "beta_constraint": null}}, {"inbound_nodes": [[["batch_normalization_75", 0, 0, {}]]], "name": "activation_75", "class_name": "Activation", "config": {"trainable": true, "name": "activation_75", "activation": "relu"}}, {"inbound_nodes": [[["block35_10_ac", 0, 0, {}]]], "name": "conv2d_73", "class_name": "Conv2D", "config": {"trainable": true, "name": "conv2d_73", "padding": "valid", "data_format": "channels_last", "kernel_size": [3, 3], "bias_initializer": {"class_name": "Zeros", "config": {}}, "filters": 384, "strides": [2, 2], "use_bias": false, "activity_regularizer": null, "bias_regularizer": null, "kernel_initializer": {"class_name": "VarianceScaling", "config": {"mode": "fan_avg", "distribution": "uniform", "scale": 1.0, "seed": null}}, "kernel_regularizer": null, "bias_constraint": null, "activation": "linear", "kernel_constraint": null, "dilation_rate": [1, 1]}}, {"inbound_nodes": [[["activation_75", 0, 0, {}]]], "name": "conv2d_76", "class_name": "Conv2D", "config": {"trainable": true, "name": "conv2d_76", "padding": "valid", "data_format": "channels_last", "kernel_size": [3, 3], "bias_initializer": {"class_name": "Zeros", "config": {}}, "filters": 384, "strides": [2, 2], "use_bias": false, "activity_regularizer": null, "bias_regularizer": null, "kernel_initializer": {"class_name": "VarianceScaling", "config": {"mode": "fan_avg", "distribution": "uniform", "scale": 1.0, "seed": null}}, "kernel_regularizer": null, "bias_constraint": null, "activation": "linear", "kernel_constraint": null, "dilation_rate": [1, 1]}}, {"inbound_nodes": [[["conv2d_73", 0, 0, {}]]], "name": "batch_normalization_73", "class_name": "BatchNormalization", "config": {"trainable": true, "name": "batch_normalization_73", "center": true, "moving_variance_initializer": {"class_name": "Ones", "config": {}}, "gamma_initializer": {"class_name": "Ones", "config": {}}, "beta_regularizer": null, "moving_mean_initializer": {"class_name": "Zeros", "config": {}}, "epsilon": 0.001, "scale": false, "axis": 3, "beta_initializer": {"class_name": "Zeros", "config": {}}, "momentum": 0.99, "gamma_regularizer": null, "gamma_constraint": null, "beta_constraint": null}}, {"inbound_nodes": [[["conv2d_76", 0, 0, {}]]], "name": "batch_normalization_76", "class_name": "BatchNormalization", "config": {"trainable": true, "name": "batch_normalization_76", "center": true, "moving_variance_initializer": {"class_name": "Ones", "config": {}}, "gamma_initializer": {"class_name": "Ones", "config": {}}, "beta_regularizer": null, "moving_mean_initializer": {"class_name": "Zeros", "config": {}}, "epsilon": 0.001, "scale": false, "axis": 3, "beta_initializer": {"class_name": "Zeros", "config": {}}, "momentum": 0.99, "gamma_regularizer": null, "gamma_constraint": null, "beta_constraint": null}}, {"inbound_nodes": [[["batch_normalization_73", 0, 0, {}]]], "name": "activation_73", "class_name": "Activation", "config": {"trainable": true, "name": "activation_73", "activation": "relu"}}, {"inbound_nodes": [[["batch_normalization_76", 0, 0, {}]]], "name": "activation_76", "class_name": "Activation", "config": {"trainable": true, "name": "activation_76", "activation": "relu"}}, {"inbound_nodes": [[["block35_10_ac", 0, 0, {}]]], "name": "max_pooling2d_3", "class_name": "MaxPooling2D", "config": {"trainable": true, "name": "max_pooling2d_3", "padding": "valid", "data_format": "channels_last", "pool_size": [3, 3], "strides": [2, 2]}}, {"inbound_nodes": [[["activation_73", 0, 0, {}], ["activation_76", 0, 0, {}], ["max_pooling2d_3", 0, 0, {}]]], "name": "mixed_6a", "class_name": "Concatenate", "config": {"trainable": true, "axis": 3, "name": "mixed_6a"}}, {"inbound_nodes": [[["mixed_6a", 0, 0, {}]]], "name": "conv2d_78", "class_name": "Conv2D", "config": {"trainable": true, "name": "conv2d_78", "padding": "same", "data_format": "channels_last", "kernel_size": [1, 1], "bias_initializer": {"class_name": "Zeros", "config": {}}, "filters": 128, "strides": [1, 1], "use_bias": false, "activity_regularizer": null, "bias_regularizer": null, "kernel_initializer": {"class_name": "VarianceScaling", "config": {"mode": "fan_avg", "distribution": "uniform", "scale": 1.0, "seed": null}}, "kernel_regularizer": null, "bias_constraint": null, "activation": "linear", "kernel_constraint": null, "dilation_rate": [1, 1]}}, {"inbound_nodes": [[["conv2d_78", 0, 0, {}]]], "name": "batch_normalization_78", "class_name": "BatchNormalization", "config": {"trainable": true, "name": "batch_normalization_78", "center": true, "moving_variance_initializer": {"class_name": "Ones", "config": {}}, "gamma_initializer": {"class_name": "Ones", "config": {}}, "beta_regularizer": null, "moving_mean_initializer": {"class_name": "Zeros", "config": {}}, "epsilon": 0.001, "scale": false, "axis": 3, "beta_initializer": {"class_name": "Zeros", "config": {}}, "momentum": 0.99, "gamma_regularizer": null, "gamma_constraint": null, "beta_constraint": null}}, {"inbound_nodes": [[["batch_normalization_78", 0, 0, {}]]], "name": "activation_78", "class_name": "Activation", "config": {"trainable": true, "name": "activation_78", "activation": "relu"}}, {"inbound_nodes": [[["activation_78", 0, 0, {}]]], "name": "conv2d_79", "class_name": "Conv2D", "config": {"trainable": true, "name": "conv2d_79", "padding": "same", "data_format": "channels_last", "kernel_size": [1, 7], "bias_initializer": {"class_name": "Zeros", "config": {}}, "filters": 160, "strides": [1, 1], "use_bias": false, "activity_regularizer": null, "bias_regularizer": null, "kernel_initializer": {"class_name": "VarianceScaling", "config": {"mode": "fan_avg", "distribution": "uniform", "scale": 1.0, "seed": null}}, "kernel_regularizer": null, "bias_constraint": null, "activation": "linear", "kernel_constraint": null, "dilation_rate": [1, 1]}}, {"inbound_nodes": [[["conv2d_79", 0, 0, {}]]], "name": "batch_normalization_79", "class_name": "BatchNormalization", "config": {"trainable": true, "name": "batch_normalization_79", "center": true, "moving_variance_initializer": {"class_name": "Ones", "config": {}}, "gamma_initializer": {"class_name": "Ones", "config": {}}, "beta_regularizer": null, "moving_mean_initializer": {"class_name": "Zeros", "config": {}}, "epsilon": 0.001, "scale": false, "axis": 3, "beta_initializer": {"class_name": "Zeros", "config": {}}, "momentum": 0.99, "gamma_regularizer": null, "gamma_constraint": null, "beta_constraint": null}}, {"inbound_nodes": [[["batch_normalization_79", 0, 0, {}]]], "name": "activation_79", "class_name": "Activation", "config": {"trainable": true, "name": "activation_79", "activation": "relu"}}, {"inbound_nodes": [[["mixed_6a", 0, 0, {}]]], "name": "conv2d_77", "class_name": "Conv2D", "config": {"trainable": true, "name": "conv2d_77", "padding": "same", "data_format": "channels_last", "kernel_size": [1, 1], "bias_initializer": {"class_name": "Zeros", "config": {}}, "filters": 192, "strides": [1, 1], "use_bias": false, "activity_regularizer": null, "bias_regularizer": null, "kernel_initializer": {"class_name": "VarianceScaling", "config": {"mode": "fan_avg", "distribution": "uniform", "scale": 1.0, "seed": null}}, "kernel_regularizer": null, "bias_constraint": null, "activation": "linear", "kernel_constraint": null, "dilation_rate": [1, 1]}}, {"inbound_nodes": [[["activation_79", 0, 0, {}]]], "name": "conv2d_80", "class_name": "Conv2D", "config": {"trainable": true, "name": "conv2d_80", "padding": "same", "data_format": "channels_last", "kernel_size": [7, 1], "bias_initializer": {"class_name": "Zeros", "config": {}}, "filters": 192, "strides": [1, 1], "use_bias": false, "activity_regularizer": null, "bias_regularizer": null, "kernel_initializer": {"class_name": "VarianceScaling", "config": {"mode": "fan_avg", "distribution": "uniform", "scale": 1.0, "seed": null}}, "kernel_regularizer": null, "bias_constraint": null, "activation": "linear", "kernel_constraint": null, "dilation_rate": [1, 1]}}, {"inbound_nodes": [[["conv2d_77", 0, 0, {}]]], "name": "batch_normalization_77", "class_name": "BatchNormalization", "config": {"trainable": true, "name": "batch_normalization_77", "center": true, "moving_variance_initializer": {"class_name": "Ones", "config": {}}, "gamma_initializer": {"class_name": "Ones", "config": {}}, "beta_regularizer": null, "moving_mean_initializer": {"class_name": "Zeros", "config": {}}, "epsilon": 0.001, "scale": false, "axis": 3, "beta_initializer": {"class_name": "Zeros", "config": {}}, "momentum": 0.99, "gamma_regularizer": null, "gamma_constraint": null, "beta_constraint": null}}, {"inbound_nodes": [[["conv2d_80", 0, 0, {}]]], "name": "batch_normalization_80", "class_name": "BatchNormalization", "config": {"trainable": true, "name": "batch_normalization_80", "center": true, "moving_variance_initializer": {"class_name": "Ones", "config": {}}, "gamma_initializer": {"class_name": "Ones", "config": {}}, "beta_regularizer": null, "moving_mean_initializer": {"class_name": "Zeros", "config": {}}, "epsilon": 0.001, "scale": false, "axis": 3, "beta_initializer": {"class_name": "Zeros", "config": {}}, "momentum": 0.99, "gamma_regularizer": null, "gamma_constraint": null, "beta_constraint": null}}, {"inbound_nodes": [[["batch_normalization_77", 0, 0, {}]]], "name": "activation_77", "class_name": "Activation", "config": {"trainable": true, "name": "activation_77", "activation": "relu"}}, {"inbound_nodes": [[["batch_normalization_80", 0, 0, {}]]], "name": "activation_80", "class_name": "Activation", "config": {"trainable": true, "name": "activation_80", "activation": "relu"}}, {"inbound_nodes": [[["activation_77", 0, 0, {}], ["activation_80", 0, 0, {}]]], "name": "block17_1_mixed", "class_name": "Concatenate", "config": {"trainable": true, "axis": 3, "name": "block17_1_mixed"}}, {"inbound_nodes": [[["block17_1_mixed", 0, 0, {}]]], "name": "block17_1_conv", "class_name": "Conv2D", "config": {"trainable": true, "name": "block17_1_conv", "padding": "same", "data_format": "channels_last", "kernel_size": [1, 1], "bias_initializer": {"class_name": "Zeros", "config": {}}, "filters": 1088, "strides": [1, 1], "use_bias": true, "activity_regularizer": null, "bias_regularizer": null, "kernel_initializer": {"class_name": "VarianceScaling", "config": {"mode": "fan_avg", "distribution": "uniform", "scale": 1.0, "seed": null}}, "kernel_regularizer": null, "bias_constraint": null, "activation": "linear", "kernel_constraint": null, "dilation_rate": [1, 1]}}, {"inbound_nodes": [[["mixed_6a", 0, 0, {}], ["block17_1_conv", 0, 0, {}]]], "name": "block17_1", "class_name": "Lambda", "config": {"trainable": true, "output_shape_type": "raw", "name": "block17_1", "output_shape": [14, 14, 1088], "function_type": "lambda", "function": ["4wIAAAAAAAAAAgAAAAMAAABTAAAAcxQAAAB8AABkAQAZfAAAZAIAGXwBABQXUykDTukAAAAA6QEA\nAACpACkC2gZpbnB1dHPaBXNjYWxlcgMAAAByAwAAAPpqL2hvbWUvbXNoYWlraDIvYW5hY29uZGEz\nL2VudnMvdGYtZ3B1L2xpYi9weXRob24zLjUvc2l0ZS1wYWNrYWdlcy9rZXJhc19hcHBsaWNhdGlv\nbnMvaW5jZXB0aW9uX3Jlc25ldF92Mi5wedoIPGxhbWJkYT6qAAAA8wAAAAA=\n", null, null], "arguments": {"scale": 0.1}}}, {"inbound_nodes": [[["block17_1", 0, 0, {}]]], "name": "block17_1_ac", "class_name": "Activation", "config": {"trainable": true, "name": "block17_1_ac", "activation": "relu"}}, {"inbound_nodes": [[["block17_1_ac", 0, 0, {}]]], "name": "conv2d_82", "class_name": "Conv2D", "config": {"trainable": true, "name": "conv2d_82", "padding": "same", "data_format": "channels_last", "kernel_size": [1, 1], "bias_initializer": {"class_name": "Zeros", "config": {}}, "filters": 128, "strides": [1, 1], "use_bias": false, "activity_regularizer": null, "bias_regularizer": null, "kernel_initializer": {"class_name": "VarianceScaling", "config": {"mode": "fan_avg", "distribution": "uniform", "scale": 1.0, "seed": null}}, "kernel_regularizer": null, "bias_constraint": null, "activation": "linear", "kernel_constraint": null, "dilation_rate": [1, 1]}}, {"inbound_nodes": [[["conv2d_82", 0, 0, {}]]], "name": "batch_normalization_82", "class_name": "BatchNormalization", "config": {"trainable": true, "name": "batch_normalization_82", "center": true, "moving_variance_initializer": {"class_name": "Ones", "config": {}}, "gamma_initializer": {"class_name": "Ones", "config": {}}, "beta_regularizer": null, "moving_mean_initializer": {"class_name": "Zeros", "config": {}}, "epsilon": 0.001, "scale": false, "axis": 3, "beta_initializer": {"class_name": "Zeros", "config": {}}, "momentum": 0.99, "gamma_regularizer": null, "gamma_constraint": null, "beta_constraint": null}}, {"inbound_nodes": [[["batch_normalization_82", 0, 0, {}]]], "name": "activation_82", "class_name": "Activation", "config": {"trainable": true, "name": "activation_82", "activation": "relu"}}, {"inbound_nodes": [[["activation_82", 0, 0, {}]]], "name": "conv2d_83", "class_name": "Conv2D", "config": {"trainable": true, "name": "conv2d_83", "padding": "same", "data_format": "channels_last", "kernel_size": [1, 7], "bias_initializer": {"class_name": "Zeros", "config": {}}, "filters": 160, "strides": [1, 1], "use_bias": false, "activity_regularizer": null, "bias_regularizer": null, "kernel_initializer": {"class_name": "VarianceScaling", "config": {"mode": "fan_avg", "distribution": "uniform", "scale": 1.0, "seed": null}}, "kernel_regularizer": null, "bias_constraint": null, "activation": "linear", "kernel_constraint": null, "dilation_rate": [1, 1]}}, {"inbound_nodes": [[["conv2d_83", 0, 0, {}]]], "name": "batch_normalization_83", "class_name": "BatchNormalization", "config": {"trainable": true, "name": "batch_normalization_83", "center": true, "moving_variance_initializer": {"class_name": "Ones", "config": {}}, "gamma_initializer": {"class_name": "Ones", "config": {}}, "beta_regularizer": null, "moving_mean_initializer": {"class_name": "Zeros", "config": {}}, "epsilon": 0.001, "scale": false, "axis": 3, "beta_initializer": {"class_name": "Zeros", "config": {}}, "momentum": 0.99, "gamma_regularizer": null, "gamma_constraint": null, "beta_constraint": null}}, {"inbound_nodes": [[["batch_normalization_83", 0, 0, {}]]], "name": "activation_83", "class_name": "Activation", "config": {"trainable": true, "name": "activation_83", "activation": "relu"}}, {"inbound_nodes": [[["block17_1_ac", 0, 0, {}]]], "name": "conv2d_81", "class_name": "Conv2D", "config": {"trainable": true, "name": "conv2d_81", "padding": "same", "data_format": "channels_last", "kernel_size": [1, 1], "bias_initializer": {"class_name": "Zeros", "config": {}}, "filters": 192, "strides": [1, 1], "use_bias": false, "activity_regularizer": null, "bias_regularizer": null, "kernel_initializer": {"class_name": "VarianceScaling", "config": {"mode": "fan_avg", "distribution": "uniform", "scale": 1.0, "seed": null}}, "kernel_regularizer": null, "bias_constraint": null, "activation": "linear", "kernel_constraint": null, "dilation_rate": [1, 1]}}, {"inbound_nodes": [[["activation_83", 0, 0, {}]]], "name": "conv2d_84", "class_name": "Conv2D", "config": {"trainable": true, "name": "conv2d_84", "padding": "same", "data_format": "channels_last", "kernel_size": [7, 1], "bias_initializer": {"class_name": "Zeros", "config": {}}, "filters": 192, "strides": [1, 1], "use_bias": false, "activity_regularizer": null, "bias_regularizer": null, "kernel_initializer": {"class_name": "VarianceScaling", "config": {"mode": "fan_avg", "distribution": "uniform", "scale": 1.0, "seed": null}}, "kernel_regularizer": null, "bias_constraint": null, "activation": "linear", "kernel_constraint": null, "dilation_rate": [1, 1]}}, {"inbound_nodes": [[["conv2d_81", 0, 0, {}]]], "name": "batch_normalization_81", "class_name": "BatchNormalization", "config": {"trainable": true, "name": "batch_normalization_81", "center": true, "moving_variance_initializer": {"class_name": "Ones", "config": {}}, "gamma_initializer": {"class_name": "Ones", "config": {}}, "beta_regularizer": null, "moving_mean_initializer": {"class_name": "Zeros", "config": {}}, "epsilon": 0.001, "scale": false, "axis": 3, "beta_initializer": {"class_name": "Zeros", "config": {}}, "momentum": 0.99, "gamma_regularizer": null, "gamma_constraint": null, "beta_constraint": null}}, {"inbound_nodes": [[["conv2d_84", 0, 0, {}]]], "name": "batch_normalization_84", "class_name": "BatchNormalization", "config": {"trainable": true, "name": "batch_normalization_84", "center": true, "moving_variance_initializer": {"class_name": "Ones", "config": {}}, "gamma_initializer": {"class_name": "Ones", "config": {}}, "beta_regularizer": null, "moving_mean_initializer": {"class_name": "Zeros", "config": {}}, "epsilon": 0.001, "scale": false, "axis": 3, "beta_initializer": {"class_name": "Zeros", "config": {}}, "momentum": 0.99, "gamma_regularizer": null, "gamma_constraint": null, "beta_constraint": null}}, {"inbound_nodes": [[["batch_normalization_81", 0, 0, {}]]], "name": "activation_81", "class_name": "Activation", "config": {"trainable": true, "name": "activation_81", "activation": "relu"}}, {"inbound_nodes": [[["batch_normalization_84", 0, 0, {}]]], "name": "activation_84", "class_name": "Activation", "config": {"trainable": true, "name": "activation_84", "activation": "relu"}}, {"inbound_nodes": [[["activation_81", 0, 0, {}], ["activation_84", 0, 0, {}]]], "name": "block17_2_mixed", "class_name": "Concatenate", "config": {"trainable": true, "axis": 3, "name": "block17_2_mixed"}}, {"inbound_nodes": [[["block17_2_mixed", 0, 0, {}]]], "name": "block17_2_conv", "class_name": "Conv2D", "config": {"trainable": true, "name": "block17_2_conv", "padding": "same", "data_format": "channels_last", "kernel_size": [1, 1], "bias_initializer": {"class_name": "Zeros", "config": {}}, "filters": 1088, "strides": [1, 1], "use_bias": true, "activity_regularizer": null, "bias_regularizer": null, "kernel_initializer": {"class_name": "VarianceScaling", "config": {"mode": "fan_avg", "distribution": "uniform", "scale": 1.0, "seed": null}}, "kernel_regularizer": null, "bias_constraint": null, "activation": "linear", "kernel_constraint": null, "dilation_rate": [1, 1]}}, {"inbound_nodes": [[["block17_1_ac", 0, 0, {}], ["block17_2_conv", 0, 0, {}]]], "name": "block17_2", "class_name": "Lambda", "config": {"trainable": true, "output_shape_type": "raw", "name": "block17_2", "output_shape": [14, 14, 1088], "function_type": "lambda", "function": ["4wIAAAAAAAAAAgAAAAMAAABTAAAAcxQAAAB8AABkAQAZfAAAZAIAGXwBABQXUykDTukAAAAA6QEA\nAACpACkC2gZpbnB1dHPaBXNjYWxlcgMAAAByAwAAAPpqL2hvbWUvbXNoYWlraDIvYW5hY29uZGEz\nL2VudnMvdGYtZ3B1L2xpYi9weXRob24zLjUvc2l0ZS1wYWNrYWdlcy9rZXJhc19hcHBsaWNhdGlv\nbnMvaW5jZXB0aW9uX3Jlc25ldF92Mi5wedoIPGxhbWJkYT6qAAAA8wAAAAA=\n", null, null], "arguments": {"scale": 0.1}}}, {"inbound_nodes": [[["block17_2", 0, 0, {}]]], "name": "block17_2_ac", "class_name": "Activation", "config": {"trainable": true, "name": "block17_2_ac", "activation": "relu"}}, {"inbound_nodes": [[["block17_2_ac", 0, 0, {}]]], "name": "conv2d_86", "class_name": "Conv2D", "config": {"trainable": true, "name": "conv2d_86", "padding": "same", "data_format": "channels_last", "kernel_size": [1, 1], "bias_initializer": {"class_name": "Zeros", "config": {}}, "filters": 128, "strides": [1, 1], "use_bias": false, "activity_regularizer": null, "bias_regularizer": null, "kernel_initializer": {"class_name": "VarianceScaling", "config": {"mode": "fan_avg", "distribution": "uniform", "scale": 1.0, "seed": null}}, "kernel_regularizer": null, "bias_constraint": null, "activation": "linear", "kernel_constraint": null, "dilation_rate": [1, 1]}}, {"inbound_nodes": [[["conv2d_86", 0, 0, {}]]], "name": "batch_normalization_86", "class_name": "BatchNormalization", "config": {"trainable": true, "name": "batch_normalization_86", "center": true, "moving_variance_initializer": {"class_name": "Ones", "config": {}}, "gamma_initializer": {"class_name": "Ones", "config": {}}, "beta_regularizer": null, "moving_mean_initializer": {"class_name": "Zeros", "config": {}}, "epsilon": 0.001, "scale": false, "axis": 3, "beta_initializer": {"class_name": "Zeros", "config": {}}, "momentum": 0.99, "gamma_regularizer": null, "gamma_constraint": null, "beta_constraint": null}}, {"inbound_nodes": [[["batch_normalization_86", 0, 0, {}]]], "name": "activation_86", "class_name": "Activation", "config": {"trainable": true, "name": "activation_86", "activation": "relu"}}, {"inbound_nodes": [[["activation_86", 0, 0, {}]]], "name": "conv2d_87", "class_name": "Conv2D", "config": {"trainable": true, "name": "conv2d_87", "padding": "same", "data_format": "channels_last", "kernel_size": [1, 7], "bias_initializer": {"class_name": "Zeros", "config": {}}, "filters": 160, "strides": [1, 1], "use_bias": false, "activity_regularizer": null, "bias_regularizer": null, "kernel_initializer": {"class_name": "VarianceScaling", "config": {"mode": "fan_avg", "distribution": "uniform", "scale": 1.0, "seed": null}}, "kernel_regularizer": null, "bias_constraint": null, "activation": "linear", "kernel_constraint": null, "dilation_rate": [1, 1]}}, {"inbound_nodes": [[["conv2d_87", 0, 0, {}]]], "name": "batch_normalization_87", "class_name": "BatchNormalization", "config": {"trainable": true, "name": "batch_normalization_87", "center": true, "moving_variance_initializer": {"class_name": "Ones", "config": {}}, "gamma_initializer": {"class_name": "Ones", "config": {}}, "beta_regularizer": null, "moving_mean_initializer": {"class_name": "Zeros", "config": {}}, "epsilon": 0.001, "scale": false, "axis": 3, "beta_initializer": {"class_name": "Zeros", "config": {}}, "momentum": 0.99, "gamma_regularizer": null, "gamma_constraint": null, "beta_constraint": null}}, {"inbound_nodes": [[["batch_normalization_87", 0, 0, {}]]], "name": "activation_87", "class_name": "Activation", "config": {"trainable": true, "name": "activation_87", "activation": "relu"}}, {"inbound_nodes": [[["block17_2_ac", 0, 0, {}]]], "name": "conv2d_85", "class_name": "Conv2D", "config": {"trainable": true, "name": "conv2d_85", "padding": "same", "data_format": "channels_last", "kernel_size": [1, 1], "bias_initializer": {"class_name": "Zeros", "config": {}}, "filters": 192, "strides": [1, 1], "use_bias": false, "activity_regularizer": null, "bias_regularizer": null, "kernel_initializer": {"class_name": "VarianceScaling", "config": {"mode": "fan_avg", "distribution": "uniform", "scale": 1.0, "seed": null}}, "kernel_regularizer": null, "bias_constraint": null, "activation": "linear", "kernel_constraint": null, "dilation_rate": [1, 1]}}, {"in…
"activity_regularizer": null, "bias_regularizer": null, "kernel_initializer": {"class_name": "VarianceScaling", "config": {"mode": "fan_avg", "distribution": "uniform", "scale": 1.0, "seed": null}}, "kernel_regularizer": null, "bias_constraint": null, "activation": "linear", "kernel_constraint": null, "dilation_rate": [1, 1]}}, {"inbound_nodes": [[["conv2d_185", 0, 0, {}]]], "name": "batch_normalization_185", "class_name": "BatchNormalization", "config": {"trainable": true, "name": "batch_normalization_185", "center": true, "moving_variance_initializer": {"class_name": "Ones", "config": {}}, "gamma_initializer": {"class_name": "Ones", "config": {}}, "beta_regularizer": null, "moving_mean_initializer": {"class_name": "Zeros", "config": {}}, "epsilon": 0.001, "scale": false, "axis": 3, "beta_initializer": {"class_name": "Zeros", "config": {}}, "momentum": 0.99, "gamma_regularizer": null, "gamma_constraint": null, "beta_constraint": null}}, {"inbound_nodes": [[["batch_normalization_185", 0, 0, {}]]], "name": "activation_185", "class_name": "Activation", "config": {"trainable": true, "name": "activation_185", "activation": "relu"}}, {"inbound_nodes": [[["activation_185", 0, 0, {}]]], "name": "conv2d_186", "class_name": "Conv2D", "config": {"trainable": true, "name": "conv2d_186", "padding": "same", "data_format": "channels_last", "kernel_size": [1, 3], "bias_initializer": {"class_name": "Zeros", "config": {}}, "filters": 224, "strides": [1, 1], "use_bias": false, "activity_regularizer": null, "bias_regularizer": null, "kernel_initializer": {"class_name": "VarianceScaling", "config": {"mode": "fan_avg", "distribution": "uniform", "scale": 1.0, "seed": null}}, "kernel_regularizer": null, "bias_constraint": null, "activation": "linear", "kernel_constraint": null, "dilation_rate": [1, 1]}}, {"inbound_nodes": [[["conv2d_186", 0, 0, {}]]], "name": "batch_normalization_186", "class_name": "BatchNormalization", "config": {"trainable": true, "name": "batch_normalization_186", "center": true, "moving_variance_initializer": {"class_name": "Ones", "config": {}}, "gamma_initializer": {"class_name": "Ones", "config": {}}, "beta_regularizer": null, "moving_mean_initializer": {"class_name": "Zeros", "config": {}}, "epsilon": 0.001, "scale": false, "axis": 3, "beta_initializer": {"class_name": "Zeros", "config": {}}, "momentum": 0.99, "gamma_regularizer": null, "gamma_constraint": null, "beta_constraint": null}}, {"inbound_nodes": [[["batch_normalization_186", 0, 0, {}]]], "name": "activation_186", "class_name": "Activation", "config": {"trainable": true, "name": "activation_186", "activation": "relu"}}, {"inbound_nodes": [[["block8_5_ac", 0, 0, {}]]], "name": "conv2d_184", "class_name": "Conv2D", "config": {"trainable": true, "name": "conv2d_184", "padding": "same", "data_format": "channels_last", "kernel_size": [1, 1], "bias_initializer": {"class_name": "Zeros", "config": {}}, "filters": 192, "strides": [1, 1], "use_bias": false, "activity_regularizer": null, "bias_regularizer": null, "kernel_initializer": {"class_name": "VarianceScaling", "config": {"mode": "fan_avg", "distribution": "uniform", "scale": 1.0, "seed": null}}, "kernel_regularizer": null, "bias_constraint": null, "activation": "linear", "kernel_constraint": null, "dilation_rate": [1, 1]}}, {"inbound_nodes": [[["activation_186", 0, 0, {}]]], "name": "conv2d_187", "class_name": "Conv2D", "config": {"trainable": true, "name": "conv2d_187", "padding": "same", "data_format": "channels_last", "kernel_size": [3, 1], "bias_initializer": {"class_name": "Zeros", "config": {}}, "filters": 256, "strides": [1, 1], "use_bias": false, "activity_regularizer": null, "bias_regularizer": null, "kernel_initializer": {"class_name": "VarianceScaling", "config": {"mode": "fan_avg", "distribution": "uniform", "scale": 1.0, "seed": null}}, "kernel_regularizer": null, "bias_constraint": null, "activation": "linear", "kernel_constraint": null, "dilation_rate": [1, 1]}}, {"inbound_nodes": [[["conv2d_184", 0, 0, {}]]], "name": "batch_normalization_184", "class_name": "BatchNormalization", "config": {"trainable": true, "name": "batch_normalization_184", "center": true, "moving_variance_initializer": {"class_name": "Ones", "config": {}}, "gamma_initializer": {"class_name": "Ones", "config": {}}, "beta_regularizer": null, "moving_mean_initializer": {"class_name": "Zeros", "config": {}}, "epsilon": 0.001, "scale": false, "axis": 3, "beta_initializer": {"class_name": "Zeros", "config": {}}, "momentum": 0.99, "gamma_regularizer": null, "gamma_constraint": null, "beta_constraint": null}}, {"inbound_nodes": [[["conv2d_187", 0, 0, {}]]], "name": "batch_normalization_187", "class_name": "BatchNormalization", "config": {"trainable": true, "name": "batch_normalization_187", "center": true, "moving_variance_initializer": {"class_name": "Ones", "config": {}}, "gamma_initializer": {"class_name": "Ones", "config": {}}, "beta_regularizer": null, "moving_mean_initializer": {"class_name": "Zeros", "config": {}}, "epsilon": 0.001, "scale": false, "axis": 3, "beta_initializer": {"class_name": "Zeros", "config": {}}, "momentum": 0.99, "gamma_regularizer": null, "gamma_constraint": null, "beta_constraint": null}}, {"inbound_nodes": [[["batch_normalization_184", 0, 0, {}]]], "name": "activation_184", "class_name": "Activation", "config": {"trainable": true, "name": "activation_184", "activation": "relu"}}, {"inbound_nodes": [[["batch_normalization_187", 0, 0, {}]]], "name": "activation_187", "class_name": "Activation", "config": {"trainable": true, "name": "activation_187", "activation": "relu"}}, {"inbound_nodes": [[["activation_184", 0, 0, {}], ["activation_187", 0, 0, {}]]], "name": "block8_6_mixed", "class_name": "Concatenate", "config": {"trainable": true, "axis": 3, "name": "block8_6_mixed"}}, {"inbound_nodes": [[["block8_6_mixed", 0, 0, {}]]], "name": "block8_6_conv", "class_name": "Conv2D", "config": {"trainable": true, "name": "block8_6_conv", "padding": "same", "data_format": "channels_last", "kernel_size": [1, 1], "bias_initializer": {"class_name": "Zeros", "config": {}}, "filters": 2080, "strides": [1, 1], "use_bias": true, "activity_regularizer": null, "bias_regularizer": null, "kernel_initializer": {"class_name": "VarianceScaling", "config": {"mode": "fan_avg", "distribution": "uniform", "scale": 1.0, "seed": null}}, "kernel_regularizer": null, "bias_constraint": null, "activation": "linear", "kernel_constraint": null, "dilation_rate": [1, 1]}}, {"inbound_nodes": [[["block8_5_ac", 0, 0, {}], ["block8_6_conv", 0, 0, {}]]], "name": "block8_6", "class_name": "Lambda", "config": {"trainable": true, "output_shape_type": "raw", "name": "block8_6", "output_shape": [6, 6, 2080], "function_type": "lambda", "function": ["4wIAAAAAAAAAAgAAAAMAAABTAAAAcxQAAAB8AABkAQAZfAAAZAIAGXwBABQXUykDTukAAAAA6QEA\nAACpACkC2gZpbnB1dHPaBXNjYWxlcgMAAAByAwAAAPpqL2hvbWUvbXNoYWlraDIvYW5hY29uZGEz\nL2VudnMvdGYtZ3B1L2xpYi9weXRob24zLjUvc2l0ZS1wYWNrYWdlcy9rZXJhc19hcHBsaWNhdGlv\nbnMvaW5jZXB0aW9uX3Jlc25ldF92Mi5wedoIPGxhbWJkYT6qAAAA8wAAAAA=\n", null, null], "arguments": {"scale": 0.2}}}, {"inbound_nodes": [[["block8_6", 0, 0, {}]]], "name": "block8_6_ac", "class_name": "Activation", "config": {"trainable": true, "name": "block8_6_ac", "activation": "relu"}}, {"inbound_nodes": [[["block8_6_ac", 0, 0, {}]]], "name": "conv2d_189", "class_name": "Conv2D", "config": {"trainable": true, "name": "conv2d_189", "padding": "same", "data_format": "channels_last", "kernel_size": [1, 1], "bias_initializer": {"class_name": "Zeros", "config": {}}, "filters": 192, "strides": [1, 1], "use_bias": false, "activity_regularizer": null, "bias_regularizer": null, "kernel_initializer": {"class_name": "VarianceScaling", "config": {"mode": "fan_avg", "distribution": "uniform", "scale": 1.0, "seed": null}}, "kernel_regularizer": null, "bias_constraint": null, "activation": "linear", "kernel_constraint": null, "dilation_rate": [1, 1]}}, {"inbound_nodes": [[["conv2d_189", 0, 0, {}]]], "name": "batch_normalization_189", "class_name": "BatchNormalization", "config": {"trainable": true, "name": "batch_normalization_189", "center": true, "moving_variance_initializer": {"class_name": "Ones", "config": {}}, "gamma_initializer": {"class_name": "Ones", "config": {}}, "beta_regularizer": null, "moving_mean_initializer": {"class_name": "Zeros", "config": {}}, "epsilon": 0.001, "scale": false, "axis": 3, "beta_initializer": {"class_name": "Zeros", "config": {}}, "momentum": 0.99, "gamma_regularizer": null, "gamma_constraint": null, "beta_constraint": null}}, {"inbound_nodes": [[["batch_normalization_189", 0, 0, {}]]], "name": "activation_189", "class_name": "Activation", "config": {"trainable": true, "name": "activation_189", "activation": "relu"}}, {"inbound_nodes": [[["activation_189", 0, 0, {}]]], "name": "conv2d_190", "class_name": "Conv2D", "config": {"trainable": true, "name": "conv2d_190", "padding": "same", "data_format": "channels_last", "kernel_size": [1, 3], "bias_initializer": {"class_name": "Zeros", "config": {}}, "filters": 224, "strides": [1, 1], "use_bias": false, "activity_regularizer": null, "bias_regularizer": null, "kernel_initializer": {"class_name": "VarianceScaling", "config": {"mode": "fan_avg", "distribution": "uniform", "scale": 1.0, "seed": null}}, "kernel_regularizer": null, "bias_constraint": null, "activation": "linear", "kernel_constraint": null, "dilation_rate": [1, 1]}}, {"inbound_nodes": [[["conv2d_190", 0, 0, {}]]], "name": "batch_normalization_190", "class_name": "BatchNormalization", "config": {"trainable": true, "name": "batch_normalization_190", "center": true, "moving_variance_initializer": {"class_name": "Ones", "config": {}}, "gamma_initializer": {"class_name": "Ones", "config": {}}, "beta_regularizer": null, "moving_mean_initializer": {"class_name": "Zeros", "config": {}}, "epsilon": 0.001, "scale": false, "axis": 3, "beta_initializer": {"class_name": "Zeros", "config": {}}, "momentum": 0.99, "gamma_regularizer": null, "gamma_constraint": null, "beta_constraint": null}}, {"inbound_nodes": [[["batch_normalization_190", 0, 0, {}]]], "name": "activation_190", "class_name": "Activation", "config": {"trainable": true, "name": "activation_190", "activation": "relu"}}, {"inbound_nodes": [[["block8_6_ac", 0, 0, {}]]], "name": "conv2d_188", "class_name": "Conv2D", "config": {"trainable": true, "name": "conv2d_188", "padding": "same", "data_format": "channels_last", "kernel_size": [1, 1], "bias_initializer": {"class_name": "Zeros", "config": {}}, "filters": 192, "strides": [1, 1], "use_bias": false, "activity_regularizer": null, "bias_regularizer": null, "kernel_initializer": {"class_name": "VarianceScaling", "config": {"mode": "fan_avg", "distribution": "uniform", "scale": 1.0, "seed": null}}, "kernel_regularizer": null, "bias_constraint": null, "activation": "linear", "kernel_constraint": null, "dilation_rate": [1, 1]}}, {"inbound_nodes": [[["activation_190", 0, 0, {}]]], "name": "conv2d_191", "class_name": "Conv2D", "config": {"trainable": true, "name": "conv2d_191", "padding": "same", "data_format": "channels_last", "kernel_size": [3, 1], "bias_initializer": {"class_name": "Zeros", "config": {}}, "filters": 256, "strides": [1, 1], "use_bias": false, "activity_regularizer": null, "bias_regularizer": null, "kernel_initializer": {"class_name": "VarianceScaling", "config": {"mode": "fan_avg", "distribution": "uniform", "scale": 1.0, "seed": null}}, "kernel_regularizer": null, "bias_constraint": null, "activation": "linear", "kernel_constraint": null, "dilation_rate": [1, 1]}}, {"inbound_nodes": [[["conv2d_188", 0, 0, {}]]], "name": "batch_normalization_188", "class_name": "BatchNormalization", "config": {"trainable": true, "name": "batch_normalization_188", "center": true, "moving_variance_initializer": {"class_name": "Ones", "config": {}}, "gamma_initializer": {"class_name": "Ones", "config": {}}, "beta_regularizer": null, "moving_mean_initializer": {"class_name": "Zeros", "config": {}}, "epsilon": 0.001, "scale": false, "axis": 3, "beta_initializer": {"class_name": "Zeros", "config": {}}, "momentum": 0.99, "gamma_regularizer": null, "gamma_constraint": null, "beta_constraint": null}}, {"inbound_nodes": [[["conv2d_191", 0, 0, {}]]], "name": "batch_normalization_191", "class_name": "BatchNormalization", "config": {"trainable": true, "name": "batch_normalization_191", "center": true, "moving_variance_initializer": {"class_name": "Ones", "config": {}}, "gamma_initializer": {"class_name": "Ones", "config": {}}, "beta_regularizer": null, "moving_mean_initializer": {"class_name": "Zeros", "config": {}}, "epsilon": 0.001, "scale": false, "axis": 3, "beta_initializer": {"class_name": "Zeros", "config": {}}, "momentum": 0.99, "gamma_regularizer": null, "gamma_constraint": null, "beta_constraint": null}}, {"inbound_nodes": [[["batch_normalization_188", 0, 0, {}]]], "name": "activation_188", "class_name": "Activation", "config": {"trainable": true, "name": "activation_188", "activation": "relu"}}, {"inbound_nodes": [[["batch_normalization_191", 0, 0, {}]]], "name": "activation_191", "class_name": "Activation", "config": {"trainable": true, "name": "activation_191", "activation": "relu"}}, {"inbound_nodes": [[["activation_188", 0, 0, {}], ["activation_191", 0, 0, {}]]], "name": "block8_7_mixed", "class_name": "Concatenate", "config": {"trainable": true, "axis": 3, "name": "block8_7_mixed"}}, {"inbound_nodes": [[["block8_7_mixed", 0, 0, {}]]], "name": "block8_7_conv", "class_name": "Conv2D", "config": {"trainable": true, "name": "block8_7_conv", "padding": "same", "data_format": "channels_last", "kernel_size": [1, 1], "bias_initializer": {"class_name": "Zeros", "config": {}}, "filters": 2080, "strides": [1, 1], "use_bias": true, "activity_regularizer": null, "bias_regularizer": null, "kernel_initializer": {"class_name": "VarianceScaling", "config": {"mode": "fan_avg", "distribution": "uniform", "scale": 1.0, "seed": null}}, "kernel_regularizer": null, "bias_constraint": null, "activation": "linear", "kernel_constraint": null, "dilation_rate": [1, 1]}}, {"inbound_nodes": [[["block8_6_ac", 0, 0, {}], ["block8_7_conv", 0, 0, {}]]], "name": "block8_7", "class_name": "Lambda", "config": {"trainable": true, "output_shape_type": "raw", "name": "block8_7", "output_shape": [6, 6, 2080], "function_type": "lambda", "function": ["4wIAAAAAAAAAAgAAAAMAAABTAAAAcxQAAAB8AABkAQAZfAAAZAIAGXwBABQXUykDTukAAAAA6QEA\nAACpACkC2gZpbnB1dHPaBXNjYWxlcgMAAAByAwAAAPpqL2hvbWUvbXNoYWlraDIvYW5hY29uZGEz\nL2VudnMvdGYtZ3B1L2xpYi9weXRob24zLjUvc2l0ZS1wYWNrYWdlcy9rZXJhc19hcHBsaWNhdGlv\nbnMvaW5jZXB0aW9uX3Jlc25ldF92Mi5wedoIPGxhbWJkYT6qAAAA8wAAAAA=\n", null, null], "arguments": {"scale": 0.2}}}, {"inbound_nodes": [[["block8_7", 0, 0, {}]]], "name": "block8_7_ac", "class_name": "Activation", "config": {"trainable": true, "name": "block8_7_ac", "activation": "relu"}}, {"inbound_nodes": [[["block8_7_ac", 0, 0, {}]]], "name": "conv2d_193", "class_name": "Conv2D", "config": {"trainable": true, "name": "conv2d_193", "padding": "same", "data_format": "channels_last", "kernel_size": [1, 1], "bias_initializer": {"class_name": "Zeros", "config": {}}, "filters": 192, "strides": [1, 1], "use_bias": false, "activity_regularizer": null, "bias_regularizer": null, "kernel_initializer": {"class_name": "VarianceScaling", "config": {"mode": "fan_avg", "distribution": "uniform", "scale": 1.0, "seed": null}}, "kernel_regularizer": null, "bias_constraint": null, "activation": "linear", "kernel_constraint": null, "dilation_rate": [1, 1]}}, {"inbound_nodes": [[["conv2d_193", 0, 0, {}]]], "name": "batch_normalization_193", "class_name": "BatchNormalization", "config": {"trainable": true, "name": "batch_normalization_193", "center": true, "moving_variance_initializer": {"class_name": "Ones", "config": {}}, "gamma_initializer": {"class_name": "Ones", "config": {}}, "beta_regularizer": null, "moving_mean_initializer": {"class_name": "Zeros", "config": {}}, "epsilon": 0.001, "scale": false, "axis": 3, "beta_initializer": {"class_name": "Zeros", "config": {}}, "momentum": 0.99, "gamma_regularizer": null, "gamma_constraint": null, "beta_constraint": null}}, {"inbound_nodes": [[["batch_normalization_193", 0, 0, {}]]], "name": "activation_193", "class_name": "Activation", "config": {"trainable": true, "name": "activation_193", "activation": "relu"}}, {"inbound_nodes": [[["activation_193", 0, 0, {}]]], "name": "conv2d_194", "class_name": "Conv2D", "config": {"trainable": true, "name": "conv2d_194", "padding": "same", "data_format": "channels_last", "kernel_size": [1, 3], "bias_initializer": {"class_name": "Zeros", "config": {}}, "filters": 224, "strides": [1, 1], "use_bias": false, "activity_regularizer": null, "bias_regularizer": null, "kernel_initializer": {"class_name": "VarianceScaling", "config": {"mode": "fan_avg", "distribution": "uniform", "scale": 1.0, "seed": null}}, "kernel_regularizer": null, "bias_constraint": null, "activation": "linear", "kernel_constraint": null, "dilation_rate": [1, 1]}}, {"inbound_nodes": [[["conv2d_194", 0, 0, {}]]], "name": "batch_normalization_194", "class_name": "BatchNormalization", "config": {"trainable": true, "name": "batch_normalization_194", "center": true, "moving_variance_initializer": {"class_name": "Ones", "config": {}}, "gamma_initializer": {"class_name": "Ones", "config": {}}, "beta_regularizer": null, "moving_mean_initializer": {"class_name": "Zeros", "config": {}}, "epsilon": 0.001, "scale": false, "axis": 3, "beta_initializer": {"class_name": "Zeros", "config": {}}, "momentum": 0.99, "gamma_regularizer": null, "gamma_constraint": null, "beta_constraint": null}}, {"inbound_nodes": [[["batch_normalization_194", 0, 0, {}]]], "name": "activation_194", "class_name": "Activation", "config": {"trainable": true, "name": "activation_194", "activation": "relu"}}, {"inbound_nodes": [[["block8_7_ac", 0, 0, {}]]], "name": "conv2d_192", "class_name": "Conv2D", "config": {"trainable": true, "name": "conv2d_192", "padding": "same", "data_format": "channels_last", "kernel_size": [1, 1], "bias_initializer": {"class_name": "Zeros", "config": {}}, "filters": 192, "strides": [1, 1], "use_bias": false, "activity_regularizer": null, "bias_regularizer": null, "kernel_initializer": {"class_name": "VarianceScaling", "config": {"mode": "fan_avg", "distribution": "uniform", "scale": 1.0, "seed": null}}, "kernel_regularizer": null, "bias_constraint": null, "activation": "linear", "kernel_constraint": null, "dilation_rate": [1, 1]}}, {"inbound_nodes": [[["activation_194", 0, 0, {}]]], "name": "conv2d_195", "class_name": "Conv2D", "config": {"trainable": true, "name": "conv2d_195", "padding": "same", "data_format": "channels_last", "kernel_size": [3, 1], "bias_initializer": {"class_name": "Zeros", "config": {}}, "filters": 256, "strides": [1, 1], "use_bias": false, "activity_regularizer": null, "bias_regularizer": null, "kernel_initializer": {"class_name": "VarianceScaling", "config": {"mode": "fan_avg", "distribution": "uniform", "scale": 1.0, "seed": null}}, "kernel_regularizer": null, "bias_constraint": null, "activation": "linear", "kernel_constraint": null, "dilation_rate": [1, 1]}}, {"inbound_nodes": [[["conv2d_192", 0, 0, {}]]], "name": "batch_normalization_192", "class_name": "BatchNormalization", "config": {"trainable": true, "name": "batch_normalization_192", "center": true, "moving_variance_initializer": {"class_name": "Ones", "config": {}}, "gamma_initializer": {"class_name": "Ones", "config": {}}, "beta_regularizer": null, "moving_mean_initializer": {"class_name": "Zeros", "config": {}}, "epsilon": 0.001, "scale": false, "axis": 3, "beta_initializer": {"class_name": "Zeros", "config": {}}, "momentum": 0.99, "gamma_regularizer": null, "gamma_constraint": null, "beta_constraint": null}}, {"inbound_nodes": [[["conv2d_195", 0, 0, {}]]], "name": "batch_normalization_195", "class_name": "BatchNormalization", "config": {"trainable": true, "name": "batch_normalization_195", "center": true, "moving_variance_initializer": {"class_name": "Ones", "config": {}}, "gamma_initializer": {"class_name": "Ones", "config": {}}, "beta_regularizer": null, "moving_mean_initializer": {"class_name": "Zeros", "config": {}}, "epsilon": 0.001, "scale": false, "axis": 3, "beta_initializer": {"class_name": "Zeros", "config": {}}, "momentum": 0.99, "gamma_regularizer": null, "gamma_constraint": null, "beta_constraint": null}}, {"inbound_nodes": [[["batch_normalization_192", 0, 0, {}]]], "name": "activation_192", "class_name": "Activation", "config": {"trainable": true, "name": "activation_192", "activation": "relu"}}, {"inbound_nodes": [[["batch_normalization_195", 0, 0, {}]]], "name": "activation_195", "class_name": "Activation", "config": {"trainable": true, "name": "activation_195", "activation": "relu"}}, {"inbound_nodes": [[["activation_192", 0, 0, {}], ["activation_195", 0, 0, {}]]], "name": "block8_8_mixed", "class_name": "Concatenate", "config": {"trainable": true, "axis": 3, "name": "block8_8_mixed"}}, {"inbound_nodes": [[["block8_8_mixed", 0, 0, {}]]], "name": "block8_8_conv", "class_name": "Conv2D", "config": {"trainable": true, "name": "block8_8_conv", "padding": "same", "data_format": "channels_last", "kernel_size": [1, 1], "bias_initializer": {"class_name": "Zeros", "config": {}}, "filters": 2080, "strides": [1, 1], "use_bias": true, "activity_regularizer": null, "bias_regularizer": null, "kernel_initializer": {"class_name": "VarianceScaling", "config": {"mode": "fan_avg", "distribution": "uniform", "scale": 1.0, "seed": null}}, "kernel_regularizer": null, "bias_constraint": null, "activation": "linear", "kernel_constraint": null, "dilation_rate": [1, 1]}}, {"inbound_nodes": [[["block8_7_ac", 0, 0, {}], ["block8_8_conv", 0, 0, {}]]], "name": "block8_8", "class_name": "Lambda", "config": {"trainable": true, "output_shape_type": "raw", "name": "block8_8", "output_shape": [6, 6, 2080], "function_type": "lambda", "function": ["4wIAAAAAAAAAAgAAAAMAAABTAAAAcxQAAAB8AABkAQAZfAAAZAIAGXwBABQXUykDTukAAAAA6QEA\nAACpACkC2gZpbnB1dHPaBXNjYWxlcgMAAAByAwAAAPpqL2hvbWUvbXNoYWlraDIvYW5hY29uZGEz\nL2VudnMvdGYtZ3B1L2xpYi9weXRob24zLjUvc2l0ZS1wYWNrYWdlcy9rZXJhc19hcHBsaWNhdGlv\nbnMvaW5jZXB0aW9uX3Jlc25ldF92Mi5wedoIPGxhbWJkYT6qAAAA8wAAAAA=\n", null, null], "arguments": {"scale": 0.2}}}, {"inbound_nodes": [[["block8_8", 0, 0, {}]]], "name": "block8_8_ac", "class_name": "Activation", "config": {"trainable": true, "name": "block8_8_ac", "activation": "relu"}}, {"inbound_nodes": [[["block8_8_ac", 0, 0, {}]]], "name": "conv2d_197", "class_name": "Conv2D", "config": {"trainable": true, "name": "conv2d_197", "padding": "same", "data_format": "channels_last", "kernel_size": [1, 1], "bias_initializer": {"class_name": "Zeros", "config": {}}, "filters": 192, "strides": [1, 1], "use_bias": false, "activity_regularizer": null, "bias_regularizer": null, "kernel_initializer": {"class_name": "VarianceScaling", "config": {"mode": "fan_avg", "distribution": "uniform", "scale": 1.0, "seed": null}}, "kernel_regularizer": null, "bias_constraint": null, "activation": "linear", "kernel_constraint": null, "dilation_rate": [1, 1]}}, {"inbound_nodes": [[["conv2d_197", 0, 0, {}]]], "name": "batch_normalization_197", "class_name": "BatchNormalization", "config": {"trainable": true, "name": "batch_normalization_197", "center": true, "moving_variance_initializer": {"class_name": "Ones", "config": {}}, "gamma_initializer": {"class_name": "Ones", "config": {}}, "beta_regularizer": null, "moving_mean_initializer": {"class_name": "Zeros", "config": {}}, "epsilon": 0.001, "scale": false, "axis": 3, "beta_initializer": {"class_name": "Zeros", "config": {}}, "momentum": 0.99, "gamma_regularizer": null, "gamma_constraint": null, "beta_constraint": null}}, {"inbound_nodes": [[["batch_normalization_197", 0, 0, {}]]], "name": "activation_197", "class_name": "Activation", "config": {"trainable": true, "name": "activation_197", "activation": "relu"}}, {"inbound_nodes": [[["activation_197", 0, 0, {}]]], "name": "conv2d_198", "class_name": "Conv2D", "config": {"trainable": true, "name": "conv2d_198", "padding": "same", "data_format": "channels_last", "kernel_size": [1, 3], "bias_initializer": {"class_name": "Zeros", "config": {}}, "filters": 224, "strides": [1, 1], "use_bias": false, "activity_regularizer": null, "bias_regularizer": null, "kernel_initializer": {"class_name": "VarianceScaling", "config": {"mode": "fan_avg", "distribution": "uniform", "scale": 1.0, "seed": null}}, "kernel_regularizer": null, "bias_constraint": null, "activation": "linear", "kernel_constraint": null, "dilation_rate": [1, 1]}}, {"inbound_nodes": [[["conv2d_198", 0, 0, {}]]], "name": "batch_normalization_198", "class_name": "BatchNormalization", "config": {"trainable": true, "name": "batch_normalization_198", "center": true, "moving_variance_initializer": {"class_name": "Ones", "config": {}}, "gamma_initializer": {"class_name": "Ones", "config": {}}, "beta_regularizer": null, "moving_mean_initializer": {"class_name": "Zeros", "config": {}}, "epsilon": 0.001, "scale": false, "axis": 3, "beta_initializer": {"class_name": "Zeros", "config": {}}, "momentum": 0.99, "gamma_regularizer": null, "gamma_constraint": null, "beta_constraint": null}}, {"inbound_nodes": [[["batch_normalization_198", 0, 0, {}]]], "name": "activation_198", "class_name": "Activation", "config": {"trainable": true, "name": "activation_198", "activation": "relu"}}, {"inbound_nodes": [[["block8_8_ac", 0, 0, {}]]], "name": "conv2d_196", "class_name": "Conv2D", "config": {"trainable": true, "name": "conv2d_196", "padding": "same", "data_format": "channels_last", "kernel_size": [1, 1], "bias_initializer": {"class_name": "Zeros", "config": {}}, "filters": 192, "strides": [1, 1], "use_bias": false, "activity_regularizer": null, "bias_regularizer": null, "kernel_initializer": {"class_name": "VarianceScaling", "config": {"mode": "fan_avg", "distribution": "uniform", "scale": 1.0, "seed": null}}, "kernel_regularizer": null, "bias_constraint": null, "activation": "linear", "kernel_constraint": null, "dilation_rate": [1, 1]}}, {"inbound_nodes": [[["activation_198", 0, 0, {}]]], "name": "conv2d_199", "class_name": "Conv2D", "config": {"trainable": true, "name": "conv2d_199", "padding": "same", "data_format": "channels_last", "kernel_size": [3, 1], "bias_initializer": {"class_name": "Zeros", "config": {}}, "filters": 256, "strides": [1, 1], "use_bias": false, "activity_regularizer": null, "bias_regularizer": null, "kernel_initializer": {"class_name": "VarianceScaling", "config": {"mode": "fan_avg", "distribution": "uniform", "scale": 1.0, "seed": null}}, "kernel_regularizer": null, "bias_constraint": null, "activation": "linear", "kernel_constraint": null, "dilation_rate": [1, 1]}}, {"inbound_nodes": [[["conv2d_196", 0, 0, {}]]], "name": "batch_normalization_196", "class_name": "BatchNormalization", "config": {"trainable": true, "name": "batch_normalization_196", "center": true, "moving_variance_initializer": {"class_name": "Ones", "config": {}}, "gamma_initializer": {"class_name": "Ones", "config": {}}, "beta_regularizer": null, "moving_mean_initializer": {"class_name": "Zeros", "config": {}}, "epsilon": 0.001, "scale": false, "axis": 3, "beta_initializer": {"class_name": "Zeros", "config": {}}, "momentum": 0.99, "gamma_regularizer": null, "gamma_constraint": null, "beta_constraint": null}}, {"inbound_nodes": [[["conv2d_199", 0, 0, {}]]], "name": "batch_normalization_199", "class_name": "BatchNormalization", "config": {"trainable": true, "name": "batch_normalization_199", "center": true, "moving_variance_initializer": {"class_name": "Ones", "config": {}}, "gamma_initializer": {"class_name": "Ones", "config": {}}, "beta_regularizer": null, "moving_mean_initializer": {"class_name": "Zeros", "config": {}}, "epsilon": 0.001, "scale": false, "axis": 3, "beta_initializer": {"class_name": "Zeros", "config": {}}, "momentum": 0.99, "gamma_regularizer": null, "gamma_constraint": null, "beta_constraint": null}}, {"inbound_nodes": [[["batch_normalization_196", 0, 0, {}]]], "name": "activation_196", "class_name": "Activation", "config": {"trainable": true, "name": "activation_196", "activation": "relu"}}, {"inbound_nodes": [[["batch_normalization_199", 0, 0, {}]]], "name": "activation_199", "class_name": "Activation", "config": {"trainable": true, "name": "activation_199", "activation": "relu"}}, {"inbound_nodes": [[["activation_196", 0, 0, {}], ["activation_199", 0, 0, {}]]], "name": "block8_9_mixed", "class_name": "Concatenate", "config": {"trainable": true, "axis": 3, "name": "block8_9_mixed"}}, {"inbound_nodes": [[["block8_9_mixed", 0, 0, {}]]], "name": "block8_9_conv", "class_name": "Conv2D", "config": {"trainable": true, "name": "block8_9_conv", "padding": "same", "data_format": "channels_last", "kernel_size": [1, 1], "bias_initializer": {"class_name": "Zeros", "config": {}}, "filters": 2080, "strides": [1, 1], "use_bias": true, "activity_regularizer": null, "bias_regularizer": null, "kernel_initializer": {"class_name": "VarianceScaling", "config": {"mode": "fan_avg", "distribution": "uniform", "scale": 1.0, "seed": null}}, "kernel_regularizer": null, "bias_constraint": null, "activation": "linear", "kernel_constraint": null, "dilation_rate": [1, 1]}}, {"inbound_nodes": [[["block8_8_ac", 0, 0, {}], ["block8_9_conv", 0, 0, {}]]], "name": "block8_9", "class_name": "Lambda", "config": {"trainable": true, "output_shape_type": "raw", "name": "block8_9", "output_shape": [6, 6, 2080], "function_type": "lambda", "function": ["4wIAAAAAAAAAAgAAAAMAAABTAAAAcxQAAAB8AABkAQAZfAAAZAIAGXwBABQXUykDTukAAAAA6QEA\nAACpACkC2gZpbnB1dHPaBXNjYWxlcgMAAAByAwAAAPpqL2hvbWUvbXNoYWlraDIvYW5hY29uZGEz\nL2VudnMvdGYtZ3B1L2xpYi9weXRob24zLjUvc2l0ZS1wYWNrYWdlcy9rZXJhc19hcHBsaWNhdGlv\nbnMvaW5jZXB0aW9uX3Jlc25ldF92Mi5wedoIPGxhbWJkYT6qAAAA8wAAAAA=\n", null, null], "arguments": {"scale": 0.2}}}, {"inbound_nodes": [[["block8_9", 0, 0, {}]]], "name": "block8_9_ac", "class_name": "Activation", "config": {"trainable": true, "name": "block8_9_ac", "activation": "relu"}}, {"inbound_nodes": [[["block8_9_ac", 0, 0, {}]]], "name": "conv2d_201", "class_name": "Conv2D", "config": {"trainable": true, "name": "conv2d_201", "padding": "same", "data_format": "channels_last", "kernel_size": [1, 1], "bias_initializer": {"class_name": "Zeros", "config": {}}, "filters": 192, "strides": [1, 1], "use_bias": false, "activity_regularizer": null, "bias_regularizer": null, "kernel_initializer": {"class_name": "VarianceScaling", "config": {"mode": "fan_avg", "distribution": "uniform", "scale": 1.0, "seed": null}}, "kernel_regularizer": null, "bias_constraint": null, "activation": "linear", "kernel_constraint": null, "dilation_rate": [1, 1]}}, {"inbound_nodes": [[["conv2d_201", 0, 0, {}]]], "name": "batch_normalization_201", "class_name": "BatchNormalization", "config": {"trainable": true, "name": "batch_normalization_201", "center": true, "moving_variance_initializer": {"class_name": "Ones", "config": {}}, "gamma_initializer": {"class_name": "Ones", "config": {}}, "beta_regularizer": null, "moving_mean_initializer": {"class_name": "Zeros", "config": {}}, "epsilon": 0.001, "scale": false, "axis": 3, "beta_initializer": {"class_name": "Zeros", "config": {}}, "momentum": 0.99, "gamma_regularizer": null, "gamma_constraint": null, "beta_constraint": null}}, {"inbound_nodes": [[["batch_normalization_201", 0, 0, {}]]], "name": "activation_201", "class_name": "Activation", "config": {"trainable": true, "name": "activation_201", "activation": "relu"}}, {"inbound_nodes": [[["activation_201", 0, 0, {}]]], "name": "conv2d_202", "class_name": "Conv2D", "config": {"trainable": true, "name": "conv2d_202", "padding": "same", "data_format": "channels_last", "kernel_size": [1, 3], "bias_initializer": {"class_name": "Zeros", "config": {}}, "filters": 224, "strides": [1, 1], "use_bias": false, "activity_regularizer": null, "bias_regularizer": null, "kernel_initializer": {"class_name": "VarianceScaling", "config": {"mode": "fan_avg", "distribution": "uniform", "scale": 1.0, "seed": null}}, "kernel_regularizer": null, "bias_constraint": null, "activation": "linear", "kernel_constraint": null, "dilation_rate": [1, 1]}}, {"inbound_nodes": [[["conv2d_202", 0, 0, {}]]], "name": "batch_normalization_202", "class_name": "BatchNormalization", "config": {"trainable": true, "name": "batch_normalization_202", "center": true, "moving_variance_initializer": {"class_name": "Ones", "config": {}}, "gamma_initializer": {"class_name": "Ones", "config": {}}, "beta_regularizer": null, "moving_mean_initializer": {"class_name": "Zeros", "config": {}}, "epsilon": 0.001, "scale": false, "axis": 3, "beta_initializer": {"class_name": "Zeros", "config": {}}, "momentum": 0.99, "gamma_regularizer": null, "gamma_constraint": null, "beta_constraint": null}}, {"inbound_nodes": [[["batch_normalization_202", 0, 0, {}]]], "name": "activation_202", "class_name": "Activation", "config": {"trainable": true, "name": "activation_202", "activation": "relu"}}, {"inbound_nodes": [[["block8_9_ac", 0, 0, {}]]], "name": "conv2d_200", "class_name": "Conv2D", "config": {"trainable": true, "name": "conv2d_200", "padding": "same", "data_format": "channels_last", "kernel_size": [1, 1], "bias_initializer": {"class_name": "Zeros", "config": {}}, "filters": 192, "strides": [1, 1], "use_bias": false, "activity_regularizer": null, "bias_regularizer": null, "kernel_initializer": {"class_name": "VarianceScaling", "config": {"mode": "fan_avg", "distribution": "uniform", "scale": 1.0, "seed": null}}, "kernel_regularizer": null, "bias_constraint": null, "activation": "linear", "kernel_constraint": null, "dilation_rate": [1, 1]}}, {"inbound_nodes": [[["activation_202", 0, 0, {}]]], "name": "conv2d_203", "class_name": "Conv2D", "config": {"trainable": true, "name": "conv2d_203", "padding": "same", "data_format": "channels_last", "kernel_size": [3, 1], "bias_initializer": {"class_name": "Zeros", "config": {}}, "filters": 256, "strides": [1, 1], "use_bias": false, "activity_regularizer": null, "bias_regularizer": null, "kernel_initializer": {"class_name": "VarianceScaling", "config": {"mode": "fan_avg", "distribution": "uniform", "scale": 1.0, "seed": null}}, "kernel_regularizer": null, "bias_constraint": null, "activation": "linear", "kernel_constraint": null, "dilation_rate": [1, 1]}}, {"inbound_nodes": [[["conv2d_200", 0, 0, {}]]], "name": "batch_normalization_200", "class_name": "BatchNormalization", "config": {"trainable": true, "name": "batch_normalization_200", "center": true, "moving_variance_initializer": {"class_name": "Ones", "config": {}}, "gamma_initializer": {"class_name": "Ones", "config": {}}, "beta_regularizer": null, "moving_mean_initializer": {"class_name": "Zeros", "config": {}}, "epsilon": 0.001, "scale": false, "axis": 3, "beta_initializer": {"class_name": "Zeros", "config": {}}, "momentum": 0.99, "gamma_regularizer": null, "gamma_constraint": null, "beta_constraint": null}}, {"inbound_nodes": [[["conv2d_203", 0, 0, {}]]], "name": "batch_normalization_203", "class_name": "BatchNormalization", "config": {"trainable": true, "name": "batch_normalization_203", "center": true, "moving_variance_initializer": {"class_name": "Ones", "config": {}}, "gamma_initializer": {"class_name": "Ones", "config": {}}, "beta_regularizer": null, "moving_mean_initializer": {"class_name": "Zeros", "config": {}}, "epsilon": 0.001, "scale": false, "axis": 3, "beta_initializer": {"class_name": "Zeros", "config": {}}, "momentum": 0.99, "gamma_regularizer": null, "gamma_constraint": null, "beta_constraint": null}}, {"inbound_nodes": [[["batch_normalization_200", 0, 0, {}]]], "name": "activation_200", "class_name": "Activation", "config": {"trainable": true, "name": "activation_200", "activation": "relu"}}, {"inbound_nodes": [[["batch_normalization_203", 0, 0, {}]]], "name": "activation_203", "class_name": "Activation", "config": {"trainable": true, "name": "activation_203", "activation": "relu"}}, {"inbound_nodes": [[["activation_200", 0, 0, {}], ["activation_203", 0, 0, {}]]], "name": "block8_10_mixed", "class_name": "Concatenate", "config": {"trainable": true, "axis": 3, "name": "block8_10_mixed"}}, {"inbound_nodes": [[["block8_10_mixed", 0, 0, {}]]], "name": "block8_10_conv", "class_name": "Conv2D", "config": {"trainable": true, "name": "block8_10_conv", "padding": "same", "data_format": "channels_last", "kernel_size": [1, 1], "bias_initializer": {"class_name": "Zeros", "config": {}}, "filters": 2080, "strides": [1, 1], "use_bias": true, "activity_regularizer": null, "bias_regularizer": null, "kernel_initializer": {"class_name": "VarianceScaling", "config": {"mode": "fan_avg", "distribution": "uniform", "scale": 1.0, "seed": null}}, "kernel_regularizer": null, "bias_constraint": null, "activation": "linear", "kernel_constraint": null, "dilation_rate": [1, 1]}}, {"inbound_nodes": [[["block8_9_ac", 0, 0, {}], ["block8_10_conv", 0, 0, {}]]], "name": "block8_10", "class_name": "Lambda", "config": {"trainable": true, "output_shape_type": "raw", "name": "block8_10", "output_shape": [6, 6, 2080], "function_type": "lambda", "function": ["4wIAAAAAAAAAAgAAAAMAAABTAAAAcxQAAAB8AABkAQAZfAAAZAIAGXwBABQXUykDTukAAAAA6QEA\nAACpACkC2gZpbnB1dHPaBXNjYWxlcgMAAAByAwAAAPpqL2hvbWUvbXNoYWlraDIvYW5hY29uZGEz\nL2VudnMvdGYtZ3B1L2xpYi9weXRob24zLjUvc2l0ZS1wYWNrYWdlcy9rZXJhc19hcHBsaWNhdGlv\nbnMvaW5jZXB0aW9uX3Jlc25ldF92Mi5wedoIPGxhbWJkYT6qAAAA8wAAAAA=\n", null, null], "arguments": {"scale": 1.0}}}, {"inbound_nodes": [[["block8_10", 0, 0, {}]]], "name": "conv_7b", "class_name": "Conv2D", "config": {"trainable": true, "name": "conv_7b", "padding": "same", "data_format": "channels_last", "kernel_size": [1, 1], "bias_initializer": {"class_name": "Zeros", "config": {}}, "filters": 1536, "strides": [1, 1], "use_bias": false, "activity_regularizer": null, "bias_regularizer": null, "kernel_initializer": {"class_name": "VarianceScaling", "config": {"mode": "fan_avg", "distribution": "uniform", "scale": 1.0, "seed": null}}, "kernel_regularizer": null, "bias_constraint": null, "activation": "linear", "kernel_constraint": null, "dilation_rate": [1, 1]}}, {"inbound_nodes": [[["conv_7b", 0, 0, {}]]], "name": "conv_7b_bn", "class_name": "BatchNormalization", "config": {"trainable": true, "name": "conv_7b_bn", "center": true, "moving_variance_initializer": {"class_name": "Ones", "config": {}}, "gamma_initializer": {"class_name": "Ones", "config": {}}, "beta_regularizer": null, "moving_mean_initializer": {"class_name": "Zeros", "config": {}}, "epsilon": 0.001, "scale": false, "axis": 3, "beta_initializer": {"class_name": "Zeros", "config": {}}, "momentum": 0.99, "gamma_regularizer": null, "gamma_constraint": null, "beta_constraint": null}}, {"inbound_nodes": [[["conv_7b_bn", 0, 0, {}]]], "name": "conv_7b_ac", "class_name": "Activation", "config": {"trainable": true, "name": "conv_7b_ac", "activation": "relu"}}], "input_layers": [["input_1", 0, 0]]}}, {"inbound_nodes": [], "name": "words_input", "class_name": "InputLayer", "config": {"batch_input_shape": [null, 193], "dtype": "float32", "sparse": false, "name": "words_input"}}, {"inbound_nodes": [[["inception_resnet_v2", 1, 0, {}]]], "name": "dropout_1", "class_name": "Dropout", "config": {"trainable": true, "rate": 0.1, "name": "dropout_1", "noise_shape": null, "seed": null}}, {"inbound_nodes": [[["words_input", 0, 0, {}]]], "name": "textModel", "class_name": "Model", "config": {"output_layers": [["concatenate_1", 0, 0]], "name": "textModel", "layers": [{"inbound_nodes": [], "name": "words_input", "class_name": "InputLayer", "config": {"batch_input_shape": [null, 193], "dtype": "float32", "sparse": false, "name": "words_input"}}, {"inbound_nodes": [[["words_input", 0, 0, {}]]], "name": "w2v_emb", "class_name": "Embedding", "config": {"trainable": true, "batch_input_shape": [null, null], "name": "w2v_emb", "output_dim": 300, "embeddings_constraint": null, "dtype": "float32", "input_dim": 1943, "activity_regularizer": null, "input_length": null, "embeddings_initializer": {"class_name": "RandomUniform", "config": {"maxval": 0.05, "seed": null, "minval": -0.05}}, "embeddings_regularizer": null, "mask_zero": false}}, {"inbound_nodes": [[["w2v_emb", 0, 0, {}]]], "name": "conv1d_1", "class_name": "Conv1D", "config": {"trainable": true, "name": "conv1d_1", "padding": "same", "data_format": "channels_last", "kernel_size": [3], "bias_initializer": {"class_name": "Zeros", "config": {}}, "filters": 512, "strides": [1], "use_bias": true, "activity_regularizer": null, "bias_regularizer": null, "kernel_initializer": {"class_name": "VarianceScaling", "config": {"mode": "fan_avg", "distribution": "uniform", "scale": 1.0, "seed": null}}, "kernel_regularizer": null, "bias_constraint": null, "activation": "relu", "kernel_constraint": null, "dilation_rate": [1]}}, {"inbound_nodes": [[["conv1d_1", 0, 0, {}]]], "name": "batch_normalization_204", "class_name": "BatchNormalization", "config": {"trainable": true, "name": "batch_normalization_204", "center": true, "moving_variance_initializer": {"class_name": "Ones", "config": {}}, "gamma_initializer": {"class_name": "Ones", "config": {}}, "beta_regularizer": null, "moving_mean_initializer": {"class_name": "Zeros", "config": {}}, "epsilon": 0.001, "scale": true, "axis": -1, "beta_initializer": {"class_name": "Zeros", "config": {}}, "momentum": 0.99, "gamma_regularizer": null, "gamma_constraint": null, "beta_constraint": null}}, {"inbound_nodes": [[["batch_normalization_204", 0, 0, {}]]], "name": "self_attention_1", "class_name": "SelfAttention", "config": {"trainable": true, "name": "self_attention_1"}}, {"inbound_nodes": [[["batch_normalization_204", 0, 0, {}]]], "name": "self_attention_2", "class_name": "SelfAttention", "config": {"trainable": true, "name": "self_attention_2"}}, {"inbound_nodes": [[["batch_normalization_204", 0, 0, {}]]], "name": "self_attention_3", "class_name": "SelfAttention", "config": {"trainable": true, "name": "self_attention_3"}}, {"inbound_nodes": [[["batch_normalization_204", 0, 0, {}]]], "name": "self_attention_4", "class_name": "SelfAttention", "config": {"trainable": true, "name": "self_attention_4"}}, {"inbound_nodes": [[["self_attention_1", 0, 0, {}], ["self_attention_2", 0, 0, {}], ["self_attention_3", 0, 0, {}], ["self_attention_4", 0, 0, {}]]], "name": "add_1", "class_name": "Add", "config": {"trainable": true, "name": "add_1"}}, {"inbound_nodes": [[["add_1", 0, 0, {}]]], "name": "batch_normalization_205", "class_name": "BatchNormalization", "config": {"trainable": true, "name": "batch_normalization_205", "center": true, "moving_variance_initializer": {"class_name": "Ones", "config": {}}, "gamma_initializer": {"class_name": "Ones", "config": {}}, "beta_regularizer": null, "moving_mean_initializer": {"class_name": "Zeros", "config": {}}, "epsilon": 0.001, "scale": true, "axis": -1, "beta_initializer": {"class_name": "Zeros", "config": {}}, "momentum": 0.99, "gamma_regularizer": null, "gamma_constraint": null, "beta_constraint": null}}, {"inbound_nodes": [[["batch_normalization_205", 0, 0, {}]]], "name": "self_attention_5", "class_name": "SelfAttention", "config": {"trainable": true, "name": "self_attention_5"}}, {"inbound_nodes": [[["batch_normalization_205", 0, 0, {}]]], "name": "self_attention_6", "class_name": "SelfAttention", "config": {"trainable": true, "name": "self_attention_6"}}, {"inbound_nodes": [[["batch_normalization_205", 0, 0, {}]]], "name": "self_attention_7", "class_name": "SelfAttention", "config": {"trainable": true, "name": "self_attention_7"}}, {"inbound_nodes": [[["batch_normalization_205", 0, 0, {}]]], "name": "self_attention_8", "class_name": "SelfAttention", "config": {"trainable": true, "name": "self_attention_8"}}, {"inbound_nodes": [[["self_attention_5", 0, 0, {}], ["self_attention_6", 0, 0, {}], ["self_attention_7", 0, 0, {}], ["self_attention_8", 0, 0, {}]]], "name": "add_2", "class_name": "Add", "config": {"trainable": true, "name": "add_2"}}, {"inbound_nodes": [[["add_2", 0, 0, {}]]], "name": "batch_normalization_206", "class_name": "BatchNormalization", "config": {"trainable": true, "name": "batch_normalization_206", "center": true, "moving_variance_initializer": {"class_name": "Ones", "config": {}}, "gamma_initializer": {"class_name": "Ones", "config": {}}, "beta_regularizer": null, "moving_mean_initializer": {"class_name": "Zeros", "config": {}}, "epsilon": 0.001, "scale": true, "axis": -1, "beta_initializer": {"class_name": "Zeros", "config": {}}, "momentum": 0.99, "gamma_regularizer": null, "gamma_constraint": null, "beta_constraint": null}}, {"inbound_nodes": [[["batch_normalization_206", 0, 0, {}]]], "name": "self_attention_9", "class_name": "SelfAttention", "config": {"trainable": true, "name": "self_attention_9"}}, {"inbound_nodes": [[["batch_normalization_206", 0, 0, {}]]], "name": "self_attention_10", "class_name": "SelfAttention", "config": {"trainable": true, "name": "self_attention_10"}}, {"inbound_nodes": [[["batch_normalization_206", 0, 0, {}]]], "name": "self_attention_11", "class_name": "SelfAttention", "config": {"trainable": true, "name": "self_attention_11"}}, {"inbound_nodes": [[["batch_normalization_206", 0, 0, {}]]], "name": "self_attention_12", "class_name": "SelfAttention", "config": {"trainable": true, "name": "self_attention_12"}}, {"inbound_nodes": [[["self_attention_9", 0, 0, {}], ["self_attention_10", 0, 0, {}], ["self_attention_11", 0, 0, {}], ["self_attention_12", 0, 0, {}]]], "name": "add_3", "class_name": "Add", "config": {"trainable": true, "name": "add_3"}}, {"inbound_nodes": [[["add_3", 0, 0, {}]]], "name": "batch_normalization_207", "class_name": "BatchNormalization", "config": {"trainable": true, "name": "batch_normalization_207", "center": true, "moving_variance_initializer": {"class_name": "Ones", "config": {}}, "gamma_initializer": {"class_name": "Ones", "config": {}}, "beta_regularizer": null, "moving_mean_initializer": {"class_name": "Zeros", "config": {}}, "epsilon": 0.001, "scale": true, "axis": -1, "beta_initializer": {"class_name": "Zeros", "config": {}}, "momentum": 0.99, "gamma_regularizer": null, "gamma_constraint": null, "beta_constraint": null}}, {"inbound_nodes": [[["batch_normalization_207", 0, 0, {}]]], "name": "sa_gap", "class_name": "GlobalAveragePooling1D", "config": {"trainable": true, "name": "sa_gap"}}, {"inbound_nodes": [[["sa_gap", 0, 0, {}], ["batch_normalization_204", 0, 0, {}]]], "name": "attention_1", "class_name": "Attention", "config": {"trainable": true, "name": "attention_1"}}, {"inbound_nodes": [[["attention_1", 0, 0, {}]]], "name": "a_gap", "class_name": "Lambda", "config": {"trainable": true, "output_shape_type": "raw", "name": "a_gap", "output_shape": null, "function_type": "lambda", "function": ["4wEAAAAAAAAAAQAAAAQAAABTAAAAcxYAAAB0AABqAQBqAgB8AABkAQBkAgCDAQFTKQNO2gRheGlz\n6QEAAAApA9oBS9oCdGbaB3NxdWVlemUpAdoBeKkAcgcAAAD6HzxpcHl0aG9uLWlucHV0LTIyLThh\nZWViOWZhMTNhMj7aCDxsYW1iZGE+GwAAAHMAAAAA\n", null, null], "arguments": {}}}, {"inbound_nodes": [[["a_gap", 0, 0, {}], ["sa_gap", 0, 0, {}]]], "name": "concatenate_1", "class_name": "Concatenate", "config": {"trainable": true, "axis": -1, "name": "concatenate_1"}}], "input_layers": [["words_input", 0, 0]]}}, {"inbound_nodes": [[["dropout_1", 0, 0, {}]]], "name": "flatten_1", "class_name": "Flatten", "config": {"trainable": true, "data_format": "channels_last", "name": "flatten_1"}}, {"inbound_nodes": [[["textModel", 1, 0, {}]]], "name": "dropout_2", "class_name": "Dropout", "config": {"trainable": true, "rate": 0.1, "name": "dropout_2", "noise_shape": null, "seed": null}}, {"inbound_nodes": [[["flatten_1", 0, 0, {}]]], "name": "dense_1", "class_name": "Dense", "config": {"trainable": true, "name": "dense_1", "activation": "relu", "bias_initializer": {"class_name": "Zeros", "config": {}}, "use_bias": true, "activity_regularizer": null, "bias_regularizer": null, "kernel_initializer": {"class_name": "VarianceScaling", "config": {"distribution": "uniform", "seed": null, "scale": 1.0, "mode": "fan_avg"}}, "kernel_regularizer": null, "bias_constraint": null, "kernel_constraint": null, "units": 512}}, {"inbound_nodes": [[["dropout_2", 0, 0, {}]]], "name": "dense_2", "class_name": "Dense", "config": {"trainable": true, "name": "dense_2", "activation": "relu", "bias_initializer": {"class_name": "Zeros", "config": {}}, "use_bias": true, "activity_regularizer": null, "bias_regularizer": null, "kernel_initializer": {"class_name": "VarianceScaling", "config": {"distribution": "uniform", "seed": null, "scale": 1.0, "mode": "fan_avg"}}, "kernel_regularizer": null, "bias_constraint": null, "kernel_constraint": null, "units": 512}}, {"inbound_nodes": [[["dense_1", 0, 0, {}], ["dense_2", 0, 0, {}]]], "name": "concatenate_2", "class_name": "Concatenate", "config": {"trainable": true, "axis": -1, "name": "concatenate_2"}}, {"inbound_nodes": [[["concatenate_2", 0, 0, {}]]], "name": "dense_3", "class_name": "Dense", "config": {"trainable": true, "name": "dense_3", "activation": "relu", "bias_initializer": {"class_name": "Zeros", "config": {}}, "use_bias": true, "activity_regularizer": null, "bias_regularizer": null, "kernel_initializer": {"class_name": "VarianceScaling", "config": {"distribution": "uniform", "seed": null, "scale": 1.0, "mode": "fan_avg"}}, "kernel_regularizer": null, "bias_constraint": null, "kernel_constraint": null, "units": 512}}, {"inbound_nodes": [[["dense_3", 0, 0, {}]]], "name": "target_word", "class_name": "Dense", "config": {"trainable": true, "name": "target_word", "activation": "softmax", "bias_initializer": {"class_name": "Zeros", "config": {}}, "use_bias": true, "activity_regularizer": null, "bias_regularizer": null, "kernel_initializer": {"class_name": "VarianceScaling", "config": {"distribution": "uniform", "seed": null, "scale": 1.0, "mode": "fan_avg"}}, "kernel_regularizer": null, "bias_constraint": null, "kernel_constraint": null, "units": 1943}}], "input_layers": [["image_input", 0, 0], ["words_input", 0, 0]]}}